dropout/NN_ensemble/histories/1_d00_valid_best_params.pt (torch_old, 452453 bytes, 103 tensors)

embedding.weight f4 [46, 98]
000000 62 2b 17 bd ac 8a 33 3e 4a ad 5e 3d fa c5 f2 3e
       -0.036906607 0.17533368 0.05436448 0.4741667
000010 62 4d d9 3e de 87 e0 3e 5f f7 56 3e 15 58 94 3e
       0.4244185 0.43853658 0.20992802 0.2897345
000020 e2 ab 08 3f 36 f8 84 bd 6a ff 9a bc ae db 16 bf
       0.5338727 -0.06492655 -0.018920619 -0.58928955
000030 ce d8 57 bf df 74 41 be 0c 60 63 bd 6f f9 a0 be
       -0.8431519 -0.18892239 -0.05551152 -0.31440303
000040 cd ec a7 bd 83 ca 19 3e f8 ae d9 3c 21 35 77 3e
       -0.08199463 0.15018658 0.02657269 0.24141361
000050 6a 34 c9 be fa 36 2f 3e 2f f4 b5 be 4b 21 7b 3e
       -0.392978 0.17110816 -0.3553786 0.24524419
000060 c6 59 7a bc 22 82 04 bd d0 d2 2b bf ee 8a a2 3e
       -0.015280193 -0.032350667 -0.6711855 0.3174662
000070 8a 76 60 3e 84 27 94 3e d9 4e 6d be 6d 0a 2d bd
       0.21920219 0.28936398 -0.23174609 -0.04224627
000080 8a dd ab bd 9b 29 81 be a0 71 24 be 18 38 bb 3d
       -0.083918646 -0.25227055 -0.1605897 0.091415584
000090 b6 54 23 3e 99 c9 51 be 9b 84 07 bd f6 4d 46 bd
       0.15950283 -0.2048706 -0.033085447 -0.048414193
0000a0 80 c7 eb be e0 81 35 3f df 11 8b 3e 53 1f 48 be
       -0.46050644 0.709013 0.27162072 -0.19543199
0000b0 31 63 94 bd 89 8f 87 3e 80 33 32 3e 3b 6f ca 3d
       -0.07245482 0.26476696 0.17402458 0.09884497
0000c0 ac c0 c6 bd 1a 93 83 3e 52 ad be bd ff 5e f3 3d
       -0.09704718 0.25698167 -0.09310402 0.118833534
0000d0 cb 1f 94 3e 04 f8 09 3f 38 87 15 bd 46 28 a7 3c
       0.28930506 0.53894067 -0.036505908 0.020404946
0000e0 6b c9 21 bf a0 5f ae be 49 f4 35 bf 54 17 03 3f
       -0.63197964 -0.3405733 -0.71075875 0.5120747
0000f0 60 8a ec bc 1f 6a 2c 3e ef 6f 1b 3e 33 ad ac be
       -0.028874576 0.16837357 0.15179418 -0.3372589
000100 cb 13 d4 be b5 0e 9b bd 14 cc 74 3d b9 ef 60 bd
       -0.4142135 -0.075711645 0.059764937 -0.054916117
000110 a0 34 b8 3b 00 1f f0 3c df 36 85 be a0 fd 22 3c
       0.0056215078 0.029311657 -0.26018426 0.009948164
000120 cd 50 91 3e 46 e4 37 3d e6 4a 0a be 90 56 45 be
       0.2838196 0.044895433 -0.13505134 -0.19271302
000130 55 f3 73 bd 64 56 52 3e 85 a2 b0 3e 01 ee 00 bf
       -0.05955823 0.20540768 0.34498993 -0.50363165
000140 14 d4 96 3d ca d0 95 3d ed 64 72 3e 36 04 28 3e
       0.073646694 0.07315214 0.23671313 0.16407856
000150 c5 ad 71 bd c3 3b 7f be ea 34 20 be 27 c0 cc 3b
       -0.05900361 -0.24925141 -0.15645185 0.0062484923
000160 57 fd d6 bd f0 b5 cd 3e 0a 92 3f bf dc e8 2e 3e
       -0.104975395 0.4017787 -0.7483221 0.17081016
000170 23 fd 20 bf fa 11 24 be a2 f9 53 bf 51 d1 d4 3e
       -0.62886256 -0.16022483 -0.82802784 0.41565946
000180 59 1f 67 3f fc cd bc 3e 08 7b 15 bd 39 84 a7 be
       0.9028221 0.36875904 -0.036494285 -0.32718065
000190 08 89 96 3e 59 7d e6 3d 0b 98 43 3f 6f 51 17 bf
       0.29401422 0.11254377 0.76403874 -0.5910863
0001a0 07 29 4d 3e ac 37 01 3f c6 9f d1 3e a6 29 15 be
       0.20035182 0.50475574 0.4094221 -0.14566669
0001b0 e5 85 21 bf 2f ee 0e bf ce a9 b2 be a4 ca fe bd
       -0.6309493 -0.5583219 -0.34895176 -0.124409944
0001c0 56 91 18 3e db 44 c7 3e 29 88 7d bd d9 44 57 3e
       0.14899191 0.3891972 -0.06189743 0.21022357
0001d0 00 e2 29 bc 3e 12 fa bd 04 8a 8b be 38 52 19 3f
       -0.010368824 -0.12210511 -0.27253735 0.5989108
0001e0 ea 9a 17 be 8f d8 4b bb f7 9d a8 be 20 8a 63 3d
       -0.14805189 -0.003110442 -0.32933018 0.05555165
0001f0 74 04 c0 bf 40 b3 f5 3d 9a d6 a4 3e 3f a2 0c bc
       -1.5001359 0.1199708 0.32194978 -0.008583604
000200 d2 27 02 bd 84 d6 e5 bd 40 fc 76 bb 1b d9 a7 3d
       -0.031776257 -0.11222556 -0.0037686974 0.081957065
000210 ab 0b f2 be de bb 83 bd da be 8b bd ac 7a e9 be
       -0.47274527 -0.06432317 -0.068235114 -0.45601404
000220 4e 05 8e bd eb db 97 3d 81 db 01 3e 8a ab a4 bd
       -0.069346055 0.07414993 0.1268139 -0.08040531
000230 42 47 98 3d e7 06 08 3e ec 3f 98 3d 1c 06 35 be
       0.07435466 0.13283883 0.07434067 -0.17678112
000240 13 48 ba be 4d e9 4a 3e 7a 9b 84 3b 68 64 95 3e
       -0.36383113 0.1981556 0.0040468546 0.29178166
000250 2b 11 71 3d 0b 0f 97 3d 13 59 0f 3f e7 57 8a 3e
       0.058854263 0.07375916 0.5599529 0.2702019
000260 7f be f1 bd 73 9a 3d be e5 bb c7 be 44 35 48 bf
       -0.11803912 -0.18515949 -0.3901054 -0.78206277
000270 c1 1a cf bf 50 c0 69 be de a6 56 3e a3 69 b0 3d
       -1.618004 -0.22827268 0.20962092 0.086138986
000280 ae 5e 5c bd 78 65 5b be 18 8c 88 be 5e c9 94 bd
       -0.05380123 -0.21425426 -0.26669383 -0.0726497
000290 78 80 69 3d 48 de 15 3d 12 80 18 bd 84 a9 8e 3c
       0.057007283 0.036588937 -0.037231512 0.017414816
0002a0 23 fe d9 3d 28 73 bc bd 8e 4f b8 be f9 64 2c be
       0.10644176 -0.09201652 -0.35998195 -0.16835393
0002b0 cb 16 a9 3c 11 ed 1f 3e 62 3a 84 3d d6 16 51 3e
       0.020640751 0.15617777 0.06456448 0.20418867
0002c0 9b d0 29 be a4 95 4e 3e 21 b2 87 be e8 cf d0 3c
       -0.16583483 0.20174271 -0.2650309 0.025489762
0002d0 60 81 e6 bd 5d 54 60 be 96 14 0f be 6e cd b7 3e
       -0.11255145 -0.21907182 -0.13972697 0.35898918
0002e0 54 4a b3 3c 5e 5f a2 be 41 2d dc 3d 43 01 8a 3f
       0.021886028 -0.31713384 0.10750819 1.0781635
0002f0 9a b3 c1 bf 8d be 91 be c6 5e 6d 3e fc b7 4a 3f
       -1.5132935 -0.2846569 0.23180684 0.7918699
000300 48 e9 30 bf 2a d5 e3 3d 67 2c 56 bf ad 32 ae bc
       -0.6910596 0.11124642 -0.836615 -0.021264398
000310 88 32 b9 bd dd 13 40 bd fc 25 3c be b1 d0 20 bf
       -0.09042841 -0.046893943 -0.18373865 -0.6281844
000320 d0 bc 15 bf 69 5f 07 bf 8e 0f ab be d9 ab 5c 3e
       -0.5849123 -0.5287996 -0.33410305 0.2154993
000330 28 b4 53 3d bc 56 79 3e e6 7b 2c 3d a1 58 dc bd
       0.051685482 0.24349493 0.042110346 -0.10759092
000340 2a e0 17 3f 76 d5 28 be e2 78 47 3e 60 fb 6d 3e
       0.5932642 -0.16487679 0.19479707 0.23240423
000350 7c fc 3e be 7e 8b 76 be d0 d2 f3 3c 2e 68 2c bc
       -0.18651003 -0.2407665 0.02976361 -0.010522885
000360 1c 22 c2 3d 57 7a 81 be 6b 55 e3 3c f4 e1 1b 3d
       0.09479162 -0.2528865 0.027750691 0.038057283
000370 21 e0 1a 3e 90 24 67 bc 3e 3f 1b bf 4a 09 59 be
       0.15124561 -0.014107838 -0.60643375 -0.2119495
000380 1f 3a 6e be 60 f5 cd be 68 72 d7 3e 6a 32 c7 3e
       -0.23264359 -0.4022627 0.42079473 0.3890565
000390 0f 47 af bd 42 30 37 3c 13 4a 49 be 8a 90 bb 3d
       -0.08558475 0.011180939 -0.19657163 0.09158428
0003a0 9b a5 9f 3d 61 c9 0a be b2 85 8a 3d e4 ff bb 3d
       0.077952586 -0.13553382 0.067637816 0.09179667
0003b0 5a a9 3b 3e 7b d1 fe be fe 8d 85 be b3 9b d8 bd
       0.18326321 -0.49769196 -0.26084894 -0.10576572
0003c0 e2 7e b7 bd 3f db 04 be d2 ba 4f 3d df 12 29 be
       -0.08959748 -0.12974261 0.050715275 -0.16511105
0003d0 79 07 25 be 06 fb 0d bd c7 ec 80 be c8 10 ae be
       -0.16116132 -0.034663223 -0.25180647 -0.33997178
0003e0 df ca 62 3e 8d e8 7e 3d 3f d5 4f 3e 20 e4 a2 3d
       0.22147702 0.062233496 0.2029619 0.07953668
0003f0 10 b2 63 bd 7b 4d 99 3e 77 23 07 bf 7d 18 64 3e
       -0.055589736 0.29941925 -0.5278849 0.22274967

embedding.bias f4 [46]
000000 e7 6a c6 be 77 ad 6f be 97 d9 3c be 41 80 68 bd
       -0.38753435 -0.23406015 -0.18442379 -0.056762937
000010 56 d0 ba 3c 56 6b 7e be 6a 09 82 be 43 54 c6 be
       0.02280442 -0.24845633 -0.25397807 -0.38736162
000020 58 b2 e3 be 9f a2 d4 be cd a8 f2 be 7b 89 5b bd
       -0.44472003 -0.4153032 -0.4739441 -0.05359791
000030 e6 f5 4b be bf 73 fa be ac 4b 11 be cd a5 09 bf
       -0.19918022 -0.48916432 -0.14189023 -0.53768617
000040 4e dc a0 be cc 73 e7 be fc 8a ba bd 0d 2d d0 be
       -0.3141808 -0.45205534 -0.091085404 -0.4065937
000050 9d fe bb bc b9 3a 7c be 11 fc 8b be 05 a3 94 be
       -0.022948558 -0.24631776 -0.2734075 -0.29030624
000060 bf 1c e5 be cc d7 9f be 8b 6b ac be ac 92 00 3b
       -0.44748494 -0.31219327 -0.336758 0.0019618673
000070 5c f4 81 be be 6d ae bd b8 4b 99 be 96 8e bd be
       -0.25381744 -0.085170254 -0.2994058 -0.37022847
000080 7f a9 f4 bd de 8c 75 be ed 40 57 be 89 9c 09 bf
       -0.11946391 -0.23979518 -0.21020861 -0.5375448
000090 2a 77 3d be 9e 85 0a bc 1f 33 10 bf 6e a0 b0 be
       -0.18502489 -0.008454708 -0.56328005 -0.34497398
0000a0 de 22 33 bd 31 45 02 bf 5a b4 dc be 82 c6 4e be
       -0.043734424 -0.5088683 -0.43106347 -0.20192912
0000b0 0f 93 62 3d 04 be 96 bc
       0.055316027 -0.018401153

convs.0.fc_full.weight f4 [92, 98]
000000 41 0d 28 bd 71 08 2f be a9 85 4f 3f 16 d1 0b 3e
       -0.041028265 -0.17093064 0.81063324 0.13653979
000010 b4 93 30 3e 80 b8 f1 3e 68 a8 fa 3e c0 37 90 be
       0.17243844 0.47211075 0.4895661 -0.28167534
000020 c7 6c 3f bd 48 e1 af be e1 0c 15 3f bd 8b 83 3d
       -0.046734598 -0.34351563 0.58222777 0.06423137
000030 78 1d e1 bd 99 67 77 be a1 9e 5c 3d 24 2f b7 bd
       -0.10991949 -0.24160613 0.053862218 -0.08944538
000040 66 98 3c 3f 44 a4 87 3d dc ab b2 3d 9f ee b0 3e
       0.7367004 0.06623128 0.08724186 0.34557053
000050 1e 6b 0f 3e 1c 64 4c be 71 4b 87 be 75 3a 13 3e
       0.14005706 -0.19960064 -0.26424745 0.14377768
000060 7d dd fa be 36 3d 59 bf c2 89 c1 3c 4a 57 01 bf
       -0.48997107 -0.84859025 0.023625258 -0.5052382
000070 70 98 ea be d4 f7 46 bf 4b 71 ec 3d 10 85 81 3d
       -0.45819426 -0.77721906 0.115450464 0.06324208
000080 a8 75 25 3f 74 95 1c be 34 32 5b 3d 46 62 15 bf
       0.64632654 -0.15291387 0.053514674 -0.5835308
000090 65 b7 00 be ae 10 04 3e 4d 21 3e bf 6d 75 81 be
       -0.1256996 0.12896988 -0.7426956 -0.252849
0000a0 a7 9c c6 be 65 7c 1c 3e 25 7a 94 be bc a1 87 3e
       -0.3879139 0.15281828 -0.2899944 0.2649058
0000b0 f6 b0 1a bf 1e 54 e4 bd a0 32 3c be 9b b0 8b 3e
       -0.6042627 -0.111488566 -0.18378687 0.27283177
0000c0 57 89 b1 3e e2 aa 59 3b 46 17 2b bf 04 4c 7b 3e
       0.34675094 0.0033213426 -0.6683239 0.24540716
0000d0 47 fa 5a be 67 66 8e be ca e3 92 be 3e 18 83 be
       -0.21384536 -0.27812502 -0.28689414 -0.25604433
0000e0 e1 86 a0 3e a6 23 0d 3f 5f 8f 0d be 4e ca 76 3e
       0.31352904 0.5513252 -0.13824223 0.2410061
0000f0 ca 0a 48 be 98 1b b8 bd 4d bc 12 3f 45 e3 33 be
       -0.19535366 -0.08989638 0.57318574 -0.17567165
000100 7f 22 fc bd 6e da ac be cd 59 b6 bd 66 41 f3 be
       -0.12311267 -0.337604 -0.08903847 -0.47510833
000110 a8 02 b9 be 4c 70 5e 3e bd 66 24 bf f3 1b 10 3d
       -0.3613484 0.21722525 -0.64219266 0.035182904
000120 71 9d 0d 3e 32 b9 ac bd fc 2f 93 3e e1 40 1a 3f
       0.1382959 -0.08433761 0.28747547 0.6025525
000130 53 76 2c 3f b0 14 dd bd 6a 9a 61 bf d0 f0 8c be
       0.6736805 -0.107949615 -0.8812624 -0.27527475
000140 58 df e8 bd 60 8d 51 bd 79 5e 34 be 2a b5 5c 3e
       -0.113707244 -0.051160216 -0.17614163 0.21553484
000150 d5 72 bb be f9 41 9a be 51 c8 2d bf 69 c1 2d bd
       -0.36611047 -0.30128458 -0.67883784 -0.04242078
000160 b0 17 cf 3d 5c 34 54 3f 53 6f 08 bf f0 c4 a4 3e
       0.1011194 0.82892394 -0.5329487 0.321815
000170 a8 ca 19 be 53 29 5a 3e cc 23 57 3d b2 74 9d bf
       -0.15018713 0.21304826 0.052524373 -1.2301238
000180 ed 94 e7 be 6f 93 3d 3f 1c c3 c7 3e d9 4d b2 be
       -0.4523081 0.7405309 0.39016044 -0.34825018
000190 e2 39 bf be 76 51 5f be 67 f8 43 3e e6 91 aa bd
       -0.3734885 -0.21808419 0.19137727 -0.08328609
0001a0 05 88 9b bd ef 0f 02 3f af 96 35 bf 02 59 d4 3e
       -0.07594303 0.5080556 -0.7093305 0.41474158
0001b0 63 68 95 be cb 66 0d be 39 15 e6 be 2c 53 66 3e
       -0.29181203 -0.13808744 -0.44938067 0.22492665
0001c0 13 73 62 be fa 9b 8d be 25 1d 53 3e 10 fa 6e be
       -0.2211421 -0.27658063 0.20616587 -0.23337579
0001d0 a6 e9 06 3f 50 21 0e bd 57 c7 ce 3e d6 fe b2 3e
       0.5270027 -0.034699738 0.4038646 0.3496005
0001e0 d5 c2 90 3d 4b a6 83 be cc 64 48 3e f0 02 ad 3e
       0.07068411 -0.2571281 0.19569701 0.33791304
0001f0 7b 5c ec 3d b5 fb 0a 3e e9 f1 02 3f 13 d6 2e 3e
       0.11541077 0.13572581 0.51150376 0.1707385
000200 63 ce 60 bf ef d5 74 be 46 48 ca 3c ab 5e 40 3e
       -0.8781492 -0.23909734 0.024692666 0.18786113
000210 1d c4 5d 3e bc ec ce bd 72 58 a5 3d 85 93 65 3d
       0.21656843 -0.10103747 0.0807351 0.05604889
000220 6b da 1f 3e e2 3a 14 3f 08 de 22 3e f3 74 f8 bd
       0.15610664 0.5790235 0.1590501 -0.12131681
000230 4b 51 7b 3e 9d 76 fc 3d cb 30 a5 be c2 2a 1a 3e
       0.2454273 0.12327311 -0.3226379 0.15055373
000240 90 74 e2 be fe 16 a1 be 66 64 0a 3f 11 af 81 3f
       -0.44229555 -0.31462854 0.54059446 1.0131551
000250 6f b9 34 3d 13 3e 82 bc 38 63 ac 3d 2e 79 31 bd
       0.044122156 -0.01589874 0.08417362 -0.043328457
000260 b6 42 82 3d f7 15 03 bf 15 87 7c 3f eb 56 41 bd
       0.0636038 -0.5120539 0.9864362 -0.047202032
000270 74 12 97 3e 17 8c 5f bf 27 45 fa 3e 0f af 05 3f
       0.29506266 -0.87323135 0.48880884 0.52220243
000280 3f dd 87 be e1 cd 37 3f f7 e5 59 be 51 c3 97 bd
       -0.26535985 0.7179852 -0.21279131 -0.074103005
000290 fb ad e1 be fc bf a6 3e a9 99 ab bd 54 c1 b4 3e
       -0.4407805 0.32568347 -0.08378918 0.35303748
0002a0 a7 8f 7c bd ef 65 85 3e 25 d2 59 3d f8 f4 44 3f
       -0.061660435 0.26054332 0.053178925 0.7693629
0002b0 20 f8 cb be 2a 49 a5 be 0b 31 78 be a0 a6 bb bc
       -0.39837742 -0.32282382 -0.24237458 -0.022906601
0002c0 f5 2b 6e be 76 ee bf be 4a 72 ea 3e bc 3f a5 3e
       -0.23258956 -0.3748662 0.4579032 0.32275188
0002d0 d9 02 32 3e 0a cc 7a bf f9 0b 95 3e 10 d2 4b bf
       0.17383899 -0.9796759 0.29110697 -0.79617405
0002e0 eb dd bb be 2d ec aa be 7c 33 32 bf 69 58 f7 bd
       -0.36692747 -0.33383313 -0.6960981 -0.1207741
0002f0 b4 05 7e 3e a8 46 a8 3d 59 4b b4 bd 03 b9 f7 3e
       0.24806863 0.082166016 -0.08803434 0.4838334
000300 67 e5 b2 3f 40 90 81 3f 82 66 95 bf 8f e2 87 bf
       1.3976258 1.0122147 -1.1671908 -1.0616015
000310 cb ec 80 3e a4 16 88 3e 04 8b f7 be fa 00 18 bd
       0.2518066 0.26579773 -0.48348248 -0.037110306
000320 5b 1b b0 be 87 3c 32 3d a5 2e 47 3e 48 2a 9f 3b
       -0.3439587 0.043514755 0.19451387 0.0048573352
000330 c7 32 8e bb f4 63 92 bd c9 e7 ec 3d 0b 8f 3b 3e
       -0.004339549 -0.07147971 0.11567647 0.18316285
000340 b1 6a 64 bc 8f 54 19 be 1b e5 6c 3d b0 04 33 be
       -0.013941453 -0.14973663 0.05783568 -0.17482257
000350 b0 71 bc 3d ae 3a df bd a9 ab 87 3d 85 91 be 3d
       0.09201372 -0.10899864 0.066245385 0.093050994
000360 65 a4 88 3d 99 f8 e8 3d 94 65 42 be f1 29 ab 3d
       0.06671981 0.11375541 -0.18984061 0.08357609
000370 28 fa 1c be 2e 71 88 bc 4d a4 7a bd 7b 1f de 3c
       -0.15329802 -0.01665553 -0.061191846 0.02711462
000380 1b 5a fc 3d 31 a5 1f 3e 22 e0 c3 3d b9 fc ce bd
       0.12321874 0.1559036 0.09564234 -0.10106797
000390 66 db 39 3d 30 fd 30 3d 78 7c c5 bd 39 77 b6 bd
       0.04537525 0.04321021 -0.09642881 -0.08909459
0003a0 a5 83 1a 3e 17 19 3f be d3 10 a3 bc 3e ce eb bd
       0.15089281 -0.18661915 -0.019905483 -0.11513947
0003b0 9b 5b 3a be a9 17 17 be d3 43 36 bd 0a 1f 1f 3e
       -0.18199007 -0.1475512 -0.044498276 0.15539184
0003c0 23 23 9b be 06 16 37 3b aa 41 04 be d0 3d 3e 3d
       -0.30300245 0.002793671 -0.12915674 0.046445668
0003d0 8b 93 8a 3d fe cd d4 3e ec 8e c7 3a 7d 12 a2 3d
       0.06766423 0.4156341 0.0015225089 0.079136826
0003e0 74 09 e0 bb 01 12 85 bd 66 30 e5 bd 6e b1 55 3d
       -0.0068370644 -0.064975746 -0.11190872 0.052171163
0003f0 1d 3a 25 3d 75 50 d0 3d f8 32 ce 3c 35 97 30 be
       0.040338624 0.10171596 0.025170788 -0.17245181

convs.0.fc_full.bias f4 [92]
000000 7a 50 90 bd d4 98 1a 3d 29 3b 4c 3c f0 86 71 3e
       -0.070466 0.037743405 0.012465277 0.23586631
000010 14 f9 9d bc ee 84 f3 39 d7 e9 18 bd c2 1b 1b be
       -0.019283809 0.00046447612 -0.037332382 -0.15147308
000020 40 28 d9 3b 2d e8 e5 3d 55 6e 22 3d 03 4e 2c 3d
       0.0066271126 0.11225925 0.039656002 0.042066585
000030 0b eb 94 bd d7 cc ea 3c ed 11 33 bd f4 4c 05 be
       -0.072713934 0.028662128 -0.043718267 -0.13017637
000040 f4 a6 82 bd 39 ce 93 bc ea f5 51 3e 2b fa 8b bd
       -0.063795 -0.01804267 0.20503965 -0.06834825
000050 38 aa b6 bc fb 20 ce 3c 43 fa f0 3d cc 3d a7 bc
       -0.022297964 0.02516221 0.11766484 -0.02041521
000060 ca 0a 72 3d 77 a6 83 3d f3 02 1a 3d 83 fa ff bd
       0.05909232 0.06428235 0.03760047 -0.12498953
000070 c0 33 e5 3d f1 75 a8 bd d1 55 12 3e 81 de 17 3e
       0.11191511 -0.082256205 0.14290549 0.14830972
000080 8c e5 26 bd 47 b7 3c 3d 26 95 be bd 43 a3 12 bd
       -0.040746257 0.046073224 -0.093057916 -0.03580023
000090 d2 ea d2 bc ab f6 3b 3d 85 34 90 3c 58 99 06 bd
       -0.025746737 0.045889538 0.017603168 -0.032861084
0000a0 c3 d9 8f 3c 8d f3 d8 3d 75 9a a8 3d 79 40 3e 3e
       0.017559892 0.105933286 0.08232585 0.18579282
0000b0 b4 5e 2d 3e 5b 7e 01 bd 1e da 8d 3d 74 65 a1 bd
       0.16930658 -0.031614643 0.06926368 -0.07880679
0000c0 4d f7 fd bd 4a 05 c3 bd 1a 61 d9 3d 27 3e 13 3d
       -0.124006845 -0.09522493 0.10614224 0.035947945
0000d0 94 c6 8f 3c 4f a2 7b 3c 24 d0 d9 bd d7 a7 c6 3d
       0.017550744 0.015358522 -0.10635403 0.09699982
0000e0 77 23 31 3d d4 d0 76 bc f4 a2 c7 ba 47 cf c0 3d
       0.043246713 -0.015064437 -0.0015231059 0.09414535
0000f0 6d ba 57 3d 93 a2 68 3a 53 61 c0 3c 9b 81 83 3d
       0.052668024 0.0008874323 0.023483908 0.06421205
000100 23 47 17 3e 54 f2 82 3d c6 14 56 bd 57 e5 f5 3d
       0.1477323 0.06393877 -0.052265905 0.12006634
000110 83 32 c0 bb ca 86 9a 3d d8 76 78 bd 76 c5 b5 3d
       -0.0058653965 0.0754524 -0.060660213 0.08875553
000120 79 71 13 bd d7 04 17 3e b3 89 ab bd 4f 7f a2 bd
       -0.035996888 0.1474794 -0.083758734 -0.079344384
000130 1f 1e 83 bd 92 c9 b2 bd 76 de 8c 3d 0e d5 3f bd
       -0.064022295 -0.08729853 0.068783686 -0.046834044
000140 3d 39 68 bd bc 6f 6e bc 8a d1 0f 3e 5e 1f c2 3d
       -0.05669521 -0.014553007 0.14044777 0.09478639
000150 57 a0 0d bc 25 34 b1 bd 37 8e 0a bd 54 e5 a0 3d
       -0.008644185 -0.08652524 -0.033827033 0.07856241
000160 34 30 4f 3d 99 4c 82 bd 00 15 c1 3d af 78 c8 bc
       0.05058308 -0.06362266 0.094278336 -0.024471609

convs.0.bn1.weight f4 [92]
000000 10 5c 63 40 ba 7d ca 3f 19 c9 1c 40 0a 23 0a 40
       3.552494 1.5819619 2.449774 2.1583886
000010 62 b3 aa 3f ff b5 0a 40 1a 39 05 40 30 87 2c 40
       1.3335993 2.1673582 2.0816102 2.6957512
000020 96 28 11 40 4f bb 1c 40 41 11 cf 3f 19 0b 2d 40
       2.2681022 2.4489324 1.617714 2.7038023
000030 ee 40 f4 3f 17 a9 c1 3f 0d 03 d4 3f f5 f4 95 3f
       1.9082315 1.5129727 1.6563431 1.171538
000040 0a 72 e6 3f ad c7 99 3f 6b ad 6c 3f 44 d9 00 40
       1.8003552 1.2014061 0.92452115 2.0132608
000050 be 75 02 40 7f 4c 0d 40 4c 32 c4 3f 5d 98 00 40
       2.0384364 2.207794 1.5327849 2.0092995
000060 03 e3 ba 3f 17 07 53 40 db cd a4 3f 17 f7 d0 3f
       1.4600528 3.2973077 1.2875322 1.6325406
000070 d2 be 03 40 12 83 0d 40 12 69 0c 40 25 76 53 40
       2.0585217 2.211125 2.193913 3.304086
000080 31 13 54 40 d0 80 4e 40 57 47 f8 3f a6 52 66 3f
       3.3136714 3.226612 1.9396771 0.8996986
000090 cf 60 d7 3f 4d 12 b5 3f 08 e6 07 40 16 59 88 3f
       1.6826419 1.414621 2.123415 1.0652187
0000a0 c8 a3 df 3f 44 16 59 3f 4e 47 bd 3f c7 2b b8 3f
       1.7471857 0.847996 1.4787385 1.438836
0000b0 e5 64 03 40 82 7a f9 3f a6 ec 43 3f dd 63 eb 3f
       2.053033 1.9490511 0.7653297 1.8389851
0000c0 90 66 41 3f 95 28 3f 40 58 43 a9 3f d9 b4 e3 3f
       0.7554712 2.986852 1.3223677 1.7789565
0000d0 4e 20 ad 3f ef 02 89 3f b7 ff a0 3f c7 e7 4c 3f
       1.3525484 1.070402 1.2578038 0.80041164
0000e0 5c 35 c1 3f 9f ff b4 3f 1d 41 55 3f f3 ec bd 3f
       1.5094409 1.4140509 0.8330248 1.4837936
0000f0 58 de 08 40 e9 fd f9 3f 3b 3c cb 3f 59 3d ad 3f
       2.1385708 1.9530612 1.5877756 1.3534347
000100 8f d0 47 3f 35 aa 20 40 94 6e 9c 3f 91 53 0e 40
       0.7805261 2.5103886 1.2221246 2.2238505
000110 97 2e fd 3f b8 86 4f 3f 49 a2 99 3f 99 87 91 3f
       1.9779843 0.8106494 1.200265 1.1369506
000120 f5 82 84 3f 22 6c 19 3f d3 77 d3 3f dc bb 04 40
       1.0352465 0.5993062 1.6520942 2.073966
000130 3a 73 13 40 64 52 3d 3f 31 e4 a8 3f 01 29 a9 3f
       2.3039079 0.73953843 1.3194638 1.3215638
000140 f2 f2 0b 40 37 a0 d9 3f 3b b7 9e 3f 7b 46 61 3f
       2.1867032 1.7002019 1.2399668 0.8799817
000150 45 19 cc 3f 36 5b 0e 40 ae 57 be 3f 3a 5b e0 3f
       1.5945212 2.224317 1.4870508 1.752784
000160 96 87 9f 3f 71 32 46 3f 03 e5 62 3f ac 6e 14 40
       1.2463253 0.7742072 0.88630694 2.3192549

convs.0.bn1.bias f4 [92]
000000 b9 14 c2 3e 5b 11 12 3c 33 a6 86 bf c8 a7 94 be
       0.37906435 0.008915271 -1.051947 -0.29034257
000010 3a 19 54 be 1a 30 ad 3e 9d 5b 15 bd 2c bf 8d 3e
       -0.20712748 0.3382576 -0.036464322 0.27684915
000020 f7 a1 14 3d f0 36 4f bf 0f f3 a1 be fe 7d c5 3e
       0.036287274 -0.809432 -0.31630751 0.38572687
000030 b4 fa 41 3d 9c f2 f8 3d 0f 7d 28 3f c1 14 7e be
       0.04735823 0.12155649 0.65815824 -0.24812604
000040 09 05 ac 3d 70 57 59 3e 88 31 bd bd ec 56 0a be
       0.08399398 0.21224761 -0.09237963 -0.1350972
000050 38 0a 05 bb 7b 45 91 3e d0 17 e9 3d 79 9d c1 bd
       -0.002030028 0.28373322 0.11381495 -0.09453864
000060 ab 91 33 bf 02 e3 57 be ce 29 fa be 98 42 c2 be
       -0.70144147 -0.2108269 -0.4886002 -0.37941432
000070 d0 dc 96 3e a0 c1 93 be d4 eb 5b bd 5e 70 8a bf
       0.29465342 -0.28858662 -0.0536917 -1.0815542
000080 c9 d2 7c be 26 52 13 3e 62 ff d3 bd ff f7 70 3d
       -0.24689783 0.14386806 -0.10351445 0.058830258
000090 06 56 02 bf 11 60 07 bf d5 9f b3 3e 99 49 ff 3c
       -0.5091251 -0.5288096 0.3508288 0.031163024
0000a0 1d 5c 87 3e e7 47 01 3f 73 1b f2 bc 3b 74 9f bf
       0.26437464 0.5050034 -0.029554104 -1.2457346
0000b0 2a 38 91 be 3a 43 4d 3f 1c 46 37 3f e7 8b 68 3d
       -0.28363162 0.80180705 0.71591353 0.056774046
0000c0 88 70 2a bf 14 ba d8 bd aa df a6 be f1 cf 69 3e
       -0.6657796 -0.105823666 -0.32592517 0.2283323
0000d0 32 a4 28 be e8 a9 21 3f a8 83 8f be f2 ad e7 be
       -0.16468886 0.6314988 -0.28030133 -0.45249897
0000e0 35 03 37 be 17 3f fe 3e 53 65 de 3e 8b bd c8 3c
       -0.17872317 0.4965751 0.4343668 0.024504444
0000f0 13 57 6c 3e ff 85 9c bd 8d b1 3b 3e 7c 3f d4 bd
       0.23080091 -0.07642745 0.18329449 -0.10363671
000100 68 70 0b bf 30 42 6e be 45 f0 2d be 4d 44 24 3e
       -0.54468393 -0.23267436 -0.16986187 0.1604168
000110 51 27 f3 bd 70 00 11 bf 7e 04 a3 be ec 2d c0 3c
       -0.118727334 -0.5664129 -0.31839365 0.023459397
000120 16 25 d1 be f6 f0 3f bf 33 4e 74 3e 50 da f5 3d
       -0.40848607 -0.7497705 0.23857956 0.120045304
000130 91 c8 d0 bd 9f cb 13 bf 02 55 57 be 03 53 39 3e
       -0.10194505 -0.57732576 -0.21028522 0.18098073
000140 2f a3 7c be 0a 5b 53 3e 68 f8 f2 be 80 40 1c bf
       -0.24671625 0.20640197 -0.47455144 -0.6103592
000150 d9 05 d6 3d 2b e2 80 3d 15 d5 ae 3d 9a 97 55 3e
       0.10450334 0.06293138 0.08536736 0.20858613
000160 3a ef d2 be 9d 78 35 bf 24 e1 c4 be 8c 1b 39 3d
       -0.4119814 -0.70887166 -0.3845302 0.045192286

convs.0.bn1.running_mean f4 [92]
000000 c4 f2 1a 40 7d b5 ad bf cb 59 38 3f e8 23 15 40
       2.4210672 -1.3571011 0.72012013 2.3303165
000010 7d 79 5f 3f 07 af 44 c0 fb 88 82 c0 dd 07 29 40
       0.8729475 -3.0731828 -4.0792212 2.641105
000020 05 8a 9e be 01 74 0b bf 82 55 9e 3f 06 d3 38 40
       -0.30964676 -0.5447388 1.2369845 2.8878798
000030 72 a0 cc c0 1a ed dd be 0e 9e 44 bf 27 95 33 40
       -6.3945856 -0.43344957 -0.7680367 2.8059785
000040 80 30 85 be ee 3d d0 3f af 40 e6 bf fe 15 11 c0
       -0.26013565 1.62689 -1.798849 -2.2669673
000050 14 b5 9c bf fc 44 73 c0 ef 48 87 40 74 d0 4e 40
       -1.2242761 -3.8010855 4.227653 3.231473
000060 d7 40 9a bf 81 33 8e c0 c0 d3 92 bf e0 1a a8 bd
       -1.2051038 -4.443787 -1.1470871 -0.08208251
000070 f9 80 44 3f eb 1d b6 3f 59 7f 0f 40 bd 37 77 3c
       0.76759297 1.422788 2.2421477 0.015088973
000080 4a 56 8a bf e9 39 32 3a 10 45 9b 3f 8b 5b 0c bd
       -1.0807583 0.00067987904 1.2130451 -0.03426699
000090 f9 be 7f 3f cd cd ea bf 62 c6 c5 bf ce 8f 10 40
       0.99900776 -1.8344055 -1.5451167 2.2587771
0000a0 43 da 1c 40 af 67 28 be 04 e8 00 40 5d c0 39 c0
       2.4508216 -0.16445802 2.014161 -2.902366
0000b0 25 60 f3 bf 37 34 ed bf 4c 92 f7 be 8a 54 e9 3c
       -1.9013716 -1.853156 -0.48353803 0.028482694
0000c0 15 32 ef 3f 8c 93 fa be 49 f6 0c c0 ae ae 80 c0
       1.8687159 -0.48940694 -2.202532 -4.021323
0000d0 ed 83 b4 3f 32 7e 26 40 ec 27 ad 3f 9c bd 82 bf
       1.410276 2.6014524 1.3527808 -1.0214114
0000e0 b1 e8 cf bf 1f 9a de 3f ec f1 99 bf a4 2e cc bf
       -1.6242887 1.7390784 -1.2026954 -1.5951734
0000f0 0c 9a 5e 3e cb 7b ba 3f 51 dd 2e c0 45 5e 82 40
       0.21738452 1.4569029 -2.732258 4.0740075
000100 71 8a 54 3f 62 df 89 3e 4c ae 91 bf 16 94 ce bf
       0.83023745 0.2692824 -1.1381316 -1.6138942
000110 e7 88 3e 40 86 ba 9e bf 89 b5 94 bf ad 44 75 3f
       2.9771059 -1.2400672 -1.16179 0.95807916
000120 28 f0 1e bf 75 10 19 c0 12 4a a4 bf d5 64 21 bf
       -0.620852 -2.3916295 -1.2835104 -0.6304448
000130 cd 85 23 bc b2 39 9e 3f 48 6d 05 3f 72 ff 88 40
       -0.009980631 1.2361357 0.52119875 4.2811823
000140 a6 23 5d 3f a4 3f 68 3e 01 58 58 bf 19 e6 a4 bf
       0.8638252 0.22680527 -0.84509283 -1.288272
000150 f5 8f 82 3f 42 e6 7f 40 9e ff b5 40 a1 d0 bc bf
       1.0200182 3.9984288 5.6874533 -1.4751168
000160 5c f0 b7 3f 00 46 a0 bf 0e 86 d7 3f 33 b2 5b c0
       1.4370227 -1.2521362 1.6837785 -3.4327514

convs.0.bn1.running_var f4 [92]
000000 f1 95 d8 41 8c 01 38 42 53 88 9e 41 05 5d 14 42
       27.073214 46.00151 19.816565 37.09084
000010 65 63 1c 42 b4 4e 1a 42 ae dd 3f 42 23 2f 03 42
       39.097065 38.57686 47.966484 32.796032
000020 e5 b7 5a 42 41 bb 7d 41 2d 59 b7 41 50 da 09 42
       54.679585 15.858216 22.918543 34.463196
000030 50 d2 20 42 d9 7b 28 42 a6 22 ea 41 1e f0 3d 42
       40.205383 42.120945 29.266918 47.48449
000040 42 25 fa 41 32 8e 15 42 cf c6 f4 41 96 91 73 42
       31.268192 37.388863 30.597075 60.892174
000050 ec b7 22 42 be 52 cc 41 66 84 3e 42 4b bb 26 42
       40.67961 25.540401 47.629295 41.682903
000060 22 fb f0 41 71 55 a6 41 3e 39 18 42 8e 97 bc 41
       30.122623 20.79172 38.0559 23.574001
000070 2a 2c c3 41 79 4c 45 42 a3 9f ee 41 7b 13 af 41
       24.396564 49.32468 29.827948 21.884512
000080 06 f8 c5 41 d4 e8 19 42 98 1e 55 42 96 aa f5 41
       24.746105 38.47737 53.279877 30.708294
000090 7e 2d f8 41 74 7d 15 42 96 2c 37 42 24 e9 bd 41
       31.022213 37.372513 45.79354 23.738838
0000a0 7c e2 0c 42 34 bb 59 42 de 36 1b 42 52 60 32 42
       35.221176 54.432816 38.80358 44.594063
0000b0 ff eb 8e 41 68 52 17 42 6e 5c 29 42 9b 97 75 42
       17.865232 37.830475 42.340263 61.398052
0000c0 50 45 57 42 a1 0f 44 42 32 b1 0a 42 02 ab 4d 42
       53.817688 49.015263 34.673042 51.417
0000d0 2e db 21 42 b9 3c 1b 42 f6 d8 91 42 b7 e1 f6 41
       40.464043 38.8093 72.92375 30.860212
0000e0 75 9b 04 42 8d ef f1 41 43 18 2e 42 d5 0f b7 41
       33.151814 30.241968 43.523693 22.88273
0000f0 09 e6 2f 42 1c d8 34 42 97 e4 03 42 ec 9f 1d 42
       43.974644 45.211044 32.973232 39.406174
000100 f4 36 3c 42 17 e7 19 42 0b 7d 21 42 00 4a f2 41
       47.053665 38.475674 40.372112 30.286133
000110 01 d1 33 42 81 59 5b 42 89 40 f6 41 8d cf f5 41
       44.954105 54.837406 30.781511 30.726343
000120 60 0f 16 42 6e 14 d8 41 f6 52 98 41 f8 3e 21 42
       37.515015 27.009975 19.040508 40.311493
000130 8b a0 36 42 b3 85 17 42 b8 1a 0a 42 ff 0f 1e 42
       45.65678 37.880566 34.526093 39.51562
000140 7d d2 5e 42 fc b2 ce 41 70 3c fa 41 bd ed 31 42
       55.705555 25.837395 31.27951 44.482166
000150 25 71 5b 42 d0 9f e4 41 b1 ee 33 42 e7 27 fb 41
       54.860493 28.578033 44.983097 31.394484
000160 2d cd 11 42 0f 24 c1 41 92 3b ab 41 f8 e5 47 42
       36.450367 24.142607 21.404087 49.97458

convs.0.bn2.weight f4 [46]
000000 97 9e 88 3f b3 c0 ae 3f 25 d9 d8 3f 40 34 87 3f
       1.0673398 1.3652557 1.6941267 1.056282
000010 d6 7b 7b 3f 1f b1 96 3f e3 1b a3 3f 13 97 62 3f
       0.98235834 1.1772803 1.2742885 0.8851177
000020 10 79 76 3f f4 7a c3 3f 6e 1e 5b 3f b0 85 5c 3f
       0.96278477 1.5271897 0.85593307 0.8614149
000030 0e f5 7a 3f bf bf db 3f 9f fd a9 3f 21 95 a9 3f
       0.98030174 1.7167891 1.3280524 1.3248636
000040 d3 2c 85 3f 9c 97 a8 3f eb 34 d9 3f 9b fa 91 3f
       1.0404304 1.3171268 1.6969274 1.1404604
000050 45 80 9c 3f 83 51 90 3f 26 f8 a9 3f 7c 73 9b 3f
       1.2226645 1.1274875 1.3278854 1.2144618
000060 e1 c8 6f 3f 71 a5 96 3f 25 f4 b0 3f fe 60 cc 3f
       0.9366589 1.1769239 1.3824507 1.59671
000070 bd b3 36 3f 6c 97 a3 3f df 63 8f 3f a9 6b 90 3f
       0.7136801 1.2780585 1.1202353 1.1282855
000080 89 46 7e 3f 3b 98 b1 3f d9 85 93 3f da c3 66 3f
       0.9932638 1.3874582 1.1525222 0.90142596
000090 33 5e c0 3f 7e 96 92 3f 36 89 9f 3f ef 3e 6f 3f
       1.5028747 1.1452177 1.2463748 0.93455404
0000a0 3c f3 8f 3f 4b 13 9b 3f 04 25 98 3f b6 8b 8e 3f
       1.1246104 1.2115263 1.1886296 1.1136386
0000b0 d7 5b 68 3f a0 ae 5b 3f
       0.90765136 0.8581333

convs.0.bn2.bias f4 [46]
000000 70 46 d6 be 62 56 95 be d9 21 15 be 84 32 eb bd
       -0.41850615 -0.29167467 -0.14563693 -0.114842445
000010 39 ba cf 3b 95 58 a9 be 64 b2 90 be 49 98 ac be
       0.006339338 -0.33075395 -0.282611 -0.33709934
000020 3d ae f2 be cb 51 c2 be f7 52 d7 be c0 56 0f be
       -0.47398558 -0.37953028 -0.42055485 -0.13997936
000030 d1 59 0d be aa 29 01 bf 93 af 01 be 06 bc 1d bf
       -0.13803793 -0.504542 -0.12664632 -0.61615026
000040 5c 9d b0 be f4 1b 04 bf 88 ac 06 be 8c 3e d2 be
       -0.34495056 -0.51605153 -0.13151753 -0.41063344
000050 ec 54 df bd 68 cb 3b be 0b 58 91 be 15 92 c4 be
       -0.109048694 -0.18339312 -0.28387484 -0.38392702
000060 6f 94 f2 be ba 13 5e be 94 f6 8f be d4 79 18 3d
       -0.4737887 -0.21687213 -0.28117812 0.03722556
000070 c4 a6 6d be a7 10 cd bd 36 0c cb be e5 e8 a7 be
       -0.23208147 -0.10012942 -0.39657754 -0.32794872
000080 70 03 01 be 56 73 9f be 6d 8c 85 be 4b 29 f3 be
       -0.12598968 -0.31142682 -0.260837 -0.47492442
000090 11 d6 76 be 98 1b 85 3c 18 a2 12 bf 14 5a d8 be
       -0.24105097 0.01624851 -0.57278585 -0.42256224
0000a0 84 82 08 be 85 c8 f4 be e9 8a d3 be 18 8d e5 bd
       -0.13331038 -0.47809234 -0.41316918 -0.11208552
0000b0 b5 1e e8 3d 0c 2f 1e 3c
       0.11333982 0.009654772

convs.0.bn2.running_mean f4 [46]
000000 41 fe e0 40 af 99 ba 40 01 77 ba 3e 16 4b cd 40
       7.031037 5.83126 0.36418918 6.415416
000010 2d fa 4c 40 49 e5 0b 41 97 b8 72 40 d4 dc ad 40
       3.2027695 8.743478 3.7925165 5.4332066
000020 07 22 5d 40 e4 bc 8f 3f b1 65 8f 40 d5 15 f0 40
       3.4552019 1.122952 4.4811635 7.502665
000030 7b 48 a3 40 9b 9a a4 40 35 c3 c8 40 ce 5e bd 40
       5.1025977 5.1438727 6.273829 5.917823
000040 dc 68 a1 40 db 42 8c 40 1d 55 68 3f d2 6d c6 40
       5.04405 4.383161 0.9075487 6.200906
000050 69 11 50 40 52 a4 11 41 49 f4 bf 40 2b 6e 37 3f
       3.2510626 9.102617 5.99857 0.7165248
000060 7c 5f 02 40 67 bd 41 40 a4 a7 a6 3f 94 8c bc 3e
       2.037078 3.0271852 1.301991 0.36826003
000070 ed 5b db 40 dc 79 6d 40 4f 88 c9 40 0f 50 0d 3f
       6.8549714 3.7105627 6.297889 0.55200285
000080 04 2c 46 40 9c 22 a7 40 b4 c9 f9 40 e4 88 ba 40
       3.0964365 5.222975 7.805872 5.8292103
000090 0c 25 29 40 8b c2 88 3f 24 4d ac 40 a1 09 f7 40
       2.6428862 1.068437 5.3844166 7.7199254
0000a0 1d d5 d3 40 d3 a5 c1 40 48 84 4d 40 c3 81 17 3e
       6.619765 6.051492 3.2111988 0.14795594
0000b0 a1 36 9c 3f e7 c6 2c 41
       1.2204171 10.79856

convs.0.bn2.running_var f4 [46]
000000 65 79 52 42 42 98 9e 42 57 25 07 3f 6a f2 99 42
       52.61855 79.29738 0.5279135 76.973465
000010 d2 d3 7d 41 71 e6 0c 43 05 9d 0d 42 4a 81 17 42
       15.864214 140.90016 35.40334 37.87626
000020 ee da dd 41 63 d6 7f 40 38 f5 03 42 8d 49 a3 42
       27.7319 3.9974601 32.98947 81.643654
000030 fa d1 0e 42 4f 5d d0 41 1f 5a 5a 42 64 bd 89 42
       35.705055 26.04556 54.58801 68.8699
000040 e8 5b 77 42 18 9b f3 41 83 65 61 40 92 1a 9d 42
       61.839752 30.45073 3.5218208 78.551895
000050 92 80 0d 42 1e 81 29 43 f3 49 a2 42 4c fc 74 40
       35.375557 169.50436 81.14443 3.827899
000060 b6 7a 3d 41 75 54 51 42 60 e6 64 40 bc 45 23 3f
       11.842459 52.332478 3.576561 0.6377828
000070 26 5d 88 42 63 90 18 42 5e d8 0a 43 c3 66 b1 3f
       68.18193 38.141003 138.84518 1.3859485
000080 57 8a 1f 42 aa bb e0 41 2e 77 7e 42 b3 7d 31 42
       39.885098 28.091633 63.616386 44.372753
000090 25 44 80 41 21 02 2d 40 91 a7 ea 41 fc a3 e6 42
       16.033274 2.703255 29.33182 115.32028
0000a0 0c bc a3 42 d3 b2 05 42 cc 9d e2 41 02 a9 fe 3d
       81.86728 33.424633 28.32705 0.124345794
0000b0 90 c2 a5 40 56 4d 14 43
       5.1800003 148.3021

convs.1.fc_full.weight f4 [92, 98]
000000 84 30 82 3e 4e 7e 73 3e 46 84 07 3f c5 1e 12 bf
       0.2542764 0.2377865 0.5293621 -0.570782
000010 ab 9c ff be af 83 98 3d 11 44 60 be fb b7 78 3e
       -0.49924216 0.07446992 -0.21900965 0.24288933
000020 8d f1 45 3f 0e 0e 29 bd e6 00 5a be 0f 1f e0 be
       0.773217 -0.04127317 -0.21289405 -0.43773696
000030 88 c9 d6 3e 6e 9e be 3d 0c 97 1c 3e e0 ab ed be
       0.4195063 0.09307562 0.15291995 -0.46420193
000040 ab f4 5a 3d 50 f9 2d 3f 9f 8d ad bc 69 f5 c6 3f
       0.05345599 0.67958546 -0.021185694 1.5543643
000050 9b 6a 37 3f db c3 0a be 75 be a9 be 0d 06 c1 3e
       0.7164704 -0.13551275 -0.3315312 0.3769993
000060 b0 e9 69 3d 6a 18 cd 3d aa e0 21 3e 0a 71 81 3d
       0.057107627 0.10014422 0.15808359 0.063203886
000070 d0 ed 75 bf f7 6a 85 bd 26 23 8f bf a4 b3 3e be
       -0.96066 -0.065145425 -1.1182601 -0.18623215
000080 08 98 f7 3d 14 e9 07 3e c0 6d 6e 3e c9 06 ca 3e
       0.120895445 0.13272506 0.23284054 0.39458302
000090 7d 38 06 bf 74 2f 56 3e e6 1c c8 3e 89 d8 8c 3d
       -0.52429944 0.2091654 0.39084548 0.06877238
0000a0 30 a5 53 be 17 a9 50 3d 3c 39 df be 88 eb 81 3e
       -0.20668483 0.050942507 -0.43598354 0.2537501
0000b0 0f 85 2e 3e 94 12 bb bd 6c 8f 07 bf 3f fe 99 3e
       0.17042945 -0.09134403 -0.5295322 0.30076787
0000c0 d1 32 11 3f e0 2d 3b be 59 a3 41 bf 1a f2 2a 3e
       0.56718165 -0.18279219 -0.75639874 0.16693917
0000d0 36 a4 54 be 34 0d d7 3e 5e 41 24 3f da 7b 3e bf
       -0.20765767 0.4200226 0.6416224 -0.7440773
0000e0 3a 7b e6 3c 29 e1 59 be 8d d2 92 3e 3f d4 76 bf
       0.02813493 -0.21277298 0.28676262 -0.9641761
0000f0 e0 c1 bf 3e 69 0b d4 be 6f 86 00 bf 33 40 b8 bd
       0.37452602 -0.41414955 -0.5020513 -0.0899662
000100 78 af d3 be 21 a4 18 3e c7 8c b9 3e 0a 87 5e 3e
       -0.4134481 0.1490636 0.36240217 0.21731201
000110 3e cf 28 bf d4 ce 39 bd f6 35 85 3e 4e ae 60 bd
       -0.65941226 -0.045363262 0.2601773 -0.05485373
000120 aa a5 ec be 67 d0 77 bd ba 5c fb be 4e 97 ec 3e
       -0.46220142 -0.060501482 -0.49094182 0.46209186
000130 5f 73 11 bf 11 f5 d4 bd cf 4a 53 be 39 32 4d 3e
       -0.5681667 -0.10398305 -0.20634006 0.2003869
000140 8e 21 34 be 93 f7 3a bf 8a 81 2a be c3 9e 77 bd
       -0.17590925 -0.7303402 -0.16650978 -0.06045414
000150 89 4a 51 3f 54 e2 a8 bd 55 58 f5 be e0 d1 22 bf
       0.81754357 -0.08246294 -0.47918954 -0.63601494
000160 b8 43 05 bf 69 04 24 3d bc 8f 75 bd 9d 46 2e bd
       -0.52056456 0.04004327 -0.05995153 -0.04254781
000170 f1 32 09 3e 4b 41 33 3f 2f be 9e be f6 57 a7 bf
       0.13398339 0.70021504 -0.31004474 -1.3073719
000180 69 66 ac 3e 91 ea 64 3e 3f fa 98 3e cf e0 96 3d
       0.33671883 0.22355105 0.29878423 0.073670976
000190 b7 ef 82 bd 07 2b 58 3c 51 6f 3c bd e9 9c 38 bf
       -0.06393378 0.013193852 -0.046004597 -0.72114426
0001a0 65 a1 04 bf 03 b4 9e 3e 57 6e b6 be 75 1c 89 3f
       -0.5180877 0.30996713 -0.35631058 1.0711809
0001b0 0d dd 4f be 28 ac 70 3f 48 c3 bb 3e b3 6f f8 3d
       -0.20299168 0.9401269 0.36672425 0.1213068
0001c0 26 38 09 bf 43 ec 3a be c1 33 80 3e 75 fc 2e bf
       -0.536013 -0.18254189 0.25039485 -0.6835397
0001d0 9b 58 ea be 4e 77 05 3f 0b cb e3 3e 29 a9 32 be
       -0.45770726 0.5213517 0.44490847 -0.17447342
0001e0 c9 75 dd 3e cd f1 92 be d0 d3 63 3e e1 25 b4 bd
       0.43253925 -0.28700104 0.22248769 -0.08796287
0001f0 8d 03 d3 be c3 e2 01 3f 26 98 d6 bd 3f b6 1a bf
       -0.41213647 0.50736636 -0.10478239 -0.60434335
000200 72 2e ad 3e fc ec 54 3e 90 1d 12 bf a1 2f a6 3e
       0.33824497 0.20793527 -0.5707636 0.32458213
000210 c1 9e 99 bc d9 10 a5 bd fd b8 92 3e 58 e3 09 bf
       -0.018752458 -0.08059854 0.2865676 -0.53862524
000220 f2 27 e6 3e 0a eb fb 3e 01 be 08 3f 09 ea 65 3e
       0.4495235 0.49202758 0.5341492 0.22452559
000230 a8 63 f5 3e 62 87 ba 3f e3 6d 5b be 76 81 25 be
       0.47927594 1.4572566 -0.21428637 -0.16162667
000240 c3 c6 12 bf d8 09 39 3e 99 37 2b 3f f7 5d b0 bd
       -0.57334536 0.18070161 0.6688171 -0.08611672
000250 7a ec 77 bf fa a9 92 be 11 62 a4 be 87 9b 52 3e
       -0.9684521 -0.28645307 -0.3210607 0.20567141
000260 83 e0 61 3c b4 41 46 3c 80 d5 ad bc e2 c6 9c 3e
       0.013786438 0.012100626 -0.021219969 0.30620486
000270 43 04 c6 3d 46 c0 42 3d 5e 5a a8 be 7e 07 d2 be
       0.096687816 0.047546647 -0.32881445 -0.4102134
000280 de 80 4a 3e cd 82 2a bf b1 f2 5d 3e 10 57 9c bd
       0.19775721 -0.66605836 0.2167461 -0.07633793
000290 a9 e2 cd 3e 00 4e a5 3d d0 99 76 3c 24 2f 01 bf
       0.4021199 0.08071518 0.01505132 -0.50462556
0002a0 8f 7e d0 be 93 e0 9a 3d f3 77 2f bf 8e 7d 10 3f
       -0.40721557 0.075623654 -0.68542403 0.5644158
0002b0 09 db 96 3b d3 71 74 3c a3 60 03 3f 18 3f bc 3c
       0.0046037477 0.014919716 0.5131933 0.022979304
0002c0 4b 22 c7 bb 05 33 4e be 04 de 34 3f 44 80 8a bd
       -0.006077086 -0.2013665 0.7065127 -0.06762746
0002d0 f0 28 26 3f f5 9b 4c bd f9 8e a0 3c 6a 0d e5 3e
       0.64906216 -0.04995342 0.019599425 0.44736797
0002e0 18 94 33 3e 1b 5e 04 3f 5a f1 10 be 2d ea 9e 3d
       0.17536962 0.51706094 -0.14154568 0.07759509
0002f0 5d d0 b2 3c 1d ee e7 be da a5 43 bf 05 f9 0c 3f
       0.021827871 -0.45298854 -0.76424944 0.55067474
000300 3b 0a 44 3f a4 fd b2 3f b8 2e 40 3e 35 12 89 bf
       0.7657811 1.3983655 0.18767822 -1.0708681
000310 5a e3 f2 3d 00 16 bf 3d cc bc f6 be fa 3e dd be
       0.1185977 0.09330368 -0.48190916 -0.4321211
000320 30 29 f7 be a6 24 e9 be 0f 75 90 be 98 50 33 3f
       -0.4827361 -0.45535773 -0.2821431 0.7004485
000330 79 e4 09 3f d9 e8 0b 3e fc 1f d0 be 2d 9e f0 3d
       0.53864247 0.13663043 -0.40649402 0.1174892
000340 bc a9 a3 bf f2 c4 43 be b6 1e 91 3e e8 17 27 3f
       -1.2786174 -0.19118097 0.28343743 0.65270853
000350 0c 99 5f 3c a2 1a 32 3e 82 e9 91 3e 22 4b 5e be
       0.013647329 0.17392972 0.28498465 -0.21708348
000360 dc 47 ab be ef 92 13 bf 7e e3 5f 3f fc ad 8c be
       -0.33453262 -0.5764608 0.874565 -0.2747649
000370 6a d9 8b 3d 00 3d 61 3e 6b 0a 52 ba dc 06 1e bf
       0.06828578 0.21995926 -0.00080124167 -0.61729217
000380 90 c3 ec bc e8 da 14 3e 48 50 1b 3e ad 46 b9 3c
       -0.028901845 0.14536631 0.15167344 0.022616709
000390 d6 82 93 be 7d ee 23 3e f5 34 6f 3d 8c 32 07 3f
       -0.28810757 0.16008945 0.058400113 0.52811503
0003a0 06 1e 62 3e 0a 24 0d bf 00 6c 10 3f b9 1a 03 3f
       0.22081766 -0.55133116 0.56414795 0.5121265
0003b0 b3 1a a9 be aa 4c 55 be 74 b9 c0 be 82 7a 37 bc
       -0.33028182 -0.20830026 -0.3764149 -0.011198642
0003c0 f0 2e 11 be 27 b5 03 bf 04 df 89 bd 8e 2a d9 bd
       -0.14178061 -0.5144829 -0.0673199 -0.1060382
0003d0 b9 b0 76 3c 21 0b 25 bf 08 5e 26 bf fe ce b6 be
       0.015056782 -0.64470106 -0.6498723 -0.35704798
0003e0 75 8e b5 3e 41 96 80 3e bf b5 fb 3e 42 ea c1 3d
       0.3546025 0.25114635 0.491621 0.09468509
0003f0 a6 93 20 be b5 be 66 3e a0 c2 8d be c1 c7 95 be
       -0.15681323 0.22533686 -0.2768755 -0.29253963

convs.1.fc_full.bias f4 [92]
000000 4b 8d 84 bd 8e be 44 bd 32 6e f3 bc 45 3b bf bd
       -0.06472262 -0.04803329 -0.029715631 -0.09337477
000010 00 66 57 3d f2 e3 79 bc 1d 3b 4b bb c4 bb 28 bd
       0.05258751 -0.0152521 -0.0031010576 -0.041194692
000020 14 98 95 3c f5 1e 71 bd 48 70 b6 bb 77 9c 8b bd
       0.018260993 -0.058867414 -0.005567584 -0.06816953
000030 09 35 72 3d 2e 1b ae 3d d1 29 94 3d ee 03 d5 bd
       0.05913261 0.08501278 0.07234538 -0.1040114
000040 f8 5b 95 bd 60 67 a9 bd 6e 46 ee 3d ab cb 03 bd
       -0.07292932 -0.0827167 0.11634527 -0.032176655
000050 c4 f7 90 bd ef e2 d4 bd 76 1c 1a bd 49 30 a0 bd
       -0.070785075 -0.10394847 -0.0376248 -0.0782171
000060 83 fb 6e bb 19 77 19 3c 11 0e 1e bc 46 40 18 3c
       -0.003646583 0.009366774 -0.009646908 0.009292668
000070 d4 53 54 bc ba 5b 28 bd 1a 57 ca bd 25 7f 5c 3d
       -0.012959439 -0.041103102 -0.098798946 0.053832192
000080 63 05 8e 3d 11 4e 01 3d e8 ff 9d 3d 60 b8 b7 3d
       0.06934621 0.03156859 0.07714826 0.089707136
000090 eb 9f 68 bd 3d a3 d1 3d 2f b0 9a 3c 20 9d 82 bc
       -0.056793135 0.10236213 0.018882839 -0.015944064
0000a0 63 ed a1 bc 92 24 b3 3d 5f 17 11 bd de 1f a7 3d
       -0.019766515 0.087472096 -0.03542268 0.08160375
0000b0 1e 7e a6 bd e8 35 57 bb 0f f3 bc 3d f2 db 69 bd
       -0.08129524 -0.0032838527 0.09226047 -0.05709452
0000c0 64 f8 b4 bc 04 0e 5e 3d 44 75 9f bd 2d b5 bc 3a
       -0.022091098 0.054212585 -0.077860385 0.0014397256
0000d0 d3 2c 49 bd c3 35 56 bd 06 68 1f bd c3 73 ef bd
       -0.049115013 -0.052297365 -0.038917564 -0.11692002
0000e0 97 44 27 3d a0 58 6b 3c 41 ba 87 bd 56 9d ee bc
       0.040836897 0.014364392 -0.06627322 -0.029127758
0000f0 30 24 70 bd 71 eb fe bb a9 16 87 3d 7f 22 52 3b
       -0.05862826 -0.0077795316 0.06596119 0.0032064018
000100 e4 38 01 be ea 45 90 3c 00 84 7c bd 3b e4 5e bc
       -0.12619358 0.017611463 -0.061649323 -0.013604219
000110 01 c8 ee bd e4 d2 59 bd d6 4e c3 3b 3b fd 18 3a
       -0.116592415 -0.053179637 0.0059603257 0.0005836074
000120 5e a8 12 3d bc 26 5c bc b0 f6 46 bb 4a be 00 bc
       0.0358051 -0.013436969 -0.003035944 -0.007857868
000130 13 9f e5 3d d6 ad 2a 3d 23 5a 27 bc 16 25 74 bd
       0.112119816 0.04166969 -0.010214361 -0.05960568
000140 a1 ca ff 3c ff 73 5b 3d 38 46 86 3d 0e 9f 72 3d
       0.03122455 0.05357742 0.06556362 0.059233718
000150 29 85 d0 3c 91 20 43 3d 86 cb 2e bd 30 b4 56 3c
       0.02545412 0.04763848 -0.042674564 0.0131044835
000160 a7 97 be bd 71 75 c8 bd 82 6b 8c bd cd 4b bd 3d
       -0.09306269 -0.09788025 -0.06856443 0.092429735

convs.1.bn1.weight f4 [92]
000000 0c bb e3 3f 94 f2 ea 3f 67 3c 82 3f 31 07 50 40
       1.7791457 1.8355279 1.0174683 3.250439
000010 39 fd fe 3f 0d 57 3c 40 24 f4 e2 3f e6 d8 16 40
       1.9921027 2.9428132 1.7730756 2.3569884
000020 7e fd d0 3f 7a 6a 1b 40 3d 44 c3 3f 4f 17 2d 40
       1.632736 2.4283738 1.52552 2.7045476
000030 e3 a8 29 40 35 d9 49 40 e5 4f 2c 40 da a2 41 40
       2.650933 3.1538823 2.6923764 3.0255647
000040 c5 80 39 40 a0 33 45 40 fe 16 eb 3f 1c b0 15 40
       2.8984845 3.081276 1.8366392 2.3388739
000050 c7 8a 27 40 58 0f ff 3f 94 22 44 40 e9 84 40 40
       2.6178453 1.9926558 3.0646105 3.0081122
000060 3f f3 fc 3f 24 72 40 40 f7 eb ee 3f f5 c1 03 40
       1.9761733 3.0069666 1.8665761 2.0587132
000070 4f d2 02 40 29 9c 02 40 95 43 ed 3f 28 98 41 40
       2.0440862 2.0407813 1.8536249 3.0249119
000080 07 23 02 40 cd 39 07 40 86 5f 02 40 61 ed 94 40
       2.033388 2.1129029 2.0370803 4.653977
000090 e8 df 0c 40 ea b7 82 3f 2e 0a 09 40 1b bc c8 3f
       2.2011662 1.0212376 2.1412463 1.5682405
0000a0 c4 0f 31 40 e8 2e 48 40 c6 c7 1c 40 48 c6 23 40
       2.7665873 3.127863 2.4496932 2.5589771
0000b0 06 d0 4a 40 84 e0 09 40 90 be ca 3f a3 be a4 3f
       3.1689467 2.1543283 1.5839405 1.2870678
0000c0 aa b3 dc 3f 4f 9c a2 3f c7 27 32 40 03 a3 f4 3f
       1.7242329 1.2703952 2.7836778 1.9112247
0000d0 60 1e 8b 3f ff 25 07 40 60 c5 8c 3f b4 e3 23 3f
       1.0868645 2.111694 1.0997734 0.6401932
0000e0 8a 93 58 3f 6e 7d ae 3f cc 32 ee 3f ad e8 e9 3f
       0.84600127 1.3632028 1.8609252 1.8274132
0000f0 b4 eb 0c 40 0e f0 15 40 83 95 ed 3f f3 26 74 3f
       2.2018862 2.3427768 1.8561252 0.9537193
000100 f8 82 0a 3f 2a 98 68 3f 3e 81 8e 3f 14 13 12 40
       0.5410609 0.90857184 1.1133192 2.2824144
000110 ae 7e a9 3f 37 27 a3 3f 45 91 47 3f 80 5e 61 3f
       1.3241785 1.2746342 0.7795604 0.8803482
000120 35 b7 f5 3f a7 26 c3 3f 4d c3 38 40 d6 fa 03 40
       1.9196535 1.5246171 2.8869202 2.0621848
000130 cf c1 9a 3f 58 ed 03 40 75 bb 77 3f ec 6b ed 3e
       1.2090396 2.0613613 0.9677041 0.463714
000140 0a fc 65 3f 4e e9 4a 40 b4 b8 f2 3f a2 92 0d 40
       0.89837706 3.1704898 1.8962617 2.2120748
000150 4e d9 99 3f f0 c0 c7 3f a2 9c dd 3f 92 f2 25 40
       1.2019441 1.5605755 1.7313426 2.5929303
000160 a5 6e ae 3f 23 34 36 40 09 4a 7f 3f 29 7e 1b 40
       1.3627516 2.8469322 0.99722344 2.4295752

convs.1.bn1.bias f4 [92]
000000 89 23 a1 be 44 96 62 bf da 66 19 3f 68 fb c1 be
       -0.31472424 -0.8851054 0.59922564 -0.3788712
000010 5b 9c 52 3e f4 8c 27 3e 31 a9 02 bf 94 e7 37 be
       0.20567457 0.16362363 -0.51039416 -0.17959434
000020 10 cd 82 bf 8e bb 2f 3e c7 f6 97 be 6b 5f 62 bf
       -1.021883 0.1716139 -0.29680464 -0.88426846
000030 a6 c6 aa 3d 30 b0 0f bf d2 a8 56 be 6d 4c f3 be
       0.083386704 -0.56128216 -0.20962837 -0.47519246
000040 9c 80 82 be f4 3c 4f be b7 ec 05 bf 57 5b 13 bf
       -0.25488746 -0.20238096 -0.52314323 -0.5756125
000050 c4 25 be be 94 5f 7a 3e a8 aa 27 be e9 98 08 be
       -0.37138188 0.24450523 -0.16373694 -0.1333958
000060 f5 bf 23 bf 0f ab 89 bc 26 57 10 be 39 02 70 be
       -0.6396478 -0.0168052 -0.14095744 -0.23438348
000070 cd 25 04 3d 43 33 75 3e fa af 3a bd 6d c5 27 be
       0.032262612 0.23945336 -0.04557798 -0.16383906
000080 93 17 39 bf dd 38 b1 bf d5 a7 9a be 2f c5 d5 be
       -0.72301596 -1.3845478 -0.3020617 -0.41752002
000090 3b e6 f3 3e c6 6e 08 3f b7 84 03 bf 42 fc 02 bf
       0.4763659 0.53294027 -0.5137438 -0.51166165
0000a0 85 df 8e be 1c d8 b1 bd be 20 bc be 43 91 9d 3e
       -0.27904907 -0.08683798 -0.3674373 0.30774888
0000b0 96 17 9b 3d 29 f7 5c 3e 5a b1 4a be a6 5c 9e be
       0.07572858 0.21578659 -0.19794217 -0.3093006
0000c0 e2 45 35 bd af 1b d2 be f2 3f 00 3e de fc 4e 3d
       -0.0442561 -0.41036746 0.12524393 0.05053412
0000d0 93 d8 a6 be 1b 5d 3b be 9b 60 07 bf a6 56 1a bf
       -0.32587108 -0.18297236 -0.52881783 -0.60288465
0000e0 c4 8f d5 be 1d 3c 16 bf a3 8d a9 bd 8b fb 5c be
       -0.41711247 -0.58685476 -0.08278968 -0.21580331
0000f0 bc d6 5b bc b2 dc b4 3e f3 30 2c be cf 55 d3 be
       -0.013417896 0.35324627 -0.16815548 -0.41276404
000100 6b 8b 3f bf d8 55 20 bf 3d 10 1a bf 10 20 a3 3c
       -0.7482211 -0.6263099 -0.6018103 0.01991275
000110 7b a9 6d be 70 46 a2 be ae 04 39 bf ee bb 2b 3f
       -0.23209183 -0.31694365 -0.72272766 0.6708363
000120 88 ab 2c be fd 92 a8 be 8a fe 4c 3d 24 5f ac be
       -0.16862309 -0.32924643 0.050047435 -0.33666337
000130 28 8c f2 be 92 33 cf 3d 3a 4f 15 bf bc 09 6e bf
       -0.47372556 0.10117258 -0.58324015 -0.92983603
000140 42 fd 08 bf ec 75 bf bd 41 52 96 3b 10 dc 6e 3c
       -0.5351144 -0.09348664 0.004587442 0.014578834
000150 49 ee 15 bf 84 ad ba be 7b e3 9b be 53 df 9c bd
       -0.5856672 -0.36460507 -0.3044699 -0.07659783
000160 39 14 bc be 6f 79 e9 3b d5 cb 05 bf 07 a9 cc 3c
       -0.3673418 0.0071250717 -0.5226415 0.024982942

convs.1.bn1.running_mean f4 [92]
000000 c1 bb d2 bf f0 d0 c1 3f 1a a4 6f c0 fd a6 79 c0
       -1.6463548 1.5141888 -3.744391 -3.9008172
000010 77 98 05 c0 2d a2 d8 bf 4b 70 8b 3e 9e 9c 40 c0
       -2.0874307 -1.6924492 0.2723411 -3.0095592
000020 ff 01 f5 3d e5 73 a4 bf 1d 16 f1 3f 45 92 dd bf
       0.11963271 -1.2847868 1.8834873 -1.7310263
000030 8c 2b 78 c0 74 f6 00 40 d7 ee c6 3f ab 92 d9 3e
       -3.877658 2.0150423 1.5541638 0.4249471
000040 6f d9 df 3f 64 74 9a bf d9 a7 9f be 7d 16 93 bd
       1.748823 -1.206677 -0.31182745 -0.07182024
000050 ef 79 ab bf e6 9f a6 bf fa 57 a0 c0 d9 3b 8f bf
       -1.3396586 -1.3017547 -5.0107393 -1.1190139
000060 c6 4a f4 bf ed d2 26 40 ae 78 81 be 87 9a 39 c0
       -1.9085319 2.606624 -0.25287384 -2.9000566
000070 90 60 8d c0 e5 67 b3 c0 b1 06 d2 bf b1 e3 7b 40
       -4.4180374 -5.6064324 -1.6408292 3.9357722
000080 39 bd 2c 3f 96 9d 13 c0 ea 75 d7 bd 72 e8 08 bf
       0.6747623 -2.3064933 -0.10520537 -0.53479683
000090 a8 a3 16 c0 9d 63 83 c0 4a aa 1c 40 62 28 23 c0
       -2.3537388 -4.10591 2.4478936 -2.5493398
0000a0 70 79 99 bf e9 a7 74 c0 d2 71 20 c0 c1 75 50 bf
       -1.1990185 -3.8227484 -2.506947 -0.8142968
0000b0 f9 de 8c c0 e9 b5 cb bf 95 2d 41 bf 8a 14 b9 c0
       -4.4022183 -1.591489 -0.7546018 -5.783757
0000c0 c6 52 89 bf 69 f7 b0 bf b5 82 34 c0 d3 bf 54 c0
       -1.0728385 -1.3825504 -2.8204777 -3.324208
0000d0 54 52 5d c0 68 43 bd c0 72 20 11 c0 a1 e7 47 c0
       -3.45815 -5.9144783 -2.2676053 -3.1235125
0000e0 75 93 bb bf 87 b5 8d c0 91 55 61 c0 9a 65 eb bf
       -1.4654375 -4.428409 -3.5208476 -1.8390381
0000f0 13 bb ac bf 6e 00 93 c0 b4 4d 4e c0 48 59 1e 3f
       -1.349459 -4.5938025 -3.2234926 0.6185498
000100 2f df 64 c0 9f 93 4c c0 4d d8 37 c0 71 e1 75 c0
       -3.576122 -3.19651 -2.872577 -3.8418849
000110 8d a8 93 c0 db aa 8e bf a1 5f fc bf 24 d8 9f bf
       -4.614325 -1.1145891 -1.9716684 -1.2487836
000120 36 bb 70 c0 d0 2b 30 c0 af 07 89 c0 26 54 a7 c0
       -3.7614264 -2.752674 -4.282188 -5.229022
000130 5e 57 7b c0 a7 e0 34 c0 57 e3 a1 bf 81 35 13 c0
       -3.9272075 -2.8262117 -1.2647504 -2.3001406
000140 f2 8e 04 c0 e3 76 9d c0 8f 70 09 c0 95 25 92 c0
       -2.0712247 -4.9207625 -2.147495 -4.5670877
000150 dd b8 4c c0 f3 67 d9 c0 9f a8 26 c0 09 3b 65 c0
       -3.1987832 -6.793939 -2.6040418 -3.5817282
000160 13 06 4a c0 e5 e2 cd bf e3 2e 2a c0 1c 40 d7 bf
       -3.1566207 -1.6084868 -2.6591117 -1.681644
