dropout/NN_ensemble/histories/1_d05_valid_best_params.pt (torch_old, 452453 bytes, 103 tensors)

embedding.weight f4 [46, 98]
00000000: d0f5 753d df60 283d b478 c8bd ffbe 51be
00000010: 856f c03d f9df 493d 8fa4 92be 93bc 593b
00000020: eee3 883e 46b1 24be e4f8 f33e 5330 993c
00000030: 34c7 5abf 71b5 213d 98e8 5bbd 3c0e f1bd
00000040: ec6a 8bbc 7990 eabd 72e0 893d e17e 7bbe
00000050: 3332 05bd 33cc 34be 6ddc 4bbb 236c a53d
00000060: 467a 98bd 7eec 6abd ee44 2c3d 622f fd3c
00000070: b957 47be 82b6 15be 8125 e2be e5db 6b3e
00000080: 0a12 bbbd 9344 193e e092 0c3e f005 71bc
00000090: 9301 c8bd e19b 5a3d 6fe4 04be 0d11 84bd
000000a0: 9358 c7bd 9699 3b3d c6b8 fbbd bb2f 27bd
000000b0: 567f 1abd 26f8 1a3d 317a 023d 0280 5bbe
000000c0: d74b afbd 6cbb aebc a23f 58be 9268 1cbe
000000d0: cf4a a53d ee51 2e3e 5b99 87be 4329 d03d
000000e0: 1998 183e 1e4a 9d3c 349e 4c3d 5ac0 e23e
000000f0: ba58 8bbd 34c7 58bd 1419 b8ba 3425 75be
00000100: bceb a6bd fec7 49bd 507d 833d 1899 aa3c
00000110: 0057 75bb fcd6 a7bd c211 343d d018 47bc
00000120: 2e50 c8be 3ee7 87be 245d 21bd 5f61 383e
00000130: e4cb 123d a9d7 65be 95b8 99bd 477b 28be
00000140: 50d0 2eba 42c5 863d 718d 35bc efac c33e
00000150: e81b 84be 99b5 123c b643 69be 180f c93e
00000160: f79a 2dbe 9101 1abd 8372 ccbd 3850 1d3e
00000170: ff6f 1dbe a13a 233e d07f 273e ab24 0fbf
00000180: 950e be3e d30a 71be b4bf 153d 4b36 24be
00000190: ccc6 4cbd b02a 0ebf 89d8 4abf 0b56 b8be
000001a0: 1a45 3ebf 3408 26bf c7ef 00bf 9d55 113e
000001b0: 1b18 0c3e fa87 143f 913f a03d c13e 78be
000001c0: 8f73 68bd 9845 c53e 302d cf3d ad85 e53e
000001d0: 6938 38bd 7992 8bbe 1463 5cbd c4a1 35bf
000001e0: 23e3 7b3e 07f7 783e 0296 c13e 66c1 c83d
000001f0: 2bed 883e 42e4 2e3c cecd b1be d499 08bf
00000200: 7bfe a13d 7424 6a3e 28b8 58bc f9d2 813e
00000210: da3c 74be 785c 51bc b016 8ebe 7279 b2be
00000220: 5669 8d3d 9a4c 86bd d05e 393e bcc4 693c
00000230: b718 1abe 6349 623d 8c6f 7b3d ea23 c6be
00000240: 88c3 6dbe 09fe cebd 4951 48be 14b5 03be
00000250: 7acf 703e c362 4ebe 0df0 08bf c0e9 25bf
00000260: 6b5c aa3d 6f61 59be 00e2 de3e 8852 c43e
00000270: 81cf aa3e 0549 9a3e c810 a4be 6465 85be
00000280: 08f1 b53e ab3c 89bc dac3 623c 9011 c9bd
00000290: 3c5c bd3d 1b96 1fbd b88e d13c 2882 fa3c
000002a0: c8ef 9d3e d001 a7bd 65f4 8dbe aec8 03be
000002b0: bda0 b7be e69c 853e c0bf cfba 40db a23e
000002c0: 8c31 b9bd 239c 983e 1711 acbe 4669 a63d
000002d0: f852 1ebe 8440 f9be 0dda d6be c438 733e
000002e0: ca6b b23e 3c0f d63e 7d0f be3c 4182 d9be
000002f0: 2454 f03e 2efb c5be 8d9d b43e d89c 813f
00000300: b6b4 96bf 922a 03be 489e a2bf ac38 0bbe
00000310: 9300 c5bd 6a0c a73d 1caf 4ebe 00bb d2bd
00000320: fc55 e03d b45b 0fbf 58d4 fabb aaa3 48be
00000330: 10b2 44be 84f3 813e 2ce0 ef3e 5139 963e
00000340: ad5c fbbe 8c7a 98be 54b6 00bf 2d9a a83e
00000350: 2701 babd d521 1a3f 28b8 adbd 7b35 00bd
00000360: 9ab5 59be 7f6c d33e e94f 40bf a694 553e
00000370: 17d7 813e 7c17 c8bd eaf8 583f cdc1 013c
00000380: 845d 91ba 7407 83be 24db 8b3d e780 f83c
00000390: 680c b2bc 239b 9b3e 2227 88be 8626 94bd
000003a0: bdef 9cbd baa8 9bbe 99a3 e53c 353e 353e
000003b0: d2dc e63d 5b7a acbe 533d 96be abda 5c3e
000003c0: 40c3 d1bc 4055 123e db1e 8b3d 691e 80be
000003d0: 7981 99be 890c a4be 078b 933d e5c1 3bbe
000003e0: 4fc4 8dbd 4073 afbe ac9d 463e 1f5e a73e
000003f0: e0bc 9f3e d807 563e 40e3 3c3f e04a 373e
0.06004888 0.04110801 -0.09788647 -0.20483015 0.09396271 0.049285863 -0.28641173 0.0033223971
0.26736397 -0.1608325 0.47650826 0.0186998 -0.8546021 0.039479677 -0.053688616 -0.11770293
-0.017018758 -0.11453337 0.06732263 -0.24560119 -0.032518577 -0.17656021 -0.0031106726 0.08077266
-0.07445197 -0.057354443 0.042057924 0.030906383 -0.19467057 -0.14620402 -0.44169238 0.23033102
-0.091343 0.14967565 0.13727903 -0.014710888 -0.09765925 0.053371314 -0.12977766 -0.06448565
-0.09733691 0.045800768 -0.12291102 -0.040817004 -0.037719093 0.03783431 0.031854812 -0.2143555
-0.08559387 -0.021329604 -0.21118024 -0.15274265 0.08070909 0.17023441 -0.26484188 0.1016412
0.1490177 0.01920038 0.04995556 0.44287378 -0.068040326 -0.05292435 -0.001404556 -0.23939973
-0.081504315 -0.049262993 0.06420386 0.020824954 -0.003743589 -0.08195302 0.043962248 -0.012151912
-0.39123672 -0.2654361 -0.039395466 0.18005894 0.035838977 -0.22445549 -0.07505909 -0.16453277
-0.0006668614 0.06580593 -0.011081086 0.38217875 -0.2580254 0.008954429 -0.22779736 0.39269328
-0.16953646 -0.03759915 -0.09982779 0.15362632 -0.15374754 0.15940334 0.1635735 -0.55915326
0.371205 -0.23539285 0.036559775 -0.16036336 -0.049994275 -0.55533886 -0.79236656 -0.36003146
-0.7432419 -0.64856267 -0.5036587 0.14192815 0.1368107 0.58019984 0.07824624 -0.24242689
-0.05675083 0.38529658 0.10116041 0.4482855 -0.044975672 -0.27260187 -0.053805426 -0.7094996
0.24598365 0.24312983 0.3780976 0.09802513 0.26743445 0.010674538 -0.3472733 -0.53359723
0.079098664 0.22865468 -0.0132275 0.25356272 -0.23851338 -0.012778394 -0.27751684 -0.3485828
0.06904857 -0.06557579 0.18102574 0.014268097 -0.1504849 0.05524577 0.061385676 -0.38699275
-0.2321912 -0.10107047 -0.19562258 -0.12862045 0.23516646 -0.20154862 -0.5349129 -0.648098
0.083184086 -0.21228574 0.435318 0.38344216 0.33361438 0.30133834 -0.32044053 -0.26053917
0.35535455 -0.016752562 0.01384064 -0.09817803 0.09246108 -0.03896151 0.025580749 0.030579641
0.30847 -0.081546426 -0.2772552 -0.12869522 -0.3586482 0.26096267 -0.0015849993 0.318079
-0.090426534 0.29806623 -0.3360679 0.08125548 -0.15461338 -0.48682034 -0.41963235 0.23752123
0.34847862 0.41808498 0.023200745 -0.42482188 0.46939194 -0.38668197 0.35276452 1.012599
-1.1773899 -0.12809208 -1.2704554 -0.13595837 -0.0961925 0.08156665 -0.20183986 -0.10289574
0.109539 -0.559993 -0.007654708 -0.19593683 -0.1920855 0.253811 0.46850717 0.29340604
-0.49094144 -0.29780996 -0.5027821 0.32930127 -0.09082251 0.60207874 -0.08482391 -0.031301003
-0.21260682 0.41293713 -0.75121933 0.20857486 0.25359413 -0.09770104 0.8475481 0.007919741
-0.0011090492 -0.25591624 0.06828907 0.030334903 -0.021734431 0.30391797 -0.26592356 -0.0723391
-0.07662914 -0.30402166 0.028032111 0.17699511 0.11272587 -0.336871 -0.29343662 0.2156779
-0.025605798 0.14290333 0.067929946 -0.250232 -0.29981592 -0.32040814 0.07204252 -0.18335684
-0.069222085 -0.34267616 0.19396085 0.32688996 0.31198788 0.2090143 0.73784256 0.17899656

embedding.bias f4 [46]
00000000: e282 c7be c391 06bf dda7 06bf bd61 bbbe
00000010: 6d47 29bf 2345 e3be 09d1 aabb 2593 ccbe
00000020: bd86 fabe b11c 673b 1ee0 bdbe e27d c2be
00000030: 7c3e 78be 153d 1fbd db82 5fbe de87 7cbe
00000040: 47d0 bfbd e00b efbe 4154 c13e 7e3e 02bf
00000050: 2f6c 43be cb93 93be f554 89bd 4aa3 a3be
00000060: 646c b3be 1144 bdbe d8b9 c2be 8467 17bd
00000070: 34a0 17bf 3b37 c7be 3e75 d03d 3140 b9bd
00000080: 4b21 aebe 11c3 f8bd 2e3f 2b3d d211 01bf
00000090: d24c d2be 60fb a9be f6f4 0cbd 1812 06be
000000a0: 4352 34be 48a0 07be f8cd fcbe be42 8dbe
000000b0: 37f1 5bbe 59bb 0cbe
-0.38967043 -0.52566165 -0.5259989 -0.36598006 -0.6612461 -0.44388685 -0.005212907 -0.39956012
-0.48930922 0.0035264904 -0.3708505 -0.37986666 -0.24242586 -0.03887661 -0.21827261 -0.24661204
-0.093658976 -0.46688747 0.37759593 -0.50876606 -0.19084238 -0.28823695 -0.067056574 -0.31960517
-0.35043633 -0.36965993 -0.38032413 -0.036963955 -0.59228826 -0.38909325 0.10178612 -0.09045447
-0.34009776 -0.12146581 0.0418083 -0.50417817 -0.41074234 -0.33199596 -0.0344133 -0.1309284
-0.17609505 -0.13244736 -0.49375892 -0.27589983 -0.21478735 -0.13743342

convs.0.fc_full.weight f4 [92, 98]
00000000: aa14 8b3a af2b 5d3e 78dd 04bf 11c6 b83e
00000010: 4f69 4bbe 0e52 c7be c967 0bbe 438d 273d
00000020: 74f7 163e d3ff 13bd e0f3 63be 7f6c 3bbe
00000030: d6e1 64bf 36c8 fb3e 53ff 433e 23a1 f53e
00000040: a93e c4be dd8b 0cbf 4213 383e e6cc 6f3e
00000050: 7b66 c9bd b6cd 54be 4864 0b3d 7b56 cabe
00000060: 7547 e93d 01c8 3b3e dada efbd bbfa dcbe
00000070: f1a8 e8be 5bdf d0bd 796b 233f b0ab 68bd
00000080: fc2d 313e 6560 c33e 7e22 843e 7261 57be
00000090: 4aaf 4e3f 5df9 b7bd 1441 68bd 2314 1abf
000000a0: 3382 e43d 7fc7 ae3d 64c0 72bf d005 0a3f
000000b0: e40f a9bd f5df 703d ba40 2d3d e919 8dbd
000000c0: 7572 ba3e aed4 83be 5213 f73e 3be8 a63e
000000d0: 18c4 863e 92d8 833e c24f 453d b71c bebe
000000e0: 6b0f c83e 989c b83e fa8d 48be 2ead 5ebe
000000f0: b621 cc3d 45b7 7fbe 9d6c 81be e1ef 58bd
00000100: 75c4 3bbd b708 cd3e 29fb 9bbe 3baa 223d
00000110: d924 4d3c eae3 323c 44d9 573e 8d87 91bd
00000120: b111 54be d4d6 df3e 8830 bd3c 6f23 4b3e
00000130: 36aa 9e3e 334e c43e 8ff5 1bbf 8b40 ce3e
00000140: 3ae9 eabd 5f85 163f 393d 35be 7a85 a9be
00000150: 0b15 16be 3b21 27be 836f 4ebe c3a2 823e
00000160: 0943 c53d 02d2 b63e a85a de3c af26 1cbe
00000170: fb8c e93e 7793 0b3f e5cf 57be 7310 f7be
00000180: f1fb 10bf a8a9 61be e9d5 293e 253a 483f
00000190: 2ca5 d53d 82c8 75be ac31 20bd d80f 90bd
000001a0: b33f 803d 2893 1d3e 07f9 cabc 0eb4 5cbf
000001b0: f357 5dbe b207 863f 06b4 6cbe c189 55be
000001c0: d39f c73e 0742 efbd ecf1 993e a0ce 093e
000001d0: c3a7 593e b670 553e cea4 10be b265 09bf
000001e0: 122f 953e 7aad 183f 51e7 b3be 3f3a 9bbc
000001f0: 4264 363d 42f1 25bf c2e6 e3be 371d 17be
00000200: 5eb5 5c3e b604 303e 69da 823e 3dd3 08be
00000210: 6ad8 a5bc d70c d1bc 1e71 1d3e 368b 49bf
00000220: 152b d9be 4355 0dbf 6b6a 953d 520d 053f
00000230: 6661 47bf 2c18 7e3e 4f52 0bbe 8e73 b03d
00000240: 70d9 c6be 568f 83bf 60b8 3cbe d126 1abd
00000250: f20a 093f 0d2d 9cbe 4c67 c3be 46b4 c93e
00000260: 9696 273e 5344 2e3e 1ea5 a0bd 2856 25bf
00000270: 70ba ab3e 5fda 773e b238 3f3f 69a3 e5bd
00000280: dc77 fabd 1621 ccbd f656 003f 92f7 22be
00000290: d5f4 0f3e 6d1d 073d c8e3 6cbe 6528 f9bd
000002a0: cc99 efbe 965d 063e 17ed 043f 6dd3 85bd
000002b0: f3ba 5a3e 2384 523d 53f4 aa3e 73de 3abf
000002c0: b50a b6be 6348 d2be 35b7 f83e 38cf 0bbe
000002d0: 873c 2f3d 5a70 ca3e 56e7 133e a4ac 893e
000002e0: c9a0 d53e 7230 a9be dd7c fdbc 1e0b 04be
000002f0: ae72 da3d 1c95 563e 84ef c8bf 9c5d a93d
00000300: 917a 8f3f 2314 8e3d ed3f 2f3f d10d 0b3f
00000310: 92c5 703d ca82 e53e 6ea0 7cbe ec15 353e
00000320: 1387 95bf d05b cebd 1e11 0cbe 8c42 2dbf
00000330: 58f3 893e 5aeb 3b3e 82aa bb3e 112e b3be
00000340: 34bd 163e 8ca8 cf3e 4691 34bf d945 3e3d
00000350: 6af5 593e 0517 90be 4c4a 14bf 79f2 b03d
00000360: 8db4 f83e b949 693d c7c4 b23d c79c 86bd
00000370: bd24 393f 1c45 043f ea5a fbbe 1182 01bc
00000380: 7244 0c3e 4517 0cbe 347f c83e 9b42 fd3e
00000390: 4a11 a3bd ff8b 983e a165 9cbe 2997 0e3e
000003a0: 1f33 a93e c619 b23e 2446 043f c602 073d
000003b0: 9c35 f23d 2b95 08bd e0f2 043d 7995 02be
000003c0: 3180 f1bd c745 993e 9ede 6fbe fb22 c0bd
000003d0: 5f52 b4be 38f1 f6bd 4f0e a3bd a6a9 b3be
000003e0: d0c9 953e 9e2d 8abd dffe 913e 7eb4 b6be
000003f0: 6da6 243f 5199 ae3e ac86 013d 4917 7ebd
0.0010611017 0.21598695 -0.51900434 0.36088613 -0.19864391 -0.3892979 -0.1361381 0.040906202
0.14742833 -0.036132645 -0.22261 -0.18303107 -0.894071 0.49176186 0.19140367 0.479745
-0.38329056 -0.54900914 0.17976096 0.23418006 -0.09834 -0.20781597 0.034031183 -0.39519104
0.113905825 0.18338014 -0.117116645 -0.43160042 -0.45441392 -0.10198852 0.63835865 -0.05680436
0.17302698 0.3815948 0.25807565 -0.21033266 0.8073622 -0.08983109 -0.05670269 -0.60186976
0.11157646 0.085341446 -0.94824815 0.5391512 -0.08254984 0.058807332 0.042298056 -0.068897076
0.3641545 -0.257482 0.48256928 0.32599053 0.26321483 0.25751168 0.048171766 -0.37131283
0.39074263 0.36056972 -0.1958541 -0.2174575 0.09967367 -0.24972256 -0.25278178 -0.05296314
-0.045841653 0.4004571 -0.30465057 0.039713126 0.012520992 0.010918597 0.21078974 -0.071059324
-0.20709874 0.43718588 0.02309443 0.19837736 0.30989236 0.3834091 -0.6092157 0.40283617
-0.11470266 0.5879726 -0.17699136 -0.33109647 -0.14656465 -0.1632127 -0.20159726 0.25514802
0.096319266 0.35707098 0.027142838 -0.15249132 0.45615372 0.5452189 -0.21075399 -0.48254737
-0.5663443 -0.22037375 0.16585506 0.7821372 0.10431895 -0.24002269 -0.03910987 -0.07034272
0.0626215 0.15388167 -0.024776949 -0.8621224 -0.21615581 1.0471098 -0.23115548 -0.2085333
0.38989124 -0.116825156 0.30067384 0.13457727 0.21255402 0.20843777 -0.14125368 -0.536708
0.29137474 0.59639704 -0.35137418 -0.018948672 0.044529207 -0.64821255 -0.44511992 -0.14757238
0.21553561 0.17189297 0.2555726 -0.13361831 -0.020244796 -0.025518818 0.15375182 -0.78728044
-0.4241568 -0.55208224 0.07295688 0.5197345 -0.77882993 0.24813908 -0.13605617 0.0861579
-0.38837767 -1.0278118 -0.18429708 -0.037634674 0.53532326 -0.3050312 -0.38164747 0.3939535
0.16366038 0.17018251 -0.078439936 -0.6458459 0.33540678 0.24204396 0.74695885 -0.11212809
-0.122298926 -0.09967248 0.5013269 -0.15914753 0.1405824 0.032987047 -0.23133767 -0.12165908
-0.46797025 0.13121638 0.5192427 -0.06534467 0.21360378 0.051395547 0.3338953 -0.7299568
-0.35555044 -0.41070852 0.48577276 -0.13653266 0.042782333 0.39538842 0.14443716 0.26889527
0.41724232 -0.33044773 -0.030943329 -0.12894866 0.10666405 0.20955318 -1.5698094 0.08269808
1.1209279 0.069374345 0.6845692 0.5431796 0.058782168 0.44826347 -0.24670574 0.17684144
-1.1681846 -0.100761056 -0.13678405 -0.6767967 0.2694347 0.18351498 0.36653525 -0.34996083
0.14720613 0.4055828 -0.7053417 0.04645333 0.21285024 -0.28142563 -0.5792587 0.08639998
0.4857525 0.056955073 0.087289385 -0.06572872 0.72321683 0.5166795 -0.490928 -0.007904545
0.13697985 -0.13680752 0.39159548 0.49464878 -0.07962282 0.2979431 -0.30546287 0.1392485
0.33046815 0.3478529 0.51669526 0.03296163 0.118266314 -0.033345383 0.032458186 -0.12752332
-0.11792029 0.29936048 -0.23424765 -0.09381672 -0.35219094 -0.120577276 -0.079617135 -0.3509037
0.29255533 -0.06746982 0.28514764 -0.3568458 0.64316446 0.34101346 0.031622574 -0.062033925

convs.0.fc_full.bias f4 [92]
00000000: 09a4 fbbb 8750 323d 416f a3bd f3f6 f33d
00000010: 5e34 2dbd 34f7 67bd e450 b63d 2ada 03bc
00000020: 6e21 90bd 3f2f abbd 1052 9f3d a8c0 b93c
00000030: 23ed c3bd 65c1 d1bd 6c6b 953c 616f eabc
00000040: 8ed1 c13d 8ef7 543b 7336 a43c 50ee 133e
00000050: 8e13 b03d dc84 10be 6b47 183e f95a 37bc
00000060: c32f 4b3d ac9d 103d 96bd 47bc 5694 123c
00000070: eb1a 9b3c dd06 31bc 945f c63d f21f 08be
00000080: 742a a9bd da15 913d a42d 0fbd 796a 79bd
00000090: d8d7 6b3d 7d45 a13d 7083 cd3c 3178 ca3d
000000a0: 262f 80bc d420 bebe 848a 063d 952d 083e
000000b0: 1705 e9bc 1d92 fe3b 12b8 e4bd 3e22 943d
000000c0: 33c7 1abd 1668 79bd 7d82 80bd b45b da3c
000000d0: f264 5c3c 4aef ae3d 59cc 9f3d 992d 483d
000000e0: c12c a7bd a2e0 51bd 34b9 9bbd 08a3 323d
000000f0: 837c 873d 74c5 863d b43a 06bd c17f b4bd
00000100: 07bf 443e ea47 c2bd e815 7a3d 27ec 13be
00000110: d2de 2d3e b773 7f3d bc78 5ebd e3a8 75bd
00000120: 0064 00bd 77d4 883d 8cc3 893d d8bc aebc
00000130: 403d abbd 8670 b3bc 568a 8fba 4ba8 c93c
00000140: 9598 443c bea1 6b3d 30fd bc3d b2ad af3d
00000150: a0aa 8fbd 3aea 5b3d 8b30 c93d 3d1f 8b3d
00000160: b943 91bd 5b9c 5fbc f67f d4bd 2cd3 9b3b
-0.0076794666 0.043533828 -0.079802044 0.11912336 -0.04228627 -0.056632236 0.089021474 -0.00804762
-0.07037626 -0.08358621 0.07779324 0.022674873 -0.095667146 -0.10241965 0.0182397 -0.028617563
0.094637975 0.0032496187 0.020045495 0.14446378 0.0859748 -0.14113182 0.14870994 -0.011191123
0.049606096 0.035306618 -0.012191197 0.008946499 0.018933734 -0.010804859 0.09686199 -0.13293436
-0.082600504 0.07084246 -0.034955636 -0.060892556 0.05757889 0.07874582 0.025087088 0.09886206
-0.015647482 -0.3713442 0.032846943 0.13298638 -0.02844481 0.007768883 -0.11167921 0.07233094
-0.037787627 -0.06089028 -0.06274889 0.026655056 0.013451802 0.085417345 0.07802648 0.04887161
-0.08162833 -0.051239617 -0.07603684 0.04361251 0.066155456 0.0658063 -0.032770827 -0.088134296
0.19213496 -0.09486373 0.061056048 -0.14445554 0.1697953 0.062366214 -0.05431436 -0.059975516
-0.031345367 0.066811495 0.06726751 -0.021330282 -0.08361292 -0.021904241 -0.0010951262 0.024616381
0.011999269 0.057527296 0.09227979 0.085780516 -0.07014966 0.053690173 0.09823712 0.067930676
-0.07092995 -0.013648118 -0.10375969 0.0047553983

convs.0.bn1.weight f4 [92]
00000000: 382d 8e3f 976e 953f eb71 1640 d9c4 623f
00000010: 95d3 8640 dc3a d13e b523 1c40 1453 cb3f
00000020: 5b38 e63f b470 fb3f 4ae2 e83f bc9c 4040
00000030: 8a77 7d3f fffe c53f a9b3 b43f 582a 0e40
00000040: 03ad e43f 0b5f 8a3f 3656 d63f 00cf bf3f
00000050: e84e 0140 b511 0b40 0233 2440 abfc b53f
00000060: 5946 c93f a9e1 e73f 2943 f83f 0678 0e40
00000070: 253f 703f 20b9 1740 d6e6 ba3f 9c8c 3a40
00000080: 6109 1a40 7f5c 7a40 f36e 0240 6c0b 0140
00000090: 7533 0e40 ede3 de3f d3e9 0140 f958 2140
000000a0: 1b8b 2640 0369 2640 fb11 3940 f518 a33f
000000b0: eeba dc3f 57a1 1440 e990 183f f029 953f
000000c0: 4569 6c3f 48ee b73f 1157 2d3f 2365 0840
000000d0: 31da 1b40 b6c1 c23f 3a94 b33f 9ae3 1340
000000e0: b87b 0c40 9550 aa3f b7af ae3f 59da b83f
000000f0: 65c9 de3f f1bd 0540 e0a6 963f fd51 be3f
00000100: 4b71 223f 9dd8 df3f 07dc 7b3f 03fb 0240
00000110: d39d 7c3f c794 1f40 2e6e a03f b930 be3f
00000120: f711 d33f 1a41 373f 261e 113f 13af 1840
00000130: 9200 0340 a4a5 663f 9648 6e3f 230d 823f
00000140: 82c5 e53f 5cea 6a3f b354 c03f e095 963f
00000150: d304 e73f a284 0940 a8fe 2f40 c9b2 4c3f
00000160: 3d28 d53f 6144 cf3f 5e1c 8a3f 73fb 943f
1.110755 1.1674374 2.350703 0.88581616 4.213328 0.4086522 2.4396794 1.5884728
1.7985948 1.9643769 1.8194058 3.0095663 0.9901053 1.5468444 1.4117328 2.2213345
1.7865299 1.0810255 1.674506 1.4985046 2.020441 2.1729558 2.5656133 1.4217733
1.5724593 1.8115741 1.9395496 2.2260756 0.9384635 2.3706741 1.4601696 2.914832
2.4068224 3.9118955 2.0380218 2.0163221 2.2218907 1.7413307 2.0298965 2.5210555
2.6022403 2.6001594 2.8917224 1.2741991 1.7244546 2.3223474 0.59596115 1.1653423
0.9234813 1.4369593 0.6771098 2.131173 2.4351923 1.5215366 1.402961 2.3107667
2.1950512 1.3305842 1.3647374 1.4441634 1.7405211 2.089718 1.1769676 1.4868771
0.6345412 1.748798 0.9838261 2.0465705 0.9867832 2.4934556 1.2533624 1.4858619
1.6489857 0.7158371 0.5668663 2.3856857 2.0469098 0.900965 0.9307951 1.0160259
1.79509 0.91763854 1.5025848 1.1764488 1.8048347 2.1487203 2.749918 0.79960304
1.6652905 1.6192743 1.0789907 1.1639236

convs.0.bn1.bias f4 [92]
00000000: 7b15 98be 5e82 65be d43d 96be 2fbb 83bf
00000010: b6c1 243e 2c00 f63d 3961 01bf 7b24 eebc
00000020: efbd 62be 224a 40bd fa94 4a3e 0c8f 773e
00000030: a622 c7bd 42fd 5e3e b1d9 583e 7f9f 1bbf
00000040: 64aa 97bd 25de e33e 26aa adbf 6deb 2b3d
00000050: 2701 9ebe b630 64be dba2 30bf 0d93 2b3d
00000060: a23d 8d3d 0c67 a0bc fc23 3f3e aeff 26be
00000070: 1820 f6be a2e3 9c3e 1c92 963d 2628 c8be
00000080: 63e7 88be fc0f ccbd 3600 1a3f 2091 b3be
00000090: af1b 33bf be3a 8e3e 3723 123d 784d 0ebe
000000a0: 7775 cebd a5b8 c5bf d94c 69bc 1a8c 51be
000000b0: 4761 ee3d 3bcf b6be e967 14bf 8555 71be
000000c0: 7800 b6be dcf7 24bf c471 3c3f c01f 193e
000000d0: 96c0 e13d 1d4c 81be 087f 43be 49f7 2f3e
000000e0: 759a 3ebd 94f9 ea3e 94b8 b7be ae98 4e3d
000000f0: a3bd 653e fa44 adbd 4128 ebbe c0ab b5be
00000100: 41f8 26bf ad5f 233e 21e8 f9be c46e 73bc
00000110: 05cd 9bbe 3c74 8e3c 3e2b 59be 18f0 c83c
00000120: d064 1ebe 9bd1 1cbf 2917 44bf 6e4b 413d
00000130: 61a8 01be b1f9 0dbf 7b19 04bf 96b0 c8be
00000140: b4cf fc3e f835 0bbf 19bc b2be a8c8 a23e
00000150: 9412 1cbe 9308 0b3e 4ae7 9c3c 4634 3bbf
00000160: e0dd abbe f2c4 f3be 69fa b9be a955 d1be
-0.29703888 -0.22413012 -0.29344046 -1.0291499 0.1608952 0.120117515 -0.50538975 -0.02907013
-0.22142766 -0.0469457 0.19783393 0.24175662 -0.097234055 0.21776298 0.21176793 -0.60790247
-0.07405546 0.4450542 -1.356755 0.041972566 -0.30860254 -0.22284207 -0.689985 0.041888285
0.06896521 -0.019580387 0.1866607 -0.16308472 -0.4807136 0.3064242 0.07352087 -0.3909313
-0.26739034 -0.09963986 0.6015657 -0.3507166 -0.69964117 0.27779192 0.035678115 -0.1389674
-0.100809984 -1.5446974 -0.014239513 -0.20463601 0.11639648 -0.3570498 -0.57971054 -0.2356778
-0.35547233 -0.64440703 0.7361109 0.14953518 0.11023061 -0.25253382 -0.19091427 0.17184176
-0.04653402 0.45893538 -0.3588301 0.050438575 0.22435622 -0.08460422 -0.4592915 -0.35482597
-0.65222555 0.15954466 -0.48809913 -0.014857952 -0.30429855 0.01738941 -0.21207902 0.024528548
-0.15468144 -0.6125733 -0.7659784 0.047191076 -0.12661888 -0.55459124 -0.5160138 -0.39197224
0.49377215 -0.54379225 -0.34909132 0.31793714 -0.15241462 0.1357749 0.019153256 -0.7312664
-0.33567715 -0.47611195 -0.3632386 -0.40885666

convs.0.bn1.running_mean f4 [92]
00000000: 25b1 a2bd 887b 1640 62d6 2dc0 7b8c 9040
00000010: ca87 42bf ff40 6b40 618c 05bf 14a4 7540
00000020: 97f0 bc3e aa42 cb40 889f 9340 41ae fb3f
00000030: d403 993f e4a1 01c0 87aa 82c0 0a53 b2c0
00000040: 6185 3340 6a2b 2f40 db1f 84bf 1371 02c0
00000050: 557a 9fbe 5343 3040 e066 cc3e 2b82 f1bf
00000060: e9a8 2fc0 1b03 33c0 787a 36c0 ae1a 80c0
00000070: 13eb 5340 a46c a73f d541 88bf e04f 303e
00000080: 5c2d ebc0 984a 1e3d c663 ea3f ff5c 9640
00000090: 4772 e4be 6df7 bcbf 51ae 8040 be42 ec3f
000000a0: dbf8 06bf d8ea 93be e7cc 053f c436 8940
000000b0: 0fa5 a73f c1e0 4bc0 8c67 11be b1ce 3ec0
000000c0: ce54 80bf 18a1 a33f a45c c6c0 e05f 2d40
000000d0: 4c49 0cc0 1d94 0ac0 1b62 763f 596b 913f
000000e0: 364e 6e40 539d adbd 5ab9 5f3e 3f57 2bc0
000000f0: 199d 81c0 93cf a2be 9e2a 6ec0 40a7 7740
00000100: c44d 3fc0 b34e ad3f 84d7 f1bf f992 4bc0
00000110: fcd3 e5bf 15cc acbf baf5 c8c0 4133 89c0
00000120: 6c4f dfbf 0967 55bf c057 4b3f a32f 9f3f
00000130: 7eb8 8f3f f99b 73bf c654 a7bf 8f82 20c0
00000140: 3b6b 3240 523b 6340 f2bf 52be 3a61 4740
00000150: 5dfb 2140 d1b2 7bc0 ab01 84c0 0914 86bf
00000160: 9bb4 4d40 b486 7440 f33f f2bf 090d 20c0
-0.07943944 2.3512897 -2.71621 4.5171485 -0.7598845 3.675842 -0.52167326 3.8381395
0.36902305 6.3518877 4.613224 1.9662553 1.1954293 -2.025506 -4.0833163 -5.5726366
2.8050158 2.7370248 -1.0322222 -2.0381515 -0.3114802 2.7541091 0.39922237 -1.8867849
-2.7446845 -2.7970645 -2.851225 -4.003257 3.3112228 1.308003 -1.064509 0.1721797
-7.349287 0.038645357 1.8311698 4.698852 -0.44618437 -1.4763008 4.021279 1.8457868
-0.52723473 -0.2889011 0.5226578 4.2879353 1.3097247 -3.185593 -0.14199656 -2.9813654
-1.002588 1.2783537 -6.1988087 2.7089767 -2.1919737 -2.16529 0.9624345 1.1360885
3.7235236 -0.08477273 0.2184805 -2.6772 -4.050427 -0.31798992 -3.7213511 3.8695831
-2.9891214 1.3539642 -1.8893895 -3.1808455 -1.7955317 -1.3499781 -6.279996 -4.2875066
-1.7446113 -0.83360344 0.7943077 1.2436413 1.1228178 -0.9515987 -1.3072746 -2.5079687
2.7877948 3.5504956 -0.20581034 3.1153092 2.530967 -3.932789 -4.1252036 -1.0474864
3.2141483 3.8207216 -1.8925766 -2.5007956

convs.0.bn1.running_var f4 [92]
00000000: e893 ba41 f919 d941 2253 1c42 5c0e 3142
00000010: 91c0 0842 94bd 8941 13ba 2f42 35ca 0442
00000020: 49a8 0242 33c7 6442 dc13 0042 75f6 4042
00000030: c267 4542 32e4 3142 3c2f 5542 c3a2 0242
00000040: 21bd ef41 7852 2242 b4b2 f641 09f0 d041
00000050: 4968 3d42 dc2b fb41 5d03 4342 83ba 5542
00000060: f0b0 2242 f7c9 0942 d198 cf41 d743 1042
00000070: 6bf8 f041 a1c7 b841 2aa4 0d42 5e66 3d42
00000080: 08d3 5e42 8780 5542 eb0e 2642 e9bc 2142
00000090: 90a4 1742 d52b 6342 5334 0d42 9301 1542
000000a0: 5bb2 4142 bfb5 8741 2e9d 2142 edf3 d841
000000b0: 70db 9e41 d545 1d42 109b 7141 d3c6 2042
000000c0: d533 ef41 71c4 0242 dbc7 fe41 9f9b 1d42
000000d0: ca7b 4042 cbca 4b42 4d24 e341 48d5 8742
000000e0: 9ea2 4742 7454 2542 85ff 1c42 3373 e441
000000f0: c517 3042 78a8 dc41 6b60 c841 9ae5 5842
00000100: 69b9 5442 6136 cb41 436f 3542 f8bd 0c42
00000110: 28a0 e841 7e93 3e42 5754 0d42 faac 2342
00000120: 0865 0142 caf4 f741 5128 2842 c7bf 6942
00000130: c41d 1442 5a78 bd41 b02c c241 0a39 8342
00000140: 09d4 4d42 cb2a 5342 69d3 0442 f118 5a42
00000150: 9bf5 2342 6e75 0742 e64c 2842 605c a941
00000160: 6e27 2642 bbbe 1242 04ad 0342 55e8 3f42
23.32222 27.137682 39.081184 44.264023 34.188053 17.217567 43.931713 33.197468
32.66434 57.19453 32.019394 48.24068 49.351326 44.472847 53.296127 32.658947
29.967348 40.580536 30.837257 26.117205 47.35184 31.396416 48.753284 53.43214
40.67279 34.44723 25.949617 36.06625 30.121298 23.097475 35.410316 47.349968
55.706085 53.375515 41.51457 40.434483 37.910706 56.792805 35.301098 37.251537
48.424175 16.963743 40.403496 27.119104 19.857147 39.318195 15.100357 40.194164
29.900309 32.691837 31.847586 39.401974 48.120888 50.94804 28.392725 67.916565
49.908806 41.332474 39.24953 28.55625 44.023212 27.58226 25.04708 54.22422
53.181065 25.401552 45.358654 35.185516 29.078201 47.644035 35.332363 40.918922
32.348663 30.994526 42.03937 58.437283 37.029068 23.683765 24.27182 65.611404
51.457066 52.79179 33.206455 54.524357 40.98985 33.864677 42.075096 21.170105
41.538506 36.68626 32.91896 47.976887

convs.0.bn2.weight f4 [46]
00000000: f53b 703f f628 a53f 248d a23f 3fd1 793f
00000010: a3c0 a73f eabe ad3f 647b ba3f a35c bb3f
00000020: f908 933f d018 933f 2793 843f bbcb ab3f
00000030: 0b33 953f 30ba 873f 9f26 a23f 4617 b73f
00000040: 5467 a83f de74 6d3f 0d16 db3f 91b8 873f
00000050: 9798 ba3f e93b 993f 5937 dd3f 4fae 883f
00000060: 2155 913f e604 853f fdc6 a13f dd5f d43f
00000070: b59f 963f 87b7 913f 5596 683f becf 6b3f
00000080: 69ad 913f 8421 a73f 4685 813f d98e 9d3f
00000090: fa02 b03f c2b7 b23f a58f 913f 34cf 393f
000000a0: 16d7 953f b067 e33f 9735 933f 9d91 833f
000000b0: 43c7 9c3f 5865 b23f
0.9384149 1.2903125 1.2699323 0.9758491 1.3105663 1.3573887 1.4568906 1.4637645
1.1487113 1.1491947 1.0357407 1.3421549 1.1656202 1.0603695 1.2668036 1.4303977
1.3156533 0.9275645 1.7116104 1.06032 1.4577817 1.1971408 1.7282516 1.0678195
1.1354104 1.039212 1.2638851 1.6591755 1.1767489 1.1384133 0.9085439 0.92113864
1.1381046 1.3057103 1.0118797 1.2309219 1.3750908 1.3962328 1.1371962 0.7258179
1.1706264 1.7766018 1.1500729 1.0278813 1.224831 1.3937178

convs.0.bn2.bias f4 [46]
00000000: cb34 e4be 0e8e f7be f997 06bf 77bf debe
00000010: 72f4 13bf d8a7 e0be b1a5 973d 35e1 d5be
00000020: e7c4 ccbe 092c 503d 95c0 91be 6a92 9fbe
00000030: ed43 5bbe 6622 e0bd a875 ffbd 6efc 49be
00000040: aab4 16be 5608 10bf 3017 e93e 0104 e0be
00000050: 121f 6fbe fee9 82be b436 80bc 30ef 82be
00000060: 7627 9ebe 031a adbe 984a b2be 8acd fdbd
00000070: 4e41 12bf 601f c9be 517c a83d d8ba afbd
00000080: 557a 7dbe 7eaf 24be 2bbd 143d 1bd1 e0be
00000090: 6893 c1be 4262 8dbe 81d8 e3bd 4c2d 68be
000000a0: 30f7 26be d155 cfbd 18c6 04bf e053 50be
000000b0: 49f0 88be 29ea 1dbe
-0.44571528 -0.48350567 -0.5257564 -0.4350545 -0.5779487 -0.43878055 0.0740465 -0.41773382
-0.39993975 0.050823245 -0.2846724 -0.31166393 -0.2141263 -0.10944061 -0.12473613 -0.197252
-0.14717355 -0.5626272 0.45525503 -0.43753055 -0.23351696 -0.25569147 -0.015651084 -0.2557311
-0.3088948 -0.33808908 -0.34822536 -0.12392719 -0.571309 -0.3928175 0.082268365 -0.085805595
-0.24753697 -0.1608257 0.036313217 -0.43909535 -0.37807775 -0.27614027 -0.11125279 -0.2267353
-0.16305232 -0.1012379 -0.5186477 -0.20344496 -0.26745823 -0.15421356

convs.0.bn2.running_mean f4 [46]
00000000: a994 ab3e 759b 0140 1fe0 dd3f 3943 df3f
00000010: 8eac c040 7215 dc40 1202 ca40 9130 8140
00000020: f374 7440 6a2d e640 a268 0141 b312 cd40
00000030: fd55 4840 cda8 a440 3c51 c540 8d0b 5340
00000040: cb56 0340 b479 9040 d7ba 903e 53fc ba40
00000050: 1cca e63f 0161 dd40 9ba7 673f 2fe3 0541
00000060: 34d6 5840 3d9d 6b40 33a9 9940 f4a3 2a3f
00000070: 8325 9a3e 2a8b 1d41 1ace ed40 0890 893f
00000080: bdd6 a53f a489 0540 55b3 1b41 66f0 c13f
00000090: f7b4 2f40 7f50 ab40 25ec a040 c8a1 c140
000000a0: 3bb7 0741 c8f1 9e3e 9bb2 8840 2d9a 9240
000000b0: 2dde 2140 31ba 1640
0.33511856 2.0251133 1.7334021 1.744239 6.021064 6.877618 6.3127527 4.0371785
3.819638 7.1930437 8.088045 6.4085326 3.1302483 5.1456056 6.1661663 3.29758
2.0521724 4.5148563 0.28267547 5.8433013 1.8030429 6.9180913 0.9049012 8.367965
3.388074 3.681472 4.801904 0.6665642 0.30106744 9.846476 7.431409 1.074708
1.2956158 2.086526 9.731282 1.5151489 2.7454202 5.353576 5.028826 6.0509987
8.482234 0.3104384 4.2718024 4.5813203 2.5291855 2.3551142

convs.0.bn2.running_var f4 [46]
00000000: 513f 6f40 3440 3941 2a95 0e41 abc4 2741
00000010: 13b0 b541 a537 3142 2f6b 6542 1e21 0b42
00000020: 51a8 8942 92cc 8342 b197 ad42 e315 7a42
00000030: 9b0e ed41 66cb 5842 b321 4442 81de 8441
00000040: f42e 0741 e783 2d42 687a c83e f490 3342
00000050: 3420 1441 1e35 cb42 6f4e 8840 b65f eb42
00000060: 8768 2342 2b7c c641 b92c 0542 73d3 2e40
00000070: ed81 203f e15f 3a43 f446 2543 b0f1 4640
00000080: 747f 2741 cadf 7941 9afc 3243 6021 b740
00000090: 5c0c 1342 3cdb bc41 004c 3642 1272 0043
000000a0: d094 0143 12f2 c13e a83c 5f42 9063 8442
000000b0: 3eb5 6a41 e0e9 3b41
3.7382395 11.578175 8.911417 10.485515 22.710974 44.30434 57.35467 34.78234
68.82874 65.89955 86.79627 62.521374 29.632132 54.19863 49.03291 16.608644
8.448963 43.37881 0.3915589 44.891556 9.257862 101.603745 4.2595744 117.686935
40.852077 24.810629 33.293674 2.7316558 0.6269825 186.37453 165.27716 3.1085014
10.4686165 15.617136 178.98672 5.722824 36.76207 23.607048 45.57422 128.44559
129.5813 0.37879997 55.809235 66.19446 14.669249 11.744598

convs.1.fc_full.weight f4 [92, 98]
00000000: 261d a73e 26bd 95be 4498 87be bfdd 733f
00000010: 3dae ac3e eef7 4abe dbff 163e 48c8 87bd
00000020: 02c0 613e 0df3 733e 02e4 223e 411e 453e
00000030: 1bec 85bb d553 023e 6b7a 133d 4b29 303e
00000040: 030f abbc 54fb 783d f845 203e a36c 6e3f
00000050: e9e3 803e fc54 33be 1d91 73be b2a5 e8bc
00000060: f2d7 a2be 872a 34bd 1646 1fbe 4175 8b3e
00000070: d314 0f3f 29e4 e2be 8195 6c3d 8be5 263e
00000080: 345c ffbe 83dc aabe a009 67be 5ca0 0b3f
00000090: f540 af3e aa30 d23d 69d0 fcbb 7e09 d83d
000000a0: 28a1 ae3e 7ea7 653d bcb3 2fbe ab5e 55be
000000b0: c9a9 b1be 4e38 293d 1f83 283f d88f d5be
000000c0: 4101 b53e 7f4e 443e 622d 82bf 03a4 2dbf
000000d0: 1b8d d7be aa15 bcbe e6ff fb3d 1104 b3be
000000e0: 8749 2b3b ba83 85bf 46bd 673e f34e 7ebd
000000f0: 27e3 983e c2f1 edbe 5063 0fbe 076a ddbd
00000100: e878 3b3e e050 c43e 2234 e03e 19f5 f6bd
00000110: 5f10 abbe 5cf7 32be ea02 39bf 3c60 34bf
00000120: e0fb ab3e 3635 44be 7d0b 42bf 4942 efbe
00000130: 80e6 763e 65c6 c03f 7ae1 b1bd e18f 3a3c
00000140: 219b a53e 9ac5 a63e bee1 7f3e e9bd 7bbe
00000150: 76a8 2c3f bc4b fa3c c358 8c3f 5b1e 743e
00000160: 260d 343e a58c 6f3d 37b8 193f 1202 21bf
00000170: 8be7 8a3f 091f d93d 9315 4ebf e99d 9fbe
00000180: 3c77 24bf 6b01 59bf 2eec 3b3e 88cb 65bd
00000190: 3c86 febe 20a5 fc3c 5dfb 8dbe 6b15 353e
000001a0: 479e c7be f818 233f ef02 983d a52a 0fbf
000001b0: a816 f23e 2ea9 0c3f d761 843d 5c4d 363f
000001c0: 3d53 723e 0226 a9bd 311a 8bbe 5776 103e
000001d0: 7b21 aebe 53ef 303e e8ed 96be af2e 60bf
000001e0: 8a85 1cbf de5d 3bbe 1b88 a2be 14c7 7abf
000001f0: 7f3f 22be a3ad f0bd b5e8 42bf caf2 09bf
00000200: 7d84 3d3e ce07 03bf 8d90 e53e 7a28 dc3e
00000210: db5c d0be 394b 063e 8b1f 963d a16b 83bf
00000220: df44 7cbe 2b2d 4cbf f0d1 163e ee89 c2be
00000230: 55a5 ad3e ea04 debe 9628 96bf 14a9 e4bd
00000240: 899a a13d e22f ac3d f169 1f3e 1dbe 67be
00000250: a6a9 30bf 6d88 8c3e 736e 0dbf 49b2 0dbe
00000260: a5d2 573d 2e52 2f3e fc0c e33d c570 d4ba
00000270: 441c c13e 12d9 8d3e b654 0fbf b035 32bf
00000280: 9ad3 fd3e 26af debc e909 72be ab90 60be
00000290: 2f09 dabe c419 01bf bfa2 b7be cd8f f13e
000002a0: 22f7 eabe 6a09 803e c3ce 11be 0146 2abd
000002b0: 6b8c 103e e6b6 a2bd 7841 d23d 5929 55bf
000002c0: 71c1 bb3d 4346 92be 7933 12bf 1869 0c3e
000002d0: bdb0 8d3e 4fce ee3e d0aa 5e3e 14f8 29bf
000002e0: a036 02bf 9add 21be ed1c d8be e458 2ebf
000002f0: a9d1 c3be 8a07 923d c088 dabe 0daf d93e
00000300: e272 513f c45d 003f 6516 03bd 2d4e 39bf
00000310: c23a 933b 9d5e 3c3f 9599 e0bb d3c3 9abc
00000320: 44e0 883c 6023 a93e aee5 c9be 618e 28be
00000330: ff26 89be 2857 8fbe 3a09 47bf f3cb 0d3f
00000340: c0db 1ebf 9494 5a3f f891 ea3e 5794 2b3e
00000350: db9f 253e 74f9 97be 1c27 1abe 4007 3f3d
00000360: ad6d ecbd 1727 403d 2c43 863e c0e2 e9be
00000370: 4572 a7be f386 0f3f 5afb 16be 2036 f73e
00000380: 15e3 8f3e c847 ae3e d981 eebd fe2b 0c3e
00000390: bb83 883e 0379 f9bc 7bad 77be 6852 113f
000003a0: f3b4 953e 0b27 933c af29 39be 6e4d a53c
000003b0: 490f 8dbe 5a4b cebc 9239 b13e b495 74bd
000003c0: 9e22 05bf 1445 5bbf e412 613e bc13 9abe
000003d0: c547 e0be 8211 8ebd c5ef 02bf d22a 4ebe
000003e0: acea bb3e 1d73 84bd ff31 55be c21b e23e
000003f0: fc74 8aba a2f0 0f3f e653 e0bd 0a53 b03e
0.32639426 -0.2924587 -0.26483357 0.9526023 0.33726683 -0.1982114 0.14746039 -0.066299975
0.22045901 0.23823185 0.1590729 0.19249822 -0.004086984 0.12727292 0.03600542 0.17203252
-0.020881182 0.06078656 0.15651691 0.93134516 0.25173882 -0.17512888 -0.23785825 -0.028399322
-0.31805378 -0.04398587 -0.1555408 0.27237895 0.5589115 -0.44314697 0.057759766 0.16298501
-0.49875033 -0.33371362 -0.22562265 0.54541564 0.34229246 0.10263188 -0.007715274 0.105486855
0.34107327 0.056067936 -0.17158407 -0.20836894 -0.34699848 0.041313462 0.65825075 -0.41711307
0.3535252 0.19170569 -1.01701 -0.6782839 -0.42099842 -0.36735278 0.12304668 -0.3496404
0.0026136355 -1.0430825 0.22630796 -0.06208701 0.29860803 -0.4647351 -0.14002728 -0.10811239
0.18307841 0.38342953 0.43789774 -0.120584674 -0.33410928 -0.17477173 -0.7227007 -0.7045934
0.33590603 -0.19160923 -0.7579878 -0.4673026 0.24111366 1.5060545 -0.08685584 0.0113868425
0.32344916 0.32572633 0.24988458 -0.24584164 0.6744455 0.030553691 1.0964588 0.23839705
0.1758314 0.05848374 0.60046715 -0.62893784 1.0851911 0.106016226 -0.8050167 -0.31175163
-0.6424444 -0.8476779 0.18351814 -0.056102306 -0.49711788 0.030840456 -0.27730837 0.17683952
-0.38987944 0.63709974 0.074224345 -0.55924445 0.4728291 0.5494565 0.06463974 0.7121179
0.23664565 -0.082592025 -0.2716842 0.14107643 -0.3400992 0.17278795 -0.29478383 -0.87571234
-0.61141264 -0.18297526 -0.31744465 -0.9796002 -0.15844534 -0.117518686 -0.7613633 -0.5388609
0.18507572 -0.51183784 0.44836846 0.4299963 -0.40695843 0.13114633 0.07330235 -1.0267221
-0.24635647 -0.7975642 0.14728522 -0.37995857 0.339152 -0.43363124 -1.1731136 -0.111650616
0.07890803 0.084075704 0.15567757 -0.22631116 -0.6900886 0.27447835 -0.5524666 -0.13837542
0.05269112 0.17121193 0.11086461 -0.0016207924 0.37716877 0.27704674 -0.55988634 -0.6961317
0.49575502 -0.027183127 -0.23636593 -0.21930186 -0.42585132 -0.5042994 -0.35866353 0.47180024
-0.45891672 0.25007182 -0.1423903 -0.041570667 0.14116065 -0.07945041 0.102663934 -0.83266217
0.091677554 -0.2856923 -0.5710979 0.13711965 0.27673903 0.46641776 0.21744847 -0.6639416
-0.508646 -0.1580719 -0.4220957 -0.68104386 -0.38245896 0.07130344 -0.42682457 0.42516366
0.8181592 0.50143075 -0.03200378 -0.7238491 0.0044930885 0.7358187 -0.006854246 -0.018892204
0.0167085 0.330348 -0.39433044 -0.16460563 -0.26787564 -0.27996182 -0.77748454 0.55389327
-0.6205406 0.8538296 0.4581449 0.16755806 0.16174261 -0.29682505 -0.15053982 0.046637774
-0.115443565 0.04691228 0.26223123 -0.4568081 -0.32704368 0.5606529 -0.1474432 0.48283482
0.28102937 0.3403914 -0.1164586 0.13688657 0.26663002 -0.03045321 -0.24187271 0.56766367
0.29239616 0.017962953 -0.18082307 0.020178523 -0.27550724 -0.025182415 0.34614235 -0.05971308
-0.52005947 -0.8565228 0.21979862 -0.3009318 -0.43804756 -0.06936933 -0.5114711 -0.20133522
0.36702478 -0.064672686 -0.20819853 0.44161803 -0.0010563429 0.5622655 -0.10953502 0.34438354

convs.1.fc_full.bias f4 [92]
00000000: 7d8d 3ebd 351f 19be bcfd ac3c dbcc b43c
00000010: 1bec c538 119b b4bd 3e7a e23c e77b 42bb
00000020: 1620 65bd e8d2 693d ed59 36bc 6fc0 a7bd
00000030: e651 92bd c8bb 16bd 5aa4 243d 5dfc 25bd
00000040: e3d6 0c3d 3508 b0bd 143f cf3d 3a5b e73d
00000050: eaf1 663d 81f4 9c3d 2586 b0bd a33e aebd
00000060: a33b 493d 3391 943b bc84 39bc 5316 8d3d
00000070: 0165 9a3d b775 163e a6e1 a9bd bd26 2cbc
00000080: 8500 9fbd 916f 783d 7b23 6cbd dbce 91bd
00000090: 1bf1 a73d 9f24 b73d c9d1 6b3d 6712 2d3d
000000a0: 9317 c83c 69b3 c3bd 5f43 a13c eebd 273d
000000b0: ab4f 0abd 1c7f 9b3c 90a7 d13d 69b1 f1bc
000000c0: d1c3 cd3d b884 f8bc b895 9d39 f83d d0bd
000000d0: 52d4 5ebd 2ede b13d 6b01 05be b866 71bd
000000e0: deb2 bcbd 91d1 9d3c 9816 1e3d 9162 d0ba
000000f0: de65 ea3c 2777 27bd ada2 033d 93d9 2b3d
00000100: 01f1 81bd dbac c93d 341a c73d feed 013b
00000110: 0436 5a3d 57b0 3abd 0c22 5dbd 07d5 09bc
00000120: 9c78 9dbc cf8b a0bd f06d 37bc 8ccb e2bc
00000130: 07dd 043e 18cd abbc 1546 7cbd 0d50 edbb
00000140: a345 9fbc a7c6 acbb fd1a 6e3d 119e be3d
00000150: 6d9d b33d 7dcc 46bc 0fd9 cabd c74e adbd
00000160: 501f 193e 95e9 67b9 3910 dc3c 78bf 9ebd
-0.046521652 -0.14953311 0.021117084 0.022070339 9.43767e-05 -0.08818639 0.02764618 -0.0029675902
-0.055938803 0.0570859 -0.011129838 -0.08191001 -0.07144527 -0.036800176 0.0401958 -0.040523876
0.03438462 -0.08595315 0.10119453 0.11296697 0.05638305 0.07663823 -0.08619336 -0.08508041
0.04912914 0.0045339107 -0.01132315 0.06889024 0.07538796 0.14693342 -0.08294992 -0.010507283
-0.07763771 0.060653273 -0.057651024 -0.07119533 0.08200284 0.08942532 0.057573114 0.042253878
0.024425304 -0.09555704 0.019685445 0.040952615 -0.033767384 0.018981509 0.10237038 -0.029503541
0.10047115 -0.030336723 0.00030056923 -0.101680696 -0.054401703 0.086849555 -0.12988822 -0.05893585
-0.09213804 0.019264968 0.038595766 -0.0015898516 0.028613027 -0.040885117 0.03213756 0.04195554
-0.06344796 0.09847423 0.09721795 0.0019825692 0.05327417 -0.045578327 -0.053987548 -0.008412606
-0.01922255 -0.078391664 -0.011195645 -0.02768495 0.1297494 -0.02097182 -0.061590273 -0.007242209
-0.019442385 -0.0052727046 0.058131207 0.093074925 0.08770261 -0.012133715 -0.09904682 -0.08462291
0.14953351 -0.00022116893 0.026863204 -0.077513635

convs.1.bn1.weight f4 [92]
00000000: a091 0540 291d c23f ba09 ed3f 4f4a ee3f
00000010: 2278 f63f d3ae 8040 9e00 e63f 7eb7 ea3f
00000020: 66c5 b13f 05d6 2840 136a 1540 5611 1a40
00000030: 46f4 eb3f cfab a33f 7452 e13f 15c9 ea3f
00000040: 0e98 2340 1954 2240 a4d1 0b40 a198 2640
00000050: 7214 f03f 72a8 1340 ebfa 0c40 1254 3940
00000060: 527b 0340 6f9e 1240 4580 0b40 40a0 bb3f
00000070: 814f eb3f a8d6 2940 8553 ee3f c2f9 b53f
00000080: 22fa f03f ff8c 8640 a3e5 4840 29ad 1c40
00000090: c455 4540 ce75 6d40 2f4b 1440 3cdd 1e40
000000a0: 8046 f93f 4291 5040 1a6a b03f 2aa7 6540
000000b0: 8eca 0340 505b ca3f e8f0 153f 9752 5a3f
000000c0: 1885 4e3f 7708 513f c621 3740 f428 913f
000000d0: a63d d43f 165b ed3f e222 703f 00bc 1740
000000e0: 1577 823f 0ade ee3f 88b4 ef3e 796d 273f
000000f0: c1f3 de3f 1f94 133f 1000 4f3f e0ce 963f
00000100: 2c54 773f cecd 1d40 6029 393f 226b 0140
00000110: 3aa0 ad3f 8529 913f 80bc 8e3f afd8 913f
00000120: 7667 ce3f ddb4 7d3f 7c80 523f fe28 f93f
00000130: 8f8e 253f f199 1e3f 0fe8 cf3f ff6c 8d3f
00000140: 67e3 a73f b076 1240 5524 173f 7e22 b53f
00000150: 1fd5 da3f 89e4 b53f f2e2 353f 2539 b13f
00000160: 1bbd 833f c660 773f de06 323f 1c35 883f
2.0870132 1.5165149 1.8518593 1.8616427 1.9255412 4.021341 1.7968938 1.8337247
1.3888366 2.6380627 2.3345993 2.407308 1.8433921 1.2786807 1.7603288 1.8342615
2.5561557 2.536383 2.1846704 2.6030657 1.875624 2.307156 2.2028148 2.8957562
2.0544019 2.29092 2.179704 1.465828 1.8383638 2.6537266 1.8619238 1.4216845
1.8826334 4.2047114 3.139016 2.4480689 3.0833597 3.7103152 2.3170888 2.482253
1.947464 3.2588658 1.378238 3.588328 2.059238 1.5809116 0.5857072 0.8528227
0.80671835 0.8165354 2.8614364 1.1340623 1.6581314 1.8543422 0.93803227 2.3708496
1.0192591 1.8661511 0.46817422 0.65401417 1.7418138 0.5764789 0.8085947 1.1781883
0.9661281 2.4656863 0.7232876 2.0221639 1.3564522 1.1340796 1.1151276 1.1394252
1.6125324 0.991041 0.822273 1.9465635 0.6467065 0.61953646 1.6242694 1.1048888
1.3116273 2.288494 0.59039813 1.4151151 1.7096289 1.4210368 0.71049416 1.3845564
1.0292085 0.9663204 0.6954173 1.0641208

convs.1.bn1.bias f4 [92]
00000000: ca92 8fbe 4a9b dc3d 28ac 7dbe 23dd 4dbe
00000010: 0451 38bf acda 38be 578f b43d 04f2 e73d
00000020: 38eb 79be 80dc d2bd 668f 10bf 79fa aebe
00000030: 981f b1be 8755 06bf 2625 0ebf f9b0 13bf
00000040: fc96 89bf c3c0 ddbe 24f9 13bf 6bf1 78be
00000050: ab1b 16bf 9ee6 6b3d 9a8f 1abe e969 5dbe
00000060: 9bf1 e8be a17b f2be 4bfb d03e ce11 91be
00000070: f66f 30bf 8eaf 0fbf b0b5 29bf 4a1f afbe
00000080: 47be b9be a7bb 02bf 3e46 24bf 3f9a f33d
00000090: c443 1fbf a408 5dbe 5334 2ebf 6614 56bd
000000a0: 912a 28bf 32cc edbd cbdc 3ebf 8183 c1be
000000b0: 972e 58bf 4faf f4be bafa 1bbf 3058 26bf
000000c0: d095 06bf d627 29bf e93f 9ebd 3bbe f1be
000000d0: 8202 4cbe 90da a3bd 5b6e c8be d984 c8bc
000000e0: 2e49 f5be 3365 91be 24dc 4cbf ea0f 35bf
000000f0: 7cbc 44be 4ea8 38bf 9342 0cbf 9f1b 94be
00000100: ef42 f4be b513 b23d 88ad b2be cd6c 813d
00000110: dfc5 63be 4110 a2be 1681 04bf ca7d 2dbe
00000120: 702c 35be e610 9dbe 0574 2bbf 6f07 d93d
00000130: 74ad 32bf b44d 28bf 137e 90be 6be8 e0be
00000140: e8bb 97be 1a61 423d ee27 2cbf 49a5 c7be
00000150: 1801 54be da02 933e 5761 4fbf 3dad 413e
00000160: fba7 13bf 1560 c1be 6dcb 37bf d6a7 09bf
-0.2804168 0.107718065 -0.24772704 -0.20103888 -0.7199862 -0.18052167 0.088164024 0.11325458
-0.24406135 -0.10295963 -0.5646881 -0.3417547 -0.34594417 -0.52474254 -0.55525434 -0.57691914
-1.0749202 -0.43311128 -0.57802033 -0.24310844 -0.5863597 0.05759298 -0.15093842 -0.21622433
-0.4549683 -0.47359946 0.4081672 -0.28333896 -0.6892084 -0.5612725 -0.6629286 -0.3420356
-0.36277983 -0.51067585 -0.6416968 0.118946545 -0.6221278 -0.21585327 -0.6804859 -0.052265547
-0.6568995 -0.11611213 -0.74555653 -0.37795642 -0.8444609 -0.4779 -0.60929453 -0.64978313
-0.52572346 -0.6607641 -0.07727034 -0.47215447 -0.19922832 -0.08000672 -0.39146695 -0.02447741
-0.47907394 -0.2839752 -0.8002341 -0.7072741 -0.19212526 -0.7213181 -0.54789084 -0.28927323
-0.47707316 0.08695165 -0.3489802 0.0631958 -0.2224345 -0.31653026 -0.5175947 -0.16942516
-0.17692733 -0.30676955 -0.66973907 0.10597121 -0.6979592 -0.65743566 -0.28221187 -0.4392732
-0.2963555 0.047455885 -0.6724843 -0.3899329 -0.20703542 0.28713113 -0.81007904 0.18913741
-0.5767819 -0.37768617 -0.7179478 -0.5377172

convs.1.bn1.running_mean f4 [92]
00000000: 4f47 f43e 01ca b9c0 79db 01c0 23f3 263d
00000010: 6303 9b3f 2649 463e de04 9dc0 369d 78c0
00000020: cba0 85bf bbf3 453f cc43 7d3d be25 3d40
00000030: 4779 b43e 8fdd 2740 e1ad ae3e 3044 5bc0
00000040: 5bfb ef3f 2d01 4040 4faa 89bf 7d37 733e
00000050: 7aa6 793f eeed 0ec0 1d54 693e 173b 44c0
00000060: afc8 b5c0 e318 bf3f 6d55 54c0 328a f140
00000070: 17ce 95bf 3161 b640 d001 e0bf c9cf cc3c
00000080: b5ee 00be 7abc b8bf 7ed5 48bf 28ba 24c0
00000090: c410 9c3f 2f59 963e c4a3 783d bde7 13c0
000000a0: f614 b1bf ac8a 3bbf 4ff7 14c0 0eaf a9bc
000000b0: c8a9 3d40 0182 6bc0 8fb2 a63f 20d1 84c0
000000c0: 74eb 823f 3c74 4640 b57e b8c0 275b 91bf
000000d0: edb7 6bc0 cbb3 31c0 43cc 41c0 8f44 0440
000000e0: e318 6abf bb29 cec0 5913 68bf 577e 08c0
000000f0: 3a54 223f 2cf9 9c3f 93a9 8fc0 c791 9fc0
00000100: d936 893f d66c dcc0 9308 d7be cf26 0dc0
00000110: 648a f4bf 915a 56c0 83ad 95c0 0d44 5e3d
00000120: 8fdd 1ac0 c4b1 a7c0 aac9 5bc0 d0d5 9bbe
00000130: 0729 afc0 ed16 ddbd de94 5bc0 aadb 40be
00000140: 4889 72c0 819e 81c0 b48f e23f f783 0dbf
00000150: 0eb8 cf3f 82bc 84bf 31b3 66c0 2507 f8c0
00000160: 660e d5c0 6849 0140 e2a7 3fc0 5faf 17c0
0.47710654 -5.8059087 -2.0290205 0.040759217 1.2110409 0.19363841 -4.906844 -3.8845954
-1.0439695 0.7732503 0.061832234 2.9554286 0.35248777 2.6228979 0.34117034 -3.4260368
1.8748583 3.0000718 -1.0755099 0.23751636 0.9751965 -2.233272 0.22785993 -3.0661066
-5.6807475 1.492947 -3.317714 7.5481195 -1.1703519 5.699364 -1.7500553 0.025001423
-0.1259106 -1.4432518 -0.78450763 -2.573862 1.2192616 0.29364917 0.060703054 -2.3110192
-1.3834522 -0.7325847 -2.3275945 -0.020713355 2.9634876 -3.6798098 1.3023242 -4.150528
1.0228105 3.1008444 -5.765467 -1.1355942 -3.683101 -2.7765987 -3.0280921 2.0666845
-0.91444224 -6.442594 -0.9065452 -2.1327112 0.6340977 1.2263541 -4.48945 -4.986545
1.0719863 -6.8882856 -0.4199873 -2.2054937 -1.9104733 -3.3492777 -4.6774306 0.054264117
-2.4197729 -5.24045 -3.4341836 -0.30436563 -5.473758 -0.10795388 -3.4309611 -0.18833795
-3.789629 -4.0505986 1.7700105 -0.5527949 1.6228044 -1.0370028 -3.604687 -7.750872
-6.6580076 2.0201054 -2.9946218 -2.3700788

convs.1.bn1.running_var f4 [92]
00000000: 2fb7 5541 5723 e441 e624 9541 f78f 9641
00000010: 206e 8641 59eb 9141 eb0e e541 f46f 7741
00000020: b4a5 a841 7853 9841 5622 0e42 1210 b441
00000030: b12b 9341 55d2 2242 1bda 1642 927c c541
00000040: 78df a841 f933 b341 1488 c041 6512 b541
00000050: 8f73 9f41 3e45 c741 734d 9d41 3d4b d241
00000060: 1f14 bf41 3854 8641 385e e041 8db7 bd41
00000070: dfab bd41 a3b8 0b42 3976 ad41 ba28 c041
00000080: e65f ae41 5247 1342 d561 9841 3a5f af41
00000090: 7fbf 5641 0f7e bf41 0a72 a341 eccd 9541
000000a0: 24e3 cc41 90ba db41 69d6 1942 11dc cd41
000000b0: 991a 1142 3a21 ac41 d14b 8041 40e3 df41
000000c0: fc65 7141 9c67 cc41 cba9 e041 b0e5 2242
000000d0: 8b57 bc41 7acb 9341 6777 cc41 3ed6 d941
000000e0: 7ca2 0542 4c7a 3b42 f24b a141 e3c3 fb41
000000f0: b5b9 9041 affe bd41 87ce 0642 6b42 c841
00000100: 6626 ce41 f518 0642 6f6e 0242 a430 ea41
00000110: 1fe0 9541 78d9 d341 87cf bd41 5937 9241
00000120: 19cc cb41 4013 db41 8d0d 0f42 6b71 0842
00000130: b683 4a42 6b9e d341 acbe 3742 b2a8 db41
00000140: 9c88 ac41 a226 d041 6702 c141 3f2d ba41
00000150: 25ec c741 61ff bd41 2845 b241 3627 0242
00000160: 9fef fc41 8945 c741 5770 f841 a014 bb41
13.357223 28.517256 18.643017 18.820295 16.803772 18.239916 28.632284 15.464832
21.08091 19.040756 35.53353 22.507847 18.396334 40.705402 37.712994 24.685825
21.109116 22.400377 24.066444 22.633982 19.931425 24.90881 19.662817 26.286737
23.884825 16.791122 28.046005 23.714624 23.708921 34.93031 21.682726 24.019886
21.796825 36.81965 19.04777 21.921497 13.421752 23.936552 20.430683 18.725548
25.610909 27.466095 38.459385 25.732454 36.275974 21.516224 16.03702 27.985962
15.087399 25.55059 28.082907 40.724304 23.542746 18.474354 25.558302 27.22961
33.408676 46.86943 20.162083 31.470648 18.090677 23.749357 33.701687 25.03243
25.76875 33.524372 32.607845 29.27375 18.734434 26.481186 23.726332 18.277025
25.474657 27.3844 35.763233 34.11076 50.628624 26.452353 45.936203 27.45737
21.566704 26.018864 24.126173 23.272093 24.990305 23.749697 22.283768 32.538292
31.617002 24.908953 31.054853 23.38507

convs.1.bn2.weight f4 [46]
00000000: ab23 623f 65e1 5e3f d71d 993f ac15 8c3f
00000010: 78b6 7d3f 8d73 8f3f ae75 803f 44c7 823f
00000020: 5c1d 663f f4ca 863f 7c4e 943f 1351 a43f
00000030: eb05 863f 7193 a23f 3fab 953f d3e0 aa3f
00000040: 8195 813f ea7e bf3f eeb8 893f b3af 9d3f
00000050: 9c97 703f e6ec 863f 66e7 b03f 8b26 aa3f
00000060: e6d8 a93f f63e 6e3f 6913 733f 9dbf 6c3f
00000070: 5fd8 983f 5bde a13f ac2d ad3f 7546 a13f
00000080: cebe b43f 1298 953f 252f ad3f 8a7b 953f
00000090: 58b4 713f 2cf3 8d3f 4065 6a3f 38b2 5f3f
000000a0: 31b7 903f 4405 843f c841 8f3f 2b8f 963f
000000b0: aa7e cf3f 4163 963f
0.88335675 0.87062675 1.1962231 1.0944114 0.9910655 1.1207138 1.0035913 1.0217061
0.8988855 1.0530686 1.1586452 1.2837242 1.0470556 1.2701246 1.1692885 1.3349861
1.012375 1.4960606 1.0759561 1.2319244 0.9398134 1.0541046 1.3820617 1.3293012
1.3269317 0.9306482 0.9495149 0.9247988 1.1941031 1.2645983 1.3529563 1.2599627
1.4120729 1.1687033 1.3530012 1.1678326 0.9441581 1.1089835 0.91560745 0.87381315
1.1305906 1.0314107 1.119195 1.1762441 1.621053 1.174904

convs.1.bn2.bias f4 [46]
00000000: 1af2 4abf dc59 95be af06 44bf 7b71 52be
00000010: 3384 00bf acc5 18bf 5571 5dbe 05e7 bcbe
00000020: bb6a a3be 1180 70bf ff1a a1be c61c 25bf
00000030: 1731 06be c686 9cbe 7ca6 0a3c 07a1 b0be
00000040: bf6d e2bd f033 67bf 0ac0 e0be d7f4 14bf
00000050: 9eb6 90be 2b9d 99be af17 d3be 9c96 cabe
00000060: 30fe 483e eee7 20bf cba4 19bf 418c 2dbf
00000070: 8e1e 04bd e40c 58be 19c5 babe f497 acbf
00000080: 0995 75bd f394 80be 217b c1be 0f88 123e
00000090: b74b 883e a366 f0be 26d5 b73d e101 10bf
000000a0: 71a0 a0be 32e5 d2bd f121 29bd 974c 75be
000000b0: aa6b dc3e 4a97 e1bd
-0.7927567 -0.2917012 -0.765727 -0.20551102 -0.5020172 -0.59676623 -0.21625264 -0.36895004
-0.31917366 -0.93945414 -0.3146591 -0.6449703 -0.13104664 -0.30571574 0.0084625445 -0.34497854
-0.11056089 -0.90313625 -0.43896514 -0.58186096 -0.28264326 -0.30002722 -0.41229007 -0.3956803
0.19628215 -0.62853897 -0.6001708 -0.67792135 -0.0322557 -0.21098667 -0.364785 -1.3483872
-0.059956584 -0.2511364 -0.37789252 0.14309715 0.26620266 -0.46953306 0.08976202 -0.56252867
-0.31372407 -0.10297622 -0.041292135 -0.23954998 0.4305089 -0.11015184

convs.1.bn2.running_mean f4 [46]
00000000: 0dd5 fb3e e3aa 503f 6718 7c3f a70b 4e3f
00000010: 0db6 bb40 2f35 a23f a9a8 7b40 610b b040
00000020: ec10 973f 64de d540 978a 313f 1493 2a40
00000030: 7a18 6ab9 cb67 b53e ba0e 6840 02be fd3d
00000040: 9063 2d3f 0506 2b40 5b1c b23f bcd7 b840
00000050: ae78 2e3f b10a dc40 140f 3c40 b1d3 f23f
00000060: edf3 be3f f3f1 3340 34d6 a840 e4cf 853f
00000070: 4436 473e 253e 5940 6254 3c3e b343 c03e
00000080: 3c6e 4240 0b9a c03f fb6a ec3f e4f3 de40
00000090: 6fd6 ea3e 80e4 f93f 4c77 3540 6afb 9340
000000a0: 0ba3 2b3e 933f 6f40 b7a8 7a3f 006a cc3f
000000b0: cfa3 323e 51e9 af3f
0.49185982 0.8151075 0.98474735 0.8048653 5.865973 1.267248 3.9321692 5.501389
1.1802039 6.6833973 0.69352096 2.665227 -0.00022325097 0.3543075 3.6258988 0.12389757
0.67730045 2.6722424 1.3914903 5.776335 0.6815289 6.876305 2.9384203 1.8970853
1.491819 2.8116424 5.276148 1.0454068 0.19454294 3.394418 0.18391564 0.3755165
3.0379782 1.504701 1.8470148 6.967272 0.45866725 1.9522858 2.8354063 4.62444
0.16761415 3.7382553 0.9791369 1.5969849 0.174453 1.3743078

convs.1.bn2.running_var f4 [46]
00000000: a14a 6240 2162 af40 01b8 3841 db5d a340
00000010: 93d0 c642 7b2e 1d41 1e51 be41 20c8 5442
00000020: 6329 c240 b839 ab42 933a 6d40 b690 9441
00000030: bbe2 573e 51ef 773f 31e8 6b42 00ee ba3e
00000040: 3614 3740 2e3a 0942 8694 cd40 5721 2342
00000050: c8b7 9240 187f 8e42 a8f7 0b42 43ee ad41
00000060: f3d6 e340 3808 d341 b4bd 8142 7af8 5740
00000070: 7865 cb3e f4dc 0c42 bf03 9b3e e382 6c3f
00000080: 1ae9 8141 a869 5741 c94d dc40 3d5d 8742
00000090: e7ab 6740 7d73 6141 5503 5242 c99b 3f42
000000a0: d057 2b3f 82aa dd41 67c7 9040 3348 e541
000000b0: 8ea7 103f 2d05 9840
3.535805 5.4807286 11.544923 5.105207 99.40737 9.823848 23.789608 53.195435
6.067552 85.61273 3.7067 18.57066 0.21082585 0.9684954 58.97675 0.36509705
2.8606086 34.306816 6.4243803 40.78256 4.584934 71.24823 34.99185 21.741339
7.119989 26.379013 64.870514 3.3745408 0.39725852 35.215775 0.30276296 0.9238722
16.23882 13.463295 6.8844953 67.682106 3.619867 14.090695 52.503254 47.902134
0.66930866 27.708256 4.524341 28.660254 0.5650567 4.750632
