dropout/NN_ensemble/histories/1_d10_valid_best_params.pt (torch_old, 452453 bytes, 103 tensors)

embedding.weight f4 [46, 98]
00000000: ce5e 7dbd ca58 13bd 591c d43e c945 663f
00000010: 802d c13d 8353 863e aa13 c0be 1ec6 0a3f
00000020: 32ac 7abc 14fd a4bd 34d8 d7bd cfc9 d9be
00000030: a6f5 13be b4cc a5bd d285 2bbe 4854 a53e
00000040: 2f4b 6f3e e967 93be 449b ab3d bce2 53bc
00000050: 608e 9abe 5b4a e93e 585d 12be ec0d 93be
00000060: 6225 813e 685a 0f3d 666a 6abe a4aa ee3d
00000070: 0cfc ef3d 2166 283e 41d8 053e 3f47 5bbe
00000080: b474 6a3d e80d 81be ea68 1cbd 2c9c a8bd
00000090: fc6f 31bd 3b4c 82bd 9899 36be 396c 9a3e
000000a0: 6138 203d 58ec b4bd 2bda 8a3d 211d 1a3f
000000b0: 6c37 163d edbb c0be 55ba 67bd 00af af3e
000000c0: a202 8b3b 75b8 21bd c78d 703e 2557 ce3c
000000d0: 5fcb 0e3f 7804 233d 7fab 6bbe 23e7 cd3d
000000e0: a264 90be 0976 efbe 0885 02be 3ba7 bdbe
000000f0: 0711 963d 32d8 6fbd 3ef8 aa3d 02ee 463e
00000100: 5f41 64be 6aa7 c03d b894 0b3d afe7 4abd
00000110: ce91 afbd d013 b43d 5a35 5fbe 6289 8f3d
00000120: 26f7 40be f305 b03e 6b9d 50be b3f4 7c3e
00000130: 5609 813d dd6f d6be c40b 9c3d 86c3 cc3d
00000140: a9ef 39bc 983f 2e3c e8db cb3c 4eb5 14bf
00000150: b141 913d 99f2 d73e 41d5 0abd 3cf9 a6be
00000160: d3d6 743c 2e48 943f 48ab 0dbe a2b8 cabe
00000170: a202 92be d488 a8be d7aa f5be fd54 f93e
00000180: 6974 0a3f 2f44 53be e463 82bd 8adf bc3d
00000190: 94d2 243d aa14 febd eb9a 48bf 0a13 a1be
000001a0: 3b8e 613e cd0f 7fbe 48db d33e 6f2b 9fbd
000001b0: e768 a63d 2dc1 523e 84e5 1b3d 1998 bfba
000001c0: bd1b ac3d ef18 093e 53fe 173d 5fd7 54bf
000001d0: dcb3 c4bc 524a 01bf 2efe 33bc cb07 1bbc
000001e0: 46a4 793e 4cfe b5bd 25d4 c93d 92c4 8dbd
000001f0: 18af b93e 4d4b ff3e ca7c 6b3e a607 98be
00000200: 249f 41be 681d 7abd deaa 60bd 0eab 173d
00000210: d356 c23e 4cc9 943c edc8 0cbf 669d a93e
00000220: ab06 91be db73 1fbe a254 9d3d fa0e f53e
00000230: f8e5 c7be 261a cf3e 40d1 8a3b 1eb3 bcbe
00000240: d757 88bc f030 c73d 32d0 7bbd 1e5e c3be
00000250: c753 41be 8614 7c3e 510b 97be 669f c33e
00000260: 5831 51bd 34fd 83be d6c5 953e e8f9 003f
00000270: 60a7 8c3e 1d8d 3c3f 97cc 2fbe 866f 3e3e
00000280: 9104 c0be e0ef 413d bc48 223c 0e3f c93d
00000290: 03d3 27bd cb2c a4bd e0d7 d23b b10e 4abd
000002a0: c859 1c3e 50a1 9e3c 4e6e b23e 9c2b d8be
000002b0: b489 98bd 4f6f 46be ee48 8e3d 3707 42bf
000002c0: 9a3c 6dbd 3997 f43d 2c09 1fbe 804a d9bb
000002d0: f531 e5be 9168 073e 67ea e5be 245c 1a3f
000002e0: db1a 3cbd a62e 9cbd 7f56 be3d 9cd7 8c3d
000002f0: 2d99 fe3e 4428 f1be 0e75 82bf f23b 80bf
00000300: b601 573f 289f 433f ba17 523f 00e6 4c3e
00000310: e80d 70bc 540a 4bbe c44d 56be 8491 b93e
00000320: 3f72 42bd 355f 8d3d 829d 98be b517 abbd
00000330: 2999 a0bc 76a7 c9bd 764d d9be 3bab 2b3e
00000340: ab10 683e 1b53 0c3e 398e 52bd eea4 6d3e
00000350: 04ed 1e3e 553f b9bd 50a7 9b3d 5773 163e
00000360: 9764 ecbd 1756 4bbe a004 e5bc d75a 753e
00000370: 195e 14bc 9c42 513d 2747 b63d caab ddbe
00000380: c0a4 8d3d e273 6b3e ee71 283e b2cf e2bd
00000390: 70ee 2a3d 87ac cebe b9c8 b6be b868 3e3c
000003a0: 5ad5 f83c 7b62 babe 5560 9dbb cec8 03bd
000003b0: ecee 6abd 0d38 5b3d 3388 a93d 6e35 55bd
000003c0: 040e 8e3d f1f3 85bd 63f0 27be 711e 71bd
000003d0: e6bf e73d 2b59 9abd f6d6 033d 714e 4cbe
000003e0: 03c0 1ebe 69ec ae3d 19ae 8cbd 30a8 923d
000003f0: 9849 b73d a274 efbd aa60 bebd a36d c1be
-0.06185799 -0.035973348 0.41427878 0.89950234 0.094325066 0.2623559 -0.37515002 0.5420855
-0.015299844 -0.08056083 -0.10539284 -0.4253678 -0.14449176 -0.08095685 -0.16750267 0.32290864
0.23368524 -0.28790215 0.08379224 -0.012932476 -0.30186749 0.4556454 -0.1429342 -0.2872156
0.25223833 0.034998327 -0.2289215 0.11653641 0.11717996 0.16445209 0.13070776 -0.21413897
0.057240203 -0.25205922 -0.03818599 -0.082329124 -0.043319687 -0.06362196 -0.17832029 0.30160692
0.039116267 -0.088341415 0.067798935 0.602007 0.03667395 -0.37643376 -0.056574184 0.34313202
0.004242257 -0.039482553 0.23491584 0.025188038 0.5577907 0.039799184 -0.2301464 0.100538515
-0.28201777 -0.4676974 -0.1274606 -0.3704165 0.073274665 -0.05855579 0.0834813 0.1942673
-0.22290562 0.09406932 0.034077376 -0.049537357 -0.08572732 0.087928414 -0.21797696 0.070086256
-0.1884428 0.3437954 -0.2037255 0.2470272 0.06300609 -0.4188222 0.076194316 0.09998231
-0.011348643 0.010635279 0.024885133 -0.5808915 0.07092608 0.42177275 -0.03389478 -0.32612026
0.014943796 1.1584527 -0.1383487 -0.3959399 -0.28517634 -0.32916892 -0.47981903 0.48697653
0.5408388 -0.20631479 -0.06366709 0.09222324 0.040239885 -0.12406285 -0.78361386 -0.31459838
0.22026913 -0.24908371 0.41378236 -0.07771956 0.08125477 0.20581503 0.03806068 -0.0014617472
0.08403728 0.13388418 0.037107777 -0.8314113 -0.024011545 -0.5050403 -0.010985894 -0.009462307
0.24379072 -0.08886394 0.098549165 -0.069222584 0.36266398 0.49862137 0.22996822 -0.29693335
-0.18908364 -0.0610632 -0.05485045 0.037028365 0.37956867 0.018162392 -0.5499409 0.33127898
-0.283254 -0.15571539 0.07682158 0.4786299 -0.3904264 0.40449637 0.0042363703 -0.36855406
-0.016643448 0.09726131 -0.061477847 -0.38157743 -0.18879615 0.24617204 -0.2950082 0.3820755
-0.05107245 -0.25779116 0.292525 0.50381327 0.27471447 0.7365282 -0.17167889 0.1859723
-0.37503484 0.047347903 0.009905037 0.0982648 -0.04097272 -0.08016356 0.0064344257 -0.049330417
0.15268624 0.01936403 0.3484978 -0.4222077 -0.0744814 -0.19378398 0.06947504 -0.7579226
-0.057919122 0.11942906 -0.15530843 -0.0066311955 -0.44764677 0.13223483 -0.44905397 0.60296845
-0.04592405 -0.07626085 0.092938416 0.06877062 0.4972624 -0.47101033 -1.0191972 -1.0018294
0.83986986 0.7641473 0.82067454 0.20009613 -0.014651753 -0.19828159 -0.20928103 0.36243832
-0.047472235 0.06902925 -0.2980767 -0.08354131 -0.019604282 -0.09846394 -0.4244191 0.16764538
0.22662608 0.13703577 -0.051405165 0.23207447 0.15520102 -0.09045283 0.07600272 0.14692436
-0.115426235 -0.1985706 -0.027956307 0.23960434 -0.009055638 0.051088914 0.0890029 -0.43295127
0.06916189 0.22993425 0.1644971 -0.11074771 0.041731298 -0.40366003 -0.35700014 0.011621647
0.030375171 -0.3640326 -0.0048027434 -0.032173924 -0.05735676 0.05352025 0.08277931 -0.052052908
0.06936267 -0.06540669 -0.16400294 -0.05886692 0.113158986 -0.07536539 0.032187425 -0.19951798
-0.15502934 0.085411854 -0.06869144 0.071609855 0.08949584 -0.11692168 -0.09295781 -0.3777896

embedding.bias f4 [46]
00000000: 5d4c 92bd 8ea1 2abe ee18 76be 2e2a ff3c
00000010: 0e24 62be 561f 12bf 8345 2cbf dbfa 70be
00000020: 204d ccbe 43bc d4be 86f0 43be 728a e7be
00000030: 7ece d0be 5a52 e7be da90 2cbe fe88 cfbe
00000040: cea5 51be b527 f5bd 6e61 67be 8c26 bbbe
00000050: 17a0 84be 7713 7bbe b183 87be 5f77 c1be
00000060: eec3 08bf 0591 b33c e232 98be a26e b8be
00000070: 0f64 e23d c6d9 7fbe c1f6 79bd d3e1 77be
00000080: aa14 d2be 7d5e b7be e975 a2be b9b2 acbd
00000090: 2798 95be ad59 4ebe fe4c 20bf 9988 d4be
000000a0: 28c5 f63b 9683 cbbe 2644 a9be 37ff 1bbf
000000b0: 6b14 0bbe 7b42 1cbe
-0.071434714 -0.1666319 -0.24032947 0.031148043 -0.22084066 -0.57079065 -0.67293566 -0.23533194
-0.39902592 -0.41549882 -0.19134721 -0.45222813 -0.4078254 -0.45180017 -0.16852131 -0.40534204
-0.20473406 -0.11970464 -0.2259576 -0.36552846 -0.2590339 -0.24519144 -0.2646766 -0.37786385
-0.53423965 0.021919737 -0.2972632 -0.36021906 0.11054241 -0.24985418 -0.06102634 -0.24207239
-0.4103139 -0.35814276 -0.31730583 -0.08432526 -0.29217646 -0.20151396 -0.6261748 -0.41510466
0.007530827 -0.3974883 -0.33059806 -0.609363 -0.13582008 -0.15259735

convs.0.fc_full.weight f4 [92, 98]
00000000: 5a99 30bf 77b6 1abf 8b41 073e bb74 7a3f
00000010: 5b42 16be 654a 8e3e 2ebd 8c3e 424b 143e
00000020: 7ada 98bd e6ba 423f 117b 72bd 1c47 e63e
00000030: 385f f03d 63e9 5ebe 029d afbe 5248 063e
00000040: 29aa 103e 2e98 00be 2f22 a0be 9e85 6d3e
00000050: d3e1 b8be e3b4 f23e 6b38 8bbe 8160 b83e
00000060: 39a8 8fbf 3077 8ebf 91a2 243e 4301 2bbe
00000070: d503 c33e 3e98 e2bc 5fba 39bd 4c28 38be
00000080: 9c0b 95bc 2c24 19bf 1225 93be 6919 b3bd
00000090: a379 9abd 3e8f 20bd 0613 a03e 5eea d33c
000000a0: 4472 51bd 9f10 d63d 1f1a 50be ae3e 533d
000000b0: 2f91 7b3f 3ba7 f8bd 3a34 65bf 3f0c 04bf
000000c0: 7831 bd3c 5ef1 e23d 72d3 d8be 8ebf 5dbe
000000d0: e920 9fbe 1ab1 44bd 4b7f acbe e688 9d3d
000000e0: 4ee0 d43e e74b 803f 3138 af3e c1c3 153f
000000f0: 553f bf3d 8e1c 05be 27b9 cebe abcf ecbe
00000100: 2b2d ec3d f61f 903e 8197 fb3d f9bf 9cbe
00000110: 7737 523c 5bfd dfbe 7157 bfbe 65c1 0b3e
00000120: f08e e9be 93de c9be 6ee5 7dbe 49c9 233e
00000130: 0953 15bd 61b3 b1be da19 93be 390e c43d
00000140: 7c5e 2fbf 30b3 0fbe 2f7f 3e3e f749 2f3e
00000150: 2e08 b1be bbaa 97be 8dcb 933d 0723 d23e
00000160: 6464 e83e d54d 6a3d 2713 8a3d cacd 043f
00000170: a3fe 853f be16 a13f 6c9b 6c3e 5e67 89be
00000180: 0419 7fbf d5fd e8bf 8c4f eabe d0a7 28be
00000190: c98c 5bbe 3372 5dbc b051 883e 1f58 16be
000001a0: e817 e03e 8540 2e3d 6d45 28bd 2d95 a6bb
000001b0: dd57 9bbd e00d 3d3e 562a 0f3f 2ef4 94be
000001c0: 617c d03c fd1a 9ebe af3e a73d 76af 823d
000001d0: 075d 86be a529 1ebe 11a5 11bf 3390 c7bc
000001e0: 8eb4 a2bd 09c4 de3e 40c6 dcbe 1e59 94be
000001f0: 2d78 0e3e 2243 23bd f564 fbbd c34a 2bbe
00000200: 2d6f 25be e715 cdbd ab65 963d a541 3e3f
00000210: b5f7 91be b81c 35be a058 1c3f 7afb 97bd
00000220: 7504 b7be 23ec a13e 46ed c63b 0eab f2be
00000230: df06 4fbe 7b59 ee3e c1a8 e63d 1029 4b3e
00000240: 8d31 ffbc 3e30 c0bd 042f 7a3e cc5f d6bc
00000250: d24d a0bc 297b 413e 3960 00be 8b1b ee3e
00000260: 9ff6 d7bd 20d1 36be 074e 69be 23f4 ca3e
00000270: 386c 0a3f 620b 773f cb45 ec3e 1774 c4bd
00000280: 1892 893d f114 bfbe 03c8 9c3e 1019 703e
00000290: 0f56 bb3e b87d 20bf c794 8fbe 183c dcbe
000002a0: 3490 e13c ba1a f03e 79e5 093d 645c b9be
000002b0: ad1a 873e 48e7 46be fd3d 023e 3933 4b3e
000002c0: 55b8 33be 5b07 a43e c3c6 ebbe 4242 3e3b
000002d0: 5a6c b23e 0499 e23e 1b7f 3bbe 0587 28bd
000002e0: 17f9 3dbe 725c ee3d 2e7e b33e 9280 e63c
000002f0: c845 e8be a7f5 0339 7970 4a3e 0d0d ad3f
00000300: efc2 1240 7840 703f 9c43 a9bf 4bf8 dcbf
00000310: 4b4b 02be bc98 8dbe a30f b6bd ab8f cbbe
00000320: e29e 0ebe 4154 273e 195a 113f 2900 92be
00000330: 2ce0 3bbf e11a 1f3f 8bce 423e eda5 123f
00000340: a8a8 bcbd d06c 4fbe cc77 0e3f 4161 583f
00000350: 3c55 763e 5d9e ea3d e1d3 a7be 9847 0a3f
00000360: 477f c7be f84c d0bd f190 9fbe 8f5f e93c
00000370: f064 1abf c758 59be f157 ff3e 9879 6f3e
00000380: ad52 c8bd 5bb5 7a3e 1f71 7dbe 0728 673e
00000390: a65a 27bf 43d7 88be 7299 20bf 67bc ed3e
000003a0: dbbd 873f 805a 0b3e 2715 e03e 6380 103e
000003b0: 298e bbbe 7628 1abf b741 043b 8474 48be
000003c0: 7c8f 223e 09e2 0abf 7113 8b3d 7895 c13e
000003d0: a6cf e2be 061e 443d d41e 803e b2bb 123f
000003e0: f69e 33bf b67a 27bb adb9 2e3f 91e7 e8be
000003f0: 413a 6bbe f12b 813e d1b3 07bf c5c3 773c
-0.68983996 -0.6043467 0.13208596 0.97834367 -0.1467375 0.27791134 0.27488083 0.14481834
-0.07463546 0.76066434 -0.059199397 0.44976127 0.117369115 -0.21768717 -0.34299475 0.13113526
0.14127411 -0.12558052 -0.3127608 0.23195502 -0.3610979 0.4740363 -0.2719148 0.36011127
-1.1223212 -1.1130123 0.16077639 -0.166997 0.3808886 -0.027660485 -0.045343753 -0.17984122
-0.018194012 -0.5982082 -0.2873922 -0.08745081 -0.075427316 -0.039199106 0.31264514 0.02586859
-0.051134363 0.10452389 -0.20322464 0.051573448 0.9826841 -0.12141272 -0.89532816 -0.51581186
0.023094878 0.110811934 -0.4234882 -0.21655104 -0.31079796 -0.04802046 -0.33690867 0.07692127
0.4157738 1.0023164 0.34222558 0.5850182 0.093382515 -0.12999174 -0.40375635 -0.46252188
0.115320526 0.28149384 0.122847565 -0.30615214 0.012830607 -0.43747982 -0.373714 0.13647993
-0.45616865 -0.39427623 -0.24794552 0.15994753 -0.03645614 -0.34707168 -0.2873066 0.09573025
-0.68503547 -0.14033198 0.18603204 0.17118059 -0.34576553 -0.29622445 0.072165586 0.4104235
0.45389092 0.057203133 0.06741934 0.5187651 1.0468334 1.2585065 0.23106164 -0.26836675
-0.99647546 -1.8202463 -0.45763814 -0.16470265 -0.21440424 -0.013515997 0.26624823 -0.14682053
0.4376824 0.042542 -0.041081835 -0.005083701 -0.07585118 0.18462324 0.55923975 -0.29092544
0.025449933 -0.30879965 0.08166253 0.06381123 -0.2624285 -0.15445574 -0.56892496 -0.024360752
-0.07944594 0.43508938 -0.43120003 -0.2897424 0.13913031 -0.039858945 -0.122751154 -0.16727738
-0.16155691 -0.10013943 0.073436104 0.74318916 -0.28509298 -0.17686737 0.6107273 -0.07421012
-0.35745588 0.3162547 0.0060707657 -0.4739613 -0.20217465 0.46552643 0.11262656 0.19839883
-0.031151557 -0.093842015 0.24431998 -0.026168726 -0.019568358 0.18894638 -0.12536706 0.4650539
-0.10545086 -0.17853212 -0.22783671 0.39639387 0.5407138 0.96501744 0.46146998 -0.09592455
0.06717318 -0.37320665 0.30621347 0.2344706 0.36589095 -0.6269183 -0.28043196 -0.43014598
0.027534582 0.4689539 0.033666108 -0.362033 0.2638754 -0.19424164 0.12718959 0.19843759
-0.17550786 0.32036862 -0.4605008 0.0029031192 0.3484829 0.44257367 -0.18310206 -0.04114439
-0.18552051 0.11638726 0.35057205 0.028137479 -0.4536574 0.00012584646 0.19769467 1.3519608
2.2931478 0.9384837 -1.3223758 -1.7263273 -0.12724034 -0.2765559 -0.08889701 -0.39758047
-0.13927796 0.16340734 0.56778103 -0.28515747 -0.73388934 0.6215039 0.19024102 0.5728443
-0.09211856 -0.20256352 0.55651546 0.845234 0.24055952 0.11455987 -0.32778838 0.54015493
-0.38964292 -0.101709306 -0.3116527 0.028487949 -0.6031027 -0.21225272 0.4987178 0.23386228
-0.09781394 0.24483244 -0.24750184 0.22573863 -0.65372694 -0.26726732 -0.6273414 0.46432802
1.0604814 0.13608742 0.43766138 0.14111476 -0.36631897 -0.6021799 0.002018077 -0.19575697
0.15875047 -0.5425115 0.067908175 0.37809348 -0.44299048 0.047880195 0.2502352 0.5731765
-0.7016443 -0.002555532 0.6825207 -0.4548917 -0.22971441 0.25228837 -0.53008753 0.015122359

convs.0.fc_full.bias f4 [92]
00000000: fb2a 37bc 0a8f a6bd 28ac 073d b67f 823d
00000010: 22b6 433e 3bcd ccbd 5982 63bd 1dcf 38be
00000020: c9c5 dfbb ce69 ad3d 62e9 f5bb 83d2 b83c
00000030: fbc3 76bd ac6a a23d 276e e23c 585e 1f3c
00000040: 3c8e a93d b22e 4bbd 2c58 c43d c2b3 ae3d
00000050: b26f 8d3b 9254 5ebd f9e1 1dbe 7768 07bd
00000060: d958 c83c 4704 95bc d6a0 8bbd 9638 f2bd
00000070: 03fd 31be 6d81 aebd ba87 193e 142d a2bd
00000080: 5949 093e d409 dcbc fc40 083d f234 8abd
00000090: fe30 243c 6433 67bd c1db 22bd bcfd 67be
000000a0: 6774 b6bd 584e 1a3c 0e67 8f3d 4aae 083e
000000b0: 0225 a43c f410 ce3d ef43 17be 8daf 933d
000000c0: 6e08 afbc fca6 47bc 561e af3d 3415 a93d
000000d0: 66e2 9b3d 02f8 8dbc 02b4 3cbc 5791 86bd
000000e0: d891 ee3c 4810 08bd 43e8 5a3d b8d0 a23d
000000f0: 1115 c63c bc3e aabd 7f69 fc3b df4f 47bd
00000100: a817 763d 0d18 cdbb d5fd 26bd 2a94 7d3c
00000110: 44fe 53be c558 863e 12d5 1f3e d1ab a13d
00000120: 33fe b7bc e5f4 35bc 2efb 333d 65f4 9a3d
00000130: 61ac b13d 09b6 9bbd 90de d53d caf5 32bd
00000140: fa48 7bbc 04db 533d daa1 80bd 1675 c43c
00000150: d21f 203e 2915 b2bd 5ed6 8dbb c351 9dbd
00000160: 156f d0bd b882 3abe bac5 fcbb 7209 ea3d
-0.011179681 -0.08132751 0.033123165 0.06372015 0.19112447 -0.10000082 -0.05554423 -0.18047757
-0.0068289977 0.08467446 -0.007504628 0.022561317 -0.060245495 0.07930502 0.027640415 0.009727083
0.08279082 -0.04960508 0.0958713 0.0853038 0.0043162936 -0.05427987 -0.15418233 -0.03305861
0.024456428 -0.018190516 -0.068177864 -0.11827199 -0.17381673 -0.0852078 0.14993182 -0.07918754
0.13406886 -0.026860155 0.0332651 -0.0674838 0.010021446 -0.056445494 -0.039760355 -0.22655386
-0.08908921 0.009418093 0.07002078 0.13347736 0.020037178 0.10061827 -0.14772008 0.07211218
-0.021366324 -0.012185808 0.08550708 0.08255997 0.076115415 -0.017330173 -0.011517527 -0.0657069
0.029122278 -0.033218652 0.05344416 0.07949966 0.024179967 -0.08312747 0.007703006 -0.048660155
0.060081154 -0.0062589706 -0.040769417 0.01547722 -0.20702463 0.262396 0.15608624 0.078940995
-0.022460079 -0.011105751 0.043940715 0.07566146 0.08675457 -0.0760308 0.10442841 -0.043691434
-0.015337223 0.05172254 -0.06280871 0.023981612 0.15637138 -0.08695442 -0.004328533 -0.076816104
-0.10177437 -0.18213928 -0.0077140005 0.11427583

convs.0.bn1.weight f4 [92]
00000000: 9e73 1440 1ee2 ad3f 5cf3 d73f 6af8 1a40
00000010: 6cd4 ce3f 970b 8d3f ad2b 9b3f e857 e43f
00000020: 1bd4 fe3f 2686 4d40 f251 4f40 268d a93f
00000030: 0e6e b53f 5484 453f 3fd3 0340 b2bc 0840
00000040: 631a fc3f 3977 4f40 a001 1c40 6da9 d83f
00000050: f98a 0240 9bdc ec3f 1286 b73f f66d e23f
00000060: c198 aa3f 8d58 e83f 9a66 fb3f a435 0540
00000070: e8b3 2b40 0c78 903f b2eb 1540 b215 e13f
00000080: 90ac bb3f 5113 5140 c844 f33f 0a9c 6740
00000090: c48c 3b40 b2c4 f03f cae5 3f3f 30c9 283f
000000a0: 8b47 a53f 02f0 0340 0409 cc3f ad07 d53f
000000b0: 5c44 bc3f 0db0 d23f c4a7 fb3f 3944 f03f
000000c0: ec80 a93f b14d 503f a392 193f b09f ba3f
000000d0: 6152 913f 1a2a a83f 4982 7a3f 3c27 c43f
000000e0: a160 aa3f 17b1 323f 38f2 7c3f 91bd f83f
000000f0: 2eab af3f 2f3e 0440 a530 d73f c24e 0040
00000100: e202 ed3f 2d26 ff3f 9a00 a03f b7c9 0b40
00000110: ad4d 553f 9289 993f b86d 523f 68ee 4d40
00000120: 26bc f53f 6a68 de3f 4221 1740 49d4 b53f
00000130: 2875 b83f f6df 1540 2355 b73f 4c79 1340
00000140: 3e98 8d3f 7914 ed3f d7a7 b13f 0f3a 4c3f
00000150: 492f 7b3f 7ecc 1c3f 7739 483f bbad 993f
00000160: 79ad 923f 837f 353f 2440 853f 5cc5 6c3f
2.3195567 1.358463 1.6871142 2.421412 1.6158576 1.1019162 1.2122704 1.7839327
1.990848 3.2113128 3.2393765 1.32462 1.4174211 0.7715504 2.0597684 2.136517
1.9695553 3.2416518 2.4375992 1.6926705 2.0397322 1.8504823 1.433779 1.7689807
1.3327867 1.8152024 1.9640687 2.081399 2.6828556 1.1286635 2.3425107 1.7584746
1.4662037 3.266804 1.9005365 3.6188989 2.9304667 1.8810027 0.74960005 0.6593199
1.2912458 2.061524 1.5940251 1.6642967 1.4708362 1.6459976 1.9660573 1.877082
1.3242469 0.8136855 0.59989375 1.4579983 1.1353265 1.3137848 0.9785505 1.5324473
1.3310739 0.6980147 0.98807096 1.9432851 1.3724115 2.0662954 1.681172 2.004807
1.8516505 1.9933525 1.2500184 2.1841867 0.8332165 1.1995108 0.8219867 3.2176762
1.9198043 1.7375615 2.361405 1.4205409 1.4410753 2.3417945 1.4322857 2.3042784
1.1062086 1.8521873 1.3879346 0.7977609 0.98119026 0.6124953 0.78212684 1.2006143
1.145919 0.7089769 1.0410199 0.92488647

convs.0.bn1.bias f4 [92]
00000000: 3d72 a53e 0933 aa3c 65b1 cc3e f25c 253f
00000010: 7f1f abbe 6e73 1abc dc99 4fbf b815 bdbd
00000020: 5aec f1bd ad4a b23e 0e17 163e 3628 97be
00000030: 67f8 81be 5415 b13d 8a69 c0bd 698f b9bd
00000040: 2f6f 8b3d bc57 e63d 7a97 3c3e f064 393e
00000050: d143 17be 1e2e a03e 57a1 42be 2470 7cbd
00000060: 1d25 f6be cde1 363d e044 703e 84c7 63be
00000070: 9663 bc3d e3df 3e3d e3bb 403e 3ed2 b53e
00000080: baef 333e b284 8a3d 391a dabe 89aa d03e
00000090: e8a2 d2bd 6af5 9c3e e530 d6be b042 f5be
000000a0: 1bf3 47bf 954a 09be 796c 6e3e 06a0 5cbf
000000b0: 7d01 d3be b441 1f3d 696f 5d3e 6453 273e
000000c0: 9d79 743e 56ac 0d3f c723 27bf 6885 debe
000000d0: 6f80 b1be 99da a3be 3533 92be 86c8 073f
000000e0: f7c1 e03e edfa 12bf feb5 94be 2166 5b3d
000000f0: 5652 5fbd e1f7 583e b0bc bdbe 43c0 5c3e
00000100: f923 373e 60e0 0a3e ac98 7fbe 4e85 373d
00000110: 815b 19bf cc69 d8bd c377 9ebe 7721 7b3b
00000120: 809d 153e 81f9 4cbe aea3 423e 5153 7ebe
00000130: 0327 ab3e dc69 583b 70f0 4c3e 416d 9e3e
00000140: 98b4 febe 1b10 f03e ad81 353d 499d f63e
00000150: a73e f2be fb47 2bbf 98b6 1abf 8eb5 adbe
00000160: 92b6 bd3e 1b94 2bbf 274c 5dbe 5114 e4be
0.3231372 0.020776289 0.3997909 0.6459495 -0.33422467 -0.009426935 -0.81094146 -0.09232658
-0.118126586 0.34822598 0.14657232 -0.29522866 -0.25384828 0.08646646 -0.0939513 -0.090605564
0.06808316 0.11247203 0.18417159 0.18104911 -0.14771964 0.31285185 -0.19006859 -0.061630383
-0.4807519 0.044648934 0.23463774 -0.22244078 0.09198682 0.046600234 0.18821673 0.35511965
0.17571917 0.06763591 -0.4259813 0.40755108 -0.10284978 0.30655986 -0.4183418 -0.4790244
-0.78105325 -0.13407357 0.23283567 -0.86181676 -0.41212073 0.03888102 0.21624531 0.16340405
0.23874517 0.5534109 -0.65288967 -0.43461156 -0.346683 -0.32002714 -0.28554693 0.5304035
0.43897983 -0.5741413 -0.290451 0.053564195 -0.05452188 0.21188308 -0.3705802 0.21557717
0.17884816 0.13562155 -0.24960583 0.044804864 -0.5990525 -0.10567054 -0.30950746 0.0038319507
0.14610863 -0.20017053 0.19007751 -0.2483647 0.334282 0.0033022081 0.20013595 0.3094273
-0.49747157 0.46887287 0.04431312 0.48166874 -0.47313425 -0.6690671 -0.60434866 -0.33927578
0.37053353 -0.67022866 -0.21611081 -0.4454675

convs.0.bn1.running_mean f4 [92]
00000000: 628e edbf 9cfa 51c0 e473 17c0 d85f a6bf
00000010: 0ae1 7a40 0ff4 8ac0 d676 29c0 12e3 6d40
00000020: f99d a13f fc4c 403f 26dc d7c0 90ca a73e
00000030: e5b1 3ec0 5dcb cd3f 5e22 663f 61aa 6ac0
00000040: 05c4 72c0 2953 ae3f f0fc fec0 a78a a640
00000050: b4ea d73f 32dd 61be 3d28 a740 744e cfbe
00000060: f256 28bf 145f 29bf b628 80c0 717e 7340
00000070: 1675 6dc0 fd9c 9740 a867 6d3e f0ec 7d40
00000080: 9b85 2ac0 ba85 f63d 40c6 75c0 a7d4 1140
00000090: 0ec7 07be efea 53be 5778 403f bd89 3440
000000a0: 1061 4c40 5b44 fc3c b175 96c0 d09e c3c0
000000b0: 555f 8b3f f0f0 d53f c016 2ec0 67ce e9be
000000c0: c852 a6bf edc5 8340 dd17 60bf 0a02 0040
000000d0: 8d4b d3bf 6a64 38c0 9c10 23c0 290d 1dc0
000000e0: d33a 14c0 df7f aabf ebfa 1bbe 8eac 67be
000000f0: c797 fabf c512 cabe 016e b3c0 f06e 88bd
00000100: 5397 e2c0 5bd0 49bf a08d 9340 ad2f b2be
00000110: b8d7 5e3f 851e c3c0 12b8 22c0 c9f8 c8be
00000120: 7cf5 66c0 1d46 1ec0 11c7 de3e 510c a840
00000130: 37b2 b13f e6ed e740 da46 5abe 325a 0540
00000140: 3747 8ebe afd6 4840 7354 8fc0 7792 4240
00000150: 3e36 8d3f 4d5a 4a3f 1e0f 8ec0 dd6f d2bf
00000160: 74a0 d0c0 e4e0 8fbf 42e8 ecbf 8601 7f40
-1.8559077 -3.280921 -2.3664484 -1.2997999 3.9199853 -4.3422923 -2.6478782 3.7169843
1.2626334 0.7511747 -6.7456236 0.3277173 -2.9796078 1.6077687 0.8989619 -3.666649
-3.793214 1.3619128 -7.968376 5.2044253 1.6868501 -0.22057036 5.223662 -0.40489542
-0.6575767 -0.661607 -4.0049696 3.8045924 -3.7102714 4.7379136 0.23184073 3.9675865
-2.6644046 0.12037225 -3.8402252 2.2786043 -0.13259527 -0.20695089 0.75183624 2.8209069
3.1934242 0.030794313 -4.7018666 -6.1131363 1.0888468 1.6714153 -2.7201385 -0.45665285
-1.2994013 4.117911 -0.8753641 2.0001245 -1.6507431 -2.8811288 -2.5478888 -2.4539282
-2.3160903 -1.3320273 -0.15232436 -0.22624418 -1.9577569 -0.39467445 -5.607178 -0.06661785
-7.080972 -0.7883355 4.611038 -0.34802 0.8704791 -6.0974755 -2.5424848 -0.39252308
-3.6087332 -2.4730294 0.4351125 5.2515035 1.3882512 7.2477903 -0.2131609 2.08363
-0.27788708 3.1381032 -4.4790587 3.0401895 1.1032178 0.7904404 -4.4393454 -1.6440388
-6.5195866 -1.1240506 -1.850838 3.984468

convs.0.bn1.running_var f4 [92]
00000000: 6276 3142 acd0 2e42 92d2 1a42 49d4 0942
00000010: d047 be41 cfe5 9042 fa38 4142 7bb7 f141
00000020: 58a0 f241 6a12 4042 18b4 8142 6e7b d641
00000030: f40c 0842 1fea 1842 6b9d 1a42 b56e 3542
00000040: 361d 3d42 201b 3142 7a6f 9242 bfe0 1742
00000050: 5710 0842 0db3 0742 5d47 6542 4aca 2242
00000060: b9bf 8a41 48af 2242 2522 e641 7a69 5642
00000070: d66f 1442 49db 4342 e448 1742 ae1d 4342
00000080: da78 c341 d77e fc41 b119 a042 af85 1542
00000090: cb53 3242 68e2 1f42 c3b7 2242 b295 d041
000000a0: 6077 5d42 ac84 1b42 9613 f941 c659 2942
000000b0: 2b03 4c42 93e6 2242 160e 0442 3403 0c42
000000c0: 6dd8 3242 4ebb 4a42 9ce1 6e41 5361 6842
000000d0: 29c3 e241 1b4c 3442 f4c3 4a42 eda6 6942
000000e0: 5ec5 2942 c906 c041 ae6d 1542 e3d8 1642
000000f0: b6a4 b841 6f44 0242 cabf 7242 3700 ff41
00000100: 14a3 9642 f6d3 3e42 d5aa 3a42 8e0e 3c42
00000110: ae85 0d42 6465 0c42 7763 9941 b4ae 1b42
00000120: 88cf fc41 5385 1042 e078 6242 966d 7f42
00000130: a690 cc41 cd41 8342 d5de a641 743c 0042
00000140: 98f1 6d42 d58e 5042 9a8b 5f42 476e 2542
00000150: 318a 3942 73e9 ef41 d8c0 8341 ffec ba41
00000160: c6fa 3042 a981 8941 f670 3e42 f2cb f141
44.36561 43.70378 38.705635 34.45731 23.785065 72.448845 48.30564 30.21459
30.328293 48.017982 64.851746 26.810268 34.01265 38.228634 38.65373 45.358112
47.278526 44.27649 73.21773 37.96948 34.015957 33.924854 57.31969 40.697548
17.343615 40.671173 28.766672 53.603004 37.109215 48.964146 37.821182 48.778984
24.43401 31.561934 80.05018 37.38055 44.58183 39.9711 40.679455 26.073093
55.366577 38.879562 31.134563 42.33767 51.003094 40.72517 33.013756 35.003128
44.711353 50.682915 14.93008 58.095043 28.345293 45.07432 50.69136 58.413013
42.44274 24.003313 37.35711 37.711803 23.080425 32.56683 60.687294 31.875105
75.31851 47.706993 46.66683 47.014214 35.380547 35.099014 19.173567 38.92061
31.601334 36.1302 56.618042 63.857018 25.57063 65.62852 20.858805 32.059036
59.48593 52.139484 55.88633 41.357693 46.384953 29.988989 16.469162 23.36572
44.244896 17.18831 47.610313 30.224583

convs.0.bn2.weight f4 [46]
00000000: c0b6 8e3f 8fd6 743f 3fb5 773f d325 5a3f
00000010: 8399 b03f f312 a23f 3592 8b3f dc75 833f
00000020: 8b90 9f3f 17df 853f e6c5 a13f 5395 a43f
00000030: 035d 933f 4815 863f eed5 963f b34d 5a3f
00000040: 0fd2 923f 9b71 833f a862 833f d943 a33f
00000050: 3be9 9b3f b1fb 733f 6bd3 a73f 16c9 883f
00000060: b153 403f 7387 7d3f fbd9 3c3f f01b 8c3f
00000070: ea06 623f 7265 803f 89f8 8b3f 49b6 af3f
00000080: 4dbc 5b3f bdb5 9a3f 68cf a43f 3549 823f
00000090: a856 8e3f bb49 323f aaf6 d03f ca13 8e3f
000000a0: 8aa2 bd3f 6c20 6a3f 4715 5f3f 3cfe dc3f
000000b0: 8db5 7e3f 78d6 873f
1.1149521 0.9563989 0.96760935 0.85213965 1.3796848 1.2662033 1.0903994 1.0270343
1.2465986 1.0458707 1.2638519 1.285807 1.151276 1.0475245 1.1784036 0.8527481
1.1470355 1.0269045 1.0264482 1.275508 1.2180551 0.95305926 1.3111395 1.0686367
0.751277 0.99034804 0.7377011 1.0946026 0.882918 1.0030959 1.0935222 1.3727504
0.858342 1.2086712 1.2875795 1.0178591 1.1120195 0.69643754 1.6325276 1.1099789
1.4815228 0.9145572 0.8714184 1.7265086 0.99495775 1.0612326

convs.0.bn2.bias f4 [46]
00000000: 0ce5 bf3c 1b3b 77be ac50 77be 84da 07bd
00000010: ba8c 19be 7807 f3be 72a1 18bf 0845 a3be
00000020: 1802 c1be fc66 a1be ae65 88be b3d5 f8be
00000030: 9b59 bcbe baf0 c6be 87a5 88be 8d6b b7be
00000040: 2c69 2fbe c6d1 33be 03b8 6abe 0286 91be
00000050: 4b8d 3ebe eb04 9abe 7c2f b3be 5412 c2be
00000060: 40b4 05bf 1468 c0bb 8092 c7be be83 94be
00000070: e7da bc3d 0c4c 70be c2e8 f6bd 95ea 96be
00000080: d9bb b5be b3e7 83be 9b6e 99be ec95 fdbd
00000090: 1618 aebe 639b 01be 2baf 0ebf d64c f9be
000000a0: 7fb5 12bd 836a c2be 3bac 87be b6db 16bf
000000b0: f432 33be 7d88 53be
0.023424648 -0.2414364 -0.24151868 -0.033167377 -0.14995089 -0.47466636 -0.59621346 -0.31888604
-0.3769691 -0.31523883 -0.26640075 -0.4860054 -0.36787114 -0.38855535 -0.26688787 -0.35824242
-0.17129964 -0.17560491 -0.22921757 -0.28422552 -0.18608586 -0.30081877 -0.34997165 -0.37904608
-0.52228165 -0.005871782 -0.38978958 -0.2900676 0.0922144 -0.2346651 -0.12056114 -0.29475847
-0.3549488 -0.2576271 -0.29967198 -0.12382111 -0.3400275 -0.12656932 -0.55736035 -0.48691434
-0.03581762 -0.37971887 -0.2649859 -0.58929 -0.17499906 -0.20657535

convs.0.bn2.running_mean f4 [46]
00000000: 4c47 d340 4ef1 b840 9cbe b740 f6ef bd40
00000010: d1ef b93e da64 3040 6888 4e3f f270 4540
00000020: 5319 0c40 985e 0441 8ce2 a340 770e 413f
00000030: 4a43 1c40 0494 be40 bc6b 9440 a538 f840
00000040: 3817 a040 3241 eb40 51a8 1141 1a9f de40
00000050: 09a4 7540 3c34 1041 bc25 583f dfaf 5540
00000060: 5040 8f3f a928 2a41 3d93 e440 1a41 8b40
00000070: 37ac 0441 035d 9140 0791 a640 f474 1d41
00000080: 9c3e c340 3a4c 1341 47fb 0c40 7f9c 1841
00000090: c06f 9840 b0ec a740 df60 cc3f 9958 a53e
000000a0: e7c2 103f 9019 3e40 0754 cb40 6c5e 9a3e
000000b0: 3609 f13f 172d ec3f
6.602453 5.779456 5.7420177 5.935542 0.36315778 2.7561555 0.8067689 3.0850186
2.1890457 8.273094 5.1214046 0.75412697 2.441607 5.9555683 4.638151 7.7569146
5.0028343 7.3517084 9.103593 6.9569216 3.838137 9.012753 0.8443258 3.3388593
1.1191502 10.634927 7.1429734 4.351697 8.292045 4.542604 5.2052035 9.841053
6.1013927 9.20611 2.2028368 9.538207 4.7636414 5.2476425 1.5967063 0.32294157
0.565474 2.9703102 6.3540072 0.30150163 1.8830936 1.845126

convs.0.bn2.running_var f4 [46]
00000000: f4b2 b742 76db 9542 77c8 1342 efd6 1d42
00000010: e309 8f3f e8bf 1c41 3427 0940 3c75 8c41
00000020: e558 8541 371b 6542 9e8b 8d42 5cf2 af3f
00000030: 809f 3041 54c0 3242 1ff2 f941 6183 bb42
00000040: e17b 9542 52be f542 f183 d942 0d1a bf42
00000050: e627 2042 1193 0643 9b04 1740 1252 9541
00000060: 8674 3a41 1a20 4043 4272 b042 48d7 0c42
00000070: 2ce7 df42 d2a1 4542 2594 2a42 6479 0943
00000080: 1622 7842 be61 0543 e5c6 8441 e680 1743
00000090: 56af 9f42 c347 bf41 cc07 8840 15ef 223f
000000a0: 2401 973f e194 ab41 fad6 8542 7bfa aa3e
000000b0: bd7b f740 4905 1c41
91.84952 74.928635 36.945766 39.459896 1.1174892 9.796852 2.1430178 17.557243
16.668406 57.276577 70.77269 1.3745837 11.03894 44.68782 31.243223 93.7566
74.74195 122.87172 108.7577 95.55088 40.038963 134.57448 2.359656 18.665073
11.653448 192.1254 88.22316 35.210236 111.95151 49.408028 42.644672 137.47418
62.033287 133.3818 16.597116 151.50351 79.84245 23.91004 4.250952 0.6364606
1.1797223 21.447695 66.919876 0.33394226 7.733855 9.75129

convs.1.fc_full.weight f4 [92, 98]
00000000: 4b97 af3e b946 04bd 6a0a 20bf 207c 2abf
00000010: acfb 243b 07ac c83d d7b7 ef3e 76f0 babd
00000020: 78ad 013e 7f7b a23c ef4f 133d e20b 3cbe
00000030: aa3b 45be 8c32 0a3e b9c0 2f3f b6a5 aabd
00000040: d2a7 e33d 4b39 efbe bd5e f73e 42db bc3e
00000050: 0ebf b03e 519f 1f3e 6159 093f c713 1cbe
00000060: 35de 123c 120b 0d3f 15d5 1e3f 4f3b fb3d
00000070: c794 ee3e 474e 843d d9ae b5bd 10bc fa3c
00000080: f57d 333e d2ec 393d 2904 673e e35a 59be
00000090: ab16 d6bd e9db d4be c8e0 d93d 3064 aabe
000000a0: a236 babe dc5f 4abc d6ce e33e 2079 9a3e
000000b0: 25c0 3d3e 1478 603e fdd5 26bf 5450 ecbe
000000c0: 9b3a eebe 36c4 e3be 0b5e 9abf 7691 453e
000000d0: a50e 8fbe 4df0 093e 0c74 9cbe f8ef 58be
000000e0: f839 9d3d 1e7a d43d 9c00 01bf 302f 673e
000000f0: 177f 0a3f 3995 a4be 2c49 c2be 6c70 0fbd
00000100: 814e 943e fac7 df3e a74b ad3d fceb ea3c
00000110: f3de 2b3e 8a5d a53e 7571 973e 573d a4bd
00000120: 34ab b2bd 2879 e2be 0070 a7bc 59e5 4d3e
00000130: 2c88 92be b839 94be 2a37 3e3e 89c2 003e
00000140: fc61 14be eb1b 57bd eddc 983d a6e8 01be
00000150: 99cc 3c3e 8388 d1be 7b82 21bf f8fb 9ebd
00000160: c64f c3bd 42e8 383f 9409 e9be 487a a4be
00000170: ee47 d23e 0f65 60bf f5f9 23bf d4da a3be
00000180: b041 c1be bf47 d4bd 2f6f b23e 6f0a c03d
00000190: 60fc 0abd 7309 3c3e 96c9 2a3f 78ee a8be
000001a0: 394c fabe 78a6 d03e 0762 6b3f 2e8f b93e
000001b0: 58dd c0be 6e27 1cbe 1630 1f3f cc31 3c3f
000001c0: cbae 663d 7f23 253f 5eea d53e 114a e63c
000001d0: e49e 13bd b15f 8ebe 074c 3a3f 63f3 f0be
000001e0: 1224 a03e a802 80be c4ef 8c3e 3981 56bf
000001f0: dd67 a4bd 59ac cc3d 4c6e 18bf 63ca 20bf
00000200: 77a9 7cbe 4f57 76be 7e80 f7be 4442 0e3f
00000210: f52b 143f 6757 153d 88bc a83e 62fc 7a3d
00000220: 9746 1a3d db63 edbe fa62 bf3e 3a65 1c3f
00000230: 3360 f0be 5843 c8be 19a9 073f 3ac6 4bbe
00000240: e8d8 093e 4c6a f43d 6ee7 4cbf 3467 6a3d
00000250: 0cc3 343f 8f7d 84bf c4dd 3e3e be59 623e
00000260: dc26 bbbe c781 84be 1d48 3d3e 8d6c 95be
00000270: 207b bfbe 240b dabd 17c8 e1bb 3df9 803e
00000280: fe22 643f e3d2 e0bd 0377 573e d341 163f
00000290: 799b 1f3d 86d9 163e dfc3 febe ea68 8abe
000002a0: 65a4 ebbe e30b 1c3f 5182 d1bd 22a7 b9bd
000002b0: c755 a1be 7c48 30bb 169d 843e 5510 92be
000002c0: 2ba5 a5be f6df 303f 1005 26be 7b33 f2bd
000002d0: 9857 233e f291 20bf 0b7d c3be 77d8 dfbe
000002e0: 4c20 dbbe 9de4 eabe 54bf 5dbe c5ea 32bf
000002f0: 558b 06bf 489b b6be da88 a1be 8e79 d53e
00000300: 8995 0b3f b542 383e 072d 56bf 181d c43e
00000310: eb93 563a d7d5 5b3e 2a2e 2ebe fed3 ddbd
00000320: 9a4f 1b3e c427 52bd 2522 afbd 24fb 73bf
00000330: 1edc a7bd d26f d9be e363 d03d 1cfe 0fbf
00000340: 85b9 23bf 759c cd3e 85b2 96bd 70f5 2dbd
00000350: 5d04 293e f90f f83d d9f6 25bd ce24 69bc
00000360: 218b 1fbf 901e 0cbf 41d7 9dbd b145 683d
00000370: ea46 eebc 8f2e 96bd 844c 033f a4c9 273f
00000380: 1504 34bd cb6b 663e 4f56 08bf 76e5 1c3d
00000390: 9544 35bd 6323 9b3e 25ca 603e 59c5 30be
000003a0: 2d33 2cbe c772 893e 4876 b7be 9fec a2be
000003b0: 3da5 893e 2598 4a3c c45c f23d 31ca 1abf
000003c0: ee6c c9be b2b5 543d 79f8 c4be 6566 19bf
000003d0: 723a 02bf bc00 233f 8274 043e 19e5 9bbd
000003e0: f26b 2a3d 68a6 4abf 59b0 14be aade 29be
000003f0: 88b5 83be 3264 403e 412d b3be 71ed d23e
0.34295115 -0.03229401 -0.6251589 -0.6659565 0.0025174422 0.097984366 0.46819946 -0.091278955
0.1266383 0.019834278 0.035964902 -0.18363908 -0.19261041 0.13495845 0.68653446 -0.08332388
0.111159936 -0.467234 0.48314467 0.3688603 0.34520763 0.15588118 0.53652006 -0.1524192
0.008964111 0.55095017 0.6204389 0.122671716 0.46597883 0.06460243 -0.0887124 0.030607253
0.17528518 0.045391865 0.2256018 -0.21226077 -0.10453542 -0.41574028 0.10638577 -0.33279562
-0.36369807 -0.012351956 0.4449374 0.30170536 0.18530329 0.21920806 -0.6517027 -0.46155035
-0.46529087 -0.44485635 -1.205995 0.1929377 -0.2794086 0.13470574 -0.30557287 -0.21185291
0.07677072 0.103748545 -0.50391555 0.22576594 0.54100174 -0.32145098 -0.3794645 -0.035019323
0.28966144 0.43707258 0.08461695 0.02867698 0.16784267 0.32297927 0.29578748 -0.08019512
-0.08724061 -0.4423306 -0.020439148 0.2010702 -0.28619516 -0.28950286 0.18575731 0.1257421
-0.14490503 -0.05251686 0.07464013 -0.12686405 0.18437423 -0.40924463 -0.6308972 -0.07762903
-0.095367 0.722294 -0.4551512 -0.32124543 0.41070503 -0.87654203 -0.6405328 -0.3200289
-0.37745428 -0.10365247 0.3485045 0.0937699 -0.03393209 0.1836298 0.66713846 -0.32994437
-0.48886278 0.40752006 0.9194645 0.3624205 -0.37668872 -0.15249416 0.6218275 0.73513484
0.05631904 0.6450729 0.4178037 0.02811149 -0.0360402 -0.27807382 0.7277226 -0.4706069
0.3127752 -0.25002027 0.27526677 -0.8379093 -0.08027623 0.0999381 -0.595433 -0.6280882
-0.2467402 -0.24056743 -0.4834022 0.55569863 0.57879573 0.036460306 0.32956338 0.061275847
0.037664976 -0.46365246 0.373802 0.6109196 -0.46948394 -0.3911388 0.529924 -0.19899836
0.1346165 0.11934337 -0.80040634 0.05722733 0.7061012 -1.0350817 0.18639284 0.22104546
-0.36553085 -0.25880262 0.1848454 -0.2918438 -0.37398624 -0.10646656 -0.0068903076 0.25190154
0.89115894 -0.109777234 0.21041493 0.5869419 0.03896663 0.14731416 -0.49758813 -0.27033168
-0.4602386 0.6095564 -0.10229934 -0.09065081 -0.31510755 -0.0026898673 0.25901097 -0.28528085
-0.32352576 0.6909174 -0.16212869 -0.11826225 0.15951383 -0.62722695 -0.38181338 -0.43719837
-0.42798078 -0.45877543 -0.21655017 -0.6988948 -0.52556354 -0.35665345 -0.31549722 0.416943
0.5452505 0.17994197 -0.83662456 0.38303447 0.00081854936 0.21468292 -0.17009798 -0.1083145
0.15167084 -0.051307455 -0.085514344 -0.95305085 -0.08196281 -0.42468125 0.10175302 -0.56247115
-0.63954955 0.4015843 -0.07358269 -0.042470396 0.1650557 0.121124215 -0.040518615 -0.014229966
-0.6232167 -0.54734135 -0.07707072 0.056707088 -0.029086549 -0.07333099 0.5128863 0.65542054
-0.043949205 0.22502057 -0.53256696 0.03830477 -0.044254858 0.30300435 0.21952112 -0.17262782
-0.16816397 0.2684538 -0.3583243 -0.31821153 0.2688388 0.012365376 0.118341 -0.6046477
-0.3934092 0.05193109 -0.3847082 -0.59921867 -0.5087043 0.63672996 0.12935069 -0.07612056
0.04160685 -0.79160166 -0.14520396 -0.16588846 -0.25724435 0.18788221 -0.34995463 0.41196778

convs.1.fc_full.bias f4 [92]
00000000: 5cae d23c 7caf 54bd d5d7 e93d 391d ee3b
00000010: 6f7b 153c b0a2 02bd da88 8ebd 70d1 7c3d
00000020: f014 ac3d b2dc 97bd e6e4 b5bd 6f79 c93d
00000030: a8e9 063d c1c7 21bb 2ade c63d 97ef 3f3c
00000040: 7f57 7c3c fb2d 4b3b 842d f03c 3694 523d
00000050: 7793 7a3d 320b b4bc 698b 043e 10f6 813d
00000060: 5bc3 933d 3463 abbd b881 bd3d 881f 4cbe
00000070: c383 123d 396f 583c a715 c43c 89ab 1b3d
00000080: a662 80bd 35f4 b6bd 7a34 12bd 974a 8bbc
00000090: 6eed f33c 6569 85bc a6ac 833d aac5 1abe
000000a0: 9d8e 1cbd b4e7 73bc ab61 163a dcde 2dbd
000000b0: 86d2 c03d c4cf 13be dc72 ad3d 18e0 ac3d
000000c0: 07a5 cb3b dd2b 03bd d016 5a3c 692b 77bd
000000d0: 5644 2c3c 90f8 eebc f5f5 533d faa1 443d
000000e0: 8027 963c 6383 e73b 56d3 82bd cc19 8dbd
000000f0: 1f47 d0bd 8d4b 9fbd 4e15 9ebd 42a0 363d
00000100: bbea c7bd 0830 5bbd d88d a63d 3385 41bd
00000110: 85ec 33bc 9382 8cbd cfc4 a0bc 841f eabc
00000120: 82a3 223d cba1 073c 9477 8f3b 3276 80bd
00000130: 9ed4 23bd bded 8dbc 0364 c1bd f50e 5f3c
00000140: fbb7 c03d eb6e afbc 7142 ebbd ac7b 883d
00000150: 455f 783d 86dd cc3d e933 7bbd 26c4 fa3c
00000160: 60e7 adbd 6326 a2bd a99d 053e 1bdd 4dbb
0.025717907 -0.051925167 0.1141812 0.007266667 0.009123667 -0.031893432 -0.06959696 0.061723173
0.08402431 -0.07415141 -0.088815495 0.09837615 0.032937676 -0.0024685713 0.09710343 0.0117148375
0.01540172 0.0031002748 0.029318579 0.051410876 0.06117579 -0.021977995 0.12943806 0.06345761
0.072149955 -0.08368531 0.092532575 -0.19933903 0.03577019 0.013210111 0.023936106 0.038005386
-0.06268816 -0.089332975 -0.035694577 -0.01700334 0.029776301 -0.016285608 0.064294145 -0.15114465
-0.038221944 -0.014886785 0.00057365996 -0.042448863 0.09415154 -0.14434725 0.08469173 0.0844118
0.006214741 -0.032024253 0.013311103 -0.060344134 0.010514339 -0.029171258 0.051748235 0.048006035
0.018329382 0.007065223 -0.063879654 -0.06889686 -0.10169815 -0.07778082 -0.07718907 0.044586428
-0.09761568 -0.053512603 0.08132523 -0.04724617 -0.010981684 -0.068608426 -0.019625096 -0.028579481
0.039706714 0.008278321 0.0043782685 -0.06272544 -0.03999769 -0.017325277 -0.09442904 0.013614406
0.094100915 -0.021415194 -0.11487282 0.066642135 0.06063773 0.1000319 -0.061328802 0.030611109
-0.08491397 -0.07917478 0.13048424 -0.0031412307

convs.1.bn1.weight f4 [92]
00000000: 1266 1340 d3bc a33f 4ce3 fa3f 4e18 2f40
00000010: 37ac 7040 f279 2c40 c3e0 1440 2b00 f03f
00000020: 7ff1 1540 ba00 1f40 1933 5c40 55c7 1140
00000030: 23ff ff3f 43f7 b63f 49ea 7040 851e 1440
00000040: 66bb df3f 72be dc3f 26b4 2840 d341 4d40
00000050: 783a fa3f 25f6 ee3f f48a 3a40 8f18 fb3f
00000060: dcfd 0240 d3be 0f40 d44c 6140 8920 eb3f
00000070: e611 fb3f e221 bc3f 3d73 1e40 59f6 0b40
00000080: 1664 9b3f 6485 0240 2eb0 3d40 9af7 ba3f
00000090: e887 0c40 5568 4840 e942 813f bef3 ea3f
000000a0: 499e 3840 3a63 ab3f 1d8f d53f fd2a e83f
000000b0: 23b3 6740 0962 2b40 629b 8e3f 924d 9e3f
000000c0: 95c6 d03f a443 6d3f 772f 973f fb5a 0940
000000d0: 224a b73f dc00 0140 0113 613f de6b 1940
000000e0: e72a 0240 b8de 283f 7f65 0740 f1b0 0c3f
000000f0: 444b 2f40 afd1 6d3f 9a64 ba3f ef96 c43f
00000100: 887a 2d3f 391a 0f40 bdb7 6d3f fb9f ee3f
00000110: af4a 943f a2f2 0240 c47a 223f 70c6 823f
00000120: 83ee f73f 0246 0040 7b7a 4a3f 70b3 df3f
00000130: ad9e b43f 3af9 963f 6590 903f 4bad 1240
00000140: 2628 d53f d04e 263f 05c3 1d3f 6a71 e33f
00000150: e029 223f 3309 523f 10ef 273f 10b4 f63f
00000160: 282c 8b3f 2b71 293f 4d46 443f ff66 e43f
2.3031049 1.2792 1.9600616 2.7358584 3.7605112 2.694943 2.3262184 1.8750051
2.3428648 2.4844193 3.4406188 2.2777913 1.9999737 1.4294208 3.7642996 2.3143628
1.7479064 1.7245619 2.6359954 3.2071426 1.9549093 1.8668867 2.914731 1.961687
2.0467443 2.246022 3.5203142 1.8369304 1.9614837 1.469784 2.4757836 2.1869109
1.2139919 2.0393915 2.9638782 1.4606812 2.195795 3.131368 1.0098544 1.8355634
2.884661 1.3389657 1.66843 1.8138119 3.6203086 2.6778586 1.1141169 1.2367423
1.6310602 0.92681336 1.181136 2.146178 1.4319499 2.0156775 0.8791962 2.3972087
2.0338686 0.6596484 2.1155698 0.5495749 2.7389688 0.92898077 1.4561951 1.5358561
0.6776509 2.2359755 0.9285849 1.8642572 1.1585292 2.0460591 0.63468575 1.0216808
1.9369663 2.004273 0.7909314 1.7476635 1.4110924 1.1794808 1.1294066 2.291827
1.6652877 0.6496401 0.616257 1.7768986 0.63345146 0.82045287 0.65599155 1.9273701
1.087285 0.66188306 0.7666977 1.7843932

convs.1.bn1.bias f4 [92]
00000000: c11a 873d 16e2 42be f11e cabe 289b 93bf
00000010: 48c5 6ebe 5166 81be 499d 9ebe 7742 d1be
00000020: e1e9 a9bf 252f 97bd 1157 b8be 4717 50be
00000030: 555b 24bd 8732 f6be ac2e a6be abaa 663e
00000040: 663c 1b3e 2cbb 1f3d 526c c4be 525c c0be
00000050: ce64 30bd d110 8d3d 3fdc 763e 8bb6 ca3e
00000060: 936e 25bf 973a 22bf 8029 7cbe a074 ae3c
00000070: 6d51 a8bf 1d82 69be 683d 72bf 6421 d0be
00000080: 76b3 c9be ea94 6d3e 2297 acbe a9ce 85bf
00000090: 1764 f9bd d770 903d e288 efbe 431b 61bf
000000a0: 5a38 88bf 5cb2 0c3e a65a 97bd e627 2ebf
000000b0: ee33 9dbd 0007 143e f0a7 acbe f185 cbbe
000000c0: 88e0 fbbd b89f 0dbf d679 973e a0e7 d2bd
000000d0: eb47 a6be d84c cdbc 11e8 fcbe 74cb 4c3d
000000e0: 4a1d 20be 0204 2abf 6c5d a6bc 55ae 4cbf
000000f0: 4ced 91bd d339 19bf a7b9 993c 865d a8be
00000100: d8ef 18bf bf6b 05be ab4a ed3e 0ea7 963e
00000110: da46 65be 952d 213e 7a70 1fbf 2261 14bf
00000120: 8b45 f73e b82b a9be bc50 16bf e701 14bd
00000130: 1d23 afbe 604e 0cbf ac17 babe 5002 8a3d
00000140: 245b a6bd 634c 3abf 4d22 1ebf 1a2f c73e
00000150: caca 4abf 94e0 50bf 3f21 f5be 2887 f4bc
00000160: fbe0 01bf d53d 1bbf 5b91 06bf 3967 c03d
0.065969 -0.19031557 -0.3947673 -1.1531725 -0.23317444 -0.25273374 -0.30979374 -0.4087102
-1.3274499 -0.07382039 -0.36003926 -0.2032138 -0.040126164 -0.48085424 -0.32457483 0.22526042
0.15159759 0.03899686 -0.38363892 -0.37570435 -0.043064885 0.06887973 0.24107455 0.39592394
-0.6462185 -0.6337065 -0.24625206 0.021295846 -1.3149849 -0.2280354 -0.9462495 -0.40650475
-0.3939473 0.23201337 -0.33709055 -1.0453693 -0.12177294 0.070527725 -0.4678412 -0.87932223
-1.0642197 0.13739914 -0.07390337 -0.6802963 -0.076759204 0.14455795 -0.33721876 -0.39750627
-0.12298685 -0.55321836 0.2958514 -0.10298085 -0.32476744 -0.025061056 -0.49395803 0.049998716
-0.15636173 -0.66412365 -0.020308219 -0.7995351 -0.07125339 -0.5985386 0.018765284 -0.32883853
-0.5974097 -0.13029383 0.4634603 0.29424328 -0.22390309 0.15740044 -0.62281 -0.5796071
0.48295245 -0.33041167 -0.5871694 -0.036134627 -0.34206477 -0.5480709 -0.36346185 0.06738722
-0.081228524 -0.72772807 -0.6177109 0.38903123 -0.7921568 -0.8159268 -0.47876927 -0.029849604
-0.5073392 -0.60641223 -0.52565545 0.09394688

convs.1.bn1.running_mean f4 [92]
00000000: e03d 21bf 73f2 0dbf a563 81bf 3c72 1240
00000010: d9f4 cf3f 3f8a 663f b166 8b3f 81ad 18c0
00000020: ace8 b6be f980 8f3f f472 b9bf 638c afbf
00000030: 0998 f6bf 7361 7cbf 058b 91c0 a553 48bf
00000040: 22fc 01c0 1ac3 89c0 73e0 83c0 96a8 3ebf
00000050: d80e 153f 0f5e 9cbf 6cd6 00c0 8884 d2bf
00000060: b7a4 5b3f c895 0bbf c5bf 52be 99b3 3bc0
00000070: 7801 1b40 a64a 37be 9185 0340 e2e1 0d40
00000080: 115d 06c0 f853 bcbf 2f0a 3c40 f0e0 8e3f
00000090: 685d bc3f 62a9 86be d418 b6bf 291e 863c
000000a0: 1d69 3d40 bc84 92c0 f7fc 90bf b2db ed3f
000000b0: 4e6f adbf 167f 5ec0 808e 923f 002c a5bf
000000c0: 2b15 90bf 4e5b dcbf c7ca 99c0 9f66 203f
000000d0: bf9e 383f 57c2 b6bf 7f21 50c0 682a 96bf
000000e0: c6d0 e8bf b518 1c3f d00c 31c0 c4e5 30c0
000000f0: 5337 e0bf a234 5f3f 0526 5cc0 bf41 a7bf
00000100: 3b1d 59bf f330 d2bd 2c54 6bbf 154c 5dc0
00000110: 848c c6bd 5014 8bbf e925 17bf 2131 8dc0
00000120: 1b13 82c0 f154 3dc0 389d 08c0 c13c 5bc0
00000130: 533c 24c0 9bdb 71bf e433 87c0 13a1 46c0
00000140: 93e5 81bf 0abb 2bc0 710c 9cbe a1bd 50c0
00000150: 1983 cd3e 9468 95bf 1ec2 a2be 3c1b 41c0
00000160: bcbc 66bf 31c7 84c0 ac3c acbf 6d5c 313f
-0.6298504 -0.55448073 -1.0108534 2.2882223 1.6246597 0.90054697 1.0890714 -2.3855898
-0.3572439 1.1211234 -1.4488206 -1.3714718 -1.9265147 -0.98586196 -4.54822 -0.7825263
-2.031014 -4.305066 -4.1211486 -0.7447599 0.58225775 -1.2216204 -2.0130873 -1.6446695
0.8579821 -0.54525423 -0.20580967 -2.9328368 2.4219646 -0.1789957 2.0550272 2.2169118
-2.0994303 -1.4713125 2.9381216 1.1162395 1.4716005 -0.26301104 -1.4226327 0.016371803
2.9595406 -4.578703 -1.1327199 1.8582671 -1.3549592 -3.4765067 1.1449738 -1.2904053
-1.125646 -1.7215364 -4.806003 0.6265659 0.7211723 -1.4278058 -3.2520444 -1.1731691
-1.8188713 0.609752 -2.766407 -2.7640238 -1.7516884 0.87189686 -3.4398205 -1.3066939
-0.8481023 -0.102632426 -0.9192531 -3.4577687 -0.0969477 -1.0865574 -0.5904222 -4.412247
-4.064832 -2.9583094 -2.1345959 -3.4255831 -2.566182 -0.94475716 -4.2250843 -3.1035812
-1.0148185 -2.683291 -0.30478242 -3.261574 0.40139082 -1.167254 -0.31788725 -3.0172873
-0.90131736 -4.1493154 -1.3456016 0.69281656

convs.1.bn1.running_var f4 [92]
00000000: 5529 8441 2f43 8241 e50a 2141 417d 8441
00000010: a7f3 b341 02f7 9441 8553 ce41 0e78 d641
00000020: 0dbb b741 71f3 8741 22ad 8741 6635 7041
00000030: 211c f841 03e1 8e41 f0fb b141 aaf7 0842
00000040: 547c a741 c4c7 d441 7d70 0a42 c0fd 9341
00000050: 1230 b441 bc25 8541 4652 fd41 4a5b 5041
00000060: 7539 4741 137b 3241 7d11 9641 ddaf 7241
00000070: 0baa 7941 3e94 2c41 624e fa41 d461 7341
00000080: 2f5e 4d41 88b0 3741 020e b741 17ca a241
00000090: 4a23 3641 9ff6 9f41 7972 8e41 0ac8 b841
000000a0: b8c8 6541 5bd8 8441 d3bf 7c41 db87 8c41
000000b0: 81ce 3f41 6eaa 5f41 d656 a741 2810 a941
000000c0: 8d7d 4941 25e0 e041 430a b841 adc7 c241
000000d0: ccde 8841 0c29 7b41 0306 dd41 fc82 8b41
000000e0: 91f4 c041 6885 8641 0291 9341 3100 8b41
000000f0: da06 9f41 1ee6 8941 0879 0942 cbc9 9741
00000100: c009 af41 8041 7c41 4a08 6441 25da e141
00000110: 40c1 9041 eda9 9b41 0b10 9141 cb27 a141
00000120: c4f0 d341 258e 0a42 f4e8 ad41 01ac a241
00000130: 8c3b a241 1745 d141 9d75 8c41 606d 8441
00000140: 1bcb 9541 6ee0 c741 8bfc b541 62e3 be41
00000150: 8c90 ba41 be06 af41 9b26 9b41 fe22 7241
00000160: 8fbf 8f41 69b0 a341 3d87 5b41 785d e341
16.520182 16.282804 10.06516 16.56116 22.49397 18.62061 25.790781 26.80862
22.966333 16.993868 16.959538 15.013037 31.013735 17.859869 22.248016 34.24186
20.935707 26.597542 34.60985 18.498901 22.523472 16.643425 31.665173 13.022287
12.451528 11.155047 18.75854 15.167935 15.604014 10.786192 31.288273 15.211384
12.835494 11.480598 22.88184 20.348677 11.3836155 19.99542 17.805895 23.097675
14.361504 16.605642 15.796832 17.566336 11.987916 13.979109 20.9174 21.132889
12.593152 28.109446 23.00501 24.347498 17.108788 15.697521 27.627935 17.438957
24.119417 16.81514 18.445805 17.375093 19.878345 17.237362 34.368195 18.973532
21.87976 15.765991 14.252024 28.231516 18.09436 19.457972 18.132833 20.14443
26.492561 34.638813 21.738747 20.333986 20.279076 26.158735 17.557428 16.553406
18.724173 24.984585 22.748312 23.861027 23.32058 21.878292 19.39385 15.133543
17.968534 20.461138 13.720517 28.420639

convs.1.bn2.weight f4 [46]
00000000: 579f 863f b781 5e3f eb1d 753f 0bc7 a43f
00000010: 63a2 9c3f ca60 873f 5db3 843f 6fc0 6c3f
00000020: adc9 a93f 2df7 883f 1135 9e3f 6131 ac3f
00000030: e07d 893f 6375 b53f 1c9c 8d3f bf63 a93f
00000040: a1a6 823f e173 8d3f 0159 8f3f 4200 893f
00000050: 2287 1b3f d1bf ab3f f756 8c3f 0037 6f3f
00000060: 6f01 a93f db0c 863f a50c 613f 0295 7b3f
00000070: 2b07 da3f 5409 333f 809b 693f 8ad4 b93f
00000080: d8b8 8c3f f0be 703f 612a d43f 4672 8b3f
00000090: 34ae 833f fc0f 913f 79b8 883f 0a47 963f
000000a0: 5a8f a33f 67a4 0a3f c78d a33f 88dd 883f
000000b0: 2d29 9c3f c69f 913f
1.0517377 0.8691668 0.95748776 1.2873243 1.2237056 1.0576413 1.0367237 0.9248113
1.3264672 1.0700432 1.2359945 1.3452569 1.0741539 1.4176449 1.1063266 1.3233565
1.0207101 1.1050988 1.1199037 1.0703204 0.6075307 1.3417913 1.096404 0.934433
1.3203562 1.0472673 0.8790992 0.9827424 1.7033437 0.6993611 0.912529 1.4517987
1.099391 0.9404135 1.6575433 1.0894248 1.0287538 1.1333003 1.0681297 1.1740429
1.2778122 0.5415711 1.2777642 1.0692606 1.2200066 1.1376884

convs.1.bn2.bias f4 [46]
00000000: 1fb3 85be 1534 6c3d acfe 66bf 2d36 243e
00000010: dc78 d4bd b761 05bf 2262 fdbe b404 81be
00000020: 1f24 4ebf 9889 75be 07da 68be a60a 85be
00000030: 6a97 c5be 7b0a 72be b2db d93d 3e5a 123e
00000040: fd9e ccbb c862 adbc 8119 6f3e 50d0 f3bc
00000050: e024 85be be69 34be 7ae6 e8be 602a ddbe
00000060: 3212 3abf c793 8abe e2c0 17bf ec4d 7cbd
00000070: f295 b93e 7503 efbe 7050 943e 4669 e7be
00000080: f0a1 17bf 6376 28be e3a4 35be 255e 35be
00000090: 90c7 f7be dbdd 84bd 6d7e a2bf a70d ebbe
000000a0: c380 b43d e305 81be 6811 10bf f5cb ddbe
000000b0: 35f7 5b3d f940 b6be
-0.2611322 0.057666857 -0.9023235 0.16036291 -0.103746146 -0.52102226 -0.49488932 -0.251989
-0.80523866 -0.23978269 -0.22739421 -0.25984687 -0.38592082 -0.2363681 0.10637607 0.14292237
-0.006244539 -0.021165267 0.23349573 -0.029762417 -0.26004696 -0.17618462 -0.4548834 -0.43196392
-0.72684014 -0.2706587 -0.5927869 -0.06159775 0.36247212 -0.46682325 0.2896762 -0.45197505
-0.5923147 -0.16451411 -0.1773868 -0.17711695 -0.48394442 -0.06487628 -1.2694832 -0.45908853
0.08813622 -0.25199804 -0.5627656 -0.4331967 0.053702552 -0.35596445

convs.1.bn2.running_mean f4 [46]
00000000: 1853 2a40 88fe f63f 7195 8440 2e4d 163f
00000010: 6f18 6240 8210 a540 72db 3d40 0316 9040
00000020: e0bd 133f 28a5 ec40 f384 b740 1169 a93e
00000030: b1ac c840 a706 57bc b0af 9c40 130f 663f
00000040: 4d97 9640 03e2 4840 455e a93e 2f04 b640
00000050: f177 a740 4f1c ce40 b021 0840 e2a1 e640
00000060: 0f0d 863e a94a 753f ef9a d240 e055 5340
00000070: 32be 193e e23b 8540 7f35 983f 4a7c 7f3f
00000080: 96cc de3f 35bd 0541 fac2 4940 0f39 103e
00000090: 0074 053f 8907 cd40 54f9 3d3e 5a08 343e
000000a0: 93ae 1d3f e9a7 b540 b3cb d03f b122 a33e
000000b0: 1662 163f 325e a340
2.6613216 1.9296427 4.1432424 0.58711517 3.5327413 5.158265 2.9665189 4.502687
0.577116 7.3951607 5.734979 0.33087972 6.2710805 -0.013124145 4.896446 0.8986675
4.7059693 3.1387947 0.33079734 5.6880107 5.2333913 6.4409556 2.1270561 7.207261
0.26181838 0.9581705 6.581413 3.3021164 0.1501396 4.16356 1.1891326 0.99799025
1.7406185 8.358693 3.1525254 0.14084266 0.52130127 6.40717 0.18552142 0.17581311
0.61594504 5.676747 1.6312164 0.31862405 0.5874342 5.1052485

convs.1.bn2.running_var f4 [46]
00000000: cac2 4042 d42c 8341 eb19 3042 8fd7 973f
00000010: 6b7a 3e41 a83a 9442 5076 1242 a942 4d42
00000020: 06b1 da3f f2a2 9242 ece3 9a42 549a 5b40
00000030: 87c1 a442 9894 e53c c9cb 9842 3e41 2f40
00000040: abd9 2d42 3d59 9141 59fa ab3f 895f 8342
00000050: d769 d641 90a6 1442 004c 2141 aad8 8742
00000060: 7f1e 9a3f 717b 3f40 df5d e642 d77a ec41
00000070: 1739 843e c91e ef41 9db8 3d40 8c11 2a41
00000080: 97c9 5b41 fdf8 da42 4b63 1842 146c 7c3f
00000090: d90d 9840 fb05 8842 404b f03e 9a36 c73e
000000a0: ef74 a240 4cca 1d42 12ca bb40 e293 273f
000000b0: 3fc3 a240 8a8b 9442
48.190224 16.396889 44.02531 1.1862658 11.904887 74.11456 36.61554 51.315098
1.7085273 73.31825 77.44516 3.4312944 82.37798 0.028024957 76.39802 2.738357
43.462566 18.168573 1.3435775 65.68659 26.80168 37.16266 10.081055 67.92317
1.2040557 2.9919093 115.18334 29.55998 0.25824806 29.890032 2.964393 10.629284
13.736716 109.486305 38.096966 0.98602414 4.7516904 68.01168 0.4693241 0.38908845
5.076774 39.447556 5.868417 0.65460026 5.0863338 74.27254
