dropout/NN_ensemble/histories/1_d5_valid_best_params.pt (torch_old, 452453 bytes, 103 tensors)

embedding.weight f4 [46, 98]
0	0x3d2256d4	0.039633587
1	0xbe1bf29b	-0.15229265
2	0xbec5a18b	-0.3859981
3	0xbdf5a974	-0.11995211
4	0x3dda36af	0.10654961
5	0xbf0df274	-0.5544808
6	0xbd98c4dd	-0.07459424
7	0xbd8ceae6	-0.06880741
8	0x3d128f2c	0.03578107
9	0x3eb42df5	0.35191312
10	0x3f297d5b	0.662069
11	0xbcc138d6	-0.023586672
12	0xbf3b7543	-0.732258
13	0xbe03da4c	-0.12876242
14	0xbe0e0e14	-0.13872558
15	0x3e38c189	0.18042578
16	0xbc3a2e2e	-0.011363549
17	0x3eefb7bc	0.46819866
18	0xbcf37e4c	-0.029723309
19	0xbe31ef5b	-0.17376463
20	0xbcae0f26	-0.021247458
21	0xbe7c2895	-0.24624856
22	0x3b907dcf	0.004409529
23	0x3e9a162a	0.30095035
24	0xbecad309	-0.39614132
25	0xbda0affe	-0.07846068
26	0x3becd1f5	0.0072271773
27	0xbe41d40f	-0.1892855
28	0xbe98f6d6	-0.2987582
29	0xbea4cdb6	-0.32188195
30	0x3e0acbb3	0.13554268
31	0xbcfcdd33	-0.030867195
32	0xbdaaf7ca	-0.08348043
33	0x3e4c9aca	0.19980922
34	0xbbddb3f8	-0.0067658387
35	0x3d6198e0	0.055077434
36	0xbe14b041	-0.1452036
37	0xbd2914af	-0.04127949
38	0xbcc2368f	-0.023707656
39	0x3ed3f983	0.414013
40	0xbe28923b	-0.16462032
41	0xbe646f5f	-0.2230811
42	0x3c8f1397	0.017465396
43	0xbe20e4b7	-0.15712248
44	0x3bd71b10	0.0065645054
45	0xbf5cf2c7	-0.8630795
46	0xbe04b031	-0.12957837
47	0xbec3d929	-0.38251618
48	0xbe3b2bd0	-0.18278432
49	0xbe27056a	-0.16310659
50	0x3d1b7103	0.037949573
51	0xbd5d4e54	-0.054029778
52	0x3d1e4a56	0.03864511
53	0x3e12b8d7	0.14328323
54	0x3e8e7349	0.2782233
55	0x3cf77d2e	0.030211058
56	0x3bc68362	0.0060581425
57	0x3e3ddbb5	0.18540843
58	0xbd9ea3ee	-0.07746111
59	0x3c6b7ea3	0.014373454
60	0xbe8824eb	-0.26590666
61	0x3ea243e6	0.31692427
62	0xbe9a6d02	-0.3016129
63	0xbe14fb95	-0.14549096
64	0x3e4b5be2	0.1985927
65	0x3d1c1a00	0.038110733
66	0x3cf7f8a8	0.030269936
67	0x3c390198	0.011291884
68	0x3d82e1a6	0.06390695
69	0xbcb646f8	-0.022250637
70	0x3e0a31ae	0.13495514
71	0x3d96ab18	0.07356852
72	0x3e357ab8	0.17722595
73	0xbd8056a7	-0.062665276
74	0xbd5ad325	-0.05342402
75	0x3e0d18ca	0.13778988
76	0x3d80120a	0.06253441
77	0x3ecba4e5	0.39774242
78	0xbed3d999	-0.4137695
79	0xbd8005f8	-0.062511384
80	0x3e455b92	0.19273213
81	0x3cfcb0f8	0.030846104
82	0xbe99a1f7	-0.30006382
83	0x3d976984	0.073931724
84	0xbdc0ce75	-0.094143786
85	0xbcffb86d	-0.03121587
86	0x3e5b8c6d	0.21440287
87	0xbdb10a4f	-0.08644544
88	0xbe939de7	-0.28831407
89	0xbedb9918	-0.4289024
90	0x3deeda9a	0.11662789
91	0xbf3eba4e	-0.7450303
92	0x3e9d8ee0	0.30773067
93	0x3faf98bb	1.3718485
94	0xbf078f41	-0.52952963
95	0xbf89c8bb	-1.0764383
96	0xbed997b8	-0.42498565
97	0xbf261632	-0.6487762
98	0xbc5481e8	-0.012970425
99	0xbdbc306d	-0.09188924
100	0x3c8ed318	0.017434642
101	0xbf0dd1b9	-0.55398136
102	0xbeefa5c3	-0.46806154
103	0x3ef2832a	0.47365695
104	0xbeffd017	-0.49963447
105	0xbe4cf898	-0.20016706
106	0xbebb2c7f	-0.36557385
107	0xbc5b5d15	-0.013388892
108	0x3e0fa193	0.1402648
109	0x3ef7c1b8	0.48389983
110	0xbcb435d8	-0.021998331
111	0x3e18b668	0.14913332
112	0xbe513072	-0.20428637
113	0xbe861d74	-0.26194346
114	0x3e8b45e5	0.27201763
115	0xbe812588	-0.25223947
116	0x3db72cd8	0.089441
117	0xbe595a9c	-0.21225971
118	0xbd353607	-0.044240978
119	0x3ebea532	0.3723541
120	0x3e60436c	0.2190072
121	0x3e639592	0.22225025
122	0xbf44b2ed	-0.7683552
123	0xbdb7e6d4	-0.08979574
124	0xbc0c4242	-0.008560719
125	0x3e8ea08b	0.2785686
126	0xbe9a69d6	-0.3015887
127	0xbc986d56	-0.018606823
128	0xbe60911e	-0.21930358
129	0x3e6aa148	0.22913086
130	0x3d8c5e78	0.06853956
131	0xbd169dcb	-0.036771577
132	0xbd7c0a1c	-0.06153308
133	0x3d452f3c	0.04814075
134	0xbec446ef	-0.38335368
135	0xbc69e7f7	-0.014276496
136	0xbdcde23a	-0.10052915
137	0xbe598be5	-0.21244772
138	0x3e70b7a5	0.23507555
139	0xbd07d89e	-0.033165567
140	0xbcf78eb1	-0.030219408
141	0xbf2b8ccf	-0.6701173
142	0xbcfd07a8	-0.03088744
143	0x3e1214fa	0.14265814
144	0x3cabd1c2	0.020974044
145	0x3b463bb4	0.0030247988
146	0xbc1bdcab	-0.009513061
147	0xbe8fd390	-0.28091097
148	0x3e5dad16	0.21648058
149	0x3d5f34b2	0.054493614
150	0xbe1e3f98	-0.15453947
151	0xbe9b6bc1	-0.30355647
152	0xbdc6627b	-0.096867524
153	0xbe4c8f20	-0.19976473
154	0x3ec28643	0.3799306
155	0x3ef68914	0.48151457
156	0xbd2e73dc	-0.04259096
157	0x3f579484	0.8421099
158	0xbdb74e3a	-0.089504674
159	0x3dd45805	0.10368351
160	0xbedce43e	-0.43142885
161	0x3e950783	0.29107293
162	0xbe4715df	-0.19441937
163	0xbda6e96e	-0.08149992
164	0xbd223262	-0.03959883
165	0x3d4a2844	0.049354807
166	0x3bc7f0c0	0.0061016977
167	0x3b6136e0	0.0034364983
168	0x3dac79bf	0.08421659
169	0x3d02d9d0	0.031946003
170	0x3d9229fc	0.07136914
171	0xbeb145c9	-0.34623554
172	0xbda31ee6	-0.07964878
173	0xbe4dc004	-0.2009278
174	0x3d760598	0.06006393
175	0xbe892b92	-0.26791054
176	0xbdabb629	-0.08384354
177	0x3e406250	0.18787503
178	0xbe6468c8	-0.22305596
179	0x3d8cad84	0.06869033
180	0x3d8ec220	0.0697062
181	0x3e90db12	0.28292137
182	0xbe87fac0	-0.26558495
183	0x3cb75f82	0.022384409
184	0xbde2a544	-0.11066678
185	0xbdde37c2	-0.10850479
186	0x3de8c5cc	0.11365852
187	0xbf2df9c8	-0.6795926
188	0xbe548445	-0.20753582
189	0x3e167eff	0.14696883
190	0x3e2de89c	0.16983265
191	0xbf6f408c	-0.93457866
192	0x3f334f68	0.7004304
193	0x3f4dd792	0.8040706
194	0xbf05ab79	-0.5221477
195	0xbe5f3392	-0.21797016
196	0xbd4fa699	-0.05069599
197	0x3d844db0	0.0646013
198	0xbe9147ba	-0.28375036
199	0x3ea1c939	0.31598833
200	0x3d481e5a	0.04885707
201	0xbc8f2ba2	-0.01747686
202	0x3e138399	0.1440567
203	0x3e9b0ff2	0.30285603
204	0x3da2da7d	0.079518296
205	0x3c670c37	0.014102033
206	0xbd1a2f33	-0.03764267
207	0xbee29b55	-0.44259134
208	0xbe909cfb	-0.28244767
209	0xbdf5d571	-0.12003601
210	0x3df55af4	0.119802386
211	0xbdd005ee	-0.10157381
212	0xbce0e52e	-0.027453031
213	0xbdcf605b	-0.101258
214	0xbdb19061	-0.08670116
215	0x3e18db1b	0.14927332
216	0xbd4f211d	-0.05056869
217	0x3e8d55f9	0.27604654
218	0xbee606fb	-0.449272
219	0x3d955eb0	0.07293451
220	0xbbde3b5b	-0.006781978
221	0xbc85ac0c	-0.01631739
222	0xbf23559b	-0.638025
223	0xbeac5dae	-0.33665222
224	0xbe338fda	-0.17535344
225	0x3db7d3ef	0.0897597
226	0x3e090b1c	0.13383144
227	0xbe7d1bbf	-0.24717616
228	0x3d4f26b4	0.05057402
229	0xbe98d489	-0.2984965
230	0x3e032ba1	0.12809612
231	0x3ce2b358	0.027673408
232	0x3e498c66	0.19682464
233	0x3e839ad1	0.25704053
234	0xbee9fa46	-0.45698756
235	0x3ed71c31	0.42013696
236	0xbeef7754	-0.46770728
237	0xbd22e47d	-0.039768685
238	0x3e65365d	0.22384019
239	0xbf2e5da1	-0.68111616
240	0x3d4065ec	0.0469722
241	0x3ed9008a	0.42383224
242	0xbdf63559	-0.12021894
243	0xbe692ca7	-0.2277094
244	0xbda20564	-0.079111844
245	0x3e43a494	0.1910575
246	0xbcb0e7ba	-0.02159487
247	0x3cc903a5	0.02453787
248	0x3e70b022	0.2350469
249	0x3c4a7115	0.012356062
250	0xbd9b147b	-0.07572266
251	0x3eaa158e	0.3321957
252	0xbecd458f	-0.40092131
253	0xbefa9832	-0.4894424
254	0xbf460c27	-0.77362293
255	0xbe5aa7ec	-0.2135312

embedding.bias f4 [46]
0	0xbe78201f	-0.24231003
1	0xbe71a598	-0.23598325
2	0xbeb71bb8	-0.35763335
3	0xbf0523c0	-0.52007675
4	0xbedfa9f1	-0.43684343
5	0x3e0255cb	0.1272804
6	0xbe8e601a	-0.27807695
7	0xbebed1e2	-0.37269503
8	0xbe939a72	-0.2882877
9	0xbe087a1b	-0.1332783
10	0xbf032943	-0.51234835
11	0xbf3573ac	-0.70879626
12	0xbed797f9	-0.42108133
13	0xbda2a02f	-0.07940709
14	0x3e139955	0.1441396
15	0xbe7141e9	-0.23560299
16	0xbf1781a5	-0.59182197
17	0xbeb03fd6	-0.34423703
18	0xbf0844b5	-0.5322984
19	0xbe028b25	-0.12748392
20	0xbe26d348	-0.16291535
21	0xbe89fd42	-0.26951033
22	0xbd9dca6c	-0.077046245
23	0x3df45f0f	0.119321935
24	0xbeec2128	-0.46119046
25	0xbea387aa	-0.3193944
26	0xbeeedf6d	-0.46654835
27	0xbf0f0be0	-0.55877495
28	0xbd842d80	-0.06453991
29	0xbe8e8f7f	-0.27843854
30	0xbf08e1ca	-0.53469527
31	0xbe8f5ce5	-0.2800056
32	0xbf06f827	-0.527224
33	0xbeb68656	-0.35649365
34	0x3e15afad	0.14617796
35	0xbe90119c	-0.28138435
36	0xbebdbd02	-0.37058264
37	0xbe6c1db9	-0.23058213
38	0xbe6d0d18	-0.23149526
39	0xbee300f7	-0.44336674
40	0xbdb10f7e	-0.08645533
41	0xbe851161	-0.25989822
42	0xbe4ef916	-0.20212206
43	0xbe4ee5c9	-0.20204844
44	0xbe6a38c0	-0.22873211
45	0xbe0e8eaf	-0.13921617

convs.0.fc_full.weight f4 [92, 98]
0	0x3e5c6832	0.21524122
1	0xbe4d2309	-0.20032896
2	0x3f48384f	0.7821092
3	0xbe561564	-0.20906597
4	0xbd9029bb	-0.070392095
5	0xbeaf4718	-0.34233928
6	0xbe9435a6	-0.2894718
7	0xbdc4dab8	-0.0961203
8	0xbe95b895	-0.29242387
9	0xbeae5bce	-0.34054416
10	0x3e081385	0.13288696
11	0x3e66cf8d	0.22540112
12	0x3ea34258	0.31886554
13	0xbe8f7e44	-0.2802602
14	0x3e57bc40	0.21067905
15	0xbe7ae413	-0.24501066
16	0xbecb5886	-0.39715976
17	0x3edb0c32	0.42782742
18	0xbe9ca70a	-0.3059619
19	0xbf010c77	-0.50409645
20	0xbe91f6cc	-0.28508604
21	0x3f2dbd75	0.67867213
22	0xbf0c855e	-0.54891
23	0x3e63e96c	0.22257012
24	0xbf84471f	-1.0334204
25	0xbea8240a	-0.32839996
26	0x3efb6a91	0.4910474
27	0xbcba532c	-0.022744738
28	0x3e739778	0.2378825
29	0x3e098b47	0.13432036
30	0xbe1a81bf	-0.15088557
31	0xbe64d50e	-0.22346899
32	0x3e1e40f1	0.1545446
33	0x3eb08942	0.3447972
34	0xbed37475	-0.41299787
35	0xbed761ba	-0.42066747
36	0x3e760cf9	0.24028386
37	0xbee1bc68	-0.44089055
38	0xbd0280f8	-0.031861275
39	0x3e78e60c	0.24306506
40	0x3f1c1893	0.60975
41	0x3e3dc342	0.18531516
42	0xbf3099cb	-0.6898467
43	0x3d8e2fac	0.069426864
44	0x3e9eb5ad	0.30997983
45	0x3ea3a58f	0.3196225
46	0xbf0d0a3f	-0.5509376
47	0x3f30b24d	0.69022065
48	0xbf05436a	-0.5205599
49	0x3eaf47ce	0.3423447
50	0x3d88f1b8	0.06686729
51	0xbe0ac71e	-0.1355252
52	0xbeb83ed9	-0.3598545
53	0x3ee59c01	0.44845584
54	0x3cc6c697	0.024264617
55	0xbebb7938	-0.3661592
56	0x3e1a966c	0.15096444
57	0xbdb89ded	-0.09014497
58	0x3f13223e	0.57474124
59	0x3eb98595	0.36234728
60	0xbeed8141	-0.46387675
61	0x3f1ed896	0.62049234
62	0x3e82e10c	0.25562322
63	0xbe9bac2f	-0.30404803
64	0x3efd4767	0.49468538
65	0x3d0c6536	0.03427621
66	0x3f136f78	0.5759196
67	0xbe4d3edd	-0.20043512
68	0x3e862fdf	0.26208398
69	0xbebf808f	-0.3740277
70	0x3e9c2cd8	0.30502963
71	0xbc91d0f7	-0.017799838
72	0xbecafd8d	-0.3964657
73	0xbe43b7fb	-0.19113152
74	0x3f0837de	0.53210247
75	0xbe4106de	-0.18850276
76	0xbd0177a6	-0.031608246
77	0xbf4819fa	-0.7816464
78	0xbec7a892	-0.38995796
79	0xbf1d5d84	-0.6147082
80	0xbf05b1c9	-0.52224404
81	0x3e7d73f3	0.24751262
82	0xbd9ed1ea	-0.07754882
83	0xbf4a1dfb	-0.78951997
84	0xbe907241	-0.2821217
85	0xbee0a904	-0.4387895
86	0xbe98236c	-0.29714525
87	0x3f073bc3	0.52825564
88	0x3da298ad	0.07939277
89	0x3f1c4e95	0.61057407
90	0x3dc2dd4f	0.095148675
91	0xbf18b413	-0.5964977
92	0x3ff2b457	1.8961285
93	0xbf3c8a1b	-0.7364823
94	0xbf99dc01	-1.2020265
95	0xbe367e1f	-0.17821549
96	0xbdf33541	-0.11875392
97	0xbfcaaf9b	-1.583484
98	0xbd96d820	-0.07365441
99	0xbeec0259	-0.4609554
100	0x3edfac45	0.4368612
101	0x3ef391ce	0.47572178
102	0xbdd9b373	-0.1062993
103	0xbd92ba19	-0.071644016
104	0xbef9dcf7	-0.48801395
105	0x3e5ba3d2	0.21449211
106	0xbded4f17	-0.11587351
107	0x3ec914f2	0.39273793
108	0x3f270305	0.6523898
109	0xbda5cb6a	-0.08095439
110	0xbd79b5a0	-0.060964227
111	0x3ebec8d8	0.37262607
112	0xbf0db246	-0.5535015
113	0xbc998303	-0.018739229
114	0xbe191f74	-0.14953405
115	0x3e8f4d1d	0.2798852
116	0x3eb755c4	0.3580762
117	0x3ad9225d	0.0016566027
118	0x3e2044b5	0.1565121
119	0x3e11de16	0.14244875
120	0x3f0ea4c7	0.5572018
121	0xbd15aaf7	-0.036539998
122	0xbeae7f3c	-0.34081447
123	0x3d28ef63	0.041243922
124	0x3ea53871	0.32269624
125	0xbd9847fb	-0.07435604
126	0x3e7d2ce9	0.24724163
127	0xbea6531b	-0.3248528
128	0xbe82951d	-0.2550439
129	0xbda9b270	-0.082859874
130	0xbe8e9930	-0.27851248
131	0xbe433689	-0.19063772
132	0x3da362bd	0.07977817
133	0x3bad12ea	0.0052817957
134	0x3e096e59	0.13421
135	0xbda1e98b	-0.07905873
136	0xbe018bc9	-0.1265098
137	0xbe8b73ad	-0.2723669
138	0x3e2e2710	0.17007089
139	0x3f3125af	0.69198126
140	0xbed140fd	-0.40869895
141	0x3e5dfeba	0.21679202
142	0xbedc5f49	-0.43041447
143	0xbd620249	-0.05517796
144	0x3f32cf6c	0.6984775
145	0xbe7adc11	-0.24498011
146	0x3e162949	0.14664187
147	0x3eead9c6	0.45869273
148	0xbb8f9660	-0.00438194
149	0xbe8da5f5	-0.27665678
150	0x3db313c9	0.08744008
151	0xbf14f9a1	-0.58193403
152	0x3d80545e	0.06266092
153	0xbe6ef58e	-0.23335859
154	0xbf3ef87e	-0.7459792
155	0x3e55fb72	0.208967
156	0xbf34930f	-0.70536894
157	0xbee0d033	-0.43908843
158	0x3e2c63e3	0.16834979
159	0x3e9928a0	0.29913807
160	0x3f57fbaf	0.84368414
161	0xbf49b498	-0.7879119
162	0x3f22e72d	0.63633996
163	0xbe2a28e1	-0.16617157
164	0xbdb4103d	-0.0879216
165	0xbe58a0a9	-0.21155037
166	0x3eb64b2c	0.35604227
167	0x3ebeae6f	0.37242457
168	0xbda423ad	-0.08014617
169	0xbe3ed0ff	-0.18634413
170	0xbe33482c	-0.17508
171	0xbeb2ac76	-0.34897202
172	0xbd2dfd49	-0.04247788
173	0x3e18d72f	0.14925836
174	0x3e89009a	0.2675827
175	0xbf66bcc8	-0.9013181
176	0x3de66002	0.11248781
177	0xbe642641	-0.22280218
178	0x3f1771e2	0.59158146
179	0x3e6c8c4f	0.23100398
180	0x3ef92101	0.48657992
181	0xbd689854	-0.056785896
182	0xbe265d1d	-0.16246457
183	0xbd3777b8	-0.044791907
184	0xbed96d45	-0.4246618
185	0xbf60d968	-0.87831736
186	0x3ec7e9d7	0.39045593
187	0xbe9a41d4	-0.30128348
188	0xbec8dc02	-0.39230353
189	0xb9eda890	-0.0004532975
190	0xbec91dc4	-0.39280522
191	0xbba608d6	-0.0050669713
192	0x3f0e6a39	0.5563083
193	0x4036cce9	2.8562567
194	0x3f0a0697	0.53916305
195	0xbfe917c3	-1.8210377
196	0x3e234635	0.1594475
197	0xbd9669df	-0.07344412
198	0xbf09a9e0	-0.53774834
199	0xbdfc4cc9	-0.12319333
200	0x3e595be4	0.2122646
201	0xbda3e5b4	-0.08002797
202	0x3e635485	0.2220021
203	0x3dd61b4c	0.10454425
204	0xbe19b20e	-0.15009329
205	0xbd3a6016	-0.04550179
206	0xbdb17b5e	-0.086661085
207	0x3e8a772c	0.27044046
208	0x3e828418	0.25491405
209	0xbda3ed99	-0.080043025
210	0x3e9b22e9	0.30300072
211	0xbf0a03ad	-0.5391186
212	0xbe9c1821	-0.3048716
213	0x3f2a808f	0.66602415
214	0xbeeed41b	-0.466462
215	0x3ee8f0e6	0.4549629
216	0x3dc13831	0.09434546
217	0x3dbcd8b3	0.092210196
218	0xbe9005a2	-0.28129297
219	0xbe5e0024	-0.21679741
220	0xbe61e198	-0.22058713
221	0x3aaca3cc	0.0013171374
222	0x3e5de500	0.21669388
223	0x3e13f39f	0.14448403
224	0x3ec4ef86	0.38463992
225	0xbf1ab129	-0.60426575
226	0x3ecb5c11	0.3971868
227	0xbeafa5dd	-0.3430623
228	0xbe3fb1c1	-0.18720151
229	0x3f22e999	0.6363769
230	0xbf0bb10e	-0.5456704
231	0x3dbe5794	0.09294048
232	0x3d5e9eab	0.054350536
233	0x3f0400de	0.51563823
234	0xbed081b7	-0.40723965
235	0x3db0090c	0.085954756
236	0x3e0cd240	0.13752079
237	0xbe4db388	-0.20088017
238	0xbee5ad4d	-0.4485878
239	0x3eb4cfdb	0.3531483
240	0x3e3221a0	0.1739564
241	0xbe75020e	-0.23926565
242	0xbf11a133	-0.56886595
243	0x3d21db62	0.03951586
244	0x3de31a27	0.110889725
245	0x3d12cfed	0.035842825
246	0xbd89df9b	-0.067321025
247	0x3e3a747f	0.18208502
248	0xbec9813f	-0.3935642
249	0xbf04a793	-0.518182
250	0x3e904694	0.28178847
251	0xbe48a5f2	-0.19594553
252	0xbe1b860e	-0.15187857
253	0xbe1164f5	-0.14198668
254	0xbef8d57a	-0.4860037
255	0x3d868620	0.06568551

convs.0.fc_full.bias f4 [92]
0	0x3d3d0658	0.046148628
1	0xbdcb4e72	-0.09927072
2	0x3dd204f9	0.10254855
3	0xbd5d33a8	-0.05400434
4	0xbd9acbfc	-0.07558438
5	0xbdaea485	-0.08527473
6	0xbc9f0014	-0.019409217
7	0x3d1cf1d4	0.038316563
8	0x3d034c2c	0.032055065
9	0xbb98b2cb	-0.0046599857
10	0x3d60b176	0.05485674
11	0x3c18a22e	0.00931601
12	0xbda01fe1	-0.078185804
13	0xbc984c2e	-0.018591013
14	0xbe2106c7	-0.15725242
15	0xbdda8398	-0.10669631
16	0x3ca442db	0.02005141
17	0xbcee0f28	-0.029059961
18	0x3dc49033	0.09597816
19	0xbd290b3a	-0.041270472
20	0xbdb10e7c	-0.08645341
21	0xbe1002e1	-0.14063598
22	0xbd74b7ce	-0.059745602
23	0xbd9faacf	-0.07796251
24	0x3c874e3d	0.0165168
25	0x3e1bd625	0.15218408
26	0x3d9c5446	0.076332614
27	0xbc907f0a	-0.017638702
28	0xbcd5c20e	-0.026093509
29	0x3d9ffcc7	0.07811885
30	0x3d16e2e7	0.036837485
31	0x3d86a3a5	0.065741815
32	0xbd1dc9e1	-0.038522605
33	0xbd4cd3b4	-0.050006583
34	0x3c5618ac	0.013067406
35	0x3d9d65d0	0.07685435
36	0xbc4fea60	-0.012690157
37	0xbbb451e1	-0.005502925
38	0x3ae8b780	0.0017754883
39	0xbd99ad96	-0.07503812
40	0x3c6e7ecd	0.014556599
41	0xbdd415cd	-0.10355721
42	0x3ca20c7e	0.019781347
43	0xba63375c	-0.0008667612
44	0x3d088862	0.03333319
45	0xbdd51487	-0.10404306
46	0x3dc63572	0.09678163
47	0xbc50d81b	-0.012746836
48	0xbdde990e	-0.108690366
49	0x3cb603ef	0.022218673
50	0x3c756d80	0.01497972
51	0x3dcd6715	0.10029427
52	0x3af4d8c2	0.0018680322
53	0xb9a2d22b	-0.00031055635
54	0xbbfc0443	-0.0076909377
55	0xbd106a34	-0.035257533
56	0x3c2c44f0	0.010514483
57	0x3d44cd09	0.0480471
58	0xbc4a3251	-0.012341098
59	0x3c9c7c5b	0.019102266
60	0xbef23680	-0.47307205
61	0xbd267cc7	-0.04064634
62	0x3d881b0c	0.06645784
63	0x3c3e74be	0.011624513
64	0x3e0bb3b3	0.13642769
65	0x3dc48a7e	0.09596728
66	0x3d12f8db	0.03588186
67	0x3d130016	0.035888754
68	0x3d9c1078	0.07620329
69	0x3d711694	0.058859423
70	0x3df08742	0.117445484
71	0x3d92b2ce	0.071630105
72	0x3bf123e3	0.0073590144
73	0x3da4e592	0.080515996
74	0x3d4e2e4b	0.050337117
75	0xbc56ff62	-0.013122411
76	0x3cfee846	0.031116616
77	0xbb05eedf	-0.0020436568
78	0x3beb6e87	0.0071848067
79	0xbcd3f723	-0.02587468
80	0x3cef3878	0.029201731
81	0x3c2eeb87	0.010676271
82	0x3d50788f	0.050896224
83	0x3de45ff6	0.111511156
84	0xbdaedd86	-0.08538346
85	0x3b030746	0.001999335
86	0xbe40a540	-0.18813038
87	0xbc83662c	-0.01603993
88	0xbd850e34	-0.0649685
89	0x3e03c3b0	0.12867618
90	0x3d9bb26f	0.07602393
91	0x3d2ccd69	0.042188082

convs.0.bn1.weight f4 [92]
0	0x3fb769bc	1.4329143
1	0x3feda8b8	1.8567114
2	0x4016be8d	2.3553803
3	0x3f86aad4	1.0520883
4	0x3f850f2e	1.0395257
5	0x3fdeaca9	1.7396442
6	0x408c7a90	4.3899612
7	0x40623095	3.5342152
8	0x402763f8	2.6154766
9	0x400f6b46	2.2409225
10	0x400d5de6	2.208856
11	0x3f9356a6	1.1510818
12	0x404c308f	3.1904638
13	0x403621fd	2.8458245
14	0x3fb2b13c	1.3960338
15	0x3ffa297b	1.9543909
16	0x4017fb4f	2.3747137
17	0x40262588	2.5960407
18	0x3fbf8738	1.496314
19	0x3f851341	1.0396501
20	0x40619b35	3.525098
21	0x40586937	3.3814218
22	0x4028587a	2.6304002
23	0x3fbd483c	1.4787669
24	0x3fd34969	1.6506778
25	0x405491d1	3.3214
26	0x3fdc0b45	1.7190939
27	0x40355f45	2.8339398
28	0x40622e97	3.5340936
29	0x402fd44c	2.7473326
30	0x400268e1	2.0376513
31	0x4021ee7e	2.5301814
32	0x3fd1d8e3	1.6394314
33	0x400e873b	2.2270038
34	0x3fb1687a	1.3860009
35	0x4018391a	2.3784852
36	0x3fbe7546	1.4879539
37	0x403c25d7	2.9398096
38	0x40815ac9	4.042332
39	0x4041a143	3.0254676
40	0x4010186c	2.2514906
41	0x40119b31	2.2750971
42	0x3f63c860	0.88977623
43	0x4067fbe0	3.6247482
44	0x3fce91cd	1.6138245
45	0x3fd700a6	1.6797073
46	0x3f6cfb65	0.925711
47	0x3fa20d90	1.2660389
48	0x3f945a82	1.1590121
49	0x3f2be06c	0.67139316
50	0x3f302e78	0.68820906
51	0x3f4ea1cf	0.8071565
52	0x3fe5c9c0	1.7952194
53	0x401b22e2	2.424004
54	0x4018f227	2.3897798
55	0x3f855d2f	1.0419062
56	0x40139233	2.3057983
57	0x3faf9b10	1.3719196
58	0x3f60282b	0.8756129
59	0x3f9ae9be	1.2102582
60	0x3eeab001	0.45837405
61	0x3fff24d0	1.9933109
62	0x3fb99878	1.4499655
63	0x4016fe2d	2.3592637
64	0x3f70fb16	0.94133127
65	0x3ff52153	1.9150795
66	0x3fb9909c	1.4497256
67	0x4026f461	2.6086657
68	0x401af718	2.4213314
69	0x40318a81	2.7740786
70	0x3f71a500	0.94392395
71	0x40022477	2.0334756
72	0x3f143a98	0.57901907
73	0x3f8c807c	1.097671
74	0x3ffcd798	1.9753294
75	0x3fb8b762	1.4430964
76	0x4010181b	2.2514713
77	0x3f40de0d	0.7533882
78	0x3fb7eba4	1.4368787
79	0x3f947b80	1.1600189
80	0x3f99b9e8	1.2009859
81	0x404a5779	3.161589
82	0x3fd165ca	1.6359189
83	0x3ff494c8	1.9107904
84	0x3f9e108a	1.2348797
85	0x3ff0cb96	1.881213
86	0x3f6606d6	0.8985418
87	0x4003dcd2	2.0603528
88	0x3fdfb2d4	1.7476449
89	0x3fb2e4eb	1.397611
90	0x3fbaf0cf	1.4604739
91	0x4015dcca	2.341601

convs.0.bn1.bias f4 [92]
0	0xbf02ee4e	-0.51144874
1	0xbe86c62f	-0.26323077
2	0xbeb0be8e	-0.34520382
3	0xbeedb533	-0.46427307
4	0xbe71c108	-0.23608792
5	0xbf20a78f	-0.62755674
6	0xbe7f4fb4	-0.24932748
7	0x3d71eb25	0.059062142
8	0xbeadc871	-0.33941987
9	0x3ee08ecf	0.43858954
10	0x3ea22744	0.31670582
11	0x3dd964de	0.10614942
12	0x3e18895c	0.14896148
13	0x3e5cbbb9	0.21555986
14	0xbf425271	-0.75907046
15	0xbdf782d9	-0.12085504
16	0xbf447e30	-0.76755047
17	0xbc900e1f	-0.017584858
18	0xbdc76f40	-0.09738016
19	0xbe7fac08	-0.24967968
20	0xbe04a5d9	-0.12953891
21	0x3e087fc5	0.1332999
22	0x3d95a9ba	0.073077634
23	0x3ebf7857	0.373965
24	0xbe9aab26	-0.302087
25	0xbdf26676	-0.11835949
26	0x3f83769e	1.0270574
27	0xbe7109d9	-0.23538913
28	0x3e87c6e7	0.26518938
29	0xbe1b09a9	-0.15140404
30	0xbd235018	-0.039871305
31	0xbdd77b34	-0.10521546
32	0xbde93ab6	-0.11388151
33	0x3c862459	0.016374754
34	0xbd10c336	-0.035342418
35	0xbe7f1b6b	-0.24912803
36	0xbe994ebf	-0.2994289
37	0xbc2fe69b	-0.010736133
38	0x3f5c3a55	0.8602651
39	0xbbbc5a88	-0.005748097
40	0xbee58dd1	-0.4483476
41	0x3ea7eb20	0.32796574
42	0x3d98356a	0.07432063
43	0xbe9df14b	-0.30848154
44	0x3cff0eaa	0.031134922
45	0x3cdc16ea	0.026866395
46	0xbe9980cb	-0.29981074
47	0xbee2cbcf	-0.4429612
48	0xbeca7fba	-0.39550573
49	0xbf0eb74c	-0.5574844
50	0xbf250229	-0.6445642
51	0xbefb0621	-0.49028113
52	0xbd89d5bc	-0.0673022
53	0x3e8cccfd	0.27500144
54	0x3d197488	0.03746465
55	0x3ec00206	0.37501544
56	0x3e5b543c	0.21418852
57	0xbeafbc98	-0.34323573
58	0x3f20626f	0.626502
59	0x3ed74e54	0.42051947
60	0xbf56e200	-0.839386
61	0x3e6affdc	0.22949165
62	0xbe6f4196	-0.23364863
63	0x3db21291	0.086949475
64	0xbede1622	-0.4337626
65	0x3d4ab5ef	0.04948991
66	0xbe74cf28	-0.23907149
67	0xbbe198ab	-0.0068846545
68	0x3e67c25a	0.22632733
69	0xbd4a32cb	-0.049364846
70	0xbe94b5ed	-0.29045048
71	0x3e22a8f4	0.15884763
72	0x3f2029d8	0.6256385
73	0xbed7dfe3	-0.42163
74	0x3e55dcfa	0.20885077
75	0xbc04b511	-0.00809981
76	0xbe3fba53	-0.18723421
77	0x3f02c046	0.51074636
78	0xbe9a9c98	-0.30197597
79	0x3e0867eb	0.13320892
80	0xbeb49053	-0.3526636
81	0x3c2b6859	0.01046189
82	0xbe30e6d8	-0.1727556
83	0xbe13966a	-0.14412847
84	0x3edb65ec	0.42851198
85	0xbd5683f3	-0.05237193
86	0xbf0a109c	-0.53931594
87	0x3e47ee8e	0.19524595
88	0x3d3dfdd8	0.046384662
89	0x3f000e14	0.5002148
90	0xbcfdf225	-0.030999253
91	0x3d79b061	0.060959224

convs.0.bn1.running_mean f4 [92]
0	0xbe8c6778	-0.2742269
1	0x3ec397ac	0.38201654
2	0x3fcf4485	1.6192786
3	0xbf53cc25	-0.82733375
4	0x3fca0b2f	1.5784663
5	0x3e37f1b6	0.17963299
6	0xbf981e0b	-1.1884168
7	0x40c4f56d	6.154959
8	0xc02bcf09	-2.6845114
9	0xc06a7e34	-3.6639528
10	0xc0a2163c	-5.065214
11	0x400d4ba4	2.2077417
12	0xbf43ad44	-0.7643626
13	0x3e80a8f0	0.2512889
14	0xbf87a80d	-1.059816
15	0xbf462221	-0.77395827
16	0x4038776f	2.8822896
17	0xc023592f	-2.5523183
18	0xc083d0e7	-4.119251
19	0xc03a92a2	-2.9151998
20	0x40a8e4b0	5.277916
21	0xc00f0acd	-2.2350342
22	0xbf9f1dc8	-1.2430964
23	0xc0f94513	-7.789682
24	0xbf46f1b7	-0.7771258
25	0xbef574b5	-0.47940603
26	0x3fe56583	1.7921604
27	0x4074ee6d	3.8270524
28	0xc0492c74	-3.1433382
29	0x3f97c0e8	1.1855745
30	0xbf20f2cf	-0.62870497
31	0xbf99b1a0	-1.2007332
32	0x3eee61f9	0.46559122
33	0xbe3b6f17	-0.18304096
34	0x3fa17a67	1.2615479
35	0xc03b3af5	-2.9254735
36	0xbfadb3e7	-1.3570527
37	0xc087b936	-4.2413588
38	0x40b785b1	5.7350698
39	0xbf8f6308	-1.1202097
40	0xbf3a238a	-0.7271048
41	0x406e5eb8	3.7245312
42	0x407d1a0a	3.9547143
43	0xbfc7e3ed	-1.5616432
44	0xc0b7cc6f	-5.7437053
45	0x3ef74fa1	0.4830294
46	0xbf67242e	-0.9028958
47	0x4019e93f	2.4048612
48	0xc0a4148c	-5.127508
49	0xbf504f73	-0.8137123
50	0x4014f820	2.3276443
51	0xbfacf645	-1.3512655
52	0xc00b02eb	-2.172053
53	0x40b778b2	5.7334833
54	0x3f48a897	0.7838225
55	0xbf999551	-1.1998693
56	0x3fb3aa44	1.4036336
57	0x40179c88	2.368929
58	0xc0ab91d5	-5.361552
59	0x3f71ac91	0.9440394
60	0xc05ee3c5	-3.482652
61	0x3fbca097	1.4736508
62	0xbfd03598	-1.6266356
63	0x40006729	2.0062964
64	0xc068c75d	-3.6371682
65	0xc04428ff	-3.0650022
66	0x4001df99	2.0292723
67	0xbfba3ba4	-1.4549451
68	0xc03596d9	-2.837332
69	0xbfac56d5	-1.3463999
70	0xbfbc358c	-1.4703841
71	0x405661a6	3.34971
72	0x3f756019	0.9584976
73	0xbff47c24	-1.9100385
74	0x3d908bd1	0.07057918
75	0xbf7dd678	-0.9915538
76	0x405b2d58	3.4246426
77	0xbcfa5503	-0.030558115
78	0x3f8fb986	1.1228492
79	0x3fadf20f	1.3589495
80	0xbd2b38c8	-0.041802198
81	0x40a15458	5.041546
82	0xbfd47536	-1.659827
83	0x3fd347f9	1.6506339
84	0x40482423	3.1272056
85	0xc01a2aa0	-2.4088516
86	0xc050bb2d	-3.2614243
87	0x40a14c0c	5.040533
88	0x3f2d7d29	0.67769104
89	0xc08124a9	-4.035725
90	0xc0d24536	-6.5709486
91	0xbea2f62b	-0.31828436

convs.0.bn1.running_var f4 [92]
0	0x421d1a74	39.275833
1	0x4205582f	33.336117
2	0x41e4693d	28.551386
3	0x41d9fadc	27.24749
4	0x41f555ab	30.66683
5	0x415d02b3	13.813159
6	0x42028d66	32.638084
7	0x4251bbee	52.433525
8	0x425531fc	53.298813
9	0x41db9757	27.448896
10	0x423b593d	46.837147
11	0x41df8dfb	27.944326
12	0x420c8129	35.126133
13	0x4214a7d9	37.163914
14	0x41aff820	21.996155
15	0x4226a208	41.658234
16	0x42360166	45.501366
17	0x4237f4c7	45.98904
18	0x41c2f0ea	24.367634
19	0x424ea4f9	51.661106
20	0x42257800	41.367188
21	0x4202b4cb	32.676556
22	0x422249e0	40.572144
23	0x426503db	57.253765
24	0x421cd029	39.20328
25	0x419f6024	19.921944
26	0x41b12567	22.143263
27	0x428f7eaf	71.74743
28	0x421b8e3f	38.888912
29	0x4225256e	41.286552
30	0x42421df7	48.529263
31	0x41dd4419	27.65825
32	0x42269af8	41.651337
33	0x41fbb14d	31.461573
34	0x41dc7833	27.558691
35	0x41dbd9a0	27.481262
36	0x426dfe9c	59.498642
37	0x4237d7c5	45.960712
38	0x420665a4	33.59926
39	0x41ed44e8	29.658646
40	0x41648a47	14.283759
41	0x423e1ef6	47.530235
42	0x4204dce2	33.215706
43	0x41d95ec0	27.171265
44	0x419a2d81	19.272219
45	0x42354226	45.314598
46	0x41d9b449	27.21303
47	0x42465caa	49.590492
48	0x4228a183	42.157726
49	0x4215b328	37.424957
50	0x41d38e03	26.444342
51	0x4195af7d	18.710688
52	0x41a29527	20.322828
53	0x4288ecb9	68.46235
54	0x4228cc60	42.199585
55	0x41fab5e4	31.338814
56	0x422520dd	41.282093
57	0x420fa09c	35.906845
58	0x41d8d85c	27.105644
59	0x426679cd	57.618946
60	0x4197ed47	18.990858
61	0x4203e606	32.974632
62	0x41c60b9e	24.755672
63	0x420ec750	35.69464
64	0x41f26aa3	30.302069
65	0x427a3ae5	62.557514
66	0x4207fe37	33.998257
67	0x422634bc	41.5515
68	0x425c28a5	55.039692
69	0x41a194d2	20.197666
70	0x41bc4244	23.532356
71	0x420ce6fa	35.225563
72	0x41eb49a4	29.410957
73	0x4210e15f	36.22009
74	0x41f9f0e1	31.242617
75	0x41b1a049	22.203264
76	0x428fe16b	71.94027
77	0x421fd5b8	39.95871
78	0x423256aa	44.584633
79	0x41af7364	21.931343
80	0x41f65859	30.793139
81	0x42266335	41.59688
82	0x41fd8139	31.688097
83	0x421f6c99	39.856052
84	0x41ef9357	29.946943
85	0x4239d85b	46.461285
86	0x41f94be5	31.162058
87	0x4241e5ff	48.474606
88	0x422b78fd	42.868153
89	0x41dc0966	27.50459
90	0x420f5c3f	35.840084
91	0x420c07b7	35.007534

convs.0.bn2.weight f4 [46]
0	0x3f8e865b	1.1134752
1	0x3f9fe6ab	1.2492269
2	0x3f7c61ea	0.98586905
3	0x3f975f20	1.1825905
4	0x3f83e862	1.0305293
5	0x3f725efa	0.9467617
6	0x3fd56c5f	1.6673697
7	0x3f842d55	1.0326334
8	0x3facc083	1.349625
9	0x3f7d935f	0.99052995
10	0x3f512264	0.816931
11	0x3f579517	0.8421187
12	0x3f87aedb	1.0600237
13	0x3f8db0ea	1.1069615
14	0x3fc88b39	1.5667487
15	0x3f994aac	1.1975913
16	0x3f8fd171	1.1235791
17	0x3f824c3e	1.0179517
18	0x3fa34a96	1.2757137
19	0x3fa84063	1.3144649
20	0x3f8b9c2e	1.0907037
21	0x3f726257	0.94681305
22	0x3f7faf04	0.9987643
23	0x3faf317f	1.368698
24	0x3f8809bf	1.0627974
25	0x3fa8a306	1.3174751
26	0x3f5c55aa	0.86068213
27	0x3f84ac90	1.0365162
28	0x3f95ca36	1.1702335
29	0x3fa4347b	1.2828516
30	0x3fabfa41	1.3435746
31	0x3f782431	0.96930224
32	0x3f8eeb8e	1.1165636
33	0x3f8efbee	1.1170633
34	0x3f816b9c	1.0110965
35	0x3f6e0419	0.92975
36	0x3f9c86b2	1.2228606
37	0x3fa1e7fe	1.2648923
38	0x3f7d599a	0.98964846
39	0x3f8fbe84	1.1230016
40	0x3fced282	1.6157992
41	0x3f93db90	1.155138
42	0x3f66eac0	0.9020195
43	0x3f794388	0.9736867
44	0x3f61b2d1	0.8816348
45	0x3f8c8aeb	1.0979894

convs.0.bn2.bias f4 [46]
0	0xbe937cc2	-0.2880612
1	0xbe684137	-0.22681127
2	0xbea3caf6	-0.31990784
3	0xbefaab2e	-0.48958725
4	0xbec13b67	-0.37740633
5	0x3da29607	0.07938772
6	0xbe78f31a	-0.24311486
7	0xbe8be2ad	-0.27321377
8	0xbe960569	-0.29301003
9	0xbe54ff7b	-0.20800583
10	0xbed5c412	-0.41751152
11	0xbf2a8354	-0.6660664
12	0xbee4dbe7	-0.44699022
13	0xbe3823b0	-0.17982364
14	0x3e27c620	0.16384172
15	0xbe59c1be	-0.21265313
16	0xbf0377b2	-0.51354516
17	0xbed3de28	-0.4138043
18	0xbef3a406	-0.47586077
19	0xbd79f238	-0.061022013
20	0xbe5bb5b1	-0.21456029
21	0xbe713f13	-0.23559217
22	0xbe0571e3	-0.13031726
23	0x3dc088b5	0.09401075
24	0xbeef4cc1	-0.46738246
25	0xbeb61d2c	-0.3556913
26	0xbf03d6ef	-0.5149984
27	0xbf03fd53	-0.5155842
28	0xbded482e	-0.11586033
29	0xbe9ba751	-0.3040109
30	0xbef96f4f	-0.48717734
31	0xbebcb887	-0.36859533
32	0xbf11ca8f	-0.56949705
33	0xbee836be	-0.45354265
34	0x3dcd5078	0.10025114
35	0xbe9f5fda	-0.31127816
36	0xbe98fcff	-0.2988052
37	0xbe988cd7	-0.29794952
38	0xbe31d0d1	-0.17364813
39	0xbef5c82a	-0.48004276
40	0xbe199e51	-0.15001799
41	0xbe9c34f5	-0.30509153
42	0xbe2a38ee	-0.1662328
43	0xbe3a3776	-0.18185219
44	0xbe783ab1	-0.24241139
45	0xbe0c85e7	-0.13722955

convs.0.bn2.running_mean f4 [46]
0	0x3faa7133	1.3315796
1	0x400b78b0	2.1792412
2	0x3feaea76	1.8352802
3	0x3ea142fd	0.3149642
4	0x3f13b442	0.57696927
5	0x3f71bcb9	0.9442859
6	0x40b8b42f	5.771995
7	0x411cb034	9.793018
8	0x40dfcddb	6.993879
9	0x40b4f5a0	5.6549835
10	0x40ef9274	7.4866276
11	0x4071a52c	3.7757063
12	0x40a34bf0	5.1030197
13	0x40d966f9	6.79382
14	0x3af517be	0.0018699092
15	0x40efa9be	7.4894705
16	0x4031900d	2.7744172
17	0x411bdf32	9.741991
18	0x40106bf7	2.2565897
19	0x40c7834e	6.2347784
20	0x405dc284	3.4649973
21	0x41121a60	9.131439
22	0x412096bc	10.0368
23	0x4104bc1d	8.295926
24	0x3fdb43d0	1.713007
25	0x40a98afc	5.298216
26	0x40d45029	6.634785
27	0x4017bf3b	2.3710468
28	0x4104d81e	8.302763
29	0x40423483	3.034455
30	0x40d519fc	6.659422
31	0x4088aec8	4.2713356
32	0x402c2f61	2.6903918
33	0x40963589	4.694035
34	0x4008318c	2.128024
35	0x40f29076	7.5801344
36	0x406e75a3	3.72593
37	0x406fc993	3.746678
38	0x40e550c1	7.1661077
39	0x40bf8c0d	5.985846
40	0x3fa9ec72	1.3275282
41	0x411a5630	9.646042
42	0x40bcf6ff	5.905151
43	0x40d0d216	6.5256453
44	0x40b34b3e	5.602935
45	0x40d8060e	6.750739

convs.0.bn2.running_var f4 [46]
0	0x40c6a56b	6.2076926
1	0x4145bc0c	12.35841
2	0x40cbd75c	6.370039
3	0x3f597cec	0.8495624
4	0x403d31a0	2.9561539
5	0x40919835	4.54983
6	0x420b3ddb	34.810406
7	0x4307bace	135.7297
8	0x42be69ae	95.206406
9	0x421430f4	37.047806
10	0x42cda69c	102.82541
11	0x41daf669	27.370317
12	0x42261712	41.52253
13	0x4217b862	37.93006
14	0x3c9eb60a	0.019373912
15	0x42c68804	99.265656
16	0x41c9400f	25.156279
17	0x433dea55	189.91536
18	0x41b48129	22.563066
19	0x41eddebf	29.733763
20	0x420001d1	32.001774
21	0x433cf26a	188.94693
22	0x4324b345	164.70027
23	0x4237e9bc	45.978256
24	0x41212f9e	10.074125
25	0x421bb54b	38.927044
26	0x41c6c9a3	24.848455
27	0x416dc297	14.860007
28	0x42e64923	115.142845
29	0x41c3dc92	24.4827
30	0x427e74b7	63.61398
31	0x41e59cc2	28.701542
32	0x418e6d38	17.80333
33	0x421cab89	39.167515
34	0x41183c3d	9.514707
35	0x432fa073	175.62675
36	0x41c66f82	24.804447
37	0x41d85a16	27.043987
38	0x42805dd1	64.183235
39	0x427e0487	63.50442
40	0x4058aeda	3.385672
41	0x4313d07d	147.8144
42	0x42733f2f	60.811703
43	0x42e003af	112.007195
44	0x42a97646	84.731
45	0x42b698a7	91.29815

convs.1.fc_full.weight f4 [92, 98]
0	0x3fa7378a	1.3063824
1	0xbe15a47d	-0.14613529
2	0x3e3e9705	0.18612297
3	0x3f23ab42	0.63933194
4	0x3ec00ed6	0.3751132
5	0xbe35108c	-0.17682093
6	0xbf1b19d9	-0.60586315
7	0x3ecaf50f	0.3964009
8	0x3e9febb1	0.31234506
9	0x3e89d682	0.2692147
10	0xbe972c51	-0.29525998
11	0x3edef258	0.4354427
12	0xbf1b978b	-0.6077811
13	0xbf18ef62	-0.5974027
14	0xbe14473b	-0.14480297
15	0xbd402dff	-0.046918865
16	0xbd7adaaa	-0.06124369
17	0xbdad74ca	-0.08469541
18	0xbeb151c4	-0.34632695
19	0x3f3f6f00	0.7477875
20	0xbee1d74c	-0.4410957
21	0x3f29411e	0.66114986
22	0xbe28826e	-0.16456005
23	0xbc94ed91	-0.018179687
24	0x3ed271f8	0.41102576
25	0xbd178116	-0.03698834
26	0xbda30d1e	-0.07961486
27	0xbde46051	-0.111511834
28	0xbedf5776	-0.43621415
29	0x3f19ab64	0.60027146
30	0x3f1691e8	0.58816385
31	0xbfa0a840	-1.2551346
32	0xbea97631	-0.33097985
33	0x3f326335	0.6968263
34	0x3ec65b11	0.38741353
35	0xbd7c2f39	-0.061568473
36	0x3e327327	0.1742674
37	0xbf1bd8a8	-0.60877466
38	0x3e05def2	0.13073328
39	0x3ec014bc	0.3751582
40	0x3d92e713	0.0717298
41	0x3f406a3d	0.75162107
42	0x3e63bde6	0.2224041
43	0xbf62b45b	-0.8855645
44	0xbea423aa	-0.3205846
45	0xbe637f60	-0.22216558
46	0xbe74fa1e	-0.23923537
47	0xbf003920	-0.50087166
48	0xbdec7fe4	-0.11547831
49	0xbd8b2ac1	-0.06795264
50	0x3e8ade5a	0.27122766
51	0x3eca72f0	0.39540815
52	0xbe060dbd	-0.13091178
53	0x3ee2b22e	0.44276565
54	0x3e91e40f	0.28494307
55	0x3f3e13de	0.74249065
56	0xbea8d0d8	-0.32971835
57	0xbeac9758	-0.33709216
58	0x3f2598bd	0.64686185
59	0xbabaa684	-0.0014240299
60	0xbe25d5af	-0.16194795
61	0x3cd9c21d	0.026581818
62	0x3e0f04c2	0.13966659
63	0x3e2f7a9c	0.17136616
64	0xbdc84597	-0.09778898
65	0x3f230d67	0.63692325
66	0x3c54e8f9	0.012994998
67	0x3c4568cf	0.012048914
68	0x3f016102	0.5053865
69	0x3eab6847	0.33477995
70	0x3a78b7a0	0.00094878115
71	0x3e91610e	0.2839436
72	0xbe883a15	-0.26606813
73	0xbeb8b83a	-0.36078054
74	0xbf92e2b5	-1.1475435
75	0x3f0aa019	0.5415054
76	0xbf288eb9	-0.6584278
77	0x3ebb1066	0.3653595
78	0x3e0c879e	0.13723609
79	0xbea63fb1	-0.32470468
80	0x3e1c10b7	0.15240751
81	0x3cf24f4c	0.029578827
82	0xbeea6716	-0.45781773
83	0x3f48c464	0.7842467
84	0x3e0fd4d7	0.14046036
85	0xbe3be484	-0.1834889
86	0x3e0911d2	0.13385704
87	0x3f0b4fdc	0.5441873
88	0xbe87a357	-0.26491806
89	0x3d83da0c	0.064380735
90	0x3ecc906b	0.39953932
91	0xbe3cf733	-0.18453674
92	0xbd81dfb7	-0.06341498
93	0xbf09e10e	-0.5385903
94	0xbeeaccb3	-0.45859298
95	0x3f1d33b0	0.61406994
96	0x3f507b93	0.8143856
97	0xbebcd847	-0.36883757
98	0x3ce5d74b	0.028056761
99	0x3f9e980b	1.239015
100	0x3ebfd04a	0.374636
101	0x3e909154	0.28235877
102	0x3f559d85	0.8344348
103	0xbc1a8d63	-0.009433123
104	0xbe99e7a2	-0.30059534
105	0xbe305ef1	-0.17223717
106	0xbe97cd6a	-0.29648906
107	0x3da39a7c	0.0798845
108	0x3ede4605	0.43412796
109	0x3d534dbf	0.051587816
110	0x3ec899e5	0.39179912
111	0x3e040a4c	0.12894553
112	0xbd620da2	-0.055188783
113	0x3f67be83	0.9052507
114	0x3e7dd509	0.24788298
115	0xbe236136	-0.15955052
116	0x3e6bf462	0.23042443
117	0xbd80364a	-0.06260355
118	0xbe7e3b6e	-0.24827358
119	0x3e663bea	0.22483793
120	0xbd98c9c3	-0.07460358
121	0xbecaedfe	-0.396347
122	0xbdc294e4	-0.09501055
123	0xbf6b7c89	-0.919869
124	0xbda95194	-0.08267513
125	0x3d094507	0.033513095
126	0xbf7f6a1b	-0.9977128
127	0xbcbb0471	-0.022829266
128	0xbe9e8a9a	-0.3096512
129	0x3e2cf9de	0.16892192
130	0xbd4de4e3	-0.05026711
131	0xbde3a676	-0.11115734
132	0x3e6b9d83	0.23009305
133	0x3e35a8d7	0.17740189
134	0xbd77d9de	-0.06051051
135	0x3f00a85a	0.50256884
136	0x3e41d925	0.1893049
137	0xbec86327	-0.39138147
138	0x3d31d459	0.0434154
139	0x3f1457dd	0.5794657
140	0xbe31a5ee	-0.17348453
141	0x3f0903b1	0.5352126
142	0xbe4892f6	-0.19587311
143	0xbe8c111f	-0.27356812
144	0x3ca37b6f	0.019956319
145	0xbe106f76	-0.14105019
146	0x3d4607b8	0.048347205
147	0x3f02aac2	0.51041806
148	0xbe1ab2f5	-0.15107329
149	0xbedc0b32	-0.4297729
150	0xbf38788a	-0.7205893
151	0xbf24bcaa	-0.6435038
152	0xbe8fbe83	-0.28075036
153	0xbddccbf8	-0.107810915
154	0x3e759273	0.23981647
155	0x3e086128	0.13318312
156	0x3ebe0633	0.37114105
157	0xbe2a657e	-0.16640279
158	0x3dd6c0d3	0.10485997
159	0x3d41c51d	0.047307122
160	0xbed2a62d	-0.41142407
161	0x3e3260fd	0.1741981
162	0x3e5e2011	0.2169192
163	0xbeff8f5f	-0.4991407
164	0xbe37c5c5	-0.17946537
165	0x3d3115e6	0.043233775
166	0xbe234cf7	-0.15947329
167	0xbf8386c5	-1.0275503
168	0x3c4ce154	0.012504894
169	0x3ea6dc42	0.32589918
170	0xbc29e079	-0.01036846
171	0x3f23aa65	0.63931876
172	0xbee21526	-0.4415676
173	0xbe337b72	-0.1752756
174	0x3f33fca8	0.703074
175	0x3e5ace98	0.21367872
176	0xbe8fd17c	-0.2808951
177	0x3e8e92a7	0.27846262
178	0x3d1db298	0.0385004
179	0x3ebed3d0	0.37270975
180	0xbeedd29a	-0.4644974
181	0x3e3771c7	0.17914496
182	0x3e8cd9a4	0.27509797
183	0xbdbaabba	-0.091147855
184	0xbf5a18bb	-0.85193986
185	0xbef546b5	-0.47905508
186	0xbf13948f	-0.5764856
187	0x3f31bafc	0.6942594
188	0xbeadb889	-0.33929852
189	0xbe0280c1	-0.12744428
190	0x3ee8fdf7	0.4550626
191	0x3af60ad0	0.0018771533
192	0x3dc23533	0.09482803
193	0x3e0dff7c	0.13866991
194	0xbe75545a	-0.23957959
195	0xbf115e01	-0.56784064
196	0x3f110aee	0.566573
197	0xbed4cc7e	-0.41562265
198	0x3f0aaa45	0.5416606
199	0x3ef3e495	0.47635332
200	0x3ed95dbb	0.42454323
201	0xbdee17d4	-0.116256386
202	0x3ee92f74	0.45544016
203	0xbf64ac92	-0.8932582
204	0x3dad4bfd	0.08461759
205	0xbebe9e9b	-0.3723038
206	0x3dea863b	0.11451384
207	0x3d13a5a5	0.036046643
208	0x3f01adfa	0.5065609
209	0x3e370351	0.17872359
210	0xbf5a52cb	-0.8528258
211	0xbe9ace31	-0.30235437
212	0x3eaa615e	0.3327741
213	0xbedecc40	-0.43515205
214	0x3dffc04f	0.12487852
215	0x3e6f4632	0.23366621
216	0xbf205509	-0.62629753
217	0x3e275b8e	0.16343519
218	0xbe196851	-0.149812
219	0xbf1024f0	-0.5630636
220	0xbeae4a88	-0.34041238
221	0xbe9a515b	-0.30140194
222	0xbe9d3eb7	-0.3071191
223	0xbe3e3f9b	-0.18578951
224	0x3f0caa7a	0.54947627
225	0x3f4ac4aa	0.79206336
226	0x3be20a07	0.006898168
227	0xbd991441	-0.07474566
228	0x3f3ffb4b	0.7499282
229	0xbe6ddf99	-0.23229827
230	0xbee9a221	-0.45631507
231	0x3f4cd64a	0.8001448
232	0xbea9db13	-0.33174953
233	0xbcea71f6	-0.028618794
234	0x3c389962	0.011267038
235	0x3e52dee1	0.20592834
236	0xbe002cac	-0.12517041
237	0xbefe0845	-0.49615684
238	0xbf091753	-0.53551215
239	0xbe469f1f	-0.19396637
240	0xbe3f168f	-0.18660949
241	0xbe7ec921	-0.24881412
242	0xbe304d0c	-0.17216891
243	0x3f4d11c8	0.8010526
244	0x3f040ab6	0.51578844
245	0x3f0a89ce	0.54116523
246	0xbe276761	-0.1634803
247	0xbe997836	-0.29974526
248	0xbf69ae87	-0.9128193
249	0x3eb4df4e	0.35326618
250	0xbe9882a6	-0.29787177
251	0x3c270bc2	0.010195674
252	0xbf0e94f7	-0.5569605
253	0xbe53e3b4	-0.2069233
254	0x3cb4b7ac	0.022060238
255	0xbeb4f7ce	-0.3534531

convs.1.fc_full.bias f4 [92]
0	0xbccf07d4	-0.025272287
1	0x3da283ab	0.0793527
2	0x3d98510a	0.07437332
3	0x3d6a4525	0.057194848
4	0xbddfc7ad	-0.10926757
5	0x3d2d5bb7	0.042323794
6	0xbdcbccaf	-0.0995115
7	0x3d65b6d2	0.056082554
8	0x3c19b7fe	0.009382246
9	0x3addeccc	0.0016931533
10	0x3d244272	0.04010243
11	0x3c62d651	0.013845042
12	0x3de64c7e	0.112450585
13	0x3daa4a78	0.08314985
14	0xbd4f1b76	-0.0505633
15	0x3da58670	0.080822825
16	0xbd89117e	-0.066927895
17	0x3d525d79	0.051358674
18	0x3dec0edc	0.11526272
19	0xbd672571	-0.05643219
20	0x3d210157	0.03930792
21	0x3d7dad3d	0.06193279
22	0xbd59ff5f	-0.053222056
23	0xbdc48958	-0.09596509
24	0x3caf3ba7	0.02139075
25	0x3d03e2d7	0.032198753
26	0x3dbfde75	0.09368602
27	0x3d03ba86	0.032160304
28	0x3d36b1f3	0.0446033
29	0x3d8fdb03	0.07024195
30	0xbd3b2c9b	-0.045696836
31	0xbd824a30	-0.063618064
32	0x3e007be4	0.1254726
33	0x3c91b5c7	0.017786874
34	0xbdb083fa	-0.086189225
35	0x3b8a9061	0.004228637
36	0x3dd63728	0.10459739
37	0x3dccf829	0.1000827
38	0x3d160e03	0.036634456
39	0x3d9ecb35	0.077536024
40	0xbd36ead5	-0.044657547
41	0xbdc3efb3	-0.095672034
42	0xbcd9c298	-0.026582047
43	0x3dedde45	0.1161466
44	0xbd521c8b	-0.051296752
45	0x3c562de2	0.013072463
46	0xbc378692	-0.011201518
47	0x3db221c0	0.086978436
48	0xbcaea178	-0.021317229
49	0x3dd02262	0.10162808
50	0x3d2efc45	0.04272105
51	0x3b546271	0.0032407308
52	0x3d9cd00c	0.07656869
53	0xbda33a92	-0.07970156
54	0x3ce1243b	0.027483096
55	0x3dbd5c02	0.09246065
56	0xbd6ea8f1	-0.058266584
57	0x3ba01929	0.004885812
58	0x3cc848b6	0.024448734
59	0xbdc93954	-0.098253876
60	0x3db4ebe3	0.08834054
61	0x3d5604f3	0.052250814
62	0x3d90b643	0.07066014
63	0x3d4a9ab9	0.04946396
64	0xbc978418	-0.018495604
65	0x3d2437f5	0.040092427
66	0x3da26699	0.07929725
67	0xbaa3d88b	-0.0012500448
68	0xbae3954f	-0.0017363223
69	0x3cdfd05f	0.027321039
70	0xbdc3d9ae	-0.095630035
71	0x3ca29bbb	0.019849649
72	0x3c33e25b	0.01097926
73	0xbd1db214	-0.038499907
74	0x3c115638	0.008870654
75	0x3cfddfcc	0.030990504
76	0xbd89e9cf	-0.067340486
77	0x3d26526e	0.040605955
78	0xbd74450f	-0.059636172
79	0x3d4e44fb	0.050358754
80	0xbc08482f	-0.008317991
81	0x3d020896	0.03174647
82	0xbd04ea2c	-0.032449886
83	0x3d2ae3b4	0.04172106
84	0xbd1e6bad	-0.038676906
85	0xbdb77a31	-0.08958853
86	0x3ca8198c	0.020519994
87	0x3d4fc59b	0.05072556
88	0xbd232618	-0.03983125
89	0x3d2cce53	0.042188954
90	0x3b46311e	0.0030241678
91	0xbe1f10af	-0.15533708

convs.1.bn1.weight f4 [92]
0	0x3ffa6f63	1.9565243
1	0x4041df56	3.0292563
2	0x402e4ec7	2.7235582
3	0x40007bcd	2.0075562
4	0x4005d9c0	2.0914154
5	0x40462d86	3.0965285
6	0x401bf22e	2.4366565
7	0x3fba56b7	1.4557713
8	0x3ff4c919	1.912387
9	0x402f1931	2.7359126
10	0x4014d312	2.3253827
11	0x405cb293	3.4483993
12	0x3fb466c1	1.4093858
13	0x3fc27b7c	1.5193934
14	0x3fdcb394	1.7242303
15	0x40198d91	2.3992655
16	0x40237285	2.5538647
17	0x401cbdf5	2.449094
18	0x4027daae	2.6227221
19	0x405bd778	3.4350262
20	0x406d2107	3.7051408
21	0x402972f8	2.6476421
22	0x3ffb5924	1.9636579
23	0x401ca28c	2.447421
24	0x3ff37781	1.9020845
25	0x403592cf	2.8370855
26	0x40700283	3.7501533
27	0x402b847c	2.6799612
28	0x3fc4d897	1.5378598
29	0x409002c0	4.5003357
30	0x403dd5de	2.9661784
31	0x3fde76eb	1.7380041
32	0x4032228b	2.7833583
33	0x3fb867ac	1.4406638
34	0x40265423	2.5988853
35	0x400bed11	2.1863444
36	0x400f339b	2.2375247
37	0x403c7799	2.9447997
38	0x40224d06	2.5359511
39	0x40202a9b	2.5026004
40	0x3fc968fb	1.5735162
41	0x3fc930c5	1.5718008
42	0x3fe43ecd	1.7831665
43	0x3ff33ab3	1.9002289
44	0x403df699	2.9681761
45	0x401b3722	2.42524
46	0x3f242227	0.6411461
47	0x3fb5e68d	1.4210984
48	0x3f822567	1.0167664
49	0x4033f23a	2.8116593
50	0x3fba7b49	1.4568874
51	0x3f4d9547	0.80305904
52	0x3fe93675	1.8219744
53	0x3f59cc67	0.8507752
54	0x3fa7f418	1.3121367
55	0x3fae1af1	1.3601972
56	0x3fbf16a1	1.4928781
57	0x3ff7f6d5	1.9372202
58	0x3f815761	1.0104791
59	0x3fb3d340	1.4048843
60	0x400ad568	2.1692753
61	0x3f1bd295	0.608682
62	0x3f42c7bf	0.7608604
63	0x3f72017d	0.9453352
64	0x3fa9253c	1.3214488
65	0x3fb81285	1.4380652
66	0x3fed1d54	1.8524575
67	0x40152052	2.3300977
68	0x3f52a6ef	0.8228597
69	0x3fa91a95	1.3211237
70	0x3f9825ce	1.1886537
71	0x3f88abe5	1.0677458
72	0x3f92bcd5	1.1463877
73	0x3f242db6	0.6413225
74	0x4031f2c6	2.7804427
75	0x4023861f	2.555061
76	0x4014e5e3	2.3265312
77	0x401d1ac7	2.4547594
78	0x3f922ba9	1.1419574
79	0x3f8e2870	1.110609
80	0x3f68f7e2	0.9100324
81	0x4029a981	2.6509707
82	0x3fa28b0d	1.2698685
83	0x3fa847bd	1.3146893
84	0x3f9e3648	1.2360315
85	0x3f833735	1.0251223
86	0x3f468f18	0.77562094
87	0x3f91df17	1.1396207
88	0x3f8254a2	1.0182078
89	0x3fd062f9	1.6280204
90	0x4009fd7d	2.1560967
91	0x3eeedbbd	0.46652022

convs.1.bn1.bias f4 [92]
0	0x3f1ef520	0.6209278
1	0x3eb1c168	0.3471787
2	0xbed48077	-0.4150426
3	0xbe8e2fcf	-0.2777085
4	0x3d8c3e1f	0.06847786
5	0xbec05601	-0.37565616
6	0xbef37421	-0.47549537
7	0xbec99b5a	-0.39376336
8	0xbf13ecd9	-0.57783276
9	0xbe961737	-0.29314587
10	0xbdf35c44	-0.11882833
11	0xbee84bfd	-0.45370474
12	0xbf832a64	-1.0247312
13	0xbe11fd20	-0.14256716
14	0xbe096b73	-0.13419895
15	0xbe8b1929	-0.27167633
16	0xbf2f20ed	-0.68409616
17	0xbf658d1a	-0.8966843
18	0xbe938b74	-0.28817332
19	0x3ed37c20	0.41305637
20	0x3daee52f	0.08539807
21	0xbe950db4	-0.29112017
22	0xbe884627	-0.26616022
23	0xbefd823b	-0.4951342
24	0xbf34d2f8	-0.7063441
25	0xbe902f5f	-0.2816114
26	0xbec4f312	-0.38466698
27	0xbf6ca912	-0.9244548
28	0xbe257e8f	-0.1616156
29	0x3d08570a	0.033286132
30	0xbe90e468	-0.2829926
31	0x3e0ec1d1	0.13941123
32	0xbe8208b7	-0.25397274
33	0xbf0c8793	-0.5489437
34	0xbe2e9f0f	-0.17052864
35	0xbf0f97a0	-0.56090736
36	0xbedd8505	-0.43265548
37	0xbf2e01b1	-0.6797133
38	0xbf1fd56b	-0.62435025
39	0x3ea7fd11	0.32810262
40	0xbebe5f23	-0.3718196
41	0xbf31b254	-0.6941273
42	0x3e1c9fde	0.1529536
43	0x3f0e64d5	0.5562261
44	0xbf1f1e56	-0.62155664
45	0xbf92f3f1	-1.1480695
46	0x3f324171	0.69631106
47	0x3e49e80c	0.19717425
48	0xbec01d18	-0.37522197
49	0x3a61564e	0.0008595929
50	0xbe1ad45d	-0.15120073
51	0xbf2ec763	-0.6827299
52	0xbe7b5a18	-0.24546087
53	0xbf0442a4	-0.51664186
54	0xbf1c909a	-0.61158144
55	0xbecd6935	-0.4011933
56	0xbeb08bec	-0.34481752
57	0xbe056b2f	-0.13029169
58	0xbf0cb458	-0.5496268
59	0xbecbf825	-0.39837757
60	0x3e2d67f4	0.16934186
61	0xbf51f2b6	-0.8201097
62	0xbf37d113	-0.71803397
63	0xbf66086b	-0.89856595
64	0x3e425994	0.18979484
65	0x3e8f5fe3	0.28002843
66	0xbe47bbc4	-0.1950522
67	0xbdc9a6d4	-0.09846273
68	0xbf06f3ae	-0.52715576
69	0xbe69e3c7	-0.22840796
70	0xbf3aba60	-0.72940636
71	0xbeea53a3	-0.45766935
72	0xbf168981	-0.58803564
73	0xbf2e93ac	-0.6819408
74	0xbe734840	-0.2375803
75	0x3ec59685	0.385914
76	0xbd8af96f	-0.06785857
77	0xbeb1cfe9	-0.34728935
78	0xbec2c305	-0.38039413
79	0xbe7f5b53	-0.24937181
80	0xbefdac41	-0.49545482
81	0x3c47331a	0.01215818
82	0x3ee7de5e	0.4528684
83	0xbebd7773	-0.37005195
84	0xbf0c7d6c	-0.5487888
85	0x3edc1ae1	0.42989257
86	0xbf1f8612	-0.6231395
87	0xbeebb690	-0.46037722
88	0x3eabe9cc	0.3357681
89	0xbe61cfa1	-0.2205186
90	0x3d25463e	0.04035019
91	0xbf4dcc35	-0.8038972

convs.1.bn1.running_mean f4 [92]
0	0x40146539	2.3186781
1	0xc0035cf5	-2.0525486
2	0xc04e0f6c	-3.2196913
3	0x404e75d9	3.2259429
4	0x400f9622	2.2435384
5	0xbf40c011	-0.7529307
6	0x403979d9	2.898062
7	0xbf45343a	-0.77032816
8	0xc012eff3	-2.2958953
9	0xbf3cbada	-0.7372261
10	0x3e99ad95	0.30015245
11	0x4008426f	2.1290548
12	0xbf14edd2	-0.58175385
13	0xc02538d2	-2.581593
14	0xc07b7317	-3.9288995
15	0xbec179c7	-0.3778822
16	0xc02eff9f	-2.7343519
17	0x400cd7f1	2.20068
18	0x3f7b2b38	0.9811282
19	0xc00678da	-2.1011262
20	0xc04e1982	-3.2203069
21	0xbf931322	-1.1490214
22	0xbfce6f0f	-1.6127642
23	0x3fa4f354	1.2886758
24	0xc0234216	-2.5509086
25	0x3fa6898e	1.3010728
26	0xbf98f1e5	-1.194882
27	0x3c5557c5	0.013021414
28	0x3c81ac85	0.015829334
29	0xbf7db72c	-0.99107623
30	0xbf35df5b	-0.7104394
31	0xbfc1fa1c	-1.5154452
32	0xbf3bc82d	-0.7335232
33	0xbfb9862b	-1.449407
34	0xc02aeec1	-2.6708224
35	0x3fe09d6c	1.7548041
36	0x408b2984	4.348818
37	0xc019746c	-2.3977308
38	0xbf220c53	-0.63300055
39	0xbfb47f21	-1.4101297
40	0xbf9d7ed4	-1.230433
41	0xbf50a114	-0.81495786
42	0x3fb83ea7	1.439412
43	0xc02acfe0	-2.6689377
44	0x3efdbc7a	0.4955786
45	0xc00ba319	-2.1818297
46	0x3f0beff2	0.54663
47	0xbddd6160	-0.108095884
48	0xbfd6599a	-1.6746094
49	0x3f93782e	1.1521051
50	0x3f892286	1.0713661
51	0xc0173af2	-2.3629727
52	0xbf26338b	-0.649224
53	0x3e8c346a	0.2738374
54	0xc07b2103	-3.9238899
55	0x3dce7c83	0.100823425
56	0x3ff92fee	1.9467752
57	0x3ea84dc2	0.32871825
58	0xc0a2dbb2	-5.0893183
59	0xc096a6dd	-4.707869
60	0xc02fa1cd	-2.7442505
61	0xbeb4ebe9	-0.35336235
62	0xbf8c2a12	-1.0950339
63	0x3eff88f1	0.49909166
64	0x3ff029a3	1.8762707
65	0xbf1e2685	-0.61777526
66	0xc070aafc	-3.760436
67	0x40276fa2	2.6161885
68	0xc038dfac	-2.8886518
69	0xc01a896f	-2.4146383
70	0xbe4c1467	-0.19929658
71	0xc04a1f5c	-3.158164
72	0xbfc12cbc	-1.5091777
73	0xbfd257ae	-1.6433008
74	0xc0a776a7	-5.233234
75	0xc00da88f	-2.213413
76	0xc021f56f	-2.530605
77	0xc0bc954b	-5.8932242
78	0xbeb357dd	-0.35027972
79	0xbf5dc963	-0.86635417
80	0xbe6a4979	-0.2287959
81	0xbe1615af	-0.14656709
82	0xbf95a0db	-1.1689714
83	0xc04f3cdb	-3.2380893
84	0xc0190052	-2.3906446
85	0xbfcfe3d9	-1.6241409
86	0x3f2cb0e1	0.67457396
87	0xc039e161	-2.904381
88	0x3fbda034	1.4814515
89	0xc0b5af40	-5.677643
90	0xbfe19ef4	-1.7626634
91	0xc05b28f8	-3.4243755

convs.1.bn1.running_var f4 [92]
0	0x419ee31f	19.860899
1	0x4197a9a8	18.95784
2	0x41b21889	22.26198
3	0x41865518	16.79155
4	0x41af6404	21.923836
5	0x41923473	18.27561
6	0x41918e05	18.194345
7	0x417856e3	15.521213
8	0x41bb965e	23.448421
9	0x41b3bbcc	22.466698
10	0x41695b85	14.584844
11	0x41eac0b2	29.34409
12	0x41b3c022	22.468815
13	0x41585403	13.520511
14	0x41742079	15.257928
15	0x41afa784	21.956795
16	0x41b35722	22.417545
17	0x41e37526	28.432201
18	0x418bc020	17.468811
19	0x41679cf1	14.475816
20	0x41bdcccf	23.725004
21	0x4191b97c	18.215569
22	0x415c9252	13.785723
23	0x415d2f22	13.824007
24	0x41f1656c	30.174522
25	0x4188c486	17.095959
26	0x41b1ce7b	22.22582
27	0x4197fe73	18.999243
28	0x4175f4c7	15.37226
29	0x41759231	15.348191
30	0x4194b875	18.590067
31	0x4199372c	19.15194
32	0x4175c2a5	15.360021
33	0x419794ab	18.947592
34	0x4187c755	16.97233
35	0x4194fb67	18.622755
36	0x4177e84d	15.494214
37	0x41a0d087	20.10182
38	0x4167ebe0	14.495087
39	0x41934459	18.408373
40	0x4219b089	38.422398
41	0x418b5c6a	17.420124
42	0x41b1ae15	22.210001
43	0x41492e15	12.5737505
44	0x41a14715	20.159708
45	0x41c50747	24.628553
46	0x416579c0	14.342224
47	0x416b213e	14.695616
48	0x41bc8d7e	23.569088
49	0x41a97f82	21.18726
50	0x41baf185	23.36793
51	0x41ba0cfc	23.25634
52	0x41b885bc	23.0653
53	0x4157e9e6	13.494604
54	0x41befd88	23.873795
55	0x4142398d	12.1390505
56	0x417639ac	15.38908
57	0x41af4500	21.908691
58	0x419bafcd	19.46084
59	0x41a92b74	21.146217
60	0x4183903d	16.445429
61	0x41865da3	16.795721
62	0x41ae1c8d	21.76394
63	0x418880d1	17.062899
64	0x414bf4b1	12.747239
65	0x4166c76e	14.423689
66	0x41b45b50	22.544586
67	0x41b222b8	22.266953
68	0x41a4ccda	20.600025
69	0x417be3f1	15.74315
70	0x41cade0f	25.358427
71	0x418fda7b	17.98168
72	0x419fc2fc	19.970207
73	0x41b24d9e	22.287899
74	0x41c7e19d	24.985163
75	0x41ae9386	21.822033
76	0x419864ad	19.049158
77	0x41bfff9d	23.999811
78	0x4184ad0e	16.5845
79	0x4140cb4f	12.049636
80	0x416cc184	14.797245
81	0x419678c7	18.808973
82	0x4199ca8d	19.223902
83	0x41c7c3f9	24.97069
84	0x41cc621a	25.547901
85	0x41baf6da	23.370533
86	0x41ac7648	21.557755
87	0x4185c367	16.720411
88	0x41ab46cb	21.409567
89	0x419b06eb	19.378378
90	0x41ad450e	21.658718
91	0x417b82e7	15.719459

convs.1.bn2.weight f4 [46]
0	0x3f8096ea	1.0046055
1	0x3f425502	0.7591096
2	0x3fcbb328	1.5914049
3	0x3f885c94	1.0653253
4	0x3f984d2d	1.1898552
5	0x3f888afb	1.0667413
6	0x3fae58c0	1.3620834
7	0x3ef2b6da	0.4740513
8	0x3f9063ef	1.1280497
9	0x3f8a827e	1.0821073
10	0x3f44dc6f	0.76898855
11	0x3faa77f1	1.3317853
12	0x3fc77a14	1.558413
13	0x3f802d49	1.001382
14	0x3f9d0eae	1.2270105
15	0x3fcbe6af	1.5929774
16	0x3f9c8e0e	1.2230852
17	0x3f852155	1.0400797
18	0x3f593950	0.84853077
19	0x3f82091a	1.0159028
20	0x3fad2061	1.3525506
21	0x3f997e72	1.1991713
22	0x3f8782ae	1.0586755
23	0x3fa9d59a	1.3268311
24	0x3fb4376a	1.4079411
25	0x3f90232d	1.1260735
26	0x3fc2b76b	1.5212225
27	0x3fb60c63	1.422253
28	0x3f61cae2	0.882002
29	0x3f6070b5	0.8767198
30	0x3f919b31	1.1375486
31	0x3f83d8f8	1.0300589
32	0x3f785b4b	0.970143
33	0x3f852fec	1.040525
34	0x3fa7f605	1.3121954
35	0x3f77ae1c	0.96750045
36	0x3f30f4d6	0.6912359
37	0x3fa621a4	1.2979016
38	0x3fb39c1b	1.4032015
39	0x3fb116be	1.3835065
40	0x3fa866fd	1.315643
41	0x3f88fc4b	1.0701994
42	0x3faa19ab	1.3289083
43	0x3f808781	1.0041353
44	0x3fa22c86	1.2669837
45	0x3feef855	1.8669535
