dropout/NN_ensemble/histories/1_valid_best_params.pt (torch_old, 446091 bytes, 91 tensors)

embedding.weight f4 [46, 98]
000000 80 53 71 bb f4 48 ea be d1 b5 0d 3d 99 9e 94 be
       -0.0036823452 -0.45758784 0.03459722 -0.2902725
000010 3e 07 9f 3e 61 24 48 3d 7b bf 4b bf 23 47 ed 3e
       0.31060213 0.04886282 -0.7958905 0.46343336
000020 a0 50 54 bf 57 53 c1 3c af 13 41 3f f5 28 e2 3e
       -0.82935524 0.02359931 0.7542066 0.44171873
000030 7d 51 95 be 42 7b ca 3e 80 cd 3d bd 6c 7d b4 be
       -0.29163733 0.39547163 -0.04633856 -0.3525194
000040 4f d4 1f be 48 07 4a bf a8 0e 90 3d 4c cb f7 be
       -0.15608333 -0.7891736 0.070340455 -0.4839729
000050 dc 9e bd 3d 1b 00 ae 3e 0e 27 b7 bd 97 48 f9 bd
       0.09258816 0.33984455 -0.08942996 -0.121720485
000060 36 2c 8c be 31 92 9e bd 29 c6 7d 3e 35 cb 19 be
       -0.2737748 -0.077427275 0.24782623 -0.15018924
000070 ff 4d ca bd a5 a4 3f 3d 70 06 17 bd a0 91 60 be
       -0.09878158 0.046787877 -0.036871374 -0.21930552
000080 59 41 a5 bd 78 27 1d bc fb c4 8c 3e 88 43 98 bd
       -0.08069105 -0.00959193 0.27494034 -0.074347556
000090 40 c5 09 bf d2 c0 6b 3e ce 58 07 3c 96 f9 74 3f
       -0.53816605 0.23022774 0.008260919 0.9569334
0000a0 8d 74 b1 be da 63 8a bf 5b d4 73 3e 21 7d 68 3e
       -0.34659234 -1.0811722 0.23811476 0.22703983
0000b0 ec 27 88 3d c0 51 46 bf 6a 63 fe be cf 49 f1 bd
       0.066482395 -0.7746849 -0.49685222 -0.11781656
0000c0 00 b2 b5 3e 77 83 b4 bd 6f fa 7b be 86 e6 09 bf
       0.35487366 -0.088141374 -0.24607252 -0.53867376
0000d0 c5 f4 b4 3e eb c4 54 bf 45 eb a1 bd 99 f9 1c 3e
       0.35342994 -0.8311297 -0.07906202 0.15329589
0000e0 20 b7 da 3e e1 44 20 3f 59 60 8b 3e 74 1f ec bd
       0.42717838 0.626051 0.27221945 -0.11529437
0000f0 c7 34 46 3e dd 0a e0 be 82 7b 13 be f3 a3 04 3f
       0.1935607 -0.43758288 -0.14402583 0.51812667
000100 7d 0e 9e bd 6c 7a 6b 3d 75 20 bf bd f0 99 9c 3b
       -0.07717607 0.057489797 -0.093323626 0.004779093
000110 d6 33 a4 bd e0 61 d0 3b bc dc 00 bd e8 0d c3 bd
       -0.080176994 0.006359324 -0.03146051 -0.09524137
000120 dd 89 53 3d 4e c3 bf 3c 18 84 d5 3e fe b9 bf be
       0.05164515 0.023408558 0.41702342 -0.37446588
000130 38 c8 3b 3d e6 d0 50 bf e3 7a d0 be d4 8f af be
       0.04584524 -0.81568754 -0.40718755 -0.3428942
000140 74 47 38 3e 48 6a a0 bc d2 e7 c8 3d 1c 43 28 3e
       0.17996007 -0.019581929 0.09809841 0.1643185
000150 8d f5 e2 3e 8f 02 5d be ac 31 f9 be 52 b8 1b bf
       0.44327965 -0.21583007 -0.4867071 -0.60828125
000160 8f 9e d2 bd 98 7b ba be b5 54 f9 3e ee 60 34 bf
       -0.10284149 -0.3642242 0.4869744 -0.704604
000170 c2 b8 29 3e d3 ff 41 3f 66 16 85 be 07 a0 d2 bf
       0.16574386 0.7578098 -0.2599365 -1.6455086
000180 b4 7a 05 bf 01 c4 55 bf 05 06 84 bd 6c fd e6 be
       -0.52140355 -0.83502203 -0.06446461 -0.4511522
000190 fe 18 9f 3d 60 f8 7a 3f 6a 8c fa 3e 37 49 a1 3e
       0.07768439 0.9803524 0.48935252 0.3150117
0001a0 e2 4e 41 3e a8 33 91 3e 08 93 e8 3e 5a b4 b7 3e
       0.18877748 0.28359723 0.45424676 0.35879785
0001b0 d2 49 81 bd 50 8b 60 bf 49 a3 07 c0 d2 58 81 bf
       -0.06312908 -0.87712574 -2.1193411 -1.0105231
0001c0 f4 79 14 bf b2 1c 4c bd b5 9e a9 3d f4 f9 0c be
       -0.57998586 -0.049832053 0.08282224 -0.13767225
0001d0 6b 7f c7 bd 60 b0 d5 bd e2 97 b9 bd a8 e7 cb be
       -0.097411 -0.104340315 -0.090621725 -0.39825177
0001e0 94 3e 22 3e 8b 77 b9 be 2d 60 a9 3e b9 5c 64 bd
       0.15844184 -0.36224017 0.3308119 -0.05575249
0001f0 c0 df 84 be a7 32 8d be 25 d9 9f 3d 7c be 1e 3e
       -0.25951958 -0.27577707 0.07805089 0.15502352
000200 bb bb 4c be ba 70 8a bd a4 bc 85 bd 23 fd 87 3e
       -0.19993488 -0.06759782 -0.06530121 0.26560315
000210 8f 25 4f bd 04 6e a4 3d 37 ed 0b be 3b b4 86 3d
       -0.050572928 0.08028796 -0.13664709 0.06577345
000220 d3 e9 81 3d fd 21 a8 3d 52 18 87 be 28 6a 86 3d
       0.063434266 0.08209608 -0.26385742 0.065632164
000230 d9 fd 81 3e e6 7c 8a 3e 28 fe cf 3c ea a0 06 bf
       0.25388983 0.27048415 0.025389746 -0.52589285
000240 6b 17 d7 be 0b bf 94 3d be 2e c4 be 5c 75 4d 3d
       -0.42010054 0.07263001 -0.3831691 0.05016075
000250 ea 4b 7e 3e ba 94 56 3e 22 99 35 3e 89 0b b3 3e
       0.24833646 0.20955172 0.17734197 0.34969738
000260 05 1a bf 3e 26 9e 96 bd 4a 6b 6a bf 13 b7 e9 be
       0.3732454 -0.07354383 -0.9156996 -0.45647487
000270 5d 3a b8 be 7d 51 4b bf a4 56 c6 bd f8 b2 23 3d
       -0.35982028 -0.79421216 -0.09684494 0.0399656
000280 8b 08 43 3e 95 4c 56 be af 25 a4 3e 1c fd 31 3d
       0.19046228 -0.20927651 0.3206 0.043454275
000290 36 a1 57 bd cb 1c 2d bd 58 8e 71 3d 18 a7 e8 3c
       -0.052643977 -0.042263787 0.05897364 0.028399989
0002a0 45 ae 84 3e 20 f0 c8 bc d7 a6 28 bc 06 6f 57 bc
       0.25914207 -0.024528563 -0.010293684 -0.013149029
0002b0 af 0e 40 3e 75 c3 d9 be 50 c7 ed bc d9 bb de bd
       0.18755601 -0.42531934 -0.029025704 -0.10875673
0002c0 1d 2b f3 be 6d de 55 bf 0b 65 1c 3f c4 57 34 3d
       -0.4749383 -0.8354252 0.6109168 0.044029012
0002d0 5e f0 a2 be 99 4f 6b 3d 12 a2 81 3c 3c de 40 bd
       -0.3182401 0.057448957 0.015824351 -0.04708694
0002e0 46 20 89 3e 8a 35 18 bf a3 25 a9 bd 6d 69 14 3f
       0.26782435 -0.59456694 -0.08259132 0.57973367
0002f0 58 61 8c be b6 ed 25 bf 1a 6c a7 bd d9 84 ae 3f
       -0.27418017 -0.64815843 -0.081749156 1.3634292
000300 12 ba 17 c0 0e 3b 94 be fe 7b 29 3e 5f b8 92 bf
       -2.3707318 -0.28951305 0.16551206 -1.1462516
000310 ec 2e 03 bd 0b ac 25 bd 2c cc c9 3c 0c 66 0f bf
       -0.03202717 -0.040447276 0.02463349 -0.56015086
000320 3d f8 82 bf ea 53 be bf eb 52 9f 3e 33 48 71 3e
       -1.0232006 -1.4869359 0.3111795 0.23562698
000330 92 d5 ea 3d 4c aa be 3e 80 50 44 3e 2e c7 8f be
       0.114665166 0.372393 0.19171333 -0.2808165
000340 72 a8 1f 3e 2a f6 ec 3d eb 57 a3 3e 16 c3 3a 3d
       0.155916 0.115703896 0.31903014 0.045596205
000350 15 22 00 bf 3e c1 04 3f 86 f9 21 bd 3c e3 e1 bd
       -0.50052005 0.51857364 -0.039544605 -0.1102967
000360 43 f6 81 be af fb 85 bd e2 da 85 3c c1 c6 6b 3e
       -0.25383195 -0.065421455 0.016339723 0.23025037
000370 49 ec 9a be 50 09 ae 3d 80 33 fe bd 9e 45 2c be
       -0.30258396 0.0849787 -0.124121666 -0.16823432
000380 1e d8 b0 bf 8b 81 5d be 5a c0 21 3f 77 1c 5d be
       -1.3815954 -0.21631448 0.6318413 -0.2159289
000390 d8 51 89 bd 40 2c 34 3e 85 52 0f be c4 21 ca bc
       -0.067050636 0.17595005 -0.13996322 -0.024674304
0003a0 27 4c b4 bd d8 f1 96 be 85 83 62 be ad 75 a7 3e
       -0.088035874 -0.29481387 -0.22120483 0.32706967
0003b0 8f ff 5a be c7 09 17 3e 8e 20 b3 be 04 99 29 3e
       -0.2138655 0.14749824 -0.34985775 0.16562277
0003c0 7c 8e 8a 3d ab 19 37 3f 6d ce 36 bd 42 f8 22 be
       0.06765458 0.7152354 -0.044630457 -0.15915015
0003d0 12 a6 c6 3d 68 d8 11 3d bd 5c c5 be 2a 4a 89 be
       0.09699644 0.03560677 -0.38547316 -0.26814395
0003e0 99 9d ad 3e 46 53 b8 3d 70 e1 89 3e 7d b6 9f bd
       0.339093 0.09000258 0.26929808 -0.07798479
0003f0 80 9e 20 be 60 25 81 3e 31 47 95 bd 7b 8a b6 bc
       -0.15685463 0.25223827 -0.07288969 -0.02228283

embedding.bias f4 [46]
000000 42 14 44 bf fa e5 92 be f7 3e fa be 21 a4 cd be
       -0.7659341 -0.28691083 -0.48876163 -0.40164283
000010 3c e1 6b bf 60 38 06 bf 9d 90 2f bd 12 9a 54 bf
       -0.92140555 -0.5242977 -0.042862523 -0.8304759
000020 f9 e5 0e bf 83 a9 71 be 42 6a 9f be 1d 0d ad be
       -0.5581966 -0.2359982 -0.31135756 -0.33799067
000030 58 d3 0b bf 76 2e c0 be c5 1a db be b6 d3 88 be
       -0.5461936 -0.37535447 -0.4279386 -0.26724023
000040 ec 04 dc be d1 7b 86 be 5d d0 87 be 46 ef 41 bf
       -0.42972505 -0.2626634 -0.26526156 -0.7575573
000050 07 a2 1f bf 2c 0e f2 bc c1 aa 59 bf b8 aa d3 be
       -0.6235661 -0.029547773 -0.85026175 -0.41341186
000060 7c 5c 1a bf 08 6d 8d be 60 c6 9e be 82 60 e5 be
       -0.6029737 -0.27622247 -0.31010723 -0.44800192
000070 58 7f 26 bf 43 a2 14 bf 83 74 17 bf bb 57 0f bf
       -0.6503806 -0.5806009 -0.5916216 -0.5599324
000080 0e b8 bf be b5 c6 24 bf 15 81 c6 be b3 9c d4 be
       -0.3744511 -0.643657 -0.38770357 -0.41525802
000090 c1 95 11 bf 42 d4 0a bf 80 0e 34 bf 42 a2 0e bf
       -0.5686913 -0.5423013 -0.70334625 -0.55716336
0000a0 ec 8b 96 be 82 d0 bd be 8a 03 73 bf 5a 3e 9e be
       -0.29403627 -0.3707314 -0.94927275 -0.30906945
0000b0 8a 34 71 bf 2b c2 3f bf
       -0.94220793 -0.7490565

convs.0.fc_full.weight f4 [92, 98]
000000 f8 ec 87 3d 0b d8 89 3e 9c a6 02 be c5 c6 40 3e
       0.06636995 0.2692264 -0.12758869 0.18825825
000010 c1 c9 fe be 9b 33 67 3d 1b fa b4 3e ed d0 8f bd
       -0.497633 0.0564457 0.35347065 -0.07022271
000020 a8 78 e8 be e4 ac 74 3e ad f5 f5 3d 4e 88 ec be
       -0.45404553 0.23894078 0.120097496 -0.46197742
000030 5d 8e fe bd de 21 4f 3f 81 e7 b9 be 6d 33 5a bf
       -0.124294974 0.8091105 -0.36309436 -0.8523472
000040 2b 30 85 3c 2b 72 17 3f 23 db 8c 3e 41 2e 2f bd
       0.01625832 0.5915858 0.27510938 -0.04276872
000050 9c 13 dc be b2 05 00 bf b4 22 26 be c5 02 04 bf
       -0.4298371 -0.5000869 -0.16224176 -0.51566726
000060 b5 ab 04 bf 02 b8 1a 3f 51 91 8a bd da 5d 15 3f
       -0.51824504 0.60437024 -0.06765998 0.5834633
000070 48 75 92 3e 0b 3b 0a 3f 85 2f 1d 3e 9e 78 4b be
       0.28605103 0.5399634 0.15350159 -0.1987023
000080 3b 30 ad 3e 2c fc dc 3e 23 cb 2c 3e ff 63 e2 3d
       0.3382586 0.43161142 0.16874366 0.11054229
000090 af 5b 6e bf 23 18 b7 3e c1 2b 1d 3e 6e 49 0f bf
       -0.9310865 0.35760602 0.15348722 -0.5597142
0000a0 ca e4 20 3e e2 6c 70 3e 3f a0 00 3f 98 cd a6 bd
       0.15712276 0.23479035 0.50244516 -0.08144683
0000b0 d9 7b 65 3e 1c d0 06 be 02 c5 fd bf f3 53 33 bf
       0.22410525 -0.13165325 -1.9825747 -0.7004997
0000c0 69 63 3e bf 82 77 29 3d 67 20 d8 3e a9 84 d0 be
       -0.7437044 0.041373737 0.4221222 -0.40726212
0000d0 62 02 30 bf e1 eb cf 3e 2a ef 0b 3f 35 38 15 bf
       -0.68753636 0.4060965 0.5466181 -0.5828889
0000e0 07 eb f9 3e 60 13 ab bd 7e e7 86 3f 8a de 38 bf
       0.48812124 -0.08353305 1.0539396 -0.7221457
0000f0 04 e2 65 be d8 54 1d 3f 23 2d 75 3f c7 17 fb be
       -0.224495 0.61457586 0.95772 -0.49041578
000100 b0 1e ab 3c 60 b4 c2 3e 20 bd e6 bd 51 4d 93 3f
       0.020888656 0.3802824 -0.112665415 1.150797
000110 b9 46 ae 3f ba de 23 bf 8d 34 20 3f 6c 57 e7 bd
       1.3615333 -0.6401173 0.62580186 -0.11295971
000120 f3 11 45 be 5f 7c cf bf 93 35 3b 3e 3a 07 dc be
       -0.19245128 -1.620983 0.18282156 -0.42974263
000130 b1 ef f0 3e bb 3d b0 3d 55 b4 9a 3e 37 37 53 bf
       0.4705787 0.08605524 0.30215707 -0.82506126
000140 f7 d9 17 3f 48 d0 76 bf 8b 09 a2 3e 6b 62 21 be
       0.5931696 -0.9641156 0.31647906 -0.157602
000150 ca 03 ac bd 6c a5 89 bd 6c ef 93 be ba 4b 9b 3e
       -0.0839916 -0.06721005 -0.28893602 0.30331212
000160 8e 5b 8a bf 53 1b 3d 3f 1b f8 6f 3c 88 37 1e 3f
       -1.080919 0.7386982 0.014646555 0.61803484
000170 c3 3c 4c 3f de 96 0e 40 91 88 c5 3f 3e 3c 58 bf
       0.79780215 2.2279582 1.5432302 -0.8446692
000180 9f 7a a1 bf 1e e3 ed bf 02 e9 b9 bc 44 d9 b0 3e
       -1.2615546 -1.8584936 -0.022694115 0.3454076
000190 98 91 30 bf 40 c6 f7 3e 54 c3 a2 bd b8 0b 67 be
       -0.6897216 0.4839344 -0.07947412 -0.22563064
0001a0 c7 06 e0 3d c0 a1 dc 3e 41 85 0d be 6e 01 57 3d
       0.10938793 0.43092155 -0.13820364 0.052491598
0001b0 2a 89 e8 3e b5 51 9f 3d bb 96 f5 3e a5 64 16 bd
       0.45417148 0.07779256 0.4796656 -0.036717076
0001c0 a5 12 81 3d 37 55 b0 be a8 23 d8 be 9f ee 90 3c
       0.06302384 -0.34440014 -0.42214704 0.017691908
0001d0 07 76 72 be d5 bd eb 3d b7 7d b9 be 41 26 80 bf
       -0.23677836 0.11510817 -0.36228725 -1.0011674
0001e0 01 ee a3 3e dd 40 00 3f ec cc 80 be 2e d9 87 be
       0.3201752 0.50098974 -0.25156343 -0.26532882
0001f0 80 f5 0d 3e b1 82 0f be 55 c0 04 3f 13 9a ff 3d
       0.13863182 -0.14014699 0.51855975 0.12480559
000200 4b 05 8f be d3 16 85 bd d7 49 e8 3e 43 1b 15 be
       -0.27933726 -0.06498494 0.45368835 -0.14561181
000210 41 b8 9d be 80 5e 03 3e 04 8d cd 3e 32 ce ff 3c
       -0.30804637 0.12829018 0.4014665 0.031226251
000220 c7 e9 5b 3f 7e f3 b0 3e c9 cf b5 be fe c5 05 bf
       0.8590359 0.3456077 -0.3551009 -0.5225524
000230 67 59 74 3e 62 df 6f bc d8 7f dc 3d 7a 33 32 3d
       0.2386223 -0.014640661 0.10766572 0.043506123
000240 e8 f9 af 3e a4 19 57 bf b7 d4 35 3e 91 55 2b 3f
       0.3437035 -0.840235 0.17756926 0.6692744
000250 f2 23 41 be b6 12 d3 bd 3e 8f af bc 15 04 94 3e
       -0.18861368 -0.10306303 -0.021430608 0.28909364
000260 c2 30 2e 3e 57 d5 c4 3e e1 57 1f be 35 8b 4c 3e
       0.17010787 0.38444015 -0.15560867 0.19974978
000270 36 40 54 bd 04 9a 1b 3f 10 55 72 3c 2d d6 6c be
       -0.05181905 0.60781884 0.014790788 -0.23128577
000280 1e 9d d0 3e b9 be 00 bf a3 c4 0d be 56 07 c1 bd
       0.4074487 -0.5029102 -0.13844542 -0.09425227
000290 aa de ff bd 79 68 80 be 13 5c ee bc 5e dd 10 bf
       -0.12493642 -0.25079706 -0.029096639 -0.5658778
0002a0 77 1b 62 3e 49 0b e4 3e cb 06 41 be b8 ff 6c be
       0.2208079 0.4453986 -0.18850248 -0.23144424
0002b0 32 43 05 bf ed 2c a3 bc 03 39 54 3e fb 0a b6 3e
       -0.52055657 -0.019918883 0.20724873 0.35555252
0002c0 e1 0d 91 be b5 a8 3a bd 00 08 44 be 8f d5 a1 be
       -0.283309 -0.045571048 -0.19143677 -0.31608245
0002d0 54 8d 7e 3d fc 51 cb 3d 45 83 35 be 80 84 b9 3e
       0.0621465 0.09927747 -0.17725857 0.36233902
0002e0 c8 cf ad 3e 54 06 82 3e 4d f3 b5 3e 50 e7 d3 3c
       0.33947587 0.25395453 0.35537186 0.025867134
0002f0 0a 25 da be a0 e3 b1 3e 05 93 d7 3f 59 04 87 be
       -0.42606384 0.34743977 1.6841742 -0.26370504
000300 cb 36 b5 bf 32 52 77 bf d4 b7 37 be 8e d6 83 bf
       -1.4157346 -0.96609795 -0.17941219 -1.0299852
000310 14 9f 31 3f 3c ff a7 3d 82 a0 cc be d7 51 06 be
       0.6938336 0.08202979 -0.39966208 -0.13117157
000320 3a 42 d7 3d 50 2b 8a 3e c8 67 52 3f 93 33 ed 3a
       0.105106786 0.2698617 0.8218961 0.0018097035
000330 6d 79 77 bd df 50 44 be 83 17 c9 3c a1 43 a9 be
       -0.060418535 -0.19171475 0.024547344 -0.3305941
000340 f0 41 36 be 1f e5 3b 3d 03 4b c7 be 01 4e cd be
       -0.1779859 0.045872804 -0.38924417 -0.40098575
000350 59 ca 65 3b 79 e0 88 3c 42 29 bb 3e a7 46 81 be
       0.0035063236 0.0167086 0.36554915 -0.25249216
000360 1e 5b 30 3e 83 41 b9 bd fa de 81 be 9b e3 5d 3d
       0.17222258 -0.090456985 -0.2536543 0.05417214
000370 d3 7f e5 3d 50 a5 39 3e 54 b1 89 be 57 23 a2 3d
       0.11206021 0.18129468 -0.26893103 0.07916897
000380 c0 32 0c 3e aa ff 18 3f 6a 3d e3 bd 33 d0 36 be
       0.13691235 0.5976511 -0.11095698 -0.17852859
000390 29 7f 68 3c c4 a0 69 3d e0 0b ef 3e bf e9 9e 3d
       0.014190474 0.057038084 0.46688747 0.07759427
0003a0 b7 c4 2d be 85 9a 09 3f 55 b0 e9 bd 58 28 ee ba
       -0.16969572 0.53751403 -0.11410586 -0.0018169982
0003b0 10 b6 ff 3e 5d 2d f6 3d 1f 83 83 3e 12 36 1e bd
       0.4994359 0.12020371 0.25685975 -0.038625784
0003c0 ce 3d 6d be 1b d9 19 3d c6 41 28 bd f0 86 d6 be
       -0.23168108 0.037560564 -0.04107835 -0.41899824
0003d0 fc ea 9d bf 54 c0 51 3e 38 da 32 3f 71 17 ec be
       -1.2337337 0.20483524 0.69864225 -0.46111634
0003e0 68 60 58 be 2f 0e 93 3e cf a4 91 be 06 45 f1 be
       -0.21130526 0.2872176 -0.2844605 -0.47122973
0003f0 3c 24 ca 3e 9e 2c 9b 3e c2 5c 2c 3f 20 16 12 bf
       0.3948077 0.30307478 0.6732904 -0.5706501

convs.0.fc_full.bias f4 [92]
000000 3e 96 85 3d 1f 95 3e 3e 20 61 84 3d 15 a0 81 3d
       0.06522797 0.18611573 0.064638376 0.06329361
000010 8f cf 9d bd 50 a6 8a 3d a7 ce cf 3d dd 79 e8 3c
       -0.07705604 0.06770003 0.10146838 0.028378421
000020 be 25 8b 3d 53 f5 0d 3e 23 30 01 3d 80 74 01 be
       0.06794308 0.13863115 0.031540047 -0.12642097
000030 3c 71 6e bd f1 da 65 3d bb 98 9e bd 7b 03 85 bd
       -0.058213457 0.056117002 -0.07743975 -0.064948045
000040 7e 9f a9 bd 47 00 c1 bc af a5 3d bd a6 18 78 bd
       -0.08282374 -0.023559703 -0.046300586 -0.06057038
000050 10 b8 6b bd 28 21 17 3e 86 1f 67 3d d1 3d 87 3b
       -0.057548583 0.14758742 0.056426547 0.004127242
000060 05 4c 03 bd ce f9 7b 3d 06 87 bb bd 63 53 6b be
       -0.03205492 0.06151753 -0.09156613 -0.22981028
000070 ef 69 a9 3c 44 ef a9 3d da 34 ba 3c c2 3b 78 bd
       0.020680396 0.082975894 0.02273028 -0.060603864
000080 cc 7c ae 3d e4 01 17 bd 89 08 ff 3c d4 e1 8c bd
       0.08519897 -0.036867037 0.031132 -0.06879011
000090 d5 72 a0 bd 49 07 c4 3d e2 53 a1 3c a0 93 6b 3d
       -0.078344025 0.09571702 0.019693319 0.057513833
0000a0 1e 92 9f bd 13 9c 7e bd 6c de 70 3d f9 10 52 3d
       -0.077915415 -0.062160563 0.058805868 0.051285718
0000b0 58 98 9f 3d 17 27 33 3d 26 cb b3 bb cb e7 33 3d
       0.07792729 0.04373845 -0.0054868637 0.043922227
0000c0 59 88 4d bc 45 39 59 3c 38 51 6d bd 6b 84 a1 bd
       -0.012544715 0.013258283 -0.057938784 -0.07886585
0000d0 3c c2 fb bd 76 60 16 be 70 ce 8a bd 9a 07 11 be
       -0.12292907 -0.14685234 -0.06777656 -0.14163056
0000e0 09 82 8d 3d a0 f8 24 3f a6 a8 9b bd af b1 2f be
       0.06909568 0.6444187 -0.076005265 -0.17157625
0000f0 8d e8 d7 bd 2f 86 c7 bc b7 47 d3 bc 08 de 13 3d
       -0.105424024 -0.024355976 -0.025791032 0.036100417
000100 85 a7 08 3b 3c 8a 71 3d 8b 63 b6 bd 56 51 1d bd
       0.0020851803 0.05896972 -0.08905705 -0.038407646
000110 f8 8a 41 3c 8d 42 ee 3d 74 66 b1 bd 37 77 b6 3d
       0.011812918 0.11633787 -0.086621195 0.08909457
000120 cc eb 35 3d 82 5c cf bd e9 19 46 bb 69 8a a7 3c
       0.044414327 -0.10125066 -0.0030227846 0.020451741
000130 64 5d 87 bd 00 b0 32 3d cd 0f 9d 3d d7 5b 79 bb
       -0.0660961 0.043624878 0.076690294 -0.0038049126
000140 29 c4 37 ba 01 e7 50 3d 08 88 99 bd d3 e1 d8 3d
       -0.0007010126 0.051001552 -0.07496649 0.105899476
000150 75 35 f9 3c aa 69 b3 3d 0d 9e 47 3d 48 0c 9c 3d
       0.030420998 0.08760388 0.048734713 0.0761953
000160 50 f4 f0 bd f7 b6 f7 3c fd b1 49 bd da 2d 49 3d
       -0.11765349 0.030238612 -0.04924201 0.049115993

convs.0.bn1.weight f4 [92]
000000 e8 f7 57 40 6d c6 bb 3f c7 c6 a4 40 92 9f b1 3f
       3.374506 1.466993 5.149265 1.3876822
000010 d9 20 d0 3f d0 0c 99 3f f5 c8 02 40 f6 83 ec 3f
       1.6260024 1.1957035 2.0435154 1.8477771
000020 14 4d 9c 3f 77 7c 2d 40 79 0b 5a 3f 73 3f d6 3f
       1.2211022 2.7107217 0.85173756 1.6738113
000030 97 cd b1 40 e6 1a aa 40 28 d5 d0 3f 02 f0 45 40
       5.5563464 5.3157835 1.631505 3.092774
000040 58 26 8e 3f 28 b6 a1 3f 6f 02 1e 40 bb 74 00 40
       1.1105452 1.2633715 2.4688985 2.0071247
000050 64 01 ab 40 f7 e9 5e 40 16 7c 34 3f 15 86 46 40
       5.3439198 3.48303 0.7050184 3.1019337
000060 2a 63 e0 3f b7 e3 35 40 a5 39 cb 3f 66 91 c5 3f
       1.7530262 2.8420236 1.5876967 1.5434997
000070 e7 9a 60 40 fe 52 26 3d 75 37 57 40 a9 41 da 3f
       3.5094545 0.04060649 3.3627598 1.7051288
000080 aa 5f f5 3e f2 83 ed 3f ea f8 b7 3f 77 b3 54 3d
       0.47924548 1.8555892 1.4372838 0.051928964
000090 7e fd 0f 40 58 ad ed 3f 3a b4 13 3f f7 4c fa 3f
       2.249847 1.8568525 0.5769688 1.9554738
0000a0 4f ba 33 40 17 90 ac 3f 8b 9e 74 3f ae 2f 58 40
       2.8082464 1.3481473 0.9555442 3.3779101
0000b0 d2 fc 3d 40 ba d7 23 40 84 68 88 3f 1a 85 87 3f
       2.968556 2.560042 1.0656896 1.0587494
0000c0 97 cb 8b 3f 8a 41 2b 40 fe d0 b2 bd 41 89 b4 3f
       1.0921506 2.6758752 -0.08731268 1.4104387
0000d0 5c 3d 03 40 be 92 bc 3f 7e 82 84 3d 99 3d 89 3f
       2.05062 1.4732282 0.06470202 1.0721923
0000e0 55 c2 de 3e e5 2d 3e 3f 44 8d ff 3e 8d 28 ad 3f
       0.4350764 0.7428878 0.49912465 1.3528
0000f0 9c 97 2c 3f d2 67 cf 3f 4e ad 1b 40 9e e3 b9 3f
       0.6741884 1.6203558 2.4324527 1.4522588
000100 9c c9 4d 40 8e 03 b0 3f e8 a3 3e 3f 19 42 6e 40
       3.2154303 1.3751085 0.7446885 3.7227843
000110 41 3c e1 3f 65 49 d9 3e 0e ba 04 40 44 ca 6c 3e
       1.7596513 0.42438808 2.0738559 0.23124033
000120 22 4e 58 bc a7 92 c2 3e da cc 29 40 3d 16 76 3f
       -0.013202222 0.38002512 2.6531281 0.9612768
000130 1d d0 40 3f 56 34 23 3f 89 f3 76 3f 5f 78 18 40
       0.75317556 0.63751733 0.96465355 2.3823469
000140 dd 2f 93 3f e1 27 41 3f 4e 27 92 3f 27 2e 05 40
       1.1498982 0.75451475 1.1418245 2.080942
000150 22 ee 97 3f 55 b8 fd 3f 81 b7 14 40 60 c6 2f 3f
       1.1869547 1.9821879 2.3237002 0.6866207
000160 66 be 14 3f ea 4a 56 3e 6a 66 00 40 1c e1 98 3f
       0.58103025 0.20927015 2.0062509 1.1943698

convs.0.bn1.bias f4 [92]
000000 3b 49 82 bf f1 a1 bb 3d 7d 68 0e bf b9 84 3a bf
       -1.0178598 0.09161747 -0.55628186 -0.7285877
000010 83 2b 41 3e aa f6 24 be 98 29 ba bf 8f b7 b0 be
       0.18864255 -0.1610972 -1.4543943 -0.34515044
000020 51 83 dc 3e 98 13 72 be 1e b7 59 3e 4d cc 9a be
       0.43068936 -0.23640287 0.2126126 -0.30233994
000030 25 0b 57 be 9e 73 e4 be e8 4d 42 be e0 88 c8 bf
       -0.21000345 -0.4461946 -0.18975031 -1.5666771
000040 b6 a7 ed bf a1 13 73 bf 49 23 62 bf cb 60 ec bf
       -1.8566806 -0.94951826 -0.8833509 -1.8467039
000050 bc b4 8d 3e 7a fd a2 bf 2e 81 7b bf 05 57 2f 3e
       0.27676952 -1.2733605 -0.9824399 0.17123039
000060 8a ca 59 bf ad 16 4d 3f 03 c3 a9 3e 0d a9 d1 3e
       -0.85074675 0.80112725 0.33156595 0.40949288
000070 37 2f 7f bf 0a 80 b8 3f f9 aa b9 be 79 d5 16 bf
       -0.9968142 1.4414074 -0.36263254 -0.58919483
000080 a1 68 d6 be b8 3a 10 bf 75 8c fd be 07 29 ff 3f
       -0.418767 -0.563396 -0.49521223 1.9934396
000090 5a 07 74 be da f5 eb be 89 bd 8a be b7 39 85 bf
       -0.2383093 -0.46086007 -0.2709773 -1.0408238
0000a0 9b 00 3e bf 5d ea b7 be 09 79 73 3d b2 a6 12 3f
       -0.74219674 -0.35920992 0.0594416 0.57285607
0000b0 cb 23 cb bf b0 67 5b be 88 23 af be 70 82 fd be
       -1.5870298 -0.21426272 -0.34206796 -0.49513578
0000c0 9e 8a 4d bf 97 9f 8e bf e0 fc 2a 40 90 b6 2a be
       -0.8028964 -1.1142453 2.6716843 -0.16671205
0000d0 14 da d9 bf b3 c3 6f bf 8b 62 a8 3f 66 6d 7f bf
       -1.7019677 -0.9365799 1.3155073 -0.99776304
0000e0 53 a2 e4 3d 7c 1a 2c 3d 70 ee d6 3d 5e 0d 97 bf
       0.111637734 0.042017445 0.10494697 -1.1800954
0000f0 2f d3 bd bd 7d 8f b2 bf 4d c6 07 c0 fa 99 9a bf
       -0.09268796 -1.3950039 -2.1214783 -1.207824
000100 a2 58 74 bf 87 30 21 c0 f9 99 99 be df 7a 3d c0
       -0.9544774 -2.5185869 -0.30000284 -2.9606245
000110 7f 57 a9 bf 43 f6 74 3e ef 52 3a bf ca 9a 4a 3f
       -1.3229827 0.23922066 -0.72782797 0.7914244
000120 2e ab 95 3f 4c a3 35 3d c0 d3 a8 bf eb e6 70 be
       1.1692865 0.044345185 -1.3189621 -0.23525588
000130 bc 40 00 bf 7c fd 73 be 40 20 ad be 88 f2 6c bf
       -0.50098777 -0.23827165 -0.33813667 -0.92557573
000140 b1 05 1a bf ed 86 ba 3e 9e 30 50 3d 5a 64 37 bf
       -0.60164934 0.36431065 0.050827615 -0.716375
000150 88 72 1a bf 72 37 95 bf 69 8b b3 be a7 6c 9e be
       -0.6033101 -1.1657546 -0.350673 -0.3094227
000160 d4 8e ae be 73 20 0b 40 89 bf a3 bf 49 ba 3e be
       -0.34093344 2.1738555 -1.2792827 -0.1862575

convs.0.bn1.running_mean f4 [92]
000000 75 7f 4c 40 fc 47 86 c0 ee 13 b2 c0 a0 1e 2b c1
       3.1952794 -4.196287 -5.564933 -10.694977
000010 ed c9 85 c0 bb 9d 4c bf 85 e6 e1 40 4b e4 c2 40
       -4.180899 -0.7992818 7.0593896 6.090368
000020 bb bd 3b 40 47 57 bb c0 59 4a bb 3e 24 40 ef bf
       2.9334552 -5.854404 0.3658016 -1.8691449
000030 d4 67 dc 40 c6 fc 12 3f 5c f8 67 c1 8b b5 04 41
       6.8876743 0.5741695 -14.498135 8.294322
000040 bd 5e 48 c1 e4 45 53 41 d5 55 a2 c1 fa 4e 01 c1
       -12.523129 13.204563 -20.29191 -8.081781
000050 72 b0 00 40 79 d3 ff c0 fe 99 76 40 71 7f 6a c0
       2.0107694 -7.9945645 3.853149 -3.6640284
000060 99 d1 62 3f 01 da 6a c0 94 8e dd 3e 18 2a d4 40
       0.8860107 -3.669556 0.4327284 6.6301384
000070 e0 45 f0 bf 02 e7 77 3f 04 1f 0b 41 d2 8a 74 bf
       -1.8771324 0.96836865 8.695072 -0.95524323
000080 7a 36 8e c0 5c ca 5b 3e 80 10 8a c0 dc f3 8a 40
       -4.44415 0.21463913 -4.314514 4.342268
000090 2e fe 15 40 d2 d5 26 c0 54 71 2e 41 ea e3 63 c0
       2.343639 -2.6068006 10.902668 -3.5607858
0000a0 96 0a bb c0 12 e6 9b bf eb bd 81 be 45 08 bb 3f
       -5.845042 -1.2179587 -0.25340208 1.4611899
0000b0 e7 7a 81 3f 13 72 38 c1 a2 97 ff 3f 54 13 ab c0
       1.0115632 -11.52785 1.996815 -5.3461094
0000c0 5d 2e 23 40 f1 a7 fb c0 f8 df 87 bd e4 3e 11 c1
       2.5497048 -7.8642507 -0.066345155 -9.077854
0000d0 f5 e4 52 c1 f1 59 90 bf 7c b5 78 bf fe 6e d5 3f
       -13.180898 -1.1277448 -0.97151923 1.6674497
0000e0 7a 2c 65 3f 53 6d 2e c1 2e 74 d6 bf 53 90 17 c1
       0.8952099 -10.9016905 -1.6754205 -9.472735
0000f0 35 a3 b0 c0 45 51 07 41 b0 d8 39 c1 c3 bb 4b 41
       -5.5199227 8.457341 -11.615402 12.73334
000100 76 db 0d bf df d5 cc 40 99 ea 47 40 d2 58 0d c0
       -0.55412996 6.4011073 3.1236937 -2.2085462
000110 df fa fd 3e 21 a1 23 c1 c8 91 b1 bf fe 86 30 c0
       0.49605462 -10.226838 -1.3872614 -2.7582393
000120 a3 69 ec 3f 68 ff 30 c0 3d f3 26 c1 98 16 e1 40
       1.8469738 -2.7655888 -10.434384 7.034008
000130 5b 24 0e 41 1c a6 b3 40 91 80 8b c0 cb 5a 33 c1
       8.883876 5.614027 -4.359444 -11.209666
000140 bd 50 1f c0 e0 4f 25 41 77 7a 9a 40 e2 9f df bf
       -2.4893029 10.332001 4.8274493 -1.7470667
000150 52 30 fa 40 6f 46 77 c0 05 ba 54 c0 c4 54 6d c0
       7.8183985 -3.863674 -3.3238537 -3.7082987
000160 a1 e5 c4 3f 41 3d 17 40 8b 4e 97 be bf 4d 47 40
       1.5382577 2.3631136 -0.2955211 3.1141202

convs.0.bn1.running_var f4 [92]
000000 2a ea f3 42 e5 32 4f 42 a0 92 6f 42 ff f6 26 42
       121.95735 51.7997 59.89319 41.741207
000010 3f 4f 7f 42 84 9b f1 42 92 89 d9 42 df f8 88 42
       63.82739 120.80374 108.76869 68.48608
000020 6c f4 9a 42 7e 88 71 42 a2 cb 9d 41 63 10 30 42
       77.47739 60.383293 19.72443 44.016003
000030 5b 39 4d 42 f7 87 15 42 ab 41 b9 42 20 07 1f 43
       51.30601 37.38278 92.62826 159.02783
000040 26 48 7d 42 8b 04 14 43 37 dc 9d 42 81 ae dd 42
       63.320457 148.01775 78.93011 110.84083
000050 5d 9f e7 41 9c 86 e2 42 a8 8b a2 42 66 ff 49 42
       28.952814 113.26291 81.272766 50.499413
000060 90 44 0c 43 c4 88 9c 42 03 b0 51 42 4b 8e 05 42
       140.26782 78.26712 52.421886 33.388958
000070 33 3d 4c 42 9a bb 6f 41 78 46 de 42 22 d0 84 42
       51.059765 14.983301 111.137634 66.40651
000080 53 ac 34 42 78 d6 96 42 4d ab f1 42 93 08 0d 42
       45.168285 75.418884 120.83457 35.258373
000090 96 20 9f 42 64 41 a6 42 fa d3 be 42 b9 15 6d 42
       79.563644 83.127716 95.41402 59.271214
0000a0 4a 8b dd 42 b1 93 5f 42 a7 74 da 41 56 cf e0 42
       110.77205 55.89423 27.30696 112.40495
0000b0 0c 31 de 42 48 51 ac 42 2d fe 9d 42 d0 e4 ad 42
       111.095795 86.15875 78.99644 86.9469
0000c0 dc 58 9d 42 be fa 52 42 b7 a1 7c 42 79 20 da 42
       78.67355 52.744865 63.157925 109.06342
0000d0 5c 7b 39 42 19 b5 91 42 58 2b 5f 42 23 28 3e 42
       46.37047 72.85371 55.792328 47.539196
0000e0 c3 73 8b 41 c9 5c 18 42 88 5a 68 42 02 f2 b9 42
       17.431524 38.09061 58.08841 92.97267
0000f0 27 0f f6 42 f9 dc 18 43 af 5e 89 42 47 96 1e 43
       123.029594 152.86317 68.68493 158.58702
000100 01 fb 81 42 ae cf cb 42 34 ff 6a 42 98 39 22 42
       64.99024 101.905624 58.74922 40.556244
000110 8e 7f 59 42 a2 95 11 43 57 52 a5 42 82 f9 8f 42
       54.374565 145.5845 82.66082 71.98732
000120 5a 46 04 42 02 56 2d 42 33 63 c1 42 47 6c 34 42
       33.068703 43.333992 96.69375 45.10574
000130 44 fe 87 42 4e ce ad 42 97 f5 32 42 7b db 2a 42
       67.99661 86.90294 44.739834 42.714336
000140 c9 ed 9a 42 09 e3 80 42 3e a8 fe 42 69 5b 9b 42
       77.464424 64.44343 127.3286 77.678535
000150 cf d4 9e 42 e0 82 8e 42 b1 43 bd 42 5c af 55 42
       79.41564 71.255615 94.63221 53.42125
000160 23 6f 13 42 80 3d d7 42 7a ee c8 42 93 b0 01 43
       36.858532 107.62012 100.465775 129.68974

convs.0.bn2.weight f4 [46]
000000 51 c5 57 3f 2b e5 40 3f 86 da 4f 3f 2a 12 84 3f
       0.84285456 0.7534968 0.81192815 1.0318043
000010 99 6c 43 3f ef 8f 65 3f 27 97 50 3f 83 0e 69 3f
       0.7633758 0.8967275 0.8148064 0.9103777
000020 b0 8e 11 3f 95 8e 35 3f 46 a0 a5 bc e2 d1 3d 3f
       0.5685835 0.7092069 -0.020218026 0.7414838
000030 28 96 93 3f 93 f6 99 3f c0 b0 8b 3f 41 d4 a8 bf
       1.1530199 1.2028373 1.0913315 -1.3189775
000040 5a 36 45 3f d6 b8 77 be a5 33 79 3f 6e ca 6e 3f
       0.7703606 -0.24191603 0.9734443 0.93277633
000050 99 b6 89 3f eb 66 4a 3f 89 3c 40 3f 18 67 a2 3f
       1.0758849 0.7906329 0.7509237 1.2687712
000060 f3 9f 09 3f 77 c6 9c 3e 49 13 52 3d e2 fb 9b 3f
       0.5375969 0.30620167 0.051287923 1.2186244
000070 79 71 6c 3f bd bf 7c 3e c0 8e 2a 3f 65 67 7a 3f
       0.92360646 0.24682517 0.6662407 0.9781402
000080 c4 0d 87 3e 52 31 8b 3f ef 62 82 3f 6e 1a b8 3e
       0.2637769 1.0874426 1.0186442 0.35957664
000090 92 0f f5 3e e2 13 a2 3f aa be 3a 3f 24 00 05 3f
       0.47863442 1.2662318 0.7294718 0.5195334
0000a0 8b f9 e8 3e c3 18 4c 3f 8f 12 4f 3f e0 90 d7 3f
       0.45502886 0.79725283 0.80887693 1.6841087
0000b0 18 d1 74 3f ac f4 d9 3e
       0.9563155 0.42569482

convs.0.bn2.bias f4 [46]
000000 c1 7f 3d bf a2 f8 40 be c4 c2 c9 be 5c 42 d6 be
       -0.7402306 -0.18844846 -0.39406407 -0.41847503
000010 f4 79 80 bf 46 f0 e8 be 99 57 12 bc 19 26 41 bf
       -1.0037217 -0.45495814 -0.008932018 -0.7544876
000020 97 5a 01 bf ab 43 66 be 0d be bf be 89 d2 c7 be
       -0.50528854 -0.22486751 -0.37449685 -0.39027813
000030 9a ba ef be cc 41 9a be b1 5c e5 be 2a 4a a2 be
       -0.46822053 -0.30128324 -0.4479728 -0.31697208
000040 30 02 fb be 1a 4e 40 be cd 8d a2 be ee 12 2b bf
       -0.49025106 -0.18779793 -0.3174881 -0.6682576
000050 96 19 39 bf 0a 09 0a 3c 6c 14 67 bf f7 08 cd be
       -0.72304666 0.008425007 -0.90265536 -0.40045902
000060 9c 10 17 bf 7d d6 b7 be d0 0e a9 be 40 60 cd be
       -0.5900972 -0.3590583 -0.33019114 -0.40112495
000070 64 df 0f bf ab c6 16 bf 35 01 01 bf 59 05 11 bf
       -0.5620024 -0.58896893 -0.50392467 -0.56648785
000080 0d cc e3 be 45 33 2f bf f3 90 a3 be 69 cf fe be
       -0.44491616 -0.68437606 -0.31946525 -0.49767616
000090 fb 50 1a bf 0b 38 14 bf 23 13 23 bf 1c 2b 16 bf
       -0.60279816 -0.57898015 -0.63701075 -0.5865953
0000a0 40 95 a0 be 1c 0b 92 be 1f 90 67 bf ea d6 7a be
       -0.3136387 -0.285241 -0.90454286 -0.24496046
0000b0 37 6c 58 bf 71 c9 26 bf
       -0.8454012 -0.65151125

convs.0.bn2.running_mean f4 [46]
000000 6a 78 77 40 53 0d 84 40 e2 2c 4a 40 18 5e c1 40
       3.8667245 4.1266265 3.1589894 6.042736
000010 3b 30 89 41 ea c9 d1 40 9e b3 ae 3f a3 7e 55 40
       17.14855 6.5558977 1.3648565 3.3358543
000020 d2 f8 2e 41 d9 03 2b 40 96 49 af 40 8f b0 98 40
       10.935747 2.6721098 5.4777327 4.7715526
000030 e5 2d 8f 40 e1 07 16 40 3c 87 95 40 ba 8f 3e 40
       4.4743524 2.344231 4.672758 2.9775224
000040 e2 96 0e 40 38 e9 30 40 57 64 97 40 60 7f 6a 3f
       2.2279592 2.7642345 4.7309985 0.9160061
000050 b6 da 8d 40 4e fa 0b 40 78 f5 13 40 c0 a8 b2 40
       4.432948 2.1871524 2.3118572 5.5830994
000060 2f 6d bc 40 9c 86 04 41 98 9e 17 41 07 04 ac 40
       5.888328 8.282864 9.476219 5.3754916
000070 b6 6f c7 40 84 93 d6 40 60 78 6b 40 aa 28 6c 40
       6.2323866 6.7055073 3.679222 3.689982
000080 18 81 66 40 68 d2 7f 40 0d fc 66 40 7a 48 22 41
       3.6016293 3.9972172 3.609134 10.142694
000090 bf 01 d1 40 f3 67 a6 40 34 b8 73 40 72 2c 82 40
       6.531463 5.200189 3.8081179 4.0679255
0000a0 4d ca dc 40 3c 60 6f 40 89 ff 7c 40 83 6a 7e 41
       6.899695 3.7402487 3.9530966 15.901004
0000b0 51 c0 58 40 f7 f3 8e 40
       3.386738 4.467281

convs.0.bn2.running_var f4 [46]
000000 93 25 41 41 6b 75 39 41 f0 50 22 41 ba 33 d8 42
       12.071673 11.5911665 10.14476 108.10103
000010 19 f5 65 42 38 ed 83 42 d3 0e 7c 40 0e 88 8c 41
       57.489353 65.96332 3.9384048 17.566433
000020 2d c0 14 41 dc 74 c9 40 48 1b 32 41 24 13 e8 41
       9.296918 6.295515 11.13166 29.009346
000030 11 41 1b 41 71 cd 72 40 20 ce 2f 41 2b a6 27 41
       9.703385 3.7937891 10.9878235 10.478068
000040 03 dd 41 41 c4 52 18 41 89 1d a3 42 e1 5e 3c 40
       12.116458 9.520206 81.557686 2.943291
000050 44 e4 d8 40 75 be 2f 41 94 1a 17 41 01 f1 20 41
       6.7778645 10.983998 9.443989 10.058839
000060 04 2a 87 42 c8 89 7f 41 53 d2 a9 41 09 50 80 40
       67.58206 15.971138 21.227697 4.00977
000070 db d2 bc 42 8d f3 40 41 c8 13 d2 40 d8 5c 01 41
       94.41183 12.059461 6.5649147 8.085167
000080 2e 87 a6 40 31 70 aa 41 cf da 1f 41 3d 10 40 41
       5.2040014 21.304781 9.99092 12.003964
000090 c7 88 0c 42 eb c4 cc 41 67 bc 4b 41 f0 cb e6 41
       35.13357 25.596151 12.733497 28.849579
0000a0 d5 09 7e 42 17 cd 0c 41 46 c0 b7 40 c1 62 4a 42
       63.5096 8.800071 5.742221 50.59644
0000b0 60 39 94 41 f3 94 a4 41
       18.528015 20.57273

convs.1.fc_full.weight f4 [92, 98]
000000 b2 a4 90 3f 7a bf 15 3e f6 6d d2 be e3 92 3e be
       1.1300261 0.14623824 -0.4109952 -0.1861072
000010 b4 87 5c 3f e5 01 b3 be 52 4c a6 be 19 7d 87 bf
       0.86144567 -0.34962383 -0.32480103 -1.0585052
000020 c7 e3 31 bf bc 89 2b be ae a9 ba 3d e3 88 62 be
       -0.69488186 -0.1675176 0.09114395 -0.2212253
000030 31 fd b3 3e 2e 42 96 3f d6 eb 2c bf 49 81 c3 3d
       0.35154107 1.1738946 -0.6754736 0.095461436
000040 b5 8f 28 bf 85 5e 21 be 31 a8 60 bf 39 cf a9 3f
       -0.6584428 -0.15758713 -0.8775664 1.3266364
000050 c4 15 b2 be 67 05 5a bf f0 05 8a 3f c2 c8 86 be
       -0.3478223 -0.85164493 1.0783062 -0.2632504
000060 a6 b7 c9 be 83 1b d9 bd 18 67 11 3e 71 89 71 3e
       -0.39397925 -0.106009506 0.14199483 0.23587586
000070 70 31 31 be a1 0b 09 3f 95 ea ad bf a9 8e 14 be
       -0.17304015 0.5353337 -1.3587214 -0.14507546
000080 74 b8 13 bf b0 86 5d bf 0c e3 63 be 2e a1 83 3f
       -0.5770333 -0.8653364 -0.2225458 1.0283563
000090 0d 7b ba 3e bb 66 15 bf 7e 41 b1 3e 11 1a 70 3e
       0.36422005 -0.5835988 0.3462028 0.23447444
0000a0 97 23 7a be cd 87 51 be d4 a7 4f 3e c6 08 43 3f
       -0.24427639 -0.2046196 0.20278865 0.7618526
0000b0 73 ca fe be 41 66 62 3e 1b 64 8b bf 2c 92 10 bf
       -0.49763831 0.2210932 -1.0889925 -0.5647304
0000c0 e6 24 34 3e 7c ef 8e be 36 d5 95 3e ed 83 3e be
       0.175922 -0.27917087 0.2926423 -0.18605013
0000d0 72 21 7f bf 1e e1 d4 bd d5 e1 ae bd 56 94 65 be
       -0.9966041 -0.103945 -0.08539168 -0.22419867
0000e0 39 56 d2 3c 02 bb cd be f2 be d9 3e a1 e8 71 3e
       0.02567588 -0.40181738 0.42528492 0.23623897
0000f0 5b 49 93 bf 3f a9 87 3e 19 82 cd 3e 0a b1 a6 be
       -1.1506761 0.26496312 0.4013832 -0.32556945
000100 37 17 97 3d 45 da 96 3e d5 35 1b bf 1d e8 f9 be
       0.07377475 0.294634 -0.60629016 -0.488099
000110 83 03 01 3f 53 e6 88 bf 1f c8 13 bf 57 8f 13 bf
       0.50395983 -1.0695289 -0.57727236 -0.57640594
000120 2f bc 55 bd 99 e6 7f bf 97 4d ee be 38 24 19 3f
       -0.05218142 -0.9996124 -0.4654357 0.5982089
000130 0f bd c1 be 6f 38 da be 4a e1 a1 be e6 cb ec be
       -0.37839553 -0.4262118 -0.31617194 -0.46249312
000140 27 b7 2b 3d 56 48 59 3f d1 fb 63 3d e6 b3 94 3f
       0.041922715 0.84876 0.055660073 1.1617401
000150 69 c0 81 bd 63 67 0f 3e ed 8a 1c 3f 67 3a 90 3e
       -0.063355274 0.14004283 0.61149484 0.28169557
000160 b0 a4 55 be 2e 0c 89 bf 14 55 9c bf d1 98 0e 3f
       -0.20863605 -1.0706842 -1.2213464 0.5570193
000170 80 72 15 3f ee 7f 3b 3f 7a 98 90 3f a4 dd 20 3f
       0.5837784 0.7324208 1.1296532 0.62838197
000180 c9 c2 5d bf e2 e8 c7 bf c7 1e 8c be 9b 25 32 3f
       -0.86625344 -1.5617945 -0.2736723 0.6958863
000190 5b b4 a9 3b 45 4b 31 3e b2 25 72 be 24 ca c6 bb
       0.0051789708 0.1731387 -0.23647192 -0.0060665775
0001a0 d8 4c aa 3e e3 62 0d bd 23 a4 12 3d 37 94 25 be
       0.33261752 -0.034518134 0.035801064 -0.1616982
0001b0 31 85 38 3e 61 7a 91 3e a9 72 e5 be 4a 29 0d bf
       0.18019558 0.2841368 -0.4481404 -0.5514113
0001c0 68 0f 43 be 62 f9 3e 3f 52 da 96 be ad 73 8f 3e
       -0.19048846 0.7459928 -0.2946344 0.2801794
0001d0 17 5c 9c be 1e 22 81 3b 56 39 b8 3e 86 a9 8e 3f
       -0.3053901 0.0039408347 0.35981244 1.1145484
0001e0 c1 c6 89 be 50 af 2c be 68 78 12 bf 1a de 87 bc
       -0.2690945 -0.16863751 -0.57214975 -0.016585398
0001f0 e9 92 2b 3f b0 94 4a be 60 62 52 3e 87 b4 15 3e
       0.6702104 -0.19783282 0.2054534 0.14619647
000200 49 4c 2d 3f a2 34 f4 bd a0 a9 d5 3e 36 0f c5 3e
       0.67694527 -0.119241014 0.41730976 0.38488168
000210 8d 28 fc 3e a8 89 0e b9 9f 86 13 be 88 e0 3a 3c
       0.49249688 -0.00013593456 -0.14406823 0.0114060715
000220 01 6d a4 3e 18 20 37 bf 4f 8f 02 bf bd c9 7e 3e
       0.32114413 -0.71533346 -0.5099992 0.24881645
000230 bf d6 8d 3d d4 98 ac 3c d0 df 00 3e 9a 29 59 bf
       0.06925725 0.021068968 0.12585378 -0.84829104
000240 2c b9 99 3f 6b fe 2e 3e aa dc 40 3e 18 5a df be
       1.2009635 0.1708924 0.18834177 -0.43623424
000250 ba ce fe bd af 87 2c 3d b8 47 16 3e 15 55 1e 3e
       -0.12441774 0.042121585 0.14675796 0.15462144
000260 43 98 46 be 00 9c 03 3e 55 dd 1c bf fc dc 34 3e
       -0.1939402 0.12852478 -0.61275226 0.17662424
000270 20 df e9 be 57 29 a1 3e 26 87 6c bd f2 60 56 3f
       -0.45678043 0.31476852 -0.057746075 0.83741677
000280 d6 91 0c bf d1 8b 2b 3e 4c f9 b1 be 23 34 08 bd
       -0.5491003 0.16752554 -0.3476051 -0.033252846
000290 c0 58 13 3f f7 d1 7d 3e b5 aa 6c be a7 15 95 be
       0.57557297 0.24787126 -0.23111995 -0.29118082
0002a0 dd 26 2c be 88 49 36 be 3b 88 a8 bc a7 ae 9a 3e
       -0.168117 -0.17801487 -0.020572772 0.30211374
0002b0 3c 61 c4 3e f0 8d 99 3d 20 b6 d3 3e 04 35 ef 3d
       0.38355434 0.074977756 0.41349888 0.11680034
0002c0 d9 43 cf 3e e5 a9 d1 be 43 a5 6c be 6b ac 92 3e
       0.4048145 -0.40949932 -0.23109917 0.2864717
0002d0 60 cf 5b be 67 57 6b 3f d9 3e 22 3f bb f1 f1 be
       -0.21465826 0.9193024 0.6337715 -0.47254738
0002e0 fa c3 a3 be ad c3 d9 bd e6 1b 83 3e e6 cc c4 3d
       -0.31985456 -0.10633025 0.25607222 0.09609394
0002f0 93 98 36 3f 6a 86 77 be 45 0c f1 3e c1 e5 df be
       0.7132656 -0.24172369 0.47079673 -0.43729976
000300 57 3f 18 be 7a 6d 0f 3f 39 92 3b 3e 21 33 2a bf
       -0.14867912 0.5602642 0.18317498 -0.66484267
000310 a8 37 0b 3f 78 8e 2a 3f c4 55 21 3f 5e 04 08 3f
       0.543818 0.6662364 0.6302149 0.53131664
000320 76 69 7d be 90 33 eb 3e 57 13 9d 3f 51 17 0b bf
       -0.24747261 0.45937777 1.2271527 -0.54332453
000330 a0 0e 06 3d fb bf 89 be 8a 3d 75 bd c2 12 73 be
       0.03272879 -0.26904282 -0.05987314 -0.23737624
000340 b4 5a 67 be c8 5a 48 bf 4a 05 b4 3e 40 8b a5 3f
       -0.22593194 -0.7826352 0.35160285 1.2933121
000350 e0 15 0b 3f 1d ff 41 bf 69 38 1f 3e 7e e7 ca 3c
       0.54330254 -0.75779897 0.15548863 0.024768587
000360 1f ab 90 bd 82 06 1a bf 72 9a 04 bf 96 f6 43 bc
       -0.07063889 -0.6016618 -0.51798165 -0.011960646
000370 c2 58 56 3f 37 ea 20 3f 5b e7 65 be 38 1b c7 bd
       0.83729184 0.62857383 -0.22451536 -0.097219884
000380 0b 68 b0 3e f2 32 4a 3e 52 ab e1 3e bf e8 7c 3e
       0.34454378 0.19745997 0.4407602 0.2469816
000390 28 70 0c 3f 48 c4 75 be 86 ff 41 bb e4 2a 9a bf
       0.54858637 -0.24000657 -0.0029601767 -1.2044339
0003a0 e6 4c 08 bc 91 60 13 3e 56 5d 1c bf 55 39 9e bd
       -0.008319115 0.14392306 -0.6107992 -0.07725779
0003b0 90 fe fd be e6 79 80 3e 55 93 df 3e 7c cb a4 3d
       -0.49608278 0.25093 0.43667093 0.08046624
0003c0 40 4f 8f 3e cd e2 87 be 9b 20 00 be 14 a0 2c be
       0.2799015 -0.26540223 -0.12512438 -0.1685794
0003d0 74 82 bd bb 18 98 dd 3e 57 9a 59 be b0 57 cc bd
       -0.0057833735 0.432801 -0.21250282 -0.099776626
0003e0 c1 1d 99 3f 49 86 5d bf 28 97 49 3d 92 62 05 bc
       1.1962205 -0.8653303 0.04921642 -0.008141177
0003f0 a7 dd 42 3e 88 c6 cd 3d 7e 4d a8 bc 88 e6 19 bf
       0.19029866 0.100476325 -0.020544764 -0.6011739

convs.1.fc_full.bias f4 [92]
000000 f1 fc b9 bd 36 92 1a 3d 8d 95 ec bb 5d 95 a0 bd
       -0.09081448 0.037737094 -0.0072199763 -0.07840989
000010 53 83 0a bd e1 07 c0 3d d0 b4 f4 bc e5 0e e6 bd
       -0.033816647 0.09376503 -0.029871374 -0.1123331
000020 0b 34 b5 bd 01 60 ac bd c6 77 0e 3c 70 bc 47 bd
       -0.08847817 -0.08416749 0.008695548 -0.048763692
000030 5d 34 09 bd 66 09 e5 3d 0e 55 53 3d 54 00 99 bc
       -0.033497203 0.11183433 0.051594786 -0.018676914
000040 57 0f 9a 3d 04 4b 0b bd a5 cb f6 bb ea 35 e2 3c
       0.07522457 -0.034007087 -0.0075316005 0.027613599
000050 3a 35 ed 3b f8 25 4f be 69 e6 93 3d 30 44 82 3c
       0.007239011 -0.20229328 0.072216816 0.015901655
000060 c5 f9 af 3d 50 48 6b 3d 17 2b 62 bd 06 64 81 bd
       0.08592562 0.05744201 -0.055216875 -0.06317906
000070 e0 1b 23 3d 5e 40 a2 3d 53 a6 73 bd f8 9a dd 3d
       0.039821506 0.07922433 -0.05948479 0.108205736
000080 00 e8 88 3d c1 33 38 3e 1b 44 62 3d 56 1a 12 3b
       0.066848755 0.17988493 0.05524073 0.002229353
000090 ff 99 db 3d 34 f7 8b bc d9 eb d2 bd ed 4e c5 bd
       0.10722732 -0.01708565 -0.102988906 -0.096341945
0000a0 ab f9 a5 ba 5c 8c 96 3d da d5 0a be 6a 37 52 bd
       -0.0012662908 0.0735099 -0.1355814 -0.05132238
0000b0 15 16 8b bd ac c7 a5 bc 18 58 bc bd 3e 60 24 3c
       -0.06791321 -0.020236813 -0.0919649 0.010032712
0000c0 01 ee fa 3c f0 76 54 bd 5a 1f 42 bd 62 82 60 3b
       0.030631067 -0.05187124 -0.04739318 0.0034257402
0000d0 c7 19 37 3d 16 3b 94 3d 5b f5 b2 3b 3e fb 70 bd
       0.044702318 0.07237832 0.0054613776 -0.058833353
0000e0 0a 7c 3a bd ac 40 a4 3d f2 39 d4 3d b0 54 73 3d
       -0.04552845 0.08020148 0.10362615 0.059406936
0000f0 d2 ea 2d 3b 00 b6 46 bd fe c6 d1 bc 69 cf 99 bd
       0.002653767 -0.048513412 -0.025607582 -0.075102635
000100 9a e7 08 bd 8b 22 73 3d e8 f3 84 3d 33 6c f6 3c
       -0.033423997 0.059359115 0.06491834 0.03008089
000110 8c 15 0a bc 25 9d ce bb b7 bf 45 3d 54 13 57 3c
       -0.008427989 -0.006305354 0.048278537 0.013127167
000120 36 a5 5e 39 e6 d6 04 3c d0 6a ca 3d f5 19 7a bd
       0.00021233116 0.008107876 0.09883654 -0.06105991
000130 7d 8d 3b 3c 36 f4 49 3b 94 a7 62 3e 9a 98 61 bd
       0.011447308 0.0030815727 0.22134238 -0.055077173
000140 ab 3a 6f bd 10 ef 4b 3c cf 01 89 bd f5 7d e5 3c
       -0.05840556 0.012447134 -0.06689798 0.028014163
000150 3e 8e b6 3d e8 28 d1 3c c8 11 e2 3d 74 2e a2 3d
       0.08913849 0.025532201 0.11038548 0.079190165
000160 c7 00 27 3e c3 63 cf bb 78 5c 8e 3d c1 a4 65 3d
       0.1630889 -0.006329031 0.06951231 0.056065325

convs.1.bn1.weight f4 [92]
000000 8b 23 62 40 ed f5 b3 3f 5a c5 df 3f 5f 5b 67 40
       3.5334194 1.4059426 1.7482102 3.6149518
000010 63 59 07 40 d4 54 5f 3f 96 ac 07 40 ba ca 4e 40
       2.1148307 0.8723881 2.1199088 3.2311234
000020 e2 c0 01 40 4d 44 34 40 5c a2 01 40 57 c1 04 3f
       2.0273976 2.8166687 2.0255346 0.51857513
000030 54 cd f2 bf 2a e6 8a 3f c6 d1 fb 3f 44 3d cc 3f
       -1.8968911 1.085149 1.9673393 1.5956197
000040 0d 39 d2 3f 47 07 5f 40 50 87 d0 3f a4 72 7a 40
       1.642366 3.4848192 1.6291294 3.913247
000050 fd 75 31 40 59 1b 2f 40 61 b6 d8 3f 19 95 04 40
       2.7728264 2.7360442 1.6930658 2.0716002
000060 1a 7b 5a 40 11 99 7c 40 9f 8f 1b 40 ff 91 59 3f
       3.4137635 3.9468424 2.430641 0.849884
000070 c9 3f 1f 40 80 f8 f9 3f af 13 d2 3f 37 81 fc 3f
       2.4882681 1.9528961 1.6412257 1.9726933
000080 81 ea eb 3f 08 12 90 3f f5 d3 dd 3f 53 7c e5 3e
       1.843094 1.1255503 1.7330309 0.44821414
000090 c4 92 e9 3f 94 43 dc 3f 7a 71 2d 40 d2 1c 20 3e
       1.8247914 1.7208123 2.710051 0.15635994
0000a0 bd aa 33 40 c2 af 4a 40 95 79 cc 3f fe 1c 6c 3f
       2.807296 3.1669774 1.5974604 0.9223174
0000b0 97 cb 00 40 56 d4 bd 3f 3a 49 d9 3e fe 79 8d be
       2.0124261 1.4830425 0.4243868 -0.27632135
0000c0 92 9a 5f 3f e0 00 ec 3f 9e 41 e0 3f ad 1c ac 3f
       0.8734523 1.8437767 1.7520025 1.3446251
0000d0 b8 59 d9 3f 16 40 22 40 89 83 ca 3f a6 cc c8 3f
       1.6980505 2.5351615 1.5821391 1.5687454
0000e0 f4 bd 91 3f 89 bf 7e 3f 64 08 13 40 48 e0 fd 3f
       1.1386094 0.9951101 2.2973871 1.983407
0000f0 f9 f1 92 3f bf d6 ee 3f 05 d0 fc 3f 8f 69 1f 3c
       1.1480094 1.8659285 1.9750983 0.009729757
000100 dc 45 2e 3e 86 1b ba 3f 33 64 dc 3f 62 71 1f 40
       0.17018837 1.453965 1.7218078 2.4912953
000110 4d 53 30 40 06 c0 0f 3f c8 fb 06 40 2e af c7 3f
       2.7550843 0.5615238 2.1091175 1.5600336
000120 2f 00 8a 3e f6 b3 91 3f 83 7e 44 40 57 ef e2 3f
       0.26953265 1.1383045 3.0702217 1.7729291
000130 77 b5 ec 3f 82 94 0e 40 cf a0 f2 3f 5a 26 ef 3f
       1.8492879 2.2278142 1.8955325 1.8683579
000140 fc 93 f0 3f a1 c4 9a 3f 97 c7 f5 3f 9b af 18 bf
       1.8795161 1.2091256 1.9201535 -0.5964295
000150 e6 3a 36 40 1e 01 3b 3e 20 ce e8 3f 38 0e 1d 40
       2.8473449 0.18262145 1.8187904 2.4539928
000160 bd a8 02 40 9b 10 d1 3f b7 f6 e0 3f e4 7b 08 40
       2.041549 1.6333193 1.7575291 2.1325617

convs.1.bn1.bias f4 [92]
000000 35 fb 6c bf b2 71 2d 3e fb 33 e0 be 69 44 91 3e
       -0.9257081 0.16937903 -0.43789658 0.28372505
000010 eb 4a 99 bf 3a 56 cf bf c4 c4 91 bf 5c 43 32 bf
       -1.1975988 -1.6198189 -1.1388173 -0.6963403
000020 51 f0 bc bf 95 10 ab bb 7d fb 72 3d bc d7 c9 be
       -1.4760839 -0.0052204826 0.05932187 -0.39422405
000030 f2 fd d7 bf 68 c0 a3 be 9f 62 11 be 69 98 1c bf
       -1.6874373 -0.31982732 -0.14197777 -0.6117006
000040 aa 08 e1 bf 2c 2f 17 bf e6 fa 1e 3f 1c 09 4f bf
       -1.7580769 -0.59056354 0.6210159 -0.80873275
000050 cb 5d 2b bf 85 09 51 bf 7e d6 07 c0 84 ac 2d bf
       -0.6693999 -0.8165515 -2.1224666 -0.6784136
000060 b4 ff b0 be 8c ae b5 be 3e 71 11 bf 9c 19 27 c0
       -0.34570086 -0.3548473 -0.5681342 -2.610938
000070 29 73 a7 bf 0d 12 b6 bf 45 f9 26 bf 91 d7 03 c0
       -1.3082019 -1.4224259 -0.65224105 -2.0600321
000080 46 d2 71 bf 30 1c a8 be 98 a7 62 bf d0 c0 03 c0
       -0.94461477 -0.32834005 -0.8853698 -2.0586433
000090 73 55 91 bf 7e fc 2d bf a0 a6 cc bf cd 22 5e 3f
       -1.1354202 -0.679634 -1.598835 0.8677185
0000a0 c4 ef fb bf fc 53 8a bf 2b 57 a0 bf c2 26 87 bf
       -1.9682546 -1.080688 -1.2526602 -1.0558703
0000b0 2a 24 df bf ed ac 8a bf 80 e1 53 3f 6d 38 94 3e
       -1.7432911 -1.0834023 0.8276596 0.289493
0000c0 97 14 88 3d 5c d1 59 bf 2a 23 a8 bf b7 67 f8 bf
       0.06644552 -0.8508508 -1.3135731 -1.9406651
0000d0 8a f1 e5 bf 11 10 be bf c4 79 9e bf d3 2e d4 bc
       -1.7964337 -1.4848653 -1.238091 -0.025901234
0000e0 13 66 88 be 2b fb 47 bf 46 87 f0 bf a1 89 9a bf
       -0.26640376 -0.78117627 -1.8791282 -1.2073251
0000f0 b8 d3 eb 3e 10 92 34 bf e7 f2 e0 bf 19 10 03 3f
       0.46059966 -0.70535374 -1.7574128 0.5119644
000100 31 c9 b8 3e fb bd 6b bf 6a f6 78 bf b6 79 f1 bf
       0.36090997 -0.9208676 -0.97251 -1.8865268
000110 cc a7 09 c0 ce 46 2d bc bc e2 a0 bf c6 09 00 bf
       -2.1508665 -0.010575963 -1.2569194 -0.50014913
000120 aa f7 b3 3f 37 04 0d c0 ed 1f 14 c0 cc 04 d4 bf
       1.4059956 -2.2033823 -2.3144486 -1.6563964
000130 22 22 0f bf 17 1c 61 c0 14 8d 0c c0 fd ce 98 bf
       -0.5591146 -3.5173395 -2.1961107 -1.1938168
000140 ec af 77 bf 7e b0 04 c0 64 ae c0 bf 66 21 af bc
       -0.9675281 -2.0732722 -1.505322 -0.02137823
000150 dd 3f 50 bf 0e bb 81 3f e1 55 19 c0 5e ad be bf
       -0.8134745 1.013521 -2.3958666 -1.4896657
000160 f8 d7 ae bf d4 b4 af bf 98 50 09 c0 b9 33 6f bf
       -1.3659658 -1.3727059 -2.145544 -0.934383

convs.1.bn1.running_mean f4 [92]
000000 8e 97 8b c0 d3 42 03 40 88 84 97 3e 90 d1 ec c0
       -4.3622503 2.0509536 0.295933 -7.4005814
000010 92 b7 45 c0 7e 03 3d bf ad 69 9c 3f 5d fd d1 3f
       -3.0893292 -0.73833454 1.221975 1.6405445
000020 6e 84 40 3f dd 3e 9e c0 5c 4d 13 c0 1b 4b 9c bf
       0.7520207 -4.9451737 -2.3015966 -1.221042
000030 5e ce ea 40 12 3c d6 bf c7 c8 58 be 6a 50 0a bc
       7.3376913 -1.6737082 -0.2117034 -0.008442024
000040 d0 2c f8 c0 22 9d d5 bf 5b bf 8f bf 22 ec 11 40
       -7.7554703 -1.6688578 -1.1230272 2.2800374
000050 c2 63 4e bf 63 48 a2 c0 be 17 80 bf 69 6b e2 c0
       -0.8062097 -5.0713363 -1.0007246 -7.0756116
000060 62 4c c9 be 18 3c 9f 3f b2 6a 45 bf 76 ec 24 c0
       -0.39316088 1.2440214 -0.7711593 -2.5769324
000070 64 33 42 c0 bd 47 6c c0 e7 ed 2c 40 ee 8c 12 c0
       -3.0343866 -3.6918786 2.7020204 -2.2898517
000080 81 3d c2 be 84 f4 9b c0 f6 7f 9a c0 3e 40 4c c0
       -0.3793755 -4.873598 -4.82812 -3.191421
000090 21 1a b5 c0 63 f1 04 c1 a5 44 0d 40 9d e1 9f c0
       -5.6594396 -8.308932 2.2073147 -4.9962907
0000a0 d2 4c 89 be 37 eb e4 bd 3d 7a 4d c0 a0 52 19 c0
       -0.26816422 -0.11177676 -3.2105858 -2.395668
0000b0 b5 6f a7 c0 99 b0 52 bf 87 0e 36 bf e5 cc a0 3f
       -5.232386 -0.82300717 -0.71115917 1.2562529
0000c0 c1 72 1c c0 75 9e c1 c0 74 51 85 be b6 2d 0d c0
       -2.444504 -6.050593 -0.26038706 -2.205915
0000d0 79 64 16 3c f3 fa bc 3e dd 6a b4 c0 8d 3d 1e c0
       0.009179228 0.3691021 -5.638045 -2.4725068
0000e0 b3 98 02 c0 a6 58 cd bf ab 7c f1 c0 41 4e 59 c0
       -2.04057 -1.6042678 -7.5464683 -3.3954012
0000f0 cb ea 45 c0 07 a2 8f bf d7 77 95 c0 2f 15 03 3f
       -3.0924556 -1.1221322 -4.670879 0.512042
000100 aa c6 55 c0 01 2d 14 3f 7e ca 72 3f 4a 93 0f c0
       -3.3402505 0.5788117 0.9484023 -2.2433648
000110 7a 92 b4 3f e3 28 dc c0 41 6e 82 3f d4 3a 0c 40
       1.4107201 -6.879991 1.0189897 2.1910906
000120 30 0c c8 bf 5c 1c 14 bf 47 06 d8 bf b6 cb 0b c0
       -1.5628719 -0.5785577 -1.6876916 -2.1843085
000130 eb c1 ba bd 73 73 63 3f af d4 f5 be 57 f7 76 c0
       -0.09119018 0.88848037 -0.48013827 -3.8588464
000140 1a c4 43 c0 99 81 e8 bf d1 bb 32 c0 a0 e9 2e 41
       -3.058844 -1.816455 -2.7927134 10.932037
000150 29 68 0f c0 86 55 a6 c0 56 aa f4 3f cb ac 1b 40
       -2.2407324 -5.19794 1.9114482 2.4324214
000160 d2 dd 8e c0 63 ed c9 be 83 c1 2a c0 27 0e c5 bf
       -4.4645777 -0.39438924 -2.668061 -1.5394944
