dropout/NN_ensemble/histories/2_d05_valid_best_params.pt (torch_old, 452453 bytes, 103 tensors)

embedding.weight f4 [46, 98]
-0.012345523 0.50301087 -0.34874564 -1.0739553 -0.24763705 -0.10815118 -0.89410216 -0.7049412
-0.4554287 -0.21549374 0.17317821 0.62275237 0.8847762 0.40209278 -0.034774303 -0.44866723
-0.10275654 1.3225188 -0.034779124 0.28424639 -0.41194388 -0.44001547 0.32979193 0.56484157
-0.5369461 0.03483239 0.20706728 -0.19131087 -0.3280414 0.1491426 -0.06556387 0.4108968
-0.06635837 -0.377888 -0.1669718 0.08827491 0.33123028 -0.22522415 -0.3596843 -0.041167684
0.19659428 0.28004834 -0.22213845 -0.77446795 -0.017349243 0.7837322 0.50971717 -0.5139314
0.18399185 -0.0955995 -0.33353913 -0.4342113 -0.67776597 -0.4036926 -0.30352274 0.23307395
0.62053573 0.41999495 0.23358008 0.5255511 0.1686613 0.10783181 0.090853475 -0.20961164
-0.33775884 -0.0757536 0.0017073303 -0.077745005 0.009933688 -0.06755407 -0.33163399 -0.02857554
0.14624926 0.025075097 0.07183499 -0.024204763 -0.050348252 1.270253 0.30262128 -0.013471475
-0.08488499 0.0030238107 0.17077345 -0.113348246 0.016388837 -0.23733489 0.14631505 0.18042438
-0.12019096 -1.0284798 -0.18237445 0.7156801 -0.35458726 0.24762273 -0.7304723 0.5502247
-0.8341043 0.7366569 0.0323492 -0.20867544 0.05426267 0.026409851 0.14303374 -0.11572128
-1.1080923 0.49341536 0.5644296 -0.022010509 0.04146568 0.35940722 -0.47627103 -0.27940834
-0.0011851091 0.3487366 0.018157797 -0.5181764 0.008172587 -0.077794924 0.037198294 -0.10179488
-0.15702264 -0.07226344 0.4378844 -0.08112029 -0.31232995 -0.03928431 -0.05355767 -0.24270941
0.18580177 -0.16962822 0.06480776 -0.27184987 0.282151 -0.04159658 -0.003404486 0.2558654
-0.039978046 0.10572029 -0.019431861 -0.3227964 0.33398846 -0.3707143 0.039837196 -0.70080674
-0.28098592 0.16244528 -0.1282049 -0.08880611 0.19165385 -0.47193035 0.32630774 0.54994076
0.15327415 -0.17126116 0.25711185 -0.12192171 -0.3204864 -0.19375703 -0.0951679 -0.3142668
0.12890747 0.6597906 -0.16448914 0.039979637 -0.0058908165 0.08821353 0.086912155 0.023094945
-0.15721954 0.027298883 -0.36338097 0.54248756 -0.40106288 0.09257655 -0.09634739 -0.6581291
-0.06634706 -0.046551824 0.043070287 0.043983757 0.18287118 -0.039695226 -0.29313195 0.34434634
-0.12959342 0.13358459 0.32316074 -0.31763744 -0.25266019 -0.6681065 -0.4171998 -0.69779885
0.21927808 -0.3489267 0.1958684 0.588667 0.0710012 0.17881583 -0.060550112 -1.4994836
0.25300002 0.020190844 0.6896315 0.33023435 0.07111332 0.10849416 0.081000194 -0.43408832
-0.42555276 0.4082612 -0.14262995 -0.23349209 -0.22337 1.4514667 0.042706653 0.118208624
-0.09088224 -0.14000241 -0.0035489153 0.04265435 -0.0056906757 -0.047367144 0.015255477 -0.021779384
-0.29817146 0.043516345 -0.034296293 0.33461443 0.018589184 0.13240997 -0.15046597 0.083326206
-0.00866828 -0.07413162 -0.06804119 0.20621008 -0.10483869 0.09630264 0.047656246 0.009026547
0.07895659 -0.35600767 0.07880561 0.021152915 0.10905642 -0.20982932 -0.37581867 0.19159868
0.40168217 0.053994555 0.24321051 0.25714853 -0.48565936 -0.25480247 -0.08233791 0.09684612
00000000: e044 4abc 52c5 003f ca8e b2be 5e77 89bf
00000010: 9194 7dbe 5e7e ddbd e1e3 64bf 0777 34bf
00000020: f32d e9be 64aa 5cbe a155 313e b36c 1f3f
00000030: b180 623f 1bdf cd3e 806f 0ebd b6b7 e5be
00000040: 0572 d2bd 4c48 a93f 8e74 0ebd be88 913e
00000050: 4fea d2be b549 e1be 7dda a83e 7599 103f
00000060: 4d75 09bf 68ac 0e3d 7209 543e ffe6 43be
00000070: 0bf5 a7be d6b8 183e 5a46 86bd 1161 d23e
00000080: e6e6 87bd 897a c1be a8fa 2abe 7ac9 b43d
00000090: 0497 a93e 29a1 66be 8a28 b8be 729f 28bd
000000a0: 0350 493e 7f62 8f3e 4378 63be 8843 46bf
000000b0: 0020 8ebc aca2 483f d37c 023f 0291 03bf
000000c0: 5c68 3c3e acc9 c3bd a4c5 aabe f250 debe
000000d0: 1282 2dbf ccb0 cebe 5567 9bbe f0aa 6e3e
000000e0: 6edb 1e3f 9409 d73e 9e2f 6f3e 848a 063f
000000f0: 8cb5 2c3e edd6 dc3d 6311 ba3d 6fa4 56be
00000100: baee acbe b424 9bbd 80c8 df3a c638 9fbd
00000110: e8c0 223c ca59 8abd eecb a9be 4017 eabc
00000120: 5ec2 153e 4a6a cd3c 391e 933d 1149 c6bc
00000130: f839 4ebd a697 a23f 2df1 9a3e 76b7 5cbc
00000140: 2ed8 adbd 202b 463b 3cdf 2e3e 2023 e8bd
00000150: e241 863c eb07 73be 9dd3 153e 2bc1 383e
00000160: ae26 f6bd 3aa5 83bf 5ec0 3abe d036 373f
00000170: 768c b5be d090 7d3e 3c00 3bbf 87db 0c3f
00000180: dc87 55bf 8c95 3c3f 9880 043d 04af 55be
00000190: 8942 5e3d 7959 d83c 7077 123e 47ff ecbd
000001a0: f8d5 8dbf f0a0 fc3e 757e 103f 624f b4bc
000001b0: ebd7 293d 3904 b83e ccd9 f3be 9c0e 8fbe
000001c0: aa55 9bba 9b8d b23e a9bf 943c 35a7 04bf
000001d0: 50e6 053c f252 9fbd 3d5d 183d d679 d0bd
000001e0: 8bca 20be dbfe 93bd 6232 e03e 6522 a6bd
000001f0: b6e9 9fbe 96e8 20bd 4a5f 5bbd d188 78be
00000200: d242 3e3e 05b3 2dbe eeb9 843d e82f 8bbe
00000210: 1976 903e 2d61 2abd cc1d 5fbb ca00 833e
00000220: 05c0 23bd e183 d83d 912f 9fbc 9245 a5be
00000230: 8900 ab3e 44ce bdbe 542c 233d 1268 33bf
00000240: 63dd 8fbe 0e58 263e 2548 03be fadf b5bd
00000250: e840 443e dba0 f1be cf11 a73e ebc8 0c3f
00000260: e6f3 1c3e 165f 2fbe 2aa4 833e 17b2 f9bd
00000270: cb16 a4be 3e68 46be 63e7 c2bd 94e7 a0be
00000280: 5200 043e 09e8 283f d76f 28be b0c1 233d
00000290: c007 c1bb 4ca9 b43d 00ff b13d 9c31 bd3c
000002a0: 29fe 20be e8a1 df3c 120d babe 77e0 0a3f
000002b0: 1d58 cdbe c698 bd3d c851 c5bd 267b 28bf
000002c0: f8e0 87bd 20ad 3ebd 786a 303d 5028 343d
000002d0: 9542 3b3e 7697 22bd 6415 96be 2a4e b03e
000002e0: 23b4 04be 66ca 083e 5375 a53e 60a1 a2be
000002f0: ad5c 81be 0709 2bbf 369b d5be f2a2 32bf
00000300: 6f8a 603e 85a6 b2be ba91 483e e1b2 163f
00000310: 1469 913d 7f1b 373e 6503 78bd 14ef bfbf
00000320: 3889 813e 4567 a53c b18b 303f 7a14 a93e
00000330: dca3 913d 3032 de3d 6ee3 a53d d340 debe
00000340: 0de2 d9be 9d07 d13e 960d 12be 8d18 6fbe
00000350: 1bbb 64be a9c9 b93f 2ced 2e3d 5d17 f23d
00000360: 7820 babd cb5c 0fbe eb94 68bb 54b6 2e3d
00000370: d978 babb 0d04 42bd 1cf2 793c ae6a b2bc
00000380: eea9 98be 323e 323d 457a 0cbd 9552 ab3e
00000390: 5848 983c 7b96 073e c013 1abe eea6 aa3d
000003a0: 6705 0ebc 52d2 97bd 2e59 8bbd bc28 533e
000003b0: abb5 d6bd 523a c53d 3233 433d 15e4 133c
000003c0: feb3 a13d a346 b6be d664 a13d e148 ad3c
000003d0: f958 df3d 7fdd 56be 4e6b c0be 7232 443e
000003e0: 49a9 cd3e 6529 5d3d 2d0c 793e f9a8 833e
000003f0: 58a8 f8be 7875 82be c7a0 a8bd 4257 c63d

embedding.bias f4 [46]
-0.032620534 -0.07633011 -0.037335448 -0.38831872 -0.27667958 -0.2632289 -0.19689593 -0.02339134
-0.18406594 -0.07378562 -0.29000032 -0.26633033 -0.25502223 -0.13938405 -0.19300744 -0.15582511
-0.46243194 -0.3048252 -0.0021912616 -0.10634302 -0.29732913 -0.3447453 -0.11264865 -0.09610644
0.02241109 -0.20254877 -0.5855597 -0.09469991 -0.4857845 -0.1372316 -0.31250644 -0.44849443
-0.00097329315 -0.23709653 0.045897484 -0.44290236 -0.43514103 -0.66513604 -0.23462649 -0.40210217
0.027716847 -0.2213295 -0.35351855 -0.10108268 -0.10920151 -0.42782566
00000000: 1c9d 05bd f652 9cbd 0eed 18bd b6d1 c6be
00000010: f2a8 8dbe f0c5 86be 169f 49be 329f bfbc
00000020: c87b 3cbe ea1c 97bd ec7a 94be 735c 88be
00000030: 4692 82be b1ba 0ebe bea3 45be 9e90 1fbe
00000040: e1c3 ecbe 0c12 9cbe 459b 0fbb 5fca d9bd
00000050: 863b 98be 7582 b0be 56b4 e6bd 74d3 c4bd
00000060: 7697 b73c f268 4fbe 3ee7 15bf 07f2 c1bd
00000070: bfb8 f8be 7186 0cbe d800 a0be 10a1 e5be
00000080: 9924 7fba 6fc9 72be 00ff 3b3d 19c4 e2be
00000090: ceca debe 5b46 2abf ed41 70be 56e0 cdbe
000000a0: 710e e33c 33a4 62be 6200 b5be 7004 cfbd
000000b0: 0ba5 dfbd f70b dbbe

convs.0.fc_full.weight f4 [92, 98]
-0.14719865 0.136516 0.06805664 0.17667949 -0.2939767 -0.60242695 -0.17637084 0.23646651
-0.1593527 0.4576996 -0.045740794 -0.30914104 0.12519082 -0.18706177 -0.01085452 0.07912823
0.21620193 -0.11336753 0.13207278 0.74318564 0.2898002 -0.39154422 -0.07599726 0.055937894
0.04930524 -0.3499002 -0.0755743 -0.15525597 0.35295174 -0.2881698 -0.23912758 0.043916035
-0.09843766 0.14490472 0.014168641 -0.004346931 0.0031884357 -0.11215106 -0.21960343 -0.36752504
-0.22227046 0.35159767 -0.034709133 -0.32019544 0.25463647 -0.109285295 -0.89939797 0.20094089
-0.17746957 -0.054687206 -0.05742015 -0.43480158 -0.041646253 0.4591423 0.36084065 -0.069219574
0.22686055 0.05195011 -0.076602824 -0.041034594 -0.038216107 -0.1626427 -0.394897 0.63566864
-0.45914757 -0.09186063 0.32557753 0.0980985 -0.16457286 -0.1422179 0.16542178 -0.29340917
0.3878365 0.59379154 -0.41334775 0.19666894 -0.25537902 0.03519484 0.1190234 0.14668915
-0.024517681 -0.38848263 0.23501556 0.33197773 0.11389245 -0.266824 0.09365421 0.13211142
-0.11835752 0.05523076 0.12214513 0.07831892 -2.8495286 -1.6507356 -1.9421451 -1.0400478
1.6037855 3.3355424 -0.04669444 -0.19352886 0.1981392 -0.102593824 0.119207256 0.23719671
-0.22262606 -0.12885067 -0.5267212 -0.37026477 0.2550307 0.77832264 -0.3838377 -0.09162238
0.6777149 0.65741533 -0.17195858 0.18478858 -0.185567 -0.2402293 0.011986527 -0.19172223
0.076289885 -0.12745692 0.554987 0.18588595 0.18219388 -0.078686975 0.51486105 -0.03451991
-0.4968619 -0.25202817 -0.087220974 -0.12646033 0.38760293 0.12428283 -0.39330593 0.04392663
0.52951187 -0.15397657 -0.28268933 -0.17895688 -0.4461205 -0.5177516 0.022615975 -0.13136657
0.31597596 0.040027753 0.33925003 0.20433982 -0.031684108 -0.2564966 0.85950476 0.72489876
0.69074166 -0.5895621 -0.061286386 0.3175689 -0.40207303 -0.1312872 0.2630777 -0.46237847
-0.35047 0.40229428 0.03795825 -0.36314 0.42978626 0.9936951 -0.33856848 0.35549906
0.77298015 -0.26633003 -0.037026446 0.0062474804 -0.091613695 0.4030436 0.009085332 0.12416002
-0.284551 0.20459135 -0.114905946 -0.3563915 -0.535667 -0.26825562 -0.74485004 0.40319672
0.21330068 -0.19616053 -0.31217572 0.12127197 -1.0751014 0.5876757 -0.040211394 0.78202814
-0.0123246955 -0.10751885 0.17932774 -0.36205867 -0.8103971 -0.056084864 -0.09015807 0.13951655
1.4450788 -0.2797439 -0.0067238836 -0.3826354 -0.56405413 -0.67511743 -0.2766374 0.24870123
-0.75733864 -0.23925939 -0.031062452 0.6075251 -0.17570907 0.20251067 -0.27391466 -0.5647243
-0.24521855 0.34255254 -0.3686769 1.0190151 0.05634101 -0.49305886 0.5981213 -0.08445156
0.21524735 -0.018144822 0.039287228 -0.0683035 0.5804202 0.07894423 -0.5651172 -0.15027036
-0.14298049 -0.02920476 0.6331656 0.1768066 0.63918257 0.029417397 0.033279635 -0.6218681
0.21648118 -0.06486365 0.5196636 0.15755592 0.17125693 -0.3973088 0.4513229 0.19319241
0.31135267 0.07438582 -0.17111287 0.5555884 0.38947752 0.52129203 -0.28280723 0.043814592
00000000: 3ebb 16be daca 0b3e 4861 8b3d 78eb 343e
00000010: 1d84 96be a738 1abf 8f9a 34be 4724 723e
00000020: 5b2d 23be 9a57 ea3e b35a 3bbd bc47 9ebe
00000030: 0632 003e 1f8d 3fbe 28d7 31bc fb0d a23d
00000040: 0a64 5d3e 3c2d e8bd 163e 073e 6a41 3e3f
00000050: b160 943e 7c78 c8be 74a4 9bbd 221f 653d
00000060: 4bf4 493d 1e26 b3be b3c6 9abd 6cfb 1ebe
00000070: 17b6 b43e fe8a 93be dcdd 74be 4de1 333d
00000080: af99 c9bd e761 143e 9623 683c b370 8ebb
00000090: 13f5 503b 74af e5bd b9df 60be 3e2c bcbe
000000a0: de9a 63be 9c04 b43e 2a2b 0ebd a8f0 a3be
000000b0: b65f 823e f8d0 dfbd f23e 66bf 73c3 4d3e
000000c0: 95ba 35be b1ff 5fbd 6431 6bbd 509e debe
000000d0: 4395 2abd b314 eb3e 1bc0 b83e fec2 8dbd
000000e0: 224e 683e a3c9 543d f1e1 9cbd e413 28bd
000000f0: 7e88 1cbd cf8b 26be f12f cabe 2ebb 223f
00000100: 6415 ebbe 6d21 bcbd 19b2 a63e dee7 c83d
00000110: ca85 28be 92a1 11be 5464 293e ba39 96be
00000120: 8192 c63e b902 183f 51a2 d3be 9563 493e
00000130: 0ac1 82be 7728 103d 8ac2 f33d ae35 163e
00000140: 4ed9 c8bc 32e7 c6be eba7 703e fcf8 a93e
00000150: 7240 e93d 289d 88be c7cd bf3d 3748 073e
00000160: 6d65 f2bd a639 623d 3a27 fa3d ac65 a03d
00000170: ad5e 36c0 4e4b d3bf 3698 f8bf 4920 85bf
00000180: d848 cd3f 8779 5540 ab42 3fbd 6e2c 46be
00000190: 01e5 4a3e b61c d2bd ef22 f43d b2e3 723e
000001a0: 16f8 63be 6ef1 03be 33d7 06bf 5893 bdbe
000001b0: 6293 823e 2740 473f 6086 c4be 84a4 bbbd
000001c0: b97e 2d3f 5f4c 283f e915 30be 3839 3d3e
000001d0: 4705 3ebe abfe 75be 2363 443c d552 44be
000001e0: df3d 9c3d 1184 02be a113 0e3f e358 3e3e
000001f0: 0891 3a3e a326 a1bd efcd 033f c064 0dbd
00000200: af64 febe d609 81be e9a0 b2bd d17e 01be
00000210: e473 c63e ff87 fe3d 655f c9be 69ec 333d
00000220: 178e 073f 09ac 1dbe a8bc 90be 7940 37be
00000230: e869 e4be 5e8b 04bf 2345 b93c f584 06be
00000240: 9ac7 a13e 24f4 233d 2eb2 ad3e 753e 513e
00000250: 32c7 01bd 8653 83be 8108 5c3f f792 393f
00000260: 72d4 303f 8bed 16bf 6f07 7bbd 6498 a23e
00000270: 84dc cdbe 2770 06be 1fb2 863e dfbc ecbe
00000280: ce70 b3be 84f9 cd3e 1c7a 1b3d 7ced b9be
00000290: f20c dc3e cd62 7e3f d958 adbe f903 b63e
000002a0: 07e2 453f 695c 88be 0ba9 17bd aab7 cc3b
000002b0: f69f bbbd bb5b ce3e a5da 143c 9c47 fe3d
000002c0: abb0 91be 6580 513e cf53 ebbd f278 b6be
000002d0: 7921 09bf cd58 89be 7eae 3ebf cd6f ce3e
000002e0: 7e6b 5a3e 4ede 48be 7fd5 9fbe 705d f83d
000002f0: ec9c 89bf ea71 163f b4b4 24bd ff32 483f
00000300: 85ed 49bc d832 dcbd b1a1 373e c15f b9be
00000310: 2f76 4fbf 3eb9 65bd cba4 b8bd 6ddd 0e3e
00000320: 58f8 b83f 983a 8fbe 0654 dcbb cae8 c3be
00000330: da65 10bf 7fd4 2cbf 6ba3 8dbe 89ab 7e3e
00000340: f2e0 41bf 6a00 75be af76 febc c486 1b3f
00000350: 14ed 33be f55e 4f3e 8b3e 8cbe c691 10bf
00000360: 921a 7bbe 0c63 af3e 38c3 bcbe 166f 823f
00000370: d5c5 663d 3672 fcbe 7a1e 193f f1f4 acbd
00000380: cd69 5c3e 73a4 94bc a5eb 203d b5e2 8bbd
00000390: 6b96 143f 83ad a13d 85ab 10bf 79e0 19be
000003a0: 7a69 12be d23e efbc 2417 223f ca0c 353e
000003b0: 78a1 233f c1fc f03c 3a50 083d bf32 1fbf
000003c0: 3ead 5d3e 3cd7 84bd ac08 053f 5756 213e
000003d0: fa5d 2f3e 0f6c cbbe cc13 e73e 3bd4 453e
000003e0: 9e69 9f3e 9857 983d 3638 2fbe 0b3b 0e3f
000003f0: 9969 c73e 6573 053f 1ccc 90be ee76 333d

convs.0.fc_full.bias f4 [92]
-0.2180547 0.0017111143 0.07560201 -0.08237126 0.0070111207 0.00449943 0.019277984 0.014165523
-0.06939881 0.014864197 -0.035119906 0.11095004 -0.030575544 -0.04062945 0.054222383 0.019524312
0.06272755 0.008378249 -0.06155856 -0.0582079 0.12756035 -0.08588383 -0.086755164 0.017811617
0.071250916 0.07933373 0.06775804 0.0711276 -0.07144143 0.055266894 -0.0046720076 -0.013262521
0.018248314 -0.033921346 -0.112606965 0.043381654 0.0089434525 -0.011707869 0.0596399 -0.037456334
0.17472549 -0.12892093 -0.005413526 -0.029644607 -0.00092570815 -0.012766912 -0.06380222 -0.05202935
-0.049183298 -0.066513196 -0.05608133 -0.028106298 -0.009825037 0.048252724 0.09354615 0.0029350673
0.010841291 -0.06446957 0.03190095 -0.11966423 0.023222722 0.06847311 -0.0068772007 -0.108572334
0.0867649 0.034575157 0.06955477 -0.07713158 -0.055114098 -0.025895871 0.07506163 0.039676167
0.034484737 -0.024950605 -0.10165291 -0.05166764 0.048772782 0.03910261 0.08361203 0.018779462
-0.15088277 0.01924638 -0.06862172 0.12308616 -0.0118758 -0.1019587 0.0068506165 -0.062163066
0.056881253 0.09614804 0.0646225 0.028754193
00000000: bb49 5fbe 7847 e03a 3ad5 9a3d 43b2 a8bd
00000010: 8bbd e53b f46f 933b ddec 9d3c 8316 683c
00000020: f720 8ebd f688 733c e4d9 0fbd c639 e33d
00000030: 9079 fabc 116b 26bd 4a18 5e3d 73f1 9f3c
00000040: 4d77 803d ec44 093c d424 7cbd 686b 6ebd
00000050: 2e9f 023e dde3 afbd b1ac b1bd abe9 913c
00000060: 00ec 913d b979 a23d bac4 8a3d 59ab 913d
00000070: e24f 92bd 8a5f 623d a417 99bb 0b4b 59bc
00000080: 7d7d 953c 1cf1 0abd 7b9e e6bd f6b0 313d
00000090: 8f87 123c 5dd2 3fbc f848 743d d06b 19bd
000000a0: 3deb 323e d903 04be f363 b1bb 3fd9 f2bc
000000b0: 39ab 72ba 4f2c 51bc bdaa 82bd ba1c 55bd
000000c0: 6d74 49bd 1238 88bd 89b5 65bd 2e3f e6bc
000000d0: 31f9 20bc a6a4 453d 2095 bf3d 425a 403b
000000e0: ac9f 313c 9f08 84bd 92aa 023d 8512 f5bd
000000f0: 943d be3c a13b 8c3d 245a e1bb 2c5b debd
00000100: ccb1 b13d ae9e 0d3d bb72 8e3d 29f7 9dbd
00000110: 52bf 61bd 9423 d4bc e9b9 993d 7a83 223d
00000120: de3f 0d3d 3665 ccbc 672f d0bd 73a1 53bd
00000130: f8c5 473d 0f2a 203d c93c ab3d 63d7 993c
00000140: 0381 1abe 96aa 9d3c 8b89 8cbd 9914 fc3d
00000150: b792 42bc b9cf d0bd 237b e03b b39e 7ebd
00000160: 51fc 683d 43e9 c43d cd58 843d ea8d eb3c

convs.0.bn1.weight f4 [92]
2.6497471 2.8392732 1.222609 1.0549171 3.8313327 2.583501 1.050038 2.4331133
2.8371506 1.7971478 1.1691974 1.694781 1.8962868 2.1283047 0.41843426 1.7276715
2.4940085 0.53980523 1.5790409 2.4998517 1.7696946 3.0029604 2.550324 1.486153
1.453176 0.59183806 2.8367507 2.1061268 1.7650659 2.0529747 2.25124 1.2255063
1.9492266 1.3671441 1.9256968 1.1364441 1.6510301 0.65067106 2.1593442 0.9720144
2.2430735 0.98653203 2.0551472 2.34978 2.0577867 1.8984879 1.2771182 1.4578288
1.2475326 1.1171877 1.2478456 3.7206123 1.0352709 2.436857 2.3551056 2.5630727
1.7246404 1.6028451 1.106488 0.6768388 1.940646 1.7315189 1.8688283 0.52339536
2.255119 1.0983212 1.610551 1.0484415 1.3810004 1.2232914 1.6729472 1.4949085
1.7636395 1.3702068 2.6072505 1.2572688 1.3293457 0.8952959 1.0987484 1.912705
0.950969 0.9694828 1.9784548 1.06078 1.314058 1.4267049 0.6487414 1.8354537
1.8550687 1.2101129 2.2512994 1.4322401
00000000: 7595 2940 a7b6 3540 747e 9c3f 8607 873f
00000010: 8e34 7540 1558 2540 a567 863f 21b8 1b40
00000020: e093 3540 f008 e63f 43a8 953f 95ee d83f
00000030: 87b9 f23f 2536 0840 043d d63e 5724 dd3f
00000040: d69d 1f40 ad30 0a3f 031e ca3f 92fd 1f40
00000050: 5a85 e23f 8130 4040 8238 2340 433a be3f
00000060: ac01 ba3f b382 173f 538d 3540 c8ca 0640
00000070: aeed e13f f063 0340 5114 1040 64dd 9c3f
00000080: 4280 f93f 94fe ae3f 3c7d f63f 0077 913f
00000090: f454 d33f 6192 263f b232 0a40 f0d5 783f
000000a0: 848e 0f40 5d8d 7c3f 8887 0340 cc62 1640
000000b0: c7b2 0340 a701 f33f 9c78 a33f 229a ba3f
000000c0: 26af 9f3f 0200 8f3f 68b9 9f3f 831e 6e40
000000d0: c283 843f 77f5 1b40 0dba 1640 6209 2440
000000e0: 04c1 dc3f 072a cd3f 66a1 8d3f 4f45 2d3f
000000f0: 1767 f83f 69a2 dd3f c435 ef3f 3dfd 053f
00000100: df53 1040 ca95 8c3f 8926 ce3f 5533 863f
00000110: 9fc4 b03f d094 9c3f 2223 d63f 2959 bf3f
00000120: f0be e13f f062 af3f 31dd 2640 2fee a03f
00000130: 0028 aa3f 1d32 653f caa3 8c3f 84d3 f43f
00000140: b472 733f 0630 783f 023e fd3f a4c7 873f
00000150: 0d33 a83f 449e b63f eb13 263f 26f0 ea3f
00000160: e472 ed3f fbe4 9a3f 4a15 1040 a553 b73f

convs.0.bn1.bias f4 [92]
-0.5141597 -0.02777815 -0.20708507 -0.35869724 0.009972393 -0.25340965 -0.21375065 0.27158138
-0.03781448 -0.006083205 -0.120595835 0.016914306 0.18591934 -0.38753018 0.37049708 -0.09294505
0.15397444 -0.9854971 0.40764347 -0.40648016 0.31392285 0.13001056 -0.047562934 0.06625834
0.018186418 -0.53221375 -0.653621 0.3499724 -0.1753363 -0.77293736 -0.34943146 0.021099426
-0.06259768 0.26080495 -0.27819952 0.059885256 -0.21639028 -0.54664516 -0.06816412 -0.3526795
-0.79147625 -0.23845531 0.123528376 -0.12060442 -0.44274476 -0.31298402 -0.46915078 0.3639251
-0.30139908 -0.43410453 0.38599008 -0.0010841931 -0.3618431 0.023896398 0.16780688 -0.0892285
0.043492567 -0.121930756 0.21140118 -0.6415578 -0.115065895 -0.21010233 0.040740207 -0.81316316
-0.07343759 -0.53265715 0.53041506 -0.73811656 0.5528526 -0.33637118 0.11647226 -0.21658234
-0.11708425 0.31447488 -0.14085056 -0.33733705 -0.19531137 -0.32319638 -0.2488915 -0.1304619
-0.4691786 -0.46874592 0.1252297 -0.3187588 -0.5034147 -0.311003 -0.60705614 -0.06337993
0.3127235 -0.30333167 0.057775874 -0.111038126
00000000: f89f 03bf 018f e3bc 1c0e 54be 2aa7 b7be
00000010: 3f63 233c e9be 81be 73e1 5abe b70c 8b3e
00000020: 5be3 1abd 9f55 c7bb f3fa f6bd df8f 8a3c
00000030: a461 3e3e 5b6a c6be cbb1 bd3e f959 bebd
00000040: 7aab 1d3e 8a49 7cbf a5b6 d03e 2b1e d0be
00000050: 7fba a03e 7d21 053e 5ad1 42bd 74b2 873d
00000060: affb 943c 293f 08bf b553 27bf 952f b33e
00000070: 5c8b 33be 39df 45bf aee8 b2be b4d8 ac3c
00000080: 3633 80bd 3a88 853e 2b70 8ebe 3e4a 753d
00000090: 6a95 5dbe f0f0 0bbf a199 8bbd 6892 b4be
000000a0: 309e 4abf a12d 74be 72fc fc3d 73ff f6bd
000000b0: 71af e2be 713f a0be 8834 f0be 6454 ba3e
000000c0: fb50 9abe f342 debe 7ea0 c53e 7c1b 8eba
000000d0: 8043 b9be 61c2 c33c 91d5 2b3e 6fbd b6bd
000000e0: 4325 323d d5b6 f9bd 8d79 583e 223d 24bf
000000f0: aba7 ebbd 1125 57be 34df 263d 762b 50bf
00000100: 7266 96bd 385c 08bf 48c9 073f 35f5 3cbf
00000110: bf87 0d3f d838 acbe 0289 ee3d c3c7 5dbe
00000120: dec9 efbd da02 a13e 213b 10be 71b7 acbe
00000130: b4ff 47be ff79 a5be 6add 7ebe ce97 05be
00000140: 2d38 f0be 77ff efbe 373c 003e 5a34 a3be
00000150: c9df 00bf c93b 9fbe 0868 1bbf 56cd 81bd
00000160: 4b1d a03e 4a4e 9bbe 65a6 6c3d f567 e3bd

convs.0.bn1.running_mean f4 [92]
-1.3931384 -0.1396567 -1.7701089 -1.0316658 -2.4555004 1.0479571 -1.86582 2.2562544
0.9025601 0.41996044 0.91837776 -1.7681788 -1.9220259 1.9105533 -1.7171205 -2.2147882
-2.1508126 1.622143 3.7713585 -2.8969085 1.0706073 3.84345 -3.8356547 -0.95049006
0.92187136 -1.2335601 -0.30791932 0.9274607 2.7197564 -0.7623303 -0.81954426 0.50948334
-4.5724754 -3.5330043 -6.462058 1.6359906 -4.3181643 -2.6023798 -0.2321952 3.6735585
0.49393234 1.7477279 -5.7203183 1.3057965 -2.4312716 -1.2074304 -3.9593308 -0.017289596
-1.5373245 -1.4171449 -1.3674334 -0.2641932 -3.449507 1.3967177 3.1531188 0.7998928
2.3635726 -2.5812902 -3.7122183 1.036189 -3.798919 -0.087620504 -2.7857141 -2.3648298
0.40891752 0.48119682 1.6774048 -3.6251907 -3.5807416 1.9922268 -2.8473983 0.8231702
-0.80038047 0.87608105 -1.640644 -1.4762118 -1.0426975 -0.7046594 -5.669198 -1.1117353
-0.7929547 1.474109 -3.5629904 -2.995251 1.3060802 1.1681567 -2.4624608 0.010488948
-3.98143 -1.0060861 0.648558 -3.4675066
00000000: 5c52 b2bf 2a02 0fbe ee92 e2bf a00d 84bf
00000010: eb26 1dc0 7523 863f 31d3 eebf 7966 1040
00000020: 2e0e 673f 0e05 d73e ce1a 6b3f af53 e2bf
00000030: f204 f6bf 038d f43f 9bca dbbf 17bf 0dc0
00000040: eaa6 09c0 62a2 cf3f f05d 7140 f366 39c0
00000050: a909 893f 16fb 7540 5e7b 75c0 5153 73bf
00000060: c3ff 6b3f 4ce5 9dbf 9aa7 9dbe 106e 6d3f
00000070: 7d10 2e40 1428 43bf a7cd 51bf 806d 023f
00000080: b851 92c0 be1c 62c0 2ec9 cec0 2468 d13f
00000090: 672e 8ac0 648d 26c0 94c4 6dbe 951b 6b40
000000a0: b3e4 fc3e 8cb5 df3f d90c b7c0 5724 a73f
000000b0: f499 1bc0 148d 9abf ad65 7dc0 e9a2 8dbc
000000c0: 0dc7 c4bf 0165 b5bf 0f08 afbf 5544 87be
000000d0: b9c4 5cc0 a5c7 b23f b3cc 4940 c6c5 4c3f
000000e0: c644 1740 dc33 25c0 fc94 6dc0 d7a1 843f
000000f0: 7d21 73c0 6172 b3bd 2449 32c0 5f59 17c0
00000100: a35d d13e 6e5f f63e 33b5 d63f 2003 68c0
00000110: df2a 65c0 4a01 ff3f c63b 36c0 48bb 523f
00000120: bce5 4cbf d946 603f 9f00 d2bf 82f4 bcbf
00000130: 1d77 85bf 8f64 34bf 126a b5c0 584d 8ebf
00000140: 14ff 4abf 9baf bc3f 0908 64c0 31b2 3fc0
00000150: a32d a73f 2986 953f f598 1dc0 d6d9 2b3c
00000160: c0cf 7ec0 6ec7 80bf e607 263f a1eb 5dc0

convs.0.bn1.running_var f4 [92]
27.538475 57.38216 60.081993 42.79007 43.290287 39.31786 44.31514 27.666563
34.600906 28.98863 58.165604 38.984936 34.70813 64.39957 32.655853 52.440495
45.658207 41.15726 51.914387 50.04844 43.873417 48.918457 31.276762 45.98223
49.515003 36.451496 21.363348 44.26176 47.051582 37.82915 63.7421 26.409334
33.55353 50.09802 50.3163 31.40917 16.42125 35.21223 41.69906 67.3834
30.684338 60.794815 42.180862 55.73255 50.04709 53.614395 20.015095 61.066338
48.1512 54.434494 80.27354 34.783524 38.190144 27.458223 50.636383 37.44856
70.99418 43.256245 45.426357 29.277956 57.327114 35.478683 46.49317 19.51882
53.583878 78.62696 46.50362 73.21589 28.219217 65.36997 30.719105 37.698925
43.81691 43.853962 49.998596 26.773705 52.57861 52.33128 37.51204 55.663456
19.728884 35.696438 19.039337 65.94364 60.334576 77.94638 29.346895 57.583984
38.41103 69.57877 54.602127 40.459854
00000000: cc4e dc41 5587 6542 f653 7042 0829 2b42
00000010: 4129 2d42 7d45 1d42 b442 3142 1f55 dd41
00000020: 5467 0a42 b7e8 e741 94a9 6842 93f0 1b42
00000030: 20d5 0a42 94cc 8042 989f 0242 11c3 5142
00000040: 01a2 3642 09a1 2442 55a8 4f42 9a31 4842
00000050: 617e 2f42 80ac 4342 cf36 fa41 ceed 3742
00000060: 5d0f 4642 55ce 1142 23e8 aa41 0b0c 3142
00000070: d234 3c42 0d51 1742 e9f7 7e42 5146 d341
00000080: d136 0642 5f64 4842 e443 4942 fb45 fb41
00000090: b85e 8341 53d9 0c42 d6cb 2642 4dc4 8642
000000a0: 8679 f541 e42d 7342 34b9 2842 22ee 5e42
000000b0: 3830 4842 2475 5642 ea1e a041 ee43 7442
000000c0: d49a 4042 ecbc 5942 0d8c a042 5422 0b42
000000d0: b5c2 1842 71aa db41 a88b 4a42 53cb 1542
000000e0: 05fd 8d42 6506 2d42 97b4 3542 4139 ea41
000000f0: f74e 6542 2cea 0d42 02f9 3942 8b26 9c41
00000100: e455 5642 0141 9d42 b503 3a42 896e 9242
00000110: f5c0 e141 6dbd 8242 bac0 f541 b3cb 1642
00000120: 8444 2f42 756a 2f42 90fe 4742 8c30 d641
00000130: 7f50 5242 3b53 5142 540c 1642 61a7 5e42
00000140: c1d4 9d41 27c9 0e42 9050 9841 25e3 8342
00000150: 9b56 7142 8ce4 9b42 71c6 ea41 0056 6642
00000160: e5a4 1942 5528 8b42 9468 5a42 e4d6 2142

convs.0.bn2.weight f4 [46]
1.3981128 1.3224919 1.0876437 1.1008074 1.2147238 1.3780066 1.3688443 0.72095495
0.9327261 0.94090027 1.1557826 1.1479113 0.92766446 1.0052105 0.72843647 0.8980039
0.95010656 1.8616412 1.1043643 1.3265021 1.145534 1.4082205 1.2098706 0.9310096
1.0204841 1.1416626 1.1457134 1.1838381 1.1618497 1.2039115 1.2263163 0.8762921
0.66067296 0.8852898 1.2708623 1.2629215 0.7765073 1.0471845 1.2976276 1.4016744
1.1744272 1.1331748 0.97435474 1.2735739 1.2770709 1.314654
00000000: 5cf5 b23f 6a47 a93f e937 8b3f 42e7 8c3f
00000010: 127c 9b3f 8562 b03f 4a36 af3f 8190 383f
00000020: 23c7 6e3f d7de 703f aff0 933f c2ee 923f
00000030: 6b7b 6d3f bdaa 803f d07a 3a3f 95e3 653f
00000040: 2f3a 733f 424a ee3f cf5b 8d3f d2ca a93f
00000050: dca0 923f 9240 b43f 0add 9a3f a556 6e3f
00000060: 399f 823f 0022 923f bda6 923f 0288 973f
00000070: 7eb7 943f c619 9a3f eff7 9c3f ae54 603f
00000080: dd21 293f 5aa2 623f 9eab a23f 69a7 a13f
00000090: 2fc9 463f 240a 863f a918 a63f 116a b33f
000000a0: a153 963f df0b 913f 506f 793f 7804 a33f
000000b0: 0f77 a33f 9546 a83f

convs.0.bn2.bias f4 [46]
-0.12698352 -0.07887524 -0.037544858 -0.34804586 -0.27584952 -0.27770647 -0.1387177 -0.12434985
-0.23676836 -0.12575914 -0.19308127 -0.32232904 -0.3426444 -0.1863646 -0.0924497 -0.18021517
-0.402294 -0.25603676 -0.07289283 -0.16966 -0.31122062 -0.26909387 -0.07863594 -0.11970549
0.019257128 -0.30282658 -0.628297 -0.11105093 -0.393723 -0.19548166 -0.21428587 -0.5043132
-0.00074950786 -0.24504398 0.053895 -0.44237444 -0.42571914 -0.6891755 -0.22852331 -0.35885534
-0.039408434 -0.29890147 -0.34159634 -0.09744445 -0.08491516 -0.41092578
00000000: f807 02be 5889 a1bd a3c8 19bd 1133 b2be
00000010: 263c 8dbe 8b2f 8ebe 030c 0ebe 22ab febd
00000020: 6873 72be 01c7 00be 19b7 45be 5008 a5be
00000030: 166f afbe 5dd6 3ebe 4556 bdbd 538a 38be
00000040: 7bf9 cdbe 4017 83be d648 95bd 5abb 2dbe
00000050: 4f58 9fbe acc6 89be e10b a1bd 2728 f5bd
00000060: 20c1 9d3c 160c 9bbe 12d8 20bf ac6e e3bd
00000070: 1096 c9be 582c 48be c16d 5bbe ab1a 01bf
00000080: 9f7a 44ba cfec 7abe 01c1 5c3d e77e e2be
00000090: dcf7 d9be ce6d 30bf 0402 6abe e3bb b7be
000000a0: bd6a 21bd 9d09 99be b7e5 aebe f590 c7bd
000000b0: 00e8 adbd dd64 d2be

convs.0.bn2.running_mean f4 [46]
2.6165774 7.4878564 2.326936 1.9212317 5.51765 11.40799 1.6282195 8.487598
7.5183105 8.840785 5.8926206 4.9049706 3.969961 0.32069018 6.109707 4.2771783
6.529968 0.045457177 6.790512 2.0727844 8.52005 1.6015943 6.0975647 2.8446984
3.738155 3.0299551 3.2117465 6.4987745 8.494734 2.227568 3.412175 2.3568175
2.7672372 7.0204854 1.1663665 1.7028246 6.3969946 1.6279365 3.35538 2.569142
0.3054049 4.6780953 6.6902804 2.4395337 8.088883 3.5114784
00000000: 0176 2740 859c ef40 85ec 1440 ecea f53f
00000010: 9790 b040 2187 3641 7f69 d03f 34cd 0741
00000020: 0096 f040 db73 0d41 5990 bc40 85f5 9c40
00000030: d713 7e40 8131 a43e b882 c340 a5de 8840
00000040: 7ff5 d040 4e31 3a3d e04b d940 80a8 0440
00000050: 2052 0841 0b01 cd3f 401f c340 8a0f 3640
00000060: ee3d 6f40 c9ea 4140 418d 4d40 f6f5 cf40
00000070: 6eea 0741 7990 0e40 1361 5a40 19d6 1640
00000080: 6a1a 3140 d1a7 e040 7f4b 953f 28f6 d93f
00000090: 2eb4 cc40 3960 d03f 8cbe 5640 d36c 2440
000000a0: 085e 9c3e f5b2 9540 c716 d640 5221 1c40
000000b0: 116c 0141 10bc 6040

convs.0.bn2.running_var f4 [46]
7.543728 51.53767 16.694574 10.738114 58.293484 202.94865 4.710857 137.77238
114.48772 137.48209 56.249023 40.59338 27.583452 0.51772726 75.950455 36.975784
70.87687 0.034438822 80.94867 13.233045 58.869087 17.6215 105.01707 10.274762
47.56145 18.92599 68.59346 44.541355 145.1287 5.9940495 21.190592 23.493929
15.739294 93.906494 4.4391217 9.143629 133.97484 7.095889 41.477444 10.716359
2.4127476 23.608522 110.84121 14.04502 149.86557 19.650105
00000000: 3866 f140 9326 4e42 7d8e 8541 51cf 2b41
00000010: 872c 6942 dbf2 4a43 57bf 9640 bbc5 0943
00000020: b6f9 e442 6a7b 0943 00ff 6042 9f5f 2242
00000030: e9aa dc41 c689 043f a2e6 9742 34e7 1342
00000040: f5c0 8d42 b90f 0d3d b8e5 a142 8dba 5341
00000050: f279 6b42 d5f8 8c41 bd08 d242 6d65 2441
00000060: ed3e 3e42 6d68 9741 da2f 8942 592a 3242
00000070: f220 1143 41cf bf40 5586 a941 91f3 bb41
00000080: 26d4 7b41 20d0 bb42 490d 8e40 4e4c 1241
00000090: 8ff9 0543 8611 e340 e7e8 2542 3576 2b41
000000a0: 756a 1a40 41de bc41 b3ae dd42 67b8 6041
000000b0: 96dd 1543 6a33 9d41

convs.1.fc_full.weight f4 [92, 98]
-0.5281712 -0.20544124 0.25155464 -0.12038365 -1.0271828 0.9326883 -0.44297948 -0.5815902
-0.0021452848 -0.70843256 0.19818074 -0.49000055 0.53122234 0.42806345 -0.3519228 0.32127154
-0.3891669 -0.93423426 0.16931267 0.18114476 -0.33147323 0.07001517 0.070433274 -0.1744431
-0.12055067 0.47799817 0.034611855 0.44698957 -0.22216351 -0.25426617 -0.32265756 -0.29463774
-0.1202763 -0.11329756 0.028309437 0.3231234 -0.12519957 -0.34221974 0.40989998 -0.33343297
0.10257876 0.23812534 -0.2843073 0.7282337 0.5241251 0.24999847 -0.2918121 -0.5108726
-0.09610994 0.3288839 0.08610626 1.2723604 -0.89155525 0.2720691 -0.09940566 0.2559848
0.39199603 -0.17760351 0.26034623 0.52161556 -0.21123017 0.1434797 0.25545582 1.1588577
-0.030256895 0.054554377 -0.6319103 0.66371334 0.7259927 -0.32195914 0.62618464 -0.487117
0.43596566 -0.40741012 -0.05228441 -0.1674036 0.5107557 0.42294922 0.8794721 -0.099014215
-0.0064628376 0.050152 0.11187297 0.8329481 -0.35381675 -0.47758207 -0.10394123 -0.19484913
0.43918884 0.2780734 0.34437045 0.082225494 -0.1153149 0.4306055 0.3158422 0.3415436
-0.22242644 -0.2500564 -0.38265905 -0.20685169 -0.10297071 -0.20180197 -0.26588476 -0.40375623
0.24596272 -0.17512363 0.23038208 0.092809625 -0.8655859 -0.23590873 -0.33861986 0.72250295
-0.4238961 -0.19262104 0.29785818 -0.52672 -0.33961484 0.3064396 -0.71219 0.25307363
0.14413452 0.4004058 -0.21167843 -0.74817646 -0.117981605 1.0000323 -0.1276396 -0.1402143
0.23385198 -0.6669898 -0.27491733 0.00083068677 -0.41118947 -0.23753026 -0.41751653 -0.08707227
0.008021156 -0.6182082 -0.04270809 -0.21015398 -0.75676304 -0.31402457 0.1407362 -0.15351827
0.42568514 -0.65715545 0.1864546 0.33129564 0.81160206 0.13678624 0.8617722 -0.72174567
-0.18032178 -0.43239892 -1.0534531 0.43306556 -0.6858121 -0.6400887 -0.59544885 0.49045962
-0.4970897 0.17304356 0.27733558 0.2957944 -0.31995347 -0.025231166 0.15204498 0.7595971
0.090942726 -0.24428241 -0.7059763 0.20349051 0.31594273 -0.36647904 -0.24274614 -0.45222035
-0.03665279 0.36095488 -0.19446248 0.027783856 -0.050510682 0.008992605 0.4590677 0.6521745
1.274853 0.4080125 -0.1811157 -0.034726486 0.2647092 0.89404553 -1.3305665 -0.84987724
-0.49947634 -0.1400115 1.3503288 1.3672525 -0.52717596 0.7550604 0.023525435 0.0224183
-0.64118576 0.055436846 0.38755107 0.68906736 0.3430459 0.27920336 0.18747129 1.0083421
-0.5127509 0.05499095 0.21141878 -0.082374536 -0.22194654 -0.6421395 -0.29041776 -0.005540557
0.9395766 -0.22478394 0.24741867 -0.16178246 0.011362649 0.48193336 0.3414022 0.4181054
-0.12383274 -0.47273448 -0.15052 0.42524815 -0.38063413 0.19880763 0.07663245 -0.17166424
0.2596737 -0.14715694 0.19886528 -0.24469778 0.18897194 -0.3491029 -0.39715758 -0.17492078
-0.5214616 0.4423094 1.1679819 0.3975354 -0.40267223 0.30131364 0.118284516 -0.5363494
-0.29715574 0.1311906 -0.8152654 0.12490092 -0.22109109 -0.18558387 -0.1620841 0.13045156
00000000: 3a36 07bf 305f 52be c5cb 803e b48b f6bd
00000010: ba7a 83bf a9c4 6e3f 35ce e2be 18e3 14bf
00000020: e897 0cbb d65b 35bf e4ef 4a3e 5ae1 fabe
00000030: 30fe 073f 222b db3e 3a2f b4be b47d a43e
00000040: e240 c7be fa29 6fbf 4d60 2d3e 037e 393e
00000050: dcb6 a9be 1d64 8f3d 523f 903d 36a1 32be
00000060: 45e3 f6bd 2dbc f43e 29c5 0d3d d1db e43e
00000070: d57e 63be 2d2f 82be 5f33 a5be c2da 96be
00000080: 6c53 f6bd 8d08 e8bd 31e9 e73c 6e70 a53e
00000090: 5134 00be 6d37 afbe 69de d13e bab7 aabe
000000a0: d014 d23d 21d7 733e ba90 91be 866d 3a3f
000000b0: 102d 063f 99ff 7f3e 6568 95be 8cc8 02bf
000000c0: 4ad5 c4bd 7863 a83e 7b58 b03d b5dc a23f
000000d0: f73c 64bf a44c 8b3e 3295 cbbd 7110 833e
000000e0: b4b3 c83e b2dd 35be 1a4c 853e 9988 053f
000000f0: b94c 58be 58ec 123e 1bcb 823e 7355 943f
00000100: 4fdd f7bc 6974 5f3d e0c4 21bf 1ee9 293f
00000110: a8da 393f d4d7 a4be a34d 203f 6667 f9be
00000120: e436 df3e 0f98 d0be 2d28 56bd d96b 2bbe
00000130: e3c0 023f cd8c d83e 1525 613f f7c7 cabd
00000140: 36c6 d3bb 2f6c 4d3d a81d e53d 163c 553f
00000150: 7827 b5be a385 f4be 24df d4bd 8886 47be
00000160: 5cdd e03e a35f 8e3e 5351 b03e d765 a83d
00000170: 382a ecbd 5378 dc3e 12b6 a13e cede ae3e
00000180: c2c3 63be 6407 80be e3eb c3be eed0 53be
00000190: 4fe2 d2bd 2da5 4ebe 0c22 88be 23b9 cebe
000001a0: a7dd 7b3e 9c53 33be 48e9 6b3e f912 be3d
000001b0: 0a97 5dbf 0f92 71be 955f adbe f4f5 383f
000001c0: e908 d9be 733e 45be de80 983e 1fd7 06bf
000001d0: ffe1 adbe a7e5 9c3e 1552 36bf de92 813e
000001e0: 0098 133e fd01 cd3e 3bc2 58be 7e88 3fbf
000001f0: 57a0 f1bd 0f01 803f f5b3 02be 5694 0fbe
00000200: e576 6f3e d8bf 2abf f7c1 8cbe 72c2 593a
00000210: 6d87 d2be 223b 73be bac4 d5be f252 b2bd
00000220: 2b6b 033c e542 1ebf aeee 2ebd 9b32 57be
00000230: 39bb 41bf d4c7 a0be 271d 103e e533 1dbe
00000240: 67f3 d93e 573b 28bf f4ed 3e3e 959f a93e
00000250: 27c5 4f3f b111 0c3e 1a9d 5c3f 53c4 38bf
00000260: 46a6 38be 6463 ddbe 8dd7 86bf c5ba dd3e
00000270: 6291 2fbf dadc 23bf 566f 18bf 861d fb3e
00000280: 8b82 febe 5532 313e eefe 8d3e 5d72 973e
00000290: f1d0 a3be 97b1 cebc aeb1 1b3e f574 423f
000002a0: 2e40 ba3d 2b25 7abe ddba 34bf d15f 503e
000002b0: 3fc3 a13e 24a3 bbbe 7292 78be 6d89 e7be
000002c0: 3c21 16bd 14cf b83e 2c21 47be f89a e33c
000002d0: 4ae4 4ebd b855 133c ec0a eb3e e8f4 263f
000002e0: 622e a33f 04e7 d03e 6576 39be 5c3d 0ebd
000002f0: f787 873e 2be0 643f 0150 aabf 8e91 59bf
00000300: 5dbb ffbe 2d5f 0fbe 93d7 ac3f 2102 af3f
00000310: 01f5 06bf a34b 413f 6ab8 c03c 95a6 b73c
00000320: c024 24bf bf11 633d 186d c63e b866 303f
00000330: b6a3 af3e bef3 8e3e 79f8 3f3e 5b11 813f
00000340: a543 03bf 313e 613d 2a7e 583e fbb3 a8bd
00000350: f445 63be 4163 24bf a3b1 94be 908d b5bb
00000360: 1888 703f c32d 66be 525b 7d3e 4daa 25be
00000370: 672a 3a3c f8bf f63e 45cc ae3e e911 d63e
00000380: 059c fdbd 410a f2be ea21 1abe 20ba d93e
00000390: 7ae2 c2be 3a94 4b3e 79f1 9c3d c0c8 2fbe
000003a0: f4f3 843e 4fb0 16be 57a3 4b3e 0e92 7abe
000003b0: dc81 413e 9ebd b2be 3d58 cbbe 6f1e 33be
000003c0: 827e 05bf 6176 e23e 6e80 953f c389 cb3e
000003d0: 0e2b cebe c845 9a3e 273f f23d 324e 09bf
000003e0: cc24 98be d456 063e 3cb5 50bf 0ecc ff3d
000003f0: b465 62be b309 3ebe 60f9 25be 1895 053e

convs.1.fc_full.bias f4 [92]
0.03598777 0.051646333 -0.029720334 -0.04023366 0.07003858 0.0018563713 0.12068156 0.014616744
0.07807105 -0.05410569 -0.03953279 0.01527241 -0.023215776 0.031780113 -0.062137287 0.09036933
0.06649556 0.011847318 -0.047279686 -0.026929652 0.063244 0.07865364 0.1370755 0.031197026
-0.06289198 0.009300566 -0.048841093 -0.02437285 -0.06729571 -0.031005625 0.13480765 0.045016523
0.11664343 0.022816421 0.09220523 -0.07638865 0.05486076 -0.10119523 -0.054005805 0.05495327
-0.0496975 0.11148992 0.0069080777 0.03724458 -0.021861393 0.107243106 -0.013643513 -0.07909304
0.08249795 0.08711713 -0.031807493 0.009261416 -0.024301117 -0.027741479 -0.0017121175 0.028077547
0.06298247 -0.08516172 -0.049395766 -0.02046462 -0.026942713 -0.052023277 0.052011333 0.007596319
-0.05711646 0.027077252 -0.07164356 0.083447166 -0.029774632 0.038708832 0.016668107 0.042275988
-0.079353355 -0.08393892 -0.0005152433 -0.035423983 0.08790894 0.026059765 -0.029454345 0.05480504
0.020894859 -0.05442724 -0.053764798 0.018208452 -0.06388573 0.024841659 -0.06058422 0.056116335
-0.054442767 -0.09325669 0.010048603 -0.08581369
00000000: e967 133d 1b8b 533d 0f78 f3bc 0dcc 24bd
00000010: 6370 8f3d 7c51 f33a e527 f73d 117b 6f3c
00000020: b7e3 9f3d ee9d 5dbd 23ed 21bd 2139 7a3c
00000030: 032f bebc dd2b 023d ab83 7ebd 8e13 b93d
00000040: d32e 883d 411b 423c 58a8 41bd 939b dcbc
00000050: 1286 813d 2915 a13d 855d 0c3e e890 ff3c
00000060: 83cd 80bd 6761 183c 990d 48bd 92a9 c7bc
00000070: 55d2 89bd 82ff fdbc 040b 0a3e 3f63 383d
00000080: c0e2 ee3d 81e9 ba3c 18d6 bc3d a771 9cbd
00000090: adb5 603d 723f cfbd 3135 5dbd ae16 613d
000000a0: 9b8f 4bbd d454 e43d 285d e23b c68d 183d
000000b0: aa16 b3bc 46a2 db3d 0b89 5fbc 88fb a1bd
000000c0: aff4 a83d 776a b23d 9348 02bd 32bd 173c
000000d0: 2313 c7bc 1942 e3bc 2169 e0ba e202 e63c
000000e0: f4fc 803d 4569 aebd 3753 4abd 6ba5 a7bc
000000f0: f7b6 dcbc 5c16 55bd d609 553d 8bea f83b
00000100: f3f2 69bd 1dd1 dd3c dcb9 92bd 59e6 aa3d
00000110: eee9 f3bc 278d 1e3d 8e8b 883c 9629 2d3d
00000120: 0384 a2bd 2be8 abbd 6411 07ba bd18 11bd
00000130: 9a09 b43d 4a7b d53c 3d4a f1bc 407b 603d
00000140: b22b ab3c 19ef 5ebd 7a38 5cbd e429 953c
00000150: 86d6 82bd bc80 cb3c 2927 78bd 3eda 653d
00000160: 61ff 5ebd 5dfd bebd e5a2 243c 17bf afbd

convs.1.bn1.weight f4 [92]
2.330197 0.60925806 1.3564109 2.492218 2.9833527 2.096905 2.5357711 1.6049968
2.3768125 3.580466 2.2916825 1.7850202 2.6377683 1.4710909 2.6870556 2.2141647
3.1404238 1.3864937 1.8024356 1.2487878 1.3968081 1.4732506 0.94726396 1.7632779
2.4550736 2.056039 2.922602 2.0988512 2.9901843 2.9541218 2.035765 2.4117115
2.2424874 2.3905282 2.4221697 1.7049024 0.97435623 1.0289645 1.4326688 1.6583208
2.355339 2.990271 2.1575797 2.8810208 2.0618167 1.564773 1.6264787 2.3139453
1.2956728 0.8821284 2.3755305 0.8895527 1.225582 1.2595329 2.6360164 0.7489454
1.5052596 1.3495089 1.1849022 1.4629618 1.0766248 1.5533792 0.80584306 1.2101896
1.8163034 1.0028938 0.62794083 2.739766 0.6433654 0.7510329 2.1174765 1.0190951
1.2770392 1.4146315 0.9535215 1.0344367 1.2063634 1.1475426 0.47211993 1.5314701
1.5624641 0.586854 1.3157935 1.0547528 0.9135446 1.1275703 2.8081667 1.3272754
2.1424096 2.356353 0.8527715 0.6174276
00000000: f321 1540 56f8 1b3f df9e ad3f 8080 1f40
00000010: 40ef 3e40 b133 0640 134a 2240 8970 cd3f
00000020: b21d 1840 5b26 6540 edaa 1240 8b7b e43f
00000030: 32d1 2840 b54c bc3f b8f8 2b40 e0b4 0d40
00000040: b4fc 4840 a078 b13f 36b6 e63f 47d8 9f3f
00000050: 9cca b23f 7a93 bc3f e47f 723f 17b3 e13f
00000060: ed1f 1d40 2596 0340 e90b 3b40 9453 0640
00000070: 2e5f 3f40 5510 3d40 f949 0240 7b59 1a40
00000080: ea84 0f40 6afe 1840 d404 1b40 3e3a da3f
00000090: 696f 793f 1cb5 833f b161 b73f db43 d43f
000000a0: e0bd 1640 9a60 3f40 c915 0a40 a562 3840
000000b0: cef4 0340 7b4a c83f 7430 d03f ae17 1440
000000c0: 9bd8 a53f 2bd3 613f b108 1840 bab9 633f
000000d0: dfdf 9c3f 6038 a13f 7eb4 2840 e3ba 3f3f
000000e0: 59ac c03f b5bc ac3f e0aa 973f 5542 bb3f
000000f0: d7ce 893f 21d5 c63f bb4b 4e3f 7ee7 9a3f
00000100: a17c e83f d35e 803f bbc0 203f 5358 2f40
00000110: 98b3 243f b143 403f bc84 0740 b571 823f
00000120: 0576 a33f a512 b53f fc19 743f 6c68 843f
00000130: 1e6a 9a3f ade2 923f b4b9 f13e 3607 c43f
00000140: d3fe c73f 103c 163f ec6b a83f 2402 873f
00000150: 0fde 693f 3954 903f 01b9 3340 29e4 a93f
00000160: 3d1d 0940 7dce 1640 3c4f 5a3f bc0f 1e3f

convs.1.bn1.bias f4 [92]
-0.28375658 -0.4179358 -0.56844234 -0.4220158 0.24616931 -0.5355379 -0.029363777 -0.3274948
-0.6802252 -0.0708641 -0.39564443 0.22457233 -0.5940388 -0.47332093 0.1437747 -0.52949214
0.08819135 -0.7064681 -0.10426459 -0.086476244 -0.22849473 -0.1317604 -1.0417316 -0.8316081
-0.559583 -0.40899196 -0.13517717 -0.51750976 -1.150549 0.10389147 -0.8665951 0.0109500615
-0.36513656 -0.3288523 -0.383369 -0.8888293 -0.34737626 -0.44789279 -0.6521888 -0.08797784
-0.377699 0.22602634 0.12640846 -0.18519674 0.0092665795 -0.40681487 0.12321122 -0.22386093
-0.47375482 -0.5422183 0.08493332 -0.6706726 0.27141452 -0.6077082 -0.100473545 0.78089434
-0.52068865 -0.38459858 -0.24180637 -0.34145948 0.54941374 -0.37379673 -0.38836822 -0.56255
-0.24040289 -0.74030477 -0.5549779 -0.025126599 -0.6571494 -0.69343156 0.25498492 -0.6367262
0.38413113 -0.23534243 -0.58508927 0.32150835 -0.5439865 0.49798682 -0.79055893 -0.23084305
-0.15224448 -0.6862005 -0.20089613 -0.46814573 -0.673239 -0.0009803413 -0.018907392 -0.35376996
-0.045907684 -0.003488556 0.45920393 -0.7258833
00000000: 8b48 91be aefb d5be 7085 11bf 7412 d8be
00000010: cf13 7c3e 0319 09bf 4e8c f0bc 66ad a7be
00000020: 3d23 2ebf 3221 91bd e891 cabe 4af6 653e
00000030: ed12 18bf 1f57 f2be ad39 133e cc8c 07bf
00000040: ab9d b43d 18db 34bf ac88 d5bd 751a b1bd
00000050: 86fa 69be 33ec 06be 7657 85bf 45e4 54bf
00000060: d540 0fbf 6567 d1be e26b 0abe 857b 04bf
00000070: 3145 93bf 0dc5 d43d 2dd9 5dbf e367 333c
00000080: 2ef3 babe 545f a8be f148 c4be 518a 63bf
00000090: 4ddb b1be 3452 e5be d8f5 26bf ba2d b4bd
000000a0: c361 c1be 7373 673e 3871 013e 37a4 3dbe
000000b0: dad2 173c 0a4a d0be 2a56 fc3d cd3b 65be
000000c0: fe8f f2be d2ce 0abf 85f1 ad3d 33b1 2bbf
000000d0: d8f6 8a3e c492 1bbf 13c5 cdbd b1e8 473f
000000e0: da4b 05bf 1bea c4be 179c 77be c7d3 aebe
000000f0: 61a6 0c3f 4962 bfbe 33d8 c6be 4703 10bf
00000100: 2d2c 76be 9d84 3dbf 0813 0ebf 4cd6 cdbc
00000110: f13a 28bf bb84 31bf 628d 823e 7d00 23bf
00000120: d6ac c43e 9bfd 70be 69c8 15bf be9c a43e
00000130: b342 0bbf 21f8 fe3e 1262 4abf 1f62 6cbe
00000140: fae5 1bbe d6aa 2fbf b7b7 4dbe ccb0 efbe
00000150: 6459 2cbf cc7e 80ba ade3 9abc 5621 b5be
00000160: b209 3cbd 42a0 64bb c71c eb3e 7dd3 39bf

convs.1.bn1.running_mean f4 [92]
1.3810617 0.29902345 1.507486 1.8230146 -0.56633186 1.1139648 -0.8340487 -2.6583667
2.3737988 0.41282412 -0.91006666 -1.5079503 2.5026636 0.526573 -1.0040375 -0.18074402
-0.95483696 -2.0703008 -2.3924675 -3.1186907 -3.005828 2.0854235 1.8546919 -0.29084516
3.2175899 -0.6370443 -3.3638837 0.8641674 -1.8036404 0.32561687 0.5881765 0.988644
-1.2234699 -1.6937488 -1.1086019 -1.8533926 -1.6161755 -1.2897785 -1.5542487 3.77606
-3.3346004 -1.4890906 0.9345878 3.3196378 -0.21212578 -0.7733675 -5.094175 -1.7888103
-3.561898 -0.0394422 -0.16048643 -4.9546814 -1.3217641 -1.8759118 -4.8851314 -3.4439287
0.16590329 -1.4793464 -2.007923 -6.184261 -3.1505895 -0.097327605 1.9286356 -0.64793926
-6.9498034 0.1444757 -1.4121696 -3.568796 -1.0283803 -0.3315614 -3.3524623 -2.7998781
-1.4443651 -2.6449478 -2.295845 -0.8501298 0.62279856 -2.5659735 0.1999877 -0.027924184
-1.3540281 -1.9425768 -2.3768806 -4.4235506 -5.440935 0.90829074 1.6097326 -5.5068164
-4.155084 -3.637565 -1.9509617 -0.89419353
00000000: a1c6 b03f 9a19 993e 4df5 c03f 8b58 e93f
00000010: 20fb 10bf 6696 8e3f 3784 55bf ae22 2ac0
00000020: 52ec 1740 af5d d33e 21fa 68bf 8404 c1bf
00000030: a42b 2040 7dcd 063f 4d84 80bf f614 39be
00000040: 3270 74bf cf7f 04c0 301e 19c0 a198 47c0
00000050: 7c5f 40c0 9477 0540 8b66 ed3f a8e9 94be
00000060: feec 4d40 5615 23bf df49 57c0 133a 5d3f
00000070: b0dd e6bf 41b7 a63e bc92 163f c617 7d3f
00000080: a99a 9cbf c3cc d8bf abe6 8dbf f83b edbf
00000090: d7de cebf 7617 a5bf 9ff1 c6bf f8aa 7140
000000a0: 186a 55c0 859a bebf 2541 6f3f f274 5440
000000b0: 8037 59be 6afb 45bf 7b03 a3c0 bcf7 e4bf
000000c0: 23f6 63c0 258e 21bd 8e56 24be c08c 9ec0
000000d0: 912f a9bf e11d f0bf ff52 9cc0 5469 5cc0
000000e0: 8de2 293e 395b bdbf cf81 00c0 77e5 c5c0
000000f0: 42a3 49c0 b253 c7bd 88dd f63f 59df 25bf
00000100: ca64 dec0 70f1 133e f9c1 b4bf 2767 64c0
00000110: f7a1 83bf 6ac2 a9be be8e 56c0 3431 33c0
00000120: f5e0 b8bf d346 29c0 20ef 12c0 1ba2 59bf
00000130: ba6f 1f3f e938 24c0 93c9 4c3e 42c1 e4bc
00000140: cb50 adbf 5ba6 f8bf d01e 18c0 ba8d 8dc0
00000150: 241c aec0 be85 683f b80b ce3f d737 b0c0
00000160: 73f6 84c0 ddcd 68c0 1db9 f9bf dee9 64bf

convs.1.bn1.running_var f4 [92]
25.736126 34.002495 19.564604 25.789433 24.613535 20.109943 21.602686 17.290941
27.646463 14.866005 22.187403 17.488548 25.121607 18.925793 19.37399 18.46904
18.854046 36.31739 27.15623 27.788336 18.258703 19.926737 25.109634 28.677555
14.229798 20.578201 30.55585 31.31455 15.949883 19.161554 28.05079 19.909204
23.984886 15.480802 17.70284 31.092615 13.797819 24.41364 22.596292 16.72711
26.742592 17.694721 14.962846 27.987968 22.177872 13.746443 28.269156 22.828283
30.188765 26.778244 33.4086 43.516315 18.285332 21.252974 26.863405 25.578176
26.920832 23.137512 26.685476 24.848305 30.242958 24.753695 21.639362 24.098528
39.957794 22.665321 14.868402 27.66415 20.907883 24.340973 19.650726 20.615616
23.35642 29.987038 25.586416 21.456606 22.092207 17.790281 34.149586 20.125488
17.116646 30.289309 12.206445 39.695988 31.49063 25.68644 27.097937 24.958735
38.96382 23.750217 18.234625 15.051482
00000000: 96e3 cd41 8e02 0842 4f84 9c41 c250 ce41
00000010: 85e8 c441 2ae1 a041 4dd2 ac41 d953 8a41
00000020: f52b dd41 28db 6d41 cd7f b141 8ce8 8b41
00000030: 0df9 c841 0668 9741 eefd 9a41 98c0 9341
00000040: 16d5 9641 0245 1142 f63f d941 834e de41
00000050: d311 9241 f569 9f41 88e0 c841 a26b e541
00000060: 41ad 6341 28a0 a441 6172 f441 3384 fa41
00000070: b932 7f41 dd4a 9941 0568 e041 0d46 9f41
00000080: 0ce1 bf41 5db1 7741 6b9f 8d41 adbd f841
00000090: dec3 5c41 224f c341 35c5 b441 1fd1 8541
000000a0: d4f0 d541 ca8e 8d41 d167 6f41 5ce7 df41
000000b0: 486c b141 6ef1 5b41 3b27 e241 53a0 b641
000000c0: 9782 f141 d839 d641 68a2 0542 b510 2e42
000000d0: 5c48 9241 1706 aa41 41e8 d641 1ba0 cc41
000000e0: dd5d d741 a019 b941 db7b d541 54c9 c641
000000f0: 94f1 f141 9107 c641 6a1d ad41 c9c9 c041
00000100: c8d4 1f42 9452 b541 f9e4 6d41 2e50 dd41
00000110: 5843 a741 50ba c241 b034 9d41 c8ec a441
00000120: f3d9 ba41 74e5 ef41 fbb0 cc41 21a7 ab41
00000130: d7bc b041 7f52 8e41 2d99 0842 0001 a141
00000140: e4ee 8841 8150 f241 994d 4341 b1c8 1e42
00000150: cfec fb41 d47d cd41 93c8 d841 7dab c741
00000160: f4da 1b42 7200 be41 83e0 9141 dfd2 7041

convs.1.bn2.weight f4 [46]
1.2222332 1.3168452 1.1097915 1.0392818 0.9310375 1.2597388 0.9318765 1.0410137
1.206086 0.9188182 1.4187484 1.4418418 1.5630023 1.0451304 1.0906547 0.70748216
0.7953371 1.2197874 1.2260588 0.7016761 0.85049224 0.8560456 1.4669608 0.772563
0.7713864 1.0498786 1.2266523 1.5381513 1.5616149 0.6295491 1.1855206 0.98708355
1.3542626 1.0697678 0.74551785 1.329374 0.6297018 1.11339 1.5624776 0.7071524
1.5904384 1.073372 1.1827931 0.9961362 0.78534406 0.59766984
00000000: 2372 9c3f 628e a83f a60d 8e3f 3007 853f
00000010: 7958 6e3f 1f3f a13f 758f 6e3f f03f 853f
00000020: 0761 9a3f ab37 6b3f 8c99 b53f 468e b83f
00000030: 7610 c83f d5c6 853f 939a 8b3f 8d1d 353f
00000040: 369b 4b3f fe21 9c3f 7fef 9c3f 0ba1 333f
00000050: dcb9 593f ce25 5b3f 5fc5 bb3f b0c6 453f
00000060: 9479 453f 6c62 863f f102 9d3f 24e2 c43f
00000070: ffe2 c73f 212a 213f 24bf 973f 82b1 7c3f
00000080: 7a58 ad3f 27ee 883f 42da 3e3f ed28 aa3f
00000090: 2334 213f 9083 8e3f 44ff c73f f107 353f
000000a0: 7c93 cb3f 4164 893f c465 973f c802 7f3f
000000b0: 4f0c 493f e400 193f

convs.1.bn2.bias f4 [46]
-0.52607876 -0.51370025 -0.45727512 -0.65513855 -0.9031029 -0.7015546 -0.5084683 -0.6356168
-0.5690415 -0.8569006 -0.29428515 -0.24368307 -0.75589794 -0.32603395 -0.5153991 -0.3032756
-0.3434705 -0.7902551 0.003029479 -0.034892425 -0.72067386 -0.23469862 -0.2649521 -0.44708565
-0.5059458 -0.3866336 -0.7580204 -0.20059158 -0.16636899 -0.3613969 -0.09261529 -0.52791125
-0.53034526 -0.5840404 -0.22103564 -0.06490868 -0.44918638 -0.9499769 -0.24739493 -0.93438417
-0.6383406 -0.34539923 -0.3512831 -0.09969036 0.08044064 -0.26268816
00000000: 19ad 06bf dc81 03bf f71f eabe 29b7 27bf
00000010: c031 67bf 1599 33bf fa2a 02bf c8b7 22bf
00000020: b4ac 11bf d65d 5bbf 8bac 96be 0e88 79be
00000030: 8782 41bf eced a6be 32f1 03bf f046 9bbe
00000040: 5edb afbe 294e 4abf 398a 463b 5ceb 0ebd
00000050: 157e 38bf d654 70be cda7 87be 69e8 e4be
00000060: aa85 01bf d7f4 c5be a00d 42bf e167 4dbe
00000070: a25c 2abe 0409 b9be 16ad bdbd 3125 07bf
00000080: b5c4 07bf ac83 15bf 2b57 62be d8ee 84bd
00000090: c2fb e5be b031 73bf 1955 7dbe cd33 6fbf
000000a0: 4a6a 23bf 2bd8 b0be 61db b3be 762a ccbd
000000b0: 10be a43d 107f 86be

convs.1.bn2.running_mean f4 [46]
4.2583923 4.915015 1.7804055 1.0554783 8.92765 0.608506 4.8181133 1.2848892
5.875754 5.750765 2.4813576 2.9145846 1.9196974 2.2844827 5.492274 3.364615
0.7371922 1.5942279 4.32615 0.7900847 0.4980245 7.299516 0.16077524 0.6729735
4.3057823 1.1735859 5.197433 2.849441 0.5441001 4.6796417 0.85046357 5.1885304
0.09611739 3.6444004 4.2806296 0.08366362 2.4412842 1.155969 0.49016476 3.5613592
6.333104 3.0039315 6.186138 7.0292587 4.3542566 0.29007986
00000000: c044 8840 ce47 9d40 54e4 e33f ea19 873f
00000010: a8d7 0e41 0dc7 1b3f fc2d 9a40 4077 a43f
00000020: 2d06 bc40 4406 b840 90ce 1e40 8e88 3a40
00000030: a5b8 f53f f734 1240 b5c0 af40 da55 5740
00000040: a1b8 3c3f a90f cc3f d26f 8a40 fe42 4a3f
00000050: 11fd fe3e a395 e940 44a2 243e fe47 2c3f
00000060: f8c8 8940 1038 963f 5f51 a640 3e5d 3640
00000070: 254a 0b3f a0bf 9540 fbb7 593f 7108 a640
00000080: 32d9 c43d db3d 6940 ebfa 8840 d557 ab3d
00000090: 003e 1c40 cbf6 933f e0f6 fa3e 4fed 6340
000000a0: caa8 ca40 6a40 4040 d8f4 c540 b0ef e040
000000b0: 1256 8b40 5985 943e

convs.1.bn2.running_var f4 [46]
24.669302 39.430595 6.0679436 8.690683 170.21742 1.6481354 42.23171 4.562638
46.637703 28.549952 38.934517 15.573491 8.164578 9.841537 40.135353 34.27695
4.052582 7.343682 28.491924 3.1367812 2.9550922 83.17587 0.40055534 2.720208
73.14663 11.564721 81.59343 16.93475 1.4904711 38.36347 3.160476 44.209106
0.15348539 65.3342 68.581474 0.10072986 32.682804 5.3825707 1.0752453 35.172184
71.843575 20.328278 42.201344 134.60669 26.519833 1.3199538
00000000: bb5a c541 eeb8 1d42 982c c240 0a0d 0b41
00000010: a937 2a43 1af6 d23f 45ed 2842 2101 9240
00000020: 028d 3a42 4d66 e441 f2bc 1b42 052d 7941
00000030: 1da2 0241 f076 1d41 9a8a 2042 991b 0942
00000040: c0ae 8140 71ff ea40 76ef e341 06c1 4840
00000050: 3b20 3d40 0c5a a642 9715 cd3e e317 2e40
00000060: 134b 9242 1909 3941 d62f a342 5e7a 8741
00000070: c2c7 be3f 3174 1942 3d45 4a40 20d6 3042
00000080: 462b 1d3e 1cab 8242 b729 8942 754b ce3d
00000090: 31bb 0242 053e ac40 a3a1 893f 51b0 0c42
000000a0: e9af 8f42 50a0 a241 2dce 2842 509b 0643
000000b0: 9e28 d441 3ff4 a83f
