dropout/NN_ensemble/histories/2_d5_valid_best_params.pt (torch_old, 452453 bytes, 103 tensors)

embedding.weight f4 [46, 98]
000000 bc 87 a3 bd ef f8 07 3d 9c bd 98 3d 49 4b 95 3f
       -0.07984874 0.033196386 0.0745804 1.16636
000010 53 61 25 be d7 d9 6b 3e 6a 14 7e be 9d c3 17 3e
       -0.16150407 0.23032318 -0.24812475 0.14820714
000020 77 58 9f be b0 fb 52 be 9e 3a 54 be 37 cb 83 3d
       -0.3112218 -0.20603824 -0.20725486 0.064352445
000030 eb 75 37 3f ba 46 14 bd ed 5b c5 bd 35 12 fd bb
       0.71664304 -0.036200263 -0.09636674 -0.0077231177
000040 f5 78 9d 3d a0 17 9c 3e dc 77 83 bc 2e 50 81 3e
       0.07689086 0.30486774 -0.016048364 0.25256485
000050 85 d2 89 be 73 a2 89 3e 68 b8 25 3d 4d c5 1a be
       -0.26918426 0.2688175 0.040459067 -0.15114327
000060 fc 85 bc bc f0 4e 19 bc 95 ba 78 be 2b 6f 10 be
       -0.023013107 -0.009357199 -0.24289925 -0.14104907
000070 f0 97 33 3e b7 24 df 3e ef 76 4f be ed 83 56 be
       0.17538428 0.435827 -0.20260213 -0.20948763
000080 1e ef 97 3d 27 f8 b2 bd 2a 2f 5e be 55 2b 2a bd
       0.07418655 -0.087387376 -0.21697679 -0.04154523
000090 e3 38 75 3e 2f a4 1f be 09 e2 87 be c7 32 10 be
       0.23947482 -0.15589975 -0.2653964 -0.1408187
0000a0 4d 51 c0 3d f7 fc 56 be b5 9f 0c be 03 70 e3 3e
       0.09390507 -0.20994936 -0.13732798 0.44421396
0000b0 7e b3 7e bd ef 3d da 3e d4 be bb 3d 2e a6 08 3e
       -0.062182896 0.42625377 0.09167257 0.13344643
0000c0 c9 19 23 3e a8 94 1d be 80 66 11 3e 25 e2 0f be
       0.15927805 -0.15388739 0.14199257 -0.14051111
0000d0 32 7d 5a 3e c5 44 a8 be a1 de 54 be 41 1f 04 be
       0.2133682 -0.32864967 -0.20788051 -0.12902547
0000e0 d4 9a 8f bc 1b 1d 94 3e 5e 5a 5a be 63 f7 b0 be
       -0.017529882 0.28928456 -0.21323535 -0.3456374
0000f0 11 52 0e 3e 06 46 0d 3e 1d 6f 26 be c8 98 11 3e
       0.13898493 0.13796243 -0.16253324 0.14218438
000100 b1 c7 6a 3d 2e 78 ae 3d 5c 75 99 3c 10 74 c0 3d
       0.057319347 0.08519016 0.01873272 0.09397137
000110 a4 e1 26 3d e6 17 93 3d 2b 03 bb bd e8 55 58 3d
       0.04074253 0.07182293 -0.091314636 0.0528163
000120 f4 1a 4e 3e e5 e0 e7 be c3 2f c2 3d 9c e9 b5 bd
       0.2012747 -0.45288768 0.09481766 -0.08882448
000130 94 31 15 3d 1a 42 39 3e f7 a8 29 3e d4 8b 72 bb
       0.036424235 0.18091622 0.16568361 -0.0037009614
000140 14 c3 f4 bd 0c cd 3a 3d de 6b 78 be e8 6a 10 3e
       -0.11951271 0.045605704 -0.24259898 0.14103281
000150 84 f1 3d be b6 18 2f bf 0c 51 78 3e d0 17 1f 3f
       -0.18549162 -0.6839708 0.24249667 0.6214571
000160 f8 00 6e be 95 c6 4a 3f 74 93 cf be 9a c8 08 3f
       -0.23242557 0.7920926 -0.40542185 0.53431094
000170 47 c7 37 bd 85 e9 88 3d 40 71 60 3f b2 f0 2f bf
       -0.04486778 0.06685165 0.87672806 -0.68726647
000180 65 5f db be 3b d6 64 3d 04 42 9b 3d 5c ae c3 be
       -0.42846218 0.05586837 0.07580951 -0.38218963
000190 8c 9d 5a 3d 0b 35 84 3f 32 3f ad 3e 55 1b 7c be
       0.053372905 1.0328687 0.33837277 -0.24619801
0001a0 b5 fd 7f be ce 88 a8 3d 64 57 e0 be 26 cd ed 3d
       -0.24999125 0.082292184 -0.43816674 0.116113946
0001b0 e9 29 0c bd 64 8d 26 3e fa f5 ac bd 48 17 85 3b
       -0.034219656 0.16264874 -0.08445354 0.004061613
0001c0 d1 9e 01 bf 4a c9 94 3d 36 17 e4 3e 17 60 97 bd
       -0.5063296 0.07264955 0.4454896 -0.073913746
0001d0 50 e6 46 3c 07 87 d9 be 0d d3 fe 3d 41 d9 f3 bd
       0.012139872 -0.4248583 0.124425985 -0.11906672
0001e0 b8 93 56 3e 28 de 6b bd 80 5e cf be 42 a3 b9 3d
       0.20954788 -0.05758491 -0.40501785 0.09064342
0001f0 1d a4 16 3f 7e c8 c9 bd 4b d5 c9 3e 48 69 74 be
       0.58844167 -0.09852694 0.39420542 -0.23868287
000200 d1 96 c5 be e0 18 b4 bc 27 62 5e bd 73 1c 37 3e
       -0.38591626 -0.021984518 -0.054292824 0.17881946
000210 42 43 a5 3e 60 82 04 bc 8a 02 cc be 77 2e b5 3e
       0.32277876 -0.008087724 -0.39845687 0.35387012
000220 f3 8d b6 bd b7 02 87 bd 70 b8 83 be 80 b2 cc 3d
       -0.089137934 -0.06592315 -0.25726652 0.09994984
000230 64 d0 d0 3e b8 74 39 bf 78 a7 85 3d d1 3d 5a 3f
       0.4078399 -0.72443724 0.06526083 0.85250574
000240 d9 e8 a6 be 74 c7 84 3d 29 c6 03 3e ec 21 82 be
       -0.32599524 0.06483355 0.12868561 -0.25416505
000250 5c 92 a0 3d 1a a9 a5 3e 1d 8e 6f 3c f3 01 97 be
       0.07840416 0.32355577 0.014621285 -0.29493675
000260 09 95 ab 3d 49 b1 be be 74 cd 94 3e 5b 46 b6 3d
       0.083780356 -0.37244633 0.29062998 0.08900138
000270 b2 01 05 3f d1 7d 3a bd ad 4f 18 3e bd 1a 66 be
       0.5195571 -0.045530144 0.14874144 -0.22471137
000280 bb 33 00 be cc 58 53 bd 13 87 57 3d f0 c5 c9 bb
       -0.12519734 -0.051598355 0.05261905 -0.006157629
000290 5c 00 6c 3d c0 1b 5b 3d 5c 74 8b bd a8 27 89 3d
       0.05761753 0.05349326 -0.06809303 0.06697017
0002a0 f8 ab 40 3e e0 1b 65 bb 8e ab 3a be 69 77 fc bd
       0.18815601 -0.0034959242 -0.18229505 -0.12327463
0002b0 12 b0 a9 bd ad 5b 24 3e 17 0e 9b bd 7a 60 4d be
       -0.08285536 0.16050597 -0.07571047 -0.20056334
0002c0 e4 35 28 be 86 e9 cd 3d fe 93 ea 3d d8 d6 8e bc
       -0.16426808 0.10054307 0.114540085 -0.01743643
0002d0 6a 40 93 be 1a 72 6b 3e e4 d1 61 be b1 8e e5 3d
       -0.28760082 0.22992745 -0.22052723 0.11208857
0002e0 35 2a b5 bb 0f 69 86 3e 55 23 5b 3e 38 c2 7b bf
       -0.005528713 0.26252028 0.21400197 -0.9834323
0002f0 56 81 f2 3d 5f 36 3e 3f 65 df 9b 3e f7 9b 79 3e
       0.11841075 0.74301714 0.30443874 0.24375902
000300 5f 49 1d 3d 40 af 70 bd 59 3e 13 bf a7 88 5d be
       0.03840005 -0.05876088 -0.5751701 -0.2163416
000310 d4 c2 c6 bd 50 03 2c bd 52 1f 98 be 05 bf 7a 3e
       -0.09705129 -0.041995347 -0.29711396 0.2448693
000320 60 ad 2f be 78 38 ed 3d 6d b4 04 3e ed c5 e4 3d
       -0.17155981 0.11583036 0.12959452 0.11170564
000330 ca 90 5e 3e 92 fa b3 3e 1a 96 ca be 77 4b 28 be
       0.2173492 0.35152107 -0.39567643 -0.16435038
000340 da 32 64 3d a2 0b 18 bd 0d 56 49 3e 10 32 d9 bd
       0.05571256 -0.03712047 0.19661732 -0.10605252
000350 99 f1 70 bd 6f 80 ea be 58 79 1e bd 66 7c 1d bc
       -0.058824155 -0.45801112 -0.03868994 -0.009612178
000360 87 97 82 3e 57 6c 26 be c1 4d dd be 25 ed e7 bd
       0.2550623 -0.16252266 -0.43223384 -0.113245286
000370 fc 3c a3 3e 9c ea 26 3d de a2 a6 3d 7b 2c 4b be
       0.31882465 0.040751085 0.08136533 -0.19841187
000380 f8 04 09 3e 29 6d 9c bd 13 60 a8 bd fb c1 90 bd
       0.13380802 -0.07638008 -0.0822145 -0.07068249
000390 70 6c 5d 3d 26 07 1a 3e 53 56 27 3e 32 d8 97 3d
       0.054058492 0.1504179 0.16341524 0.07414283
0003a0 20 35 f6 bd 2e 29 9f 3e 90 73 9d 3d 6e c2 c8 bd
       -0.120218515 0.31086105 0.076880574 -0.098027095
0003b0 72 75 2d be 45 42 ad 3e ed a4 7d be 8a f5 e0 be
       -0.16939333 0.33839622 -0.24769945 -0.4393733
0003c0 44 09 5a 3d fa 75 a1 be fc 15 3c bc 84 78 9b be
       0.053231493 -0.3153532 -0.011479851 -0.30365384
0003d0 c9 d0 ec 3d 57 54 ab 3d b6 6f d3 bb 49 67 9d 3d
       0.1156326 0.08365696 -0.006452526 0.07685716
0003e0 ba f3 c0 3c 05 41 24 3e 6a 12 93 3e 7b 3f 8e be
       0.023553718 0.16040428 0.28724986 -0.27782807
0003f0 5d a3 02 be b8 5e 0b 3d 2b 30 12 3e 96 c2 79 3e
       -0.1275763 0.034025878 0.14276187 0.24390635

embedding.bias f4 [46]
000000 d8 4a e9 3c 79 dc 1b be bf 14 54 be 8c f0 61 be
       0.028478071 -0.15220822 -0.20711039 -0.22064418
000010 6b aa ba bd f0 5d b1 be e3 c2 45 bd 11 95 ae be
       -0.09114536 -0.3464198 -0.04828156 -0.34098104
000020 6d 06 5e be 08 73 cd be 9f fd 17 be 98 f6 e1 be
       -0.21682139 -0.40126824 -0.14842843 -0.4413345
000030 13 ca 5b 3d 43 7e f8 be 92 f1 eb bd 68 2c 9b bd
       0.05365951 -0.4853383 -0.11520685 -0.07576829
000040 0a 83 9d be c6 ac 87 be af b6 06 bf fc b5 ca be
       -0.30764037 -0.26499003 -0.52622503 -0.39591968
000050 e8 d7 a0 be 75 14 9a be 75 4c b0 bd db 4c 1c be
       -0.31414723 -0.30093732 -0.08608333 -0.15263693
000060 81 cb 7e be 3a 2f 2c be 9d f1 3d be 00 ba 98 be
       -0.24882318 -0.1681489 -0.185492 -0.29829407
000070 c0 fc 08 be 17 8f 6c bd 28 1e 9f be c6 b7 8b be
       -0.13377666 -0.05775365 -0.31077695 -0.27288646
000080 64 42 df be 15 0a d6 be f1 45 b0 3d 1f 06 01 be
       -0.4360534 -0.41804567 0.0860709 -0.12599991
000090 e5 f0 63 be 57 84 69 3d 1f c1 b1 be 54 b9 ae be
       -0.22259863 0.057010975 -0.34717652 -0.3412577
0000a0 f6 2a e1 bc ed 02 94 be 94 47 5d be c9 4b 05 be
       -0.027486306 -0.28908482 -0.21609336 -0.13017191
0000b0 26 85 93 be b6 65 03 bf
       -0.28812522 -0.51327074

convs.0.fc_full.weight f4 [92, 98]
000000 4e ae de be f9 69 5f be 88 fa b8 be b6 a8 c2 3d
       -0.4349236 -0.21817769 -0.3612864 0.09504835
000010 f8 5b 6f be 41 67 03 3e a1 b5 8f be 33 f8 68 be
       -0.23374927 0.12832357 -0.2806826 -0.2275093
000020 85 d6 c5 3e 69 7c 45 3b 56 04 92 3e 67 c5 4a bd
       0.38640228 0.0030133969 0.28518933 -0.049504664
000030 d6 db 89 bd c2 a2 11 3f 1f a3 c4 be 5c 56 f0 3b
       -0.067313835 0.56888974 -0.38405702 0.0073345136
000040 cf ad 75 3e 4e 56 b9 3e 47 ca 8d 3c 72 23 46 3d
       0.23992084 0.36198658 0.017308367 0.048373647
000050 d9 aa ea be 81 49 d8 3d 74 ea fe be 1e 4b 84 3e
       -0.4583347 0.10560895 -0.4978825 0.2583856
000060 24 b1 83 3e 52 cd 50 be e3 d9 44 3e d0 34 3b be
       0.25721085 -0.20390823 0.19223742 -0.18281865
000070 54 ec 5f 3d 45 a4 0f bd f3 b4 85 be a2 a1 78 bd
       0.05466874 -0.03506877 -0.26114616 -0.06070102
000080 12 31 f4 3d 04 a8 76 3e 54 92 ab bd 38 94 1c 3f
       0.11923422 0.2408753 -0.08377519 0.61163664
000090 7c dd 06 3d d5 f8 31 3e 82 3c a2 3e 96 ae 09 3c
       0.032926068 0.17380078 0.3168679 0.008403441
0000a0 7b f5 44 3e 86 8f d6 3d 8d f1 f2 be 0d 99 1a be
       0.19234268 0.10476594 -0.47449914 -0.15097447
0000b0 01 29 d9 3c 8a ec a5 3e 62 61 4c bf 8e fb 98 3e
       0.02650881 0.32407027 -0.79836094 0.2987942
0000c0 f3 63 dc 3d 4f bd c6 3e 59 75 b3 3e f2 bd d0 bd
       0.10761251 0.38816306 0.35050467 -0.10192479
0000d0 8b c3 72 bd 98 37 fb bd 69 22 33 3f d1 e2 dc 3e
       -0.059268516 -0.12266463 0.6997438 0.43141797
0000e0 cb e8 8d 3e fe de e5 be 21 9e f9 3e 60 42 1b bf
       0.2771667 -0.44896692 0.48753455 -0.60648155
0000f0 41 cb 0c 3f 17 e5 78 be 4f 54 91 3e 70 c1 7f 3d
       0.5499764 -0.24306141 0.28384635 0.062440336
000100 1f f7 a8 bd 4e b9 00 3f 4d 90 0d 3d d4 99 73 3e
       -0.082502596 0.5028275 0.034561444 0.2378915
000110 5c cc 04 bf d3 2a da bd 34 0c e5 be 5c eb 16 bf
       -0.5187433 -0.10652699 -0.44735873 -0.5895288
000120 a7 c5 5f 3e 0e 5d 61 be af 7c 5c be 06 13 59 bd
       0.21852742 -0.22008154 -0.21531938 -0.052996658
000130 b7 bb 48 3f 08 9f 83 3d e3 cd f1 3d 84 c4 fd 3d
       0.7841143 0.06426817 0.11806848 0.12390998
000140 c8 67 9b be 0a 5a 78 3e 99 9a 1d 3e 8d 30 08 3d
       -0.30352616 0.24253097 0.15391006 0.033249427
000150 b8 fa 95 3d 95 03 1e be 7b ee 99 bf 73 84 1f 3e
       0.073232114 -0.15431054 -1.2025903 0.15577869
000160 73 6b 34 3f 29 e8 0b be a1 3a 90 3e 7f b5 cb bf
       0.70476454 -0.13662781 0.2816973 -1.5914763
000170 c7 16 ed bd 2f 4f e3 3d f4 75 c7 bd 9d e9 f0 3e
       -0.1157661 0.110990874 -0.09739295 0.47053233
000180 5d 24 1f 3f 14 8d 94 be 7b b5 ad 3e cd eb b5 3e
       0.6216486 -0.29013884 0.3392752 0.35531464
000190 fb 9c a0 bd 25 e3 ec be b9 0a ae be a9 b7 0e 3f
       -0.07842442 -0.46267048 -0.33992556 0.55748993
0001a0 14 57 08 3f be 58 9f bd d9 23 1a bf 60 2e 51 be
       0.5325787 -0.07780598 -0.6021095 -0.20427847
0001b0 66 f8 ff 3d e6 8b 05 bd 28 8c 0b bf 13 89 8b bd
       0.1249855 -0.03260412 -0.54510736 -0.06813254
0001c0 62 e5 b9 3d 6b ac 1b be ba 2e c4 be 92 6a a4 be
       0.090769544 -0.15202491 -0.383169 -0.32112557
0001d0 49 f0 a1 3e 73 f2 e5 3e 9b d3 a9 be 08 2f d0 3e
       0.31628636 0.44911537 -0.33169255 0.40660882
0001e0 55 0f 1d bf 1c e8 41 3d 70 40 82 3e d2 60 cf 3d
       -0.6135152 0.047340497 0.25439787 0.10125889
0001f0 02 88 a0 bd b7 6d a2 be 1a ab de 3d c8 6e 7f be
       -0.078384414 -0.3172433 0.10872479 -0.24944603
000200 af d2 7a 3e 8c 02 fd 3e 89 5d 46 3e 1d d3 df 3c
       0.24494432 0.49416006 0.19371618 0.027322346
000210 fa 07 d7 bb 1e ac 5d 3e fd 00 ce 3e 9b 0e 80 3c
       -0.00656223 0.21647689 0.4023513 0.015631964
000220 26 e3 64 bd ce 36 29 3e ba 4e 63 be 77 78 bb bd
       -0.055880688 0.16524813 -0.22198 -0.09153836
000230 fe 19 84 3e 44 a6 0c 3f ef 4a d9 3e 89 21 69 3d
       0.2580108 0.549412 0.42439982 0.056916747
000240 97 53 9c be a9 92 a1 be bd 80 ab 3f ee 3a 7d 3e
       -0.30532524 -0.31557205 1.3398663 0.24729511
000250 5f c2 c7 bd bc 5d 12 3f 11 ec c9 3e d2 3a 9d be
       -0.0975387 0.5717428 0.39437917 -0.3070894
000260 dc 72 8b be d0 be 9d be 70 45 b3 3e 1e ce 0a 3f
       -0.27236068 -0.3080964 0.35013914 0.5422076
000270 10 e2 bb be 76 a1 40 bf 54 ba f1 3e 4f db 95 be
       -0.3669591 -0.7524637 0.4721247 -0.29268882
000280 e3 bc 19 3e 76 75 14 3f c9 70 38 be 56 f4 66 3d
       0.15013461 0.5799173 -0.18011774 0.05638536
000290 06 8f 01 3f 99 c1 71 be e8 14 d3 be a4 c0 df be
       0.5060886 -0.23609008 -0.41226888 -0.4370166
0002a0 87 87 70 bf b8 6a f0 bd 87 d9 86 be b0 a4 24 be
       -0.939568 -0.11739105 -0.26337835 -0.16078448
0002b0 1b b7 3a be 3f a9 dd be 41 bf 84 be 1c 0b b8 be
       -0.18233912 -0.43293187 -0.25927165 -0.35945976
0002c0 9f e0 1f bf 8f 48 0f 3f e2 6e 9f bd a2 e3 e7 3e
       -0.6245212 0.5597009 -0.07784821 0.45290858
0002d0 ac b5 89 3e 07 a9 3a 3e c1 6e d5 be 34 e7 b3 3c
       0.26896417 0.18228541 -0.4168606 0.021960832
0002e0 fb 44 9a be d1 6e 1d 3e 1a 4c 56 bd fe ef 78 bf
       -0.30130753 0.15374304 -0.05231867 -0.972412
0002f0 4b 2c 68 3f 03 7e d3 3e 6a 75 21 be 31 23 50 bc
       0.90692586 0.41307077 -0.15767446 -0.012703703
000300 a2 95 9c 3d 5c 84 31 3f a1 80 77 3e 21 4c 07 be
       0.07645728 0.6934259 0.24170162 -0.13212635
000310 ff 59 bb 3d e0 a8 54 3d d0 c3 b8 be e1 b7 7c 3e
       0.09148025 0.051918864 -0.36086893 0.24679519
000320 6e 2c 61 3e cd 8a 0a 3e 2d 82 c2 3d 20 0c b6 bd
       0.21989605 0.13529511 0.09497485 -0.088890314
000330 84 b2 e1 3d d1 37 b1 3d 45 00 01 3d 8e b4 89 3c
       0.11020377 0.08653224 0.031494398 0.016809728
000340 4f c5 08 3e 6d 34 00 3e 41 9d 5a 3e a6 1f 61 3e
       0.13356517 0.12519999 0.2134905 0.21984729
000350 34 69 89 3e 89 30 23 be 5e eb 3a be a1 1c 6d 3e
       0.26838076 -0.15936483 -0.18253848 0.23155452
000360 06 be 64 3d db 98 20 be e5 5a 27 be 99 c6 16 bd
       0.055845283 -0.1568331 -0.16343267 -0.03681049
000370 af 53 ab 3c 50 d5 13 bd 21 5b 14 be f4 45 08 3d
       0.020913927 -0.036092103 -0.14487888 0.033269837
000380 f5 d3 b7 3c 36 88 3d 3e b9 87 f1 3d 0b af f3 be
       0.022439936 0.18508992 0.11793465 -0.47594485
000390 cf 21 f5 be a8 f7 22 be db b0 38 bd 7d fc 21 be
       -0.47877356 -0.15914786 -0.045090538 -0.15818973
0003a0 76 8c d8 3d 67 90 4b 3e b7 d4 93 bd 20 3a d1 be
       0.10573666 0.19879304 -0.072183065 -0.40864658
0003b0 1a c3 e5 be 1e 6d 1a 3d f8 48 3e 3d 12 45 92 bd
       -0.44875413 0.03770172 0.046456307 -0.0714208
0003c0 c4 f6 0b bf 09 94 4b be a5 2c e8 be 50 86 00 bd
       -0.5467341 -0.1988069 -0.4534656 -0.03137809
0003d0 85 59 62 be fc 1b 8f 3c 5a b0 f4 be d7 a4 68 3e
       -0.22104461 0.017469399 -0.47790796 0.22719131
0003e0 37 34 ac be 08 a9 b6 be 0e 33 0f bf c9 91 ad 3a
       -0.33633587 -0.35675836 -0.5593728 0.00132423
0003f0 91 83 3c 3f 44 ba 39 bf d4 28 e4 3e 42 47 a7 3e
       0.73638254 -0.72549844 0.445624 0.32671553

convs.0.fc_full.bias f4 [92]
000000 6a 98 d3 bd 3c d3 d7 3d e2 1b c4 3d c8 71 39 bd
       -0.10331805 0.10538337 0.09575631 -0.045274526
000010 4f 0e 37 3b 7c 74 b3 3d 70 12 b5 3d ed 7a 88 bc
       0.0027932113 0.08762452 0.08841407 -0.016660178
000020 ce 47 a2 3d 1a 89 28 bd 8b 68 8f bd b4 1d fa bd
       0.07923852 -0.041146375 -0.07002362 -0.12212697
000030 2d c3 b0 bd e2 f2 2e bd a6 60 81 3d 6c 75 39 3d
       -0.08630977 -0.0427121 0.06317262 0.045277998
000040 59 ac 98 3d f8 e1 16 3e ea af 92 3c d3 66 9e bd
       0.07454748 0.14734638 0.017906148 -0.07734456
000050 af 50 ee bd 09 6e 91 3c 0f 0a 7a be 76 0f 68 bd
       -0.11636483 0.017752664 -0.244179 -0.05665537
000060 c6 1f 23 ba ed 6b fa bc b7 75 51 3d d6 f4 39 bd
       -0.0006222691 -0.030569041 0.051137652 -0.04539951
000070 dc 05 91 3d 5c 94 03 bd d1 ef cd bd c7 60 a6 bc
       0.07081196 -0.03212391 -0.10055507 -0.020309819
000080 04 5d 3c 3d 32 6b 03 3e 02 4c 27 bd 5c 23 aa bb
       0.045987144 0.1283386 -0.04084397 -0.0051922034
000090 81 b6 63 bc 93 fe a9 3d e3 cb 83 3c 9e f9 38 3b
       -0.013898493 0.08300509 0.016088432 0.0028224955
0000a0 78 43 a7 3c 43 df 97 bc 37 94 06 be 6b 98 ab 3c
       0.020417914 -0.018539077 -0.13142477 0.020946702
0000b0 7b 26 81 bc 79 d7 c3 bb 60 9a d7 3c de 2b c0 3d
       -0.01576542 -0.005976614 0.026318729 0.09383367
0000c0 e0 d6 16 3d bd 1c 1a 3d cb 73 23 bd fe f6 99 3d
       0.036826015 0.037625063 -0.03990535 0.07517813
0000d0 f3 22 68 3d a9 72 85 3d 21 14 82 bd f2 ff cb 3c
       0.056673955 0.0651601 -0.063514955 0.024902318
0000e0 62 df 4e 3d 6c 97 a2 3d 9e c3 01 bc 3a b6 3c 3c
       0.050506003 0.07939038 -0.007920174 0.011518056
0000f0 e5 2f 34 bd 02 13 55 bd ec 6a 5a be cf 6a 37 3d
       -0.04399099 -0.05202008 -0.2132985 0.044779595
000100 9f ef 53 bc 1c eb a6 3a 6a f4 92 3d 38 00 33 3c
       -0.012935548 0.0012734863 0.071755245 0.010925345
000110 d8 f0 9a 3e d1 cf ab 3d a0 0d 78 bd 25 57 20 bd
       0.30261874 0.08389247 -0.06055987 -0.039145608
000120 4e ac b7 bc 73 47 ed bc 49 4c 26 3c bb 37 28 bd
       -0.022421028 -0.028964734 0.010150024 -0.041068774
000130 c1 3d d2 3d 37 0e 18 bd a9 a3 e5 3d 15 db 44 bd
       0.10265685 -0.03712293 0.11212856 -0.048060495
000140 88 65 a6 bd a9 e0 9a bd c3 40 11 bd 2f 2a 9e 3d
       -0.08124834 -0.07562382 -0.035462152 0.0772289
000150 7d e6 36 3d 0c 13 7d bd 0a 57 a6 3d 97 0a f7 bc
       0.044653405 -0.061785743 0.0812207 -0.030156417
000160 e8 48 6e bd ff a1 3b be d9 e8 ea bc 25 0d 9b 3c
       -0.058174998 -0.18323515 -0.028675484 0.018927166

convs.0.bn1.weight f4 [92]
000000 5a 09 c7 3f 29 de d4 3f 5a d0 fc 3f 93 01 35 40
       1.5549729 1.6630298 1.9751084 2.828221
000010 78 7b 08 40 5d ee fe 3f df ae c8 3f ca 9a af 3f
       2.132536 1.9916493 1.5678366 1.3719113
000020 82 ef d5 3f 61 e8 d0 3f 55 58 6e 40 6e 9d b8 3f
       1.6713717 1.6320916 3.7241414 1.4423044
000030 70 7c b6 3f 7e 61 db 3f f5 b7 53 40 42 5b 0a 40
       1.4256725 1.7139127 3.3081028 2.16182
000040 af a5 be 3f 79 4b 51 40 90 9e e8 3f 13 b7 f5 3f
       1.4894313 3.2702315 1.817339 1.9196495
000050 4f bd a8 3f 11 15 01 40 68 52 cd 3f 85 df 38 40
       1.3182772 2.0169108 1.6040773 2.8886425
000060 23 e1 c9 3f b6 43 28 40 db 16 76 40 9f 9c 3d 3f
       1.5771831 2.6291327 3.845145 0.7406711
000070 19 b2 f2 3f 9e 82 19 40 80 aa 22 40 db da fc 3f
       1.8960601 2.3985972 2.5416565 1.9754289
000080 a4 d5 ae 3f 02 2d 1b 40 c3 34 13 40 00 49 d8 3f
       1.3658948 2.424622 2.3000953 1.6897278
000090 34 61 c4 3f 0c c3 11 40 73 97 f4 3e 42 4b 8d 3f
       1.5342164 2.2775297 0.47771797 1.1038592
0000a0 84 1e 2a 3f 22 4e 1c 40 7b 99 13 40 b9 f3 ef 3f
       0.66452813 2.4422688 2.3062427 1.8746253
0000b0 1e 68 19 40 ab 99 0c 40 4e a5 18 3f aa b2 1e 40
       2.3969798 2.1968791 0.59627235 2.4796548
0000c0 e5 54 6d 3f 59 11 68 3f 67 1c f9 3f 3a ea 90 3f
       0.92707664 0.9065147 1.9461793 1.132148
0000d0 c5 f8 93 3f 65 f1 2e 40 d8 7d c7 3f 3e 6e 35 40
       1.1560293 2.7334836 1.558528 2.8348536
0000e0 b6 cc 85 3f 50 ef 0f 40 cf e7 ea 3f 1e 74 b4 3f
       1.0453098 2.2489815 1.8351992 1.4097936
0000f0 64 33 07 40 8e 29 07 40 10 92 9f 3f 1f f4 02 40
       2.1125116 2.1119113 1.246645 2.04615
000100 19 56 c7 3f 2a 61 e9 3f c2 ab da 3f 46 99 82 3f
       1.557315 1.8232777 1.7083666 1.0203025
000110 d8 82 0d 3f 4b 92 aa 3f ba c8 6f 3f 07 21 7c 3f
       0.55277777 1.3325895 0.9366566 0.98487896
000120 f0 1a 9e 3f 1d 99 37 3f 59 69 e9 3f 74 5f 0b 40
       1.2351971 0.7171801 1.8235275 2.177701
000130 48 61 98 3f 73 50 9f 3f 6e a3 94 3f 2b f3 6c 3f
       1.1904688 1.2446426 1.1612375 0.92558545
000140 c5 0c d6 3f 6f cb a0 3f 6e c7 30 40 12 a1 ca 3f
       1.6722647 1.2562083 2.7621722 1.5830405
000150 d8 51 b1 3f 40 68 6f 3f d0 9d 98 3f 27 da 10 40
       1.3853102 0.9351845 1.192316 2.263315
000160 1c 16 c7 3f 5f 63 46 3f c1 ef f4 3f 7c 27 14 40
       1.5553622 0.7749538 1.9135667 2.31491

convs.0.bn1.bias f4 [92]
000000 11 29 b2 be 17 86 91 3d 57 71 0f bf b3 b7 25 be
       -0.34796956 0.07105654 -0.5603232 -0.16183357
000010 a9 cb 51 3e f1 a5 d6 3e 49 ed b5 be 04 c6 18 be
       0.20487846 0.41923478 -0.35532597 -0.14919287
000020 c4 53 6d 3d b2 75 ee 3c cd 68 0c be 4d b4 c0 3e
       0.057941213 0.029108856 -0.13711853 0.3763756
000030 39 57 37 3e a0 b3 88 3e df 5e c2 3e e2 72 7b bc
       0.17904367 0.26699543 0.37963006 -0.015347214
000040 75 99 16 bf fd 68 8c 3e 2e 1e 85 bc 26 90 ae 3d
       -0.58827907 0.2742385 -0.016249742 0.08523588
000050 df 20 81 be 43 2e 88 be c5 a7 1b bf ac df cd be
       -0.2522039 -0.26597795 -0.6080287 -0.4020971
000060 4f 2d 18 be 1a 23 d5 be 1a 7c 4a 3e 1b 6d 65 be
       -0.14861034 -0.41628343 0.19773903 -0.22404902
000070 a0 61 47 be 00 f7 2f be 39 b4 ea bd de 19 3b be
       -0.19470835 -0.17184067 -0.11460156 -0.18271586
000080 9e d1 0d bf 4c a7 01 bf 68 8d 18 bd 30 22 b4 be
       -0.55397975 -0.506459 -0.03724423 -0.35182333
000090 ac 52 ed bd 2c 07 8d 3e ad 33 9f 3d 44 11 90 be
       -0.11588034 0.27544534 0.07773528 -0.28138173
0000a0 b4 d8 a0 3e 4c 53 95 3c 3b b9 c3 be e3 57 65 3d
       0.3141533 0.018228196 -0.38227257 0.05599202
0000b0 a7 d4 6d be 93 51 9e be 46 5f 21 bf 8e a8 fc bb
       -0.23225652 -0.3092161 -0.63036 -0.007710523
0000c0 c0 8c 0a bf 68 dc ee be 98 4d eb bd 9c e6 6e 3e
       -0.5412102 -0.46652532 -0.11489409 0.23330158
0000d0 80 d6 da be bb a6 97 3c 18 0d 54 be 29 ee 29 bd
       -0.42741776 0.01851212 -0.2070812 -0.041486893
0000e0 c7 67 d2 3e 9e 8c 91 bd a9 36 32 3c 5d 52 29 bd
       0.410948 -0.07106899 0.01087729 -0.041338313
0000f0 8b ba 8e 3e d4 a1 16 be d7 ab ee be b9 a0 44 3e
       0.27876696 -0.1471017 -0.46615478 0.19201936
000100 9e 58 24 bd b1 dc ec bd f2 f8 0a be de f9 cd be
       -0.040123574 -0.11565531 -0.13571528 -0.40229696
000110 6d a9 27 bf c0 66 bd be 68 e3 07 bf 64 73 b5 be
       -0.654929 -0.36992455 -0.5308137 -0.354396
000120 a0 1c d0 be 87 b1 0b bf 43 e2 91 be c0 0b a2 bd
       -0.4064684 -0.5456776 -0.28492936 -0.079123974
000130 4f 83 54 be da 8c ab 3e bc 0d a9 be 78 80 dd be
       -0.20753215 0.335059 -0.3301829 -0.43262076
000140 09 fe 64 be e3 55 2c be b1 39 33 bd 47 6b 68 3e
       -0.22362532 -0.16829638 -0.04375619 0.22697173
000150 e8 75 e1 bd eb 1f f5 be 36 51 21 be 79 ba 46 3e
       -0.11008817 -0.47875914 -0.15753636 0.19407071
000160 eb 20 2a be 94 c0 d6 be 12 88 87 be 04 1d 84 be
       -0.1661412 -0.419438 -0.26471 -0.25803387

convs.0.bn1.running_mean f4 [92]
000000 8d 01 c4 3f 6b cb 24 c0 c4 54 be 3f 4a 2a 0c be
       1.5312973 -2.5749156 1.4869618 -0.13688007
000010 39 24 b3 3f 23 40 84 be ef f2 c8 3f ba 7c f3 be
       1.3995429 -0.25830182 1.5699137 -0.47556096
000020 73 93 35 bf e4 6b 05 c0 e3 0f c3 3b 7f c7 cd bf
       -0.70928115 -2.0847101 0.0059528216 -1.6076506
000030 2d 66 4c c0 08 1c 16 c0 1f aa 6c 40 1e bd 8c c0
       -3.1937363 -2.345461 3.6978834 -4.3980856
000040 de 16 d3 bf e4 20 66 40 ba 96 c0 bf 09 08 28 40
       -1.6491354 3.5957575 -1.5045998 2.6254904
000050 f8 b5 50 c0 c0 e4 64 40 0f 1c 5f 3e d7 14 97 3f
       -3.2611065 3.5764618 0.21788047 1.1803235
000060 25 a4 3a 40 38 1a 6c c0 da f0 c7 be dc 64 c6 3e
       2.9162686 -3.6891003 -0.39050943 0.38748825
000070 b0 77 f5 c0 68 15 2b 40 73 ac 29 40 32 51 c8 3e
       -7.6708603 2.6731815 2.6511505 0.39124447
000080 2f fd 1b 3f c4 9b 70 40 89 66 b0 bf 4d 6a 0c 3f
       0.609332 3.7595072 -1.3781291 0.548497
000090 c5 38 07 be 12 b3 32 c0 ca 1f 0e c0 b9 5c 76 c0
       -0.1320525 -2.7921796 -2.2206903 -3.8494093
0000a0 5c 76 d1 bf 1b 40 cc 3e 61 fd 1f 40 62 2d a7 be
       -1.6364245 0.3989266 2.49984 -0.32651812
0000b0 40 b0 2d c0 22 6f 51 bf 7e 86 c1 3f 37 e6 35 bf
       -2.7138824 -0.818102 1.5119169 -0.71054405
0000c0 2a 50 a6 bf 17 a5 1a c0 b8 f9 ba bf 78 ef 6a 40
       -1.2993214 -2.4163263 -1.4607458 3.670866
0000d0 57 0f 0c 40 d9 f2 6d c0 f6 f9 0c c0 4e 34 da bf
       2.1884363 -3.7179472 -2.2027564 -1.7047212
0000e0 2c 23 6b 40 77 7d bd 3f 38 8c cd 3f 52 e8 14 c0
       3.6740217 1.4803914 1.6058416 -2.3266797
0000f0 08 50 1a bf 4f 44 b3 c0 11 24 de bf 4d 06 49 3f
       -0.6027837 -5.6020885 -1.7354757 0.7852524
000100 d3 fb 53 c0 08 2c 89 3f 41 93 85 bf 00 3d 2f 40
       -3.3122451 1.0716562 -1.0435563 2.7380981
000110 68 4f de bf bb 35 8c 40 65 1d 51 3f f4 6d 2f 40
       -1.7367983 4.381559 0.8168548 2.741086
000120 af e0 62 bf ca dd a3 bf 33 76 ce c0 66 50 85 c0
       -0.8862409 -1.280206 -6.4519286 -4.1660643
000130 22 c6 10 bf b9 3f 4d 3e 99 a1 32 40 10 5e a9 c0
       -0.56552327 0.2004384 2.7911131 -5.2927322
000140 14 b9 b0 c0 26 0b 71 3f c1 22 43 bf ea 83 33 3f
       -5.5225925 0.94157636 -0.76224905 0.7012316
000150 ca 80 47 c0 16 7a f4 bf bb a0 3d bf cb 23 fe 3f
       -3.1172357 -1.9099758 -0.7407338 1.9854673
000160 45 c6 a3 bf 7e 1b 08 3e 52 b9 bb be a9 69 15 c0
       -1.2794882 0.13291737 -0.36664826 -2.334574

convs.0.bn1.running_var f4 [92]
000000 47 de 1e 42 b0 83 76 42 29 2d 4a 42 a8 f2 2f 42
       39.717068 61.6286 50.5441 43.98697
000010 59 c8 16 42 d0 75 31 42 17 df 3c 42 d5 ec 1e 42
       37.695652 44.36505 47.21786 39.73128
000020 eb 43 fe 41 ba 49 ed 41 30 8d 67 42 52 09 39 42
       31.783163 29.661 57.88788 46.2591
000030 ef 42 2e 42 21 64 fd 41 4a 5d 35 42 2e 21 f0 41
       43.565365 31.673891 45.341103 30.016201
000040 1b e0 97 42 82 9d 28 42 20 0a 20 42 f7 01 e5 41
       75.937706 42.153816 40.009888 28.62596
000050 e3 b6 00 42 62 5f 06 42 ce 27 42 42 73 95 82 42
       32.1786 33.593147 48.53887 65.29189
000060 cd d8 66 42 10 89 54 42 14 ec 1a 42 2d b3 16 42
       57.71172 53.13385 38.730545 37.674976
000070 2d dc 2f 42 31 94 22 42 f3 5d 09 42 27 58 3b 42
       43.965015 40.64472 34.341747 46.836086
000080 05 21 fb 41 36 0d 40 42 c3 a3 02 42 ac eb 24 42
       31.391123 48.0129 32.659924 41.23015
000090 9f 19 22 42 94 47 16 42 e2 45 04 42 82 69 29 42
       40.52502 37.5699 33.068245 42.353035
0000a0 8f 79 08 42 42 3d b0 41 6a d0 c9 41 65 51 77 41
       34.11871 22.029911 25.226765 15.457372
0000b0 0d f5 2b 42 e0 82 41 42 ab d5 e7 41 79 72 03 42
       42.989307 48.377808 28.97933 32.86179
0000c0 23 90 43 42 f4 64 19 42 b1 b4 31 42 7c 2a 75 42
       48.89076 38.348587 44.426456 61.29149
0000d0 33 fe 60 42 11 e8 f4 41 73 ee 2a 42 30 a8 c1 41
       56.24824 30.613314 42.73286 24.207123
0000e0 77 ed d3 41 35 8e 52 42 a6 85 20 42 50 62 c7 41
       26.49095 52.638874 40.130516 24.923004
0000f0 ad 7f 3d 42 fe 49 f9 41 1e 20 94 41 67 bd 25 42
       47.374683 31.161129 18.515682 41.434963
000100 d7 d6 0f 42 16 e8 21 42 b4 11 07 42 29 b9 86 42
       35.959805 40.476646 33.76729 67.36164
000110 bf 9b dc 41 c4 63 33 42 9d 72 29 42 ce 06 0b 42
       27.576048 44.847427 42.361927 34.756645
000120 67 85 54 42 59 ac 16 42 86 52 a2 42 ac 67 18 42
       53.130276 37.66831 81.16118 38.101242
000130 3d fb 0c 42 f5 1c 23 42 83 3e d7 41 5a 41 19 42
       35.24535 40.77828 26.905523 38.31382
000140 fb d5 26 42 6e aa 29 42 d8 f0 35 42 7e 8d f2 41
       41.708965 42.416435 45.4852 30.319088
000150 a2 af 27 42 fd 41 b9 41 af 30 f2 41 e5 47 c8 41
       41.921516 23.15722 30.273771 25.035105
000160 bf 1a f4 41 2e ea f5 41 8d ce 4c 42 25 73 38 42
       30.51306 30.739346 51.20171 46.112446

convs.0.bn2.weight f4 [46]
000000 ba ea a9 3f 13 c0 8c 3f 08 b3 d0 3f 7f 39 a7 3f
       1.3274758 1.0996116 1.6304636 1.3064421
000010 24 ee b2 3f 64 7d 47 3f 50 15 b3 3f f6 29 86 3f
       1.3978925 0.77925706 1.3990879 1.0481555
000020 79 80 b3 3f 02 2d 86 3f ff 27 82 3f d3 0d 84 3f
       1.4023582 1.0482485 1.0168456 1.0316719
000030 f8 15 76 3f 68 12 69 3f 2e 0a 91 3f be a1 4f 3f
       0.9612727 0.9104371 1.1331232 0.81106174
000040 0d 98 e8 3f e2 69 53 3f d5 fc 64 3f 21 90 82 3f
       1.8171402 0.8258344 0.8944829 1.0200235
000050 58 54 88 3f d1 71 b8 3f 56 8e d2 3f c1 21 92 3f
       1.065074 1.4409734 1.6449687 1.1416551
000060 cb fe c5 3f ad 3c c6 3f 26 07 a4 3f cf 09 ae 3f
       1.5468382 1.5487267 1.2814682 1.3596743
000070 bd b5 73 3f 8e d0 6d 3f 57 50 53 3f 43 6b 8e 3f
       0.95199186 0.92896354 0.82544464 1.1126484
000080 31 35 9d 3f 8b e4 a4 3f 6a e5 69 3f 51 5e cd 3f
       1.2281858 1.2882246 0.91365683 1.6044408
000090 bd e2 63 3f 96 51 8e 3f 40 ec 82 3f 35 e6 98 3f
       0.8901785 1.1118648 1.0228348 1.1945254
0000a0 01 1a 55 3f 8b 94 8a 3f 76 fa 44 3f fb 93 83 3f
       0.83242804 1.0826582 0.76944673 1.0279535
0000b0 e5 2e a8 3f d7 54 a5 3f
       1.3139311 1.2916516

convs.0.bn2.bias f4 [46]
000000 d3 d7 b3 3c 2f c5 07 be d2 49 0f be 08 1b 46 be
       0.021953499 -0.13258813 -0.13993004 -0.19346249
000010 21 f4 3f bc 37 04 d7 be d0 15 f3 bd c6 57 a3 be
       -0.01171592 -0.41995403 -0.11869395 -0.31902903
000020 52 34 5a be 82 2b ab be 69 56 39 be dd 62 cf be
       -0.21309021 -0.3343163 -0.18099369 -0.40505114
000030 2c b3 0e bd cf 8f 02 bf 48 30 38 be 58 5d 08 be
       -0.03483884 -0.51000684 -0.17987168 -0.13316858
000040 73 c3 9a be d5 fd 3f be 29 cc 0b bf 9f 39 af be
       -0.3022724 -0.18749173 -0.546084 -0.3422365
000050 fd d6 90 be db 2c a7 be f9 6b a1 bc c3 cb 1c be
       -0.28289023 -0.3265141 -0.019704806 -0.15312104
000060 5f 33 b1 be f8 d6 31 be e6 5b 63 be 4e 04 c7 be
       -0.34609506 -0.1736716 -0.22203025 -0.38870472
000070 b9 42 54 be 0a d9 f4 3b 40 7d 79 be ce 9c 7c be
       -0.20728578 0.007472162 -0.24364185 -0.24669191
000080 97 b1 c9 be 37 29 c9 be ad 7b 0a 3d 1d 65 12 be
       -0.39393303 -0.39289257 0.033809353 -0.14296384
000090 d8 3f 6c be 63 b7 ed 3b 99 dc 8d be 31 e9 8b be
       -0.2307123 0.0072545274 -0.27707365 -0.27326348
0000a0 28 5d e8 bc b7 01 bf be 0a 33 82 be c1 57 d6 bd
       -0.028364733 -0.37305996 -0.25429565 -0.104659565
0000b0 bb 53 6c be 56 38 02 bf
       -0.23078816 -0.5086721

convs.0.bn2.running_mean f4 [46]
000000 70 2a a7 3e 34 a4 dc 40 23 83 bb 3f 81 83 82 3f
       0.32649565 6.8950443 1.4649395 1.0196382
000010 dd 78 be 40 ab 62 b2 40 00 bd 34 40 b8 c8 f7 40
       5.952254 5.5745444 2.8240356 7.743252
000020 9a e4 87 40 36 90 24 41 5d fe a3 40 99 c1 07 41
       4.2466555 10.285208 5.1248 8.484765
000030 bf cc b0 40 d2 40 7b 40 bf 78 1c 41 15 27 d5 40
       5.5249934 3.9258313 9.779479 6.6610208
000040 05 41 cc 3f 9d 9c f9 40 64 2c b8 40 99 b2 c9 40
       1.5957342 7.800368 5.755419 6.3030515
000050 01 58 aa 40 b9 ff d2 3f f9 9b 83 3e 44 b4 20 40
       5.3232427 1.648429 0.25704935 2.5110025
000060 69 77 c3 3f da 14 dc 3f b9 d3 25 40 a9 53 18 3f
       1.5270816 1.7193863 2.5910475 0.59502655
000070 4f 54 af 40 78 7d 42 40 98 98 30 40 6e 46 ac 40
       5.4790416 3.038908 2.7593136 5.3835974
000080 b4 20 f4 3f 7d 5e 3e 3f 26 9e 80 40 67 00 25 40
       1.907248 0.7436293 4.019305 2.5781496
000090 bb 2d 1b 41 fd 65 d5 40 f4 48 76 40 06 ed bb 3f
       9.698665 6.6686997 3.8482027 1.4681709
0000a0 4c e7 46 40 14 7a f0 40 b9 3d 1c 40 3a 74 8d 3f
       3.1078672 7.514902 2.4412673 1.1051095
0000b0 39 e8 b3 40 ba eb ef 40
       5.6220975 7.497525

convs.0.bn2.running_var f4 [46]
000000 dc 78 10 3f 5e 50 96 42 39 3c c1 40 f9 72 08 40
       0.56434417 75.15697 6.0386014 2.1320174
000010 1d ca b6 42 b5 44 0b 42 bf 39 be 41 5a 74 9e 42
       91.39475 34.817097 23.778196 79.22725
000020 36 25 95 41 c5 ed 32 43 89 fc 11 42 e7 6d e5 42
       18.64317 178.92879 36.496616 114.71465
000030 06 19 73 42 f6 a5 aa 41 09 b8 e9 42 82 1a b9 42
       60.774437 21.331036 116.85944 92.55177
000040 7f 7c 20 40 40 59 0b 43 ae 9b d6 42 23 6a 9b 42
       2.5075986 139.34863 107.30406 77.7073
000050 c6 92 5e 42 cf 30 87 40 67 47 b7 3e 20 52 59 41
       55.643333 4.224708 0.35796663 13.58255
000060 ec 51 f2 40 47 ad 26 41 4e 71 bd 41 e4 05 5d 40
       7.5725 10.417304 23.680325 3.4534845
000070 a5 28 8a 42 6c bb 12 42 1b fc db 41 57 ca 00 42
       69.079384 36.68303 27.498098 32.197598
000080 64 23 38 41 68 93 00 40 6e 8b 40 42 e9 4b 12 41
       11.50864 2.008997 48.13616 9.143533
000090 ed 78 39 43 32 cc e3 42 c8 95 fc 41 f0 65 6f 40
       185.47237 113.89882 31.573135 3.7405968
0000a0 27 c8 ab 41 25 bb 10 43 f8 5e 33 42 e6 28 6e 41
       21.47273 144.73103 44.842743 14.884985
0000b0 2d e3 33 42 66 cf c2 42
       44.97185 97.405075

convs.1.fc_full.weight f4 [92, 98]
000000 80 b6 61 bf d1 dc 3d 3f 35 42 4a bf 05 0e db 3e
       -0.881691 0.74165064 -0.79007274 0.42784134
000010 d7 1d 3f 3f 1d d9 a7 3e df 3a 07 3e a3 a4 00 3f
       0.74654907 0.32782832 0.13206051 0.50251216
000020 bd 88 ca be 5e 88 54 3e 38 10 0c bf dc f9 00 bf
       -0.39557448 0.20755145 -0.5471225 -0.50381255
000030 9c 1e 54 be 35 b5 68 3e b9 98 05 3f e8 6c 2a be
       -0.20714802 0.22725375 0.5218616 -0.16643107
000040 fb 20 13 bf b3 1c 83 bc 28 2f bb bd 07 c7 2b 3e
       -0.574722 -0.016004896 -0.09139854 0.16775142
000050 9f 65 e0 3d d0 6d a2 be 37 57 16 be 11 a0 97 3e
       0.10956883 -0.31724405 -0.14681707 0.29614308
000060 85 a5 b7 be bc 01 5f be 6d 67 0e 3e 07 ad c0 be
       -0.3586847 -0.21778005 0.13906641 -0.3763201
000070 a4 ce 18 3d d4 70 17 be 82 aa 2d 3f 76 f6 c7 be
       0.037306443 -0.14789134 0.678383 -0.39055222
000080 5d 6b 2c bd dc f7 a5 be 45 00 a2 3e a1 f8 f6 3d
       -0.042094577 -0.32415664 0.3164083 0.12059141
000090 1c 45 43 bf e8 f3 a2 bd f7 4e db be 32 1d 13 bf
       -0.7627733 -0.07956678 -0.42833683 -0.57466424
0000a0 93 38 fc bd 72 ed 16 3f c7 cc db bc ea c0 28 3f
       -0.12315478 0.5895606 -0.026831044 0.65919363
0000b0 2e 9f c8 be 2a 1c e7 3e 59 ee 46 bf e5 62 e3 3d
       -0.39183944 0.45138675 -0.7770744 0.11102847
0000c0 7a 33 3e bd 94 4a 66 bd 13 6f f7 3d 2e d3 0d 3e
       -0.04643581 -0.056223467 0.120817326 0.1385009
0000d0 98 aa 7d 3e 58 8d d8 3e 74 f2 08 bf 94 da 9e 3e
       0.24772108 0.42295337 -0.53494954 0.31026137
0000e0 53 e8 80 be cd b5 db be b1 1c 65 3d 9c 07 55 bf
       -0.2517725 -0.4291214 0.055935565 -0.83214736
0000f0 95 d1 2c be 19 ff d3 be a4 bf 36 bf 91 98 bc bd
       -0.16876824 -0.41405562 -0.7138617 -0.09208787
000100 08 83 b5 3e 46 63 17 3b e0 ab 7f be e4 64 67 be
       0.3545153 0.0023099943 -0.24967909 -0.2259708
000110 4a 75 6a 3e b5 9b 3d bf bf 0d d7 be 01 47 0a 3f
       0.22896305 -0.74065715 -0.42002675 0.54014593
000120 e9 3e 10 bf 47 cf 49 bf 9e 0c 61 3e 92 b3 19 bf
       -0.56345993 -0.78831905 0.2197747 -0.6003963
000130 f0 39 c4 3d ce a5 5c be 88 2c 78 bf 2d 2b 6a be
       0.09581363 -0.21547624 -0.9694295 -0.22868033
000140 79 60 74 bd ec 69 82 3c 11 64 90 bf 5e f6 a0 3e
       -0.059662316 0.015919648 -1.1280538 0.31437963
000150 35 49 a7 be 62 83 88 be c7 42 6e 3e 1a 28 8e 3e
       -0.3267304 -0.26662737 0.23267661 0.2776497
000160 56 b5 a2 bd 56 f5 ec 3d c3 8c 38 3e 1f 8b bf bd
       -0.07944743 0.115702316 0.18022446 -0.09352707
000170 33 16 06 3f 13 1f 09 bd 82 be 03 bf fe 7d ac be
       0.52377623 -0.0334769 -0.51462567 -0.33689874
000180 a8 92 00 3f 75 25 17 bf 14 e0 d8 bd f6 99 a2 3d
       0.5022378 -0.5904153 -0.105896145 0.07939522
000190 3e 0a 94 bc 23 65 32 3f 5e 55 46 be a2 b6 0e bf
       -0.01807129 0.6968557 -0.19368502 -0.55747426
0001a0 7a b5 12 be a2 21 5b be 21 1e 25 3e da a1 64 3d
       -0.1432704 -0.21399549 0.16124775 0.055818416
0001b0 7c 51 db 3e ce b4 f9 3d 76 73 c5 3e c2 32 73 3e
       0.42835605 0.12192689 0.38564652 0.23749831
0001c0 d8 65 7f be 2c 78 21 be 3a e7 a5 3e 44 f8 69 3e
       -0.24941194 -0.15768498 0.32402974 0.22848612
0001d0 19 08 b1 bb 69 27 b3 3c 9d 4d a0 3e 76 40 a7 3e
       -0.0054025766 0.021869378 0.31309214 0.32666367
0001e0 54 be 34 3e 49 c5 da bd 7b bb 34 3e e3 a6 97 be
       0.1765073 -0.106821604 0.17649643 -0.29619512
0001f0 5c d5 42 bd 50 74 1c 3e db 16 8a be 54 63 bb be
       -0.047566757 0.15278745 -0.26970562 -0.3659922
000200 6b 8b 48 be 19 d0 e6 be 35 4b 02 be b3 21 c2 bd
       -0.19584434 -0.4508064 -0.12724002 -0.09479084
000210 fb c4 60 bd 48 7c 02 bf 39 2c be be cd 24 9e 3e
       -0.054875355 -0.5097089 -0.37143114 0.30887452
000220 f4 85 a8 3d a9 9d 6e 3e 3a 46 3c 3d fd 1e 0c 3e
       0.082286745 0.2330233 0.04596541 0.13683696
000230 fa 3e 6f bd 6c 11 bc bd 37 b4 2d be e5 63 b1 3d
       -0.05840967 -0.091830105 -0.16963278 0.086616315
000240 13 34 00 3f 2d 5d 0f bf 4d ca 7a 3e 53 7d ac 3e
       0.5007946 -0.5600155 0.24491234 0.33689365
000250 33 4b 80 bf d2 ab ab 3e fc 42 2e bf 60 1b ed bd
       -1.0022949 0.33529526 -0.6807096 -0.11577487
000260 e1 e9 21 3f e7 80 6a 3e 8b 74 3c bf 4d d6 34 3f
       0.63247496 0.22900735 -0.7361533 0.706395
000270 29 97 b5 3f 94 a3 7e 3e 67 c5 ba 3f ca d1 ac 3d
       1.4186755 0.24867088 1.4591492 0.084384516
000280 cc d6 f4 be 94 11 5c 3e 93 b2 cc bd 21 a5 05 3d
       -0.47820127 0.2149108 -0.09994998 0.032628182
000290 1a ca 73 3e 28 0a 1a 3e f9 05 86 be 02 1a d8 3e
       0.23807564 0.15042937 -0.26176432 0.42207342
0002a0 9b 0d 0a 3e 14 44 36 3e 90 f0 96 bf e7 98 70 be
       0.13481753 0.17799407 -1.1792164 -0.23495828
0002b0 77 d4 80 3f c6 ee 96 bd 08 03 f9 be 0c 7d a5 be
       1.0064839 -0.07369761 -0.48635125 -0.32321966
0002c0 10 65 8f bc 42 35 01 be 5d bf 81 3f 44 4f 75 3e
       -0.017504245 -0.12617972 1.0136524 0.23956019
0002d0 fe 58 72 bd cc cc 32 be 1d da 17 3e 34 6f aa 3c
       -0.0591669 -0.17460936 0.14829297 0.020804979
0002e0 ca b1 2d bf 45 74 e0 3e d9 73 6f 3d cd f6 28 bf
       -0.6784941 0.43838707 0.05846009 -0.6600159
0002f0 49 8d a2 be 3b c4 76 3e 7c 4f ec be 82 0c 20 bf
       -0.31748417 0.24098293 -0.46154392 -0.62519085
000300 7f 69 88 be b4 ca 1d bf 2c 9a 21 3e 16 6f 63 3f
       -0.26642987 -0.61637425 0.15781468 0.8884138
000310 e9 b7 b2 3e 2c c9 91 3d 01 d9 0b 3f 69 d0 87 be
       0.34905937 0.071184486 0.54627997 -0.26526192
000320 14 e2 71 3e 1e 33 55 be 2b 76 04 3f d8 d4 f5 3e
       0.23621398 -0.20820281 0.5174281 0.4801395
000330 34 ef 37 3f 2a 04 b8 3e 9f e4 5a be 91 7d 83 3c
       0.7184937 0.35940677 -0.21376275 0.016051086
000340 7f aa 50 3b 88 e1 3d be e1 36 51 3d da 81 8c 3c
       0.0031839905 -0.18543065 0.051077727 0.017151762
000350 04 61 99 be 73 74 30 3e 4e 35 84 be 04 84 59 3e
       -0.2995683 0.17231922 -0.25821918 0.21241766
000360 7c a2 63 3f c0 ea c4 be 80 fc ae be 9c a1 b8 be
       0.88919806 -0.3846035 -0.34177017 -0.36060798
000370 25 ee bc be 2c e1 1f 3c 57 c9 d5 3d 77 d4 c3 3d
       -0.3690044 0.009758275 0.10438793 0.09562009
000380 e0 70 ed bd 24 66 65 3d fb ae df 3d 30 24 60 3f
       -0.11593795 0.056005612 0.10922047 0.8755522
000390 43 2d 0c be e5 00 52 bf a6 d2 57 3f 5b 4f 5e bd
       -0.13689141 -0.82032615 0.843058 -0.054274898
0003a0 d1 4d ac 3d bb 20 53 3d 79 c6 9d bc 52 6d a4 be
       0.0841328 0.051544886 -0.019259678 -0.32114655
0003b0 b2 f9 84 3d 4d 2b 77 be 08 53 df bd 93 2a ac be
       0.06492938 -0.24137612 -0.10904509 -0.33626232
0003c0 38 d4 51 bf 6a a9 7c be ea c0 a1 3e b3 65 60 be
       -0.81964445 -0.24674001 0.31592494 -0.21913795
0003d0 6e be 81 be 3e ab e1 3e 5e 13 cc 3e 26 4b a7 3d
       -0.253406 0.4407596 0.39858526 0.0816863
0003e0 25 36 35 3f 8d 41 50 3f 82 83 52 3e 8c db 50 3f
       0.70785743 0.8135002 0.20557979 0.81585
0003f0 7b 70 9e be 6d 8c ca 3d 0c 4e d1 bd e4 7a fe 3d
       -0.3094519 0.09890065 -0.102199644 0.12425783

convs.1.fc_full.bias f4 [92]
000000 d5 be 0a be 1e d4 4f 3d d9 70 01 3d 6f ad 7d bd
       -0.13549359 0.0507394 0.03160176 -0.061932977
000010 25 07 24 bd d4 b7 92 bb 4e f0 5e bd a4 3f c2 bd
       -0.040045876 -0.0044774804 -0.05442839 -0.09484795
000020 e5 8c 8d 3c c9 d1 19 bd a4 cb 71 3c 86 a2 1c bd
       0.017279098 -0.037553582 0.014758024 -0.038240932
000030 87 fa 1c 3c 30 e5 cd bd 96 0e df 3d 10 0d 77 bb
       0.009581215 -0.1005348 0.10891454 -0.0037696995
000040 88 b3 13 bc a2 62 ec bd cf bb a5 bd 3d fa ad bd
       -0.009014972 -0.1154225 -0.08092462 -0.08494995
000050 f7 00 c5 bd a5 86 b5 bd f6 d8 19 bc 76 3e c4 bd
       -0.09619325 -0.08863572 -0.009390106 -0.09582226
000060 2f d1 f1 3c ba 71 ea 3c 4e 0b b1 bd 02 8b 97 bc
       0.029518692 0.028618682 -0.08644734 -0.018498901
000070 97 20 a7 3d ed 78 ba bd 59 fd 8e bd 63 19 a9 bd
       0.08160513 -0.09105096 -0.06981916 -0.08256795
000080 fd 28 ca 3d 51 f5 be bb e5 dd 9e 3c 7c f1 d3 bc
       0.09871099 -0.005827584 0.019392917 -0.025871985
000090 28 be 9a 3d c9 bb 42 bd 9f 52 9e bb a0 51 19 bc
       0.07555801 -0.047542367 -0.0048316265 -0.00935784
0000a0 37 5d f4 3c c5 09 24 3d ca 94 a6 bd 04 1d f3 3d
       0.029829605 0.04004838 -0.08133848 0.11870769
0000b0 5e ae 70 3d 9c c7 36 3d 7f 07 e2 3d db e2 c6 3d
       0.05876004 0.044623956 0.11036586 0.09711238
0000c0 23 8f d3 3d c4 01 b5 3c cd b6 c0 bd f8 a1 af bd
       0.103300355 0.022095568 -0.094098665 -0.08575815
0000d0 01 6e a1 bd 0f 68 dd 3d 3e c1 ce 3d aa 5d 36 bd
       -0.0788231 0.10810863 0.10095452 -0.04452292
0000e0 86 43 80 bd ec 04 61 bd a4 ce 31 bc 92 46 a3 3d
       -0.06262879 -0.054936334 -0.01085249 0.079724446
0000f0 6b 9e b3 bd ad 2b e0 3c 5d db 97 bc b6 18 26 bb
       -0.0877045 0.027364576 -0.018537218 -0.0025344319
000100 dc 83 2d bd d8 39 d6 bc 89 f3 d2 3c 96 6a e3 3c
       -0.04236208 -0.026150629 0.025750892 0.027760785
000110 58 a9 6f bd 31 de 8c 3d c4 83 b3 3d 0f 47 26 3d
       -0.05851111 0.06878317 0.08765367 0.04059511
000120 24 6e f0 bd bc f5 9b 3d 41 29 b8 bd 0e ce 34 bc
       -0.11739758 0.076152295 -0.089922436 -0.011035455
000130 d0 f5 31 3b 44 08 70 bd df 47 4a bd 09 49 c6 3c
       0.0027154572 -0.058601633 -0.049384948 0.024204748
000140 ac 92 ac 3a 2c e5 3d bd 9e ca 78 bd 30 f5 3e 3d
       0.001316627 -0.046361133 -0.060740106 0.046620548
000150 7b 76 8e 3d f2 70 62 bd eb 16 3c bd 46 e5 8b 3d
       0.06956192 -0.055283494 -0.045920294 0.0683084
000160 58 fa a6 3c 3f 84 9b bd a9 2b 3d 3d e2 3e 2f bd
       0.020383045 -0.07593583 0.046184216 -0.04278458

convs.1.bn1.weight f4 [92]
000000 e7 73 25 40 6e c9 e6 3f 8b 81 0f 40 46 a1 3b 40
       2.585199 1.8030221 2.2422817 2.9317183
000010 c3 59 10 40 09 00 f1 3f 08 90 53 40 f9 be 63 40
       2.2554786 1.8828136 3.305666 3.558531
000020 69 9c 35 40 5c 0a c8 3f 3c 8e bc 3f 59 30 64 3f
       2.8376715 1.5628161 1.4730906 0.8913627
000030 7d 6d 55 40 27 9b 11 40 56 07 02 40 2b 65 01 40
       3.3348076 2.2750947 2.0316978 2.0217998
000040 59 f8 75 40 3c 4c d5 3f 21 5a 52 40 36 84 01 40
       3.843283 1.666389 3.286751 2.0236945
000050 07 6d 41 40 b5 3a e0 3f 0a a7 b4 3f 98 52 13 40
       3.0222795 1.7517916 1.4113476 2.3019161
000060 58 0a 1b 40 a3 91 3c 40 3f f7 9e 3f 8b 2b d8 3f
       2.4225063 2.946389 1.2419204 1.6888288
000070 89 bb eb 3f 96 48 1a 40 09 30 e8 3f c6 46 ce 3f
       1.8416606 2.4106803 1.8139659 1.6115348
000080 e4 80 ff 3f 17 73 64 40 92 7b dd 3f 9c a2 40 40
       1.9961209 3.5695245 1.7303336 3.009925
000090 af a8 07 40 c0 bc db 3f 53 76 bf 3f 3e f2 cc 3f
       2.1196706 1.7166977 1.4957985 1.6011426
0000a0 d9 df fe 3f 6c 21 25 40 51 7d f6 3f 46 c3 87 3f
       1.9912063 2.580165 1.9256994 1.0606468
0000b0 45 f7 dd 3f 8a 38 72 3f de d6 d9 3f af a5 2b 3f
       1.7341086 0.9461752 1.7018697 0.6704969
0000c0 3f be a3 3f 1a 1d e4 3f d8 ea 64 3f bb ec 93 3f
       1.2792434 1.7821381 0.89420843 1.155662
0000d0 32 54 07 40 a3 e9 6a 3f a6 00 16 40 2e 34 79 3f
       2.1145139 0.9176275 2.3437896 0.97345245
0000e0 de e2 02 40 ee db f2 3e 7e ae 11 40 3e f3 bf 3f
       2.0450969 0.47433418 2.2762752 1.4996107
0000f0 07 52 a6 3f c5 18 8a 3f 75 b5 ff 3f 87 a8 39 40
       1.2993783 1.0788809 1.9977251 2.900911
000100 b9 a5 39 40 f8 2d 64 3f f4 c2 ce 3f cf c2 2c 3f
       2.90074 0.8913264 1.6153245 0.67484754
000110 50 cd 05 40 44 72 08 40 42 d3 e2 3f d5 01 8e 3f
       2.0906563 2.1319742 1.7720721 1.1094309
000120 26 12 1d 3f a0 9e 98 3f 99 3d 89 3f d5 d4 93 3f
       0.6135582 1.1923409 1.0721923 1.1549326
000130 f5 87 90 3f 9c 53 65 3f 66 93 99 3f dd 25 c6 3f
       1.1291491 0.895807 1.1998107 1.5480305
000140 26 c9 db 3f 7d 47 2c 3f 9a 2d a9 3f 91 9c 15 40
       1.7170761 0.6729658 1.3217041 2.337681
000150 30 42 af 3f bd 50 86 3f 12 59 58 3f ba 8a b3 3f
       1.3692074 1.0493389 0.8451091 1.4026711
000160 af e5 69 3f 85 e1 d4 3f 33 1f 10 40 5e c8 ed 3e
       0.91366094 1.6631323 2.2519042 0.4644193

convs.1.bn1.bias f4 [92]
000000 9a e8 8f bd 02 9c 50 bf d7 c5 92 bd 8b e6 9a 3c
       -0.07026787 -0.8148805 -0.07166641 0.01890876
000010 35 22 c4 be a1 88 6e bf 04 26 7d 3e d1 d9 e2 be
       -0.38307348 -0.9317723 0.24721533 -0.44306806
000020 46 11 19 3e 12 76 13 bf 81 fb 6a be a4 96 24 bf
       0.14947996 -0.57602036 -0.22947504 -0.6429236
000030 77 8b 06 be c1 d2 d3 be 68 53 ac be e6 5e 66 bf
       -0.13139139 -0.4137173 -0.33657384 -0.89988554
000040 90 a0 76 be 60 7e a0 3c 97 c5 21 be 89 f9 8f be
       -0.24084687 0.01959151 -0.15798031 -0.28120068
000050 97 dc 57 bf 67 18 8f be 96 13 5c 3f 90 42 ac bd
       -0.8432097 -0.27948305 0.85967386 -0.08411133
000060 35 2a 58 3e a5 d0 5e be 9e 07 12 bf 93 43 87 be
       0.2110985 -0.21759279 -0.5704287 -0.26418743
000070 75 f7 12 bf a5 66 d9 be 17 0b 3e bf 5c 80 33 bf
       -0.5740884 -0.42461124 -0.7423567 -0.70117736
000080 31 76 82 be 14 ef ab 3c 12 a8 16 be a9 82 38 bf
       -0.25480798 0.020988025 -0.14712551 -0.7207437
000090 50 ed a0 bd 8e ce 0b bd 10 e4 90 be 00 ff e6 bb
       -0.07857764 -0.034132533 -0.28298998 -0.0070494413
0000a0 a9 18 17 be 76 20 bd 3d 8d a8 33 bf e7 8e 15 bf
       -0.14755501 0.09234707 -0.70179063 -0.58421177
0000b0 6c ba c8 be 28 b9 4d bf 2f 89 d9 bd f9 1f 27 bf
       -0.3920473 -0.8036065 -0.10621869 -0.6528316
0000c0 0c 9e ca be 03 57 65 3e 48 03 16 bf 64 7c 01 bf
       -0.39573705 0.22396474 -0.58598757 -0.5058043
0000d0 1f f8 47 3e 03 f4 e8 be 07 4f 84 bc f3 77 0d bf
       0.19528244 -0.45498666 -0.016150964 -0.55261153
0000e0 8a d1 f6 bc 48 17 3f bf e1 2a 0e be 21 cb de be
       -0.030129213 -0.746449 -0.13883545 -0.4351435
0000f0 30 71 dc be a9 b1 00 bf e1 3e cb bd 6b 30 03 be
       -0.43055105 -0.5027109 -0.099241026 -0.12811439
000100 8f a9 d6 bc b1 6a 18 bf 6b 0a cd bd ce 03 29 bf
       -0.026203899 -0.595378 -0.10011753 -0.6602143
000110 3f 1a 08 3e cd 89 25 be 6c 79 08 be b7 8d 98 be
       0.13291262 -0.16165848 -0.13327569 -0.2979562
000120 c7 66 3d bf ea 82 01 bf 84 9c 0c bf 42 1b dc be
       -0.7398495 -0.50590384 -0.54926324 -0.42989546
000130 96 e0 fb be 89 4f 31 bf b5 7f 0e bf 34 16 e2 3e
       -0.49194783 -0.69261986 -0.55663615 0.44157565
000140 cd 23 21 be 9e c5 34 bf 13 80 8a be 98 d5 94 3d
       -0.15736313 -0.7061404 -0.27050838 0.07267302
000150 5d 1e 05 bf f1 16 2b bf 52 79 8d be dd 73 90 be
       -0.51999456 -0.6683188 -0.27631623 -0.28213397
000160 59 c2 0c bf 06 fc c2 bd d2 b5 04 be e5 95 61 bf
       -0.5498405 -0.09520726 -0.12959984 -0.88119346

convs.1.bn1.running_mean f4 [92]
000000 03 34 5a c0 da 00 5c 3f 4a 50 ce 3f 4b 89 73 c0
       -3.4094245 0.859388 1.6118252 -3.8052547
000010 b5 a5 83 3f 9a ac d4 3f ea 07 37 c0 5e 56 dc 3d
       1.0284945 1.6615174 -2.859858 0.10758661
000020 d3 8a f9 3e 9d 4a 8e bf 7b f1 b6 3f a7 f2 7b bf
       0.48738727 -1.111652 1.4292444 -0.98417133
000030 84 ca 66 c0 f1 f7 22 c0 b1 ca 1a c0 79 b3 4c 40
       -3.6061106 -2.5463831 -2.4186213 3.1984541
000040 5d 62 de 3f 81 89 c2 c0 17 e7 67 3f e5 cc 2b c0
       1.7373768 -6.079285 0.9058699 -2.6843808
000050 1e 07 07 40 85 87 38 3e d2 8b a3 c0 e0 bc d0 c0
       2.1098094 0.18020447 -5.110818 -6.523056
000060 26 f7 8e bf 4f d0 88 bc 72 8c 3c c0 1f a2 ac c0
       -1.1169174 -0.016700892 -2.946072 -5.39479
000070 57 1e 9e 3e 12 28 3e c0 e6 3e 77 3f 48 51 d5 3f
       0.30882522 -2.9711957 0.9658035 1.666543
000080 00 a3 63 c0 48 dd be bd 28 37 26 3f e0 3b 8a c0
       -3.5568237 -0.0931955 0.6492791 -4.319809
000090 95 6f 43 bf 9b 49 bd 3e 5a 7c a0 3f 74 db c7 bf
       -0.76342136 0.3697022 1.2537949 -1.5613847
0000a0 a0 15 80 bf a8 52 2c c0 da 70 ba 3f 50 fe 10 40
       -1.00066 -2.692545 1.456569 2.265522
0000b0 21 76 0a c0 1c 29 2b c0 f3 de 7a 40 50 b8 e5 bf
       -2.16346 -2.674384 3.9198577 -1.7946873
0000c0 a0 5d ef be c5 00 4c bf 24 07 04 40 37 7c ef 3d
       -0.46751118 -0.79688674 2.0629358 0.11693614
0000d0 da 26 9c 3f 39 8f 01 3e 0b 61 85 be f4 6f 25 c0
       1.2199357 0.12652291 -0.260506 -2.584958
0000e0 1d e7 22 c0 fa dd 23 3f a1 8d 7d bf d7 fc 15 c0
       -2.545356 0.64010584 -0.99044234 -2.3435571
0000f0 8a 75 8a bf 8c f7 8e bf 7a 24 ed bf 6c ee 06 c0
       -1.081712 -1.1169295 -1.8526757 -2.108302
000100 11 5c 0b c0 27 73 69 c0 50 80 7c c0 11 3f b0 be
       -2.1774943 -3.6476533 -3.9453316 -0.34423116
000110 e2 f0 a6 c0 cb 58 b7 c0 3e 20 18 c0 5e 6f 10 c0
       -5.2169046 -5.729589 -2.376968 -2.2567973
000120 70 f4 05 c0 4b 39 84 be 48 a4 21 bf 08 74 9c bf
       -2.0930443 -0.2582496 -0.631413 -1.222291
000130 f2 a0 0a 40 5d b1 14 c0 84 b3 0b c0 6e 2c 37 c0
       2.1660733 -2.3233254 -2.1828318 -2.8620868
000140 b5 95 ae c0 86 5d bf bf 50 01 60 c0 21 40 63 c0
       -5.455775 -1.4950416 -3.50008 -3.550789
000150 f9 bd 77 bd 79 17 66 3f 6f 9f dd bf 86 e9 57 c0
       -0.060483906 0.89879566 -1.731428 -3.3736281
000160 57 6c 89 3e 65 35 a8 bf 75 d8 74 3f b0 42 58 bf
       0.2684047 -1.3141295 0.9564279 -0.8447676
