dropout/NN_ensemble/histories/3_d00_valid_best_params.pt (torch_old, 452453 bytes, 103 tensors)

embedding.weight f4 [46, 98]
000000 ac 61 ad 3d 4b 59 9f 3e 74 05 68 be cc 63 24 bf
       0.08465895 0.31122813 -0.2265833 -0.6421478
000010 97 87 0a 3e c0 13 12 bf dd 6d 8b 3e d6 93 68 3e
       0.13528286 -0.57061386 0.27232257 0.22712645
000020 fd 74 96 3e 4f 94 c6 3c 96 0a 90 bd b2 cb db bd
       0.2938613 0.02424064 -0.07033269 -0.10732211
000030 69 0e 52 be f2 35 15 3e 51 fe 8f 3c 3f 30 80 bc
       -0.2051331 0.1457136 0.017577322 -0.015648006
000040 75 64 e5 bd a5 a9 8f be 6b 1b 6f bd 47 36 b2 3d
       -0.11200801 -0.28059116 -0.058375757 0.08701759
000050 f0 0b ee bd 90 90 66 3e 50 20 31 3e bf bd 21 be
       -0.11623371 0.22516084 0.17297482 -0.15795039
000060 5e 11 c9 be 54 8d 55 3d 67 f5 c1 bc 7f c4 32 3e
       -0.39271063 0.052136734 -0.023676587 0.1745777
000070 32 b6 28 3e cd b1 d4 bd 76 01 23 3e 3b 9f 86 be
       0.16475752 -0.10385475 0.15918526 -0.26293358
000080 2c 81 95 3d 1f 25 24 be f0 d4 7e 3d 58 94 71 3d
       0.07300028 -0.16029786 0.06221479 0.058979362
000090 47 1d a1 3d 7e b2 43 bd d6 01 bf 3b 82 c4 8c 3d
       0.07866912 -0.047777645 0.0058290763 0.068734184
0000a0 42 90 70 be 89 3a 71 3e 4e e1 68 be ff 9c 57 be
       -0.2349253 0.23557486 -0.22742197 -0.21055983
0000b0 78 5f 1e bc 1f b9 88 3e 1b 7f 5a 3e 2a 7d 1c be
       -0.009666316 0.26703736 0.2133755 -0.15282121
0000c0 17 e8 94 3d fb 6b 36 3e 1e ef a9 be e1 94 aa 3d
       0.0727083 0.17814629 -0.33190244 0.08329178
0000d0 70 d9 2a 3e 2f e4 b6 3e 8c b3 0e 3d 1a a5 d5 be
       0.16684508 0.35720965 0.034839198 -0.41727525
0000e0 48 ce 8b be 86 08 c0 bd 4f 6f 20 be 9e 0b d8 3e
       -0.27305818 -0.09376626 -0.15667461 0.42196363
0000f0 77 a9 07 bd 6f e0 a0 be 37 10 98 3e 0f 24 78 be
       -0.0331206 -0.3142123 0.2969987 -0.24232505
000100 c7 3b 3f be 60 e6 a7 bd 80 84 94 bb b0 16 97 bc
       -0.18675147 -0.081982374 -0.004532397 -0.018443435
000110 f0 a6 f8 3c 60 b4 ea 3b 24 5b d4 bd f4 eb c7 bd
       0.03035304 0.0071626157 -0.10368946 -0.09761801
000120 8f 95 8c be 60 e4 74 bd bc fd 99 3e 96 70 75 be
       -0.27457854 -0.059788108 0.30076396 -0.2396873
000130 6c e5 33 bd 8a df 7f be d1 b9 04 3e a1 18 95 bd
       -0.043919966 -0.24987617 0.12961508 -0.07280088
000140 f4 86 0e be 7f f9 ab bd c5 86 4d 3e 12 77 cf 3e
       -0.13918668 -0.08397197 0.20070942 0.4052053
000150 d7 f5 29 be 66 c2 e1 bd df 05 07 bf fc 1c e5 3d
       -0.16597687 -0.11023407 -0.52743334 0.11187169
000160 0a 2d 45 be d4 27 9b be 9a b0 8b be ba 64 b6 3e
       -0.19255462 -0.30303824 -0.27283174 0.35623723
000170 05 61 93 be b5 c8 09 bd e4 d7 39 3f c0 94 04 bd
       -0.28784958 -0.033638675 0.7259505 -0.03236842
000180 40 e6 c5 3e a6 79 fd be 68 f5 eb bc 7f 0e 1b be
       0.3865223 -0.49506873 -0.028803542 -0.15142249
000190 d7 fd ad bc f4 9f 11 be 9e 42 c1 3e 35 6c b2 bc
       -0.021239204 -0.14221174 0.37746137 -0.021780113
0001a0 ce 26 36 3f e4 f1 00 3f ed c2 67 3e ea 0a b4 3e
       0.7115296 0.50369096 0.22632952 0.35164577
0001b0 ef 3d a0 3e f2 61 dc bd c1 3b f7 be 4d 93 97 3c
       0.31297252 -0.10760869 -0.48287776 0.018502856
0001c0 93 30 64 bd 8e 00 3f be 94 f1 d5 be 35 92 8e be
       -0.055710386 -0.18652555 -0.41785872 -0.27845922
0001d0 97 4d b7 bd 05 5d e6 bd c2 c7 fd 3d 63 9b 8a 3c
       -0.08950346 -0.11248211 0.123916164 0.016919797
0001e0 f6 04 a8 be fd 40 f4 3d cf 87 1a be 8c 26 8a 3d
       -0.32816285 0.11926458 -0.1509087 0.067456335
0001f0 84 30 83 bb c0 bf bc 3c ad 70 a1 3e dc 2b 43 bc
       -0.0040035862 0.023040652 0.31531277 -0.011912312
000200 dc 95 2e be 3e 0e 71 be 60 f1 b5 bd be 47 ed 3a
       -0.17049354 -0.23540589 -0.08883929 0.0018103046
000210 ca 76 eb 3c 48 57 67 bc 26 a6 52 3c 08 bf 0c 3e
       0.028743166 -0.014119931 0.012856996 0.13744748
000220 2d d4 f4 3d 3e 3d 16 be a5 7b 6d bc fa 17 8e be
       0.11954532 -0.146718 -0.014494811 -0.27752668
000230 5a 1b 06 be 2d fe b6 3e 00 05 24 bb 3a 43 f2 3e
       -0.13096371 0.35740796 -0.0025027394 0.47316915
000240 46 6c 24 3d a6 09 d7 3d 96 9b 00 3d 7c 35 2e 3c
       0.04014232 0.10499887 0.03139838 0.010632869
000250 45 a9 80 be 12 b1 67 bd 50 bb c5 3e ba ba 1d 3e
       -0.25129142 -0.05656535 0.3861947 0.15403262
000260 2b fd 4e 3e 5d 85 81 bb 16 1a 81 be 24 9a bd bd
       0.20213763 -0.0039526657 -0.25215214 -0.092579156
000270 43 be f7 3d b7 3f 15 bd a1 a1 bc bc bf 3a 41 3d
       0.120968364 -0.036437716 -0.02302629 0.047175165
000280 d2 9d b8 bd 82 14 0f bd da 5f 9c 3c 00 1f e8 b9
       -0.09014477 -0.034931667 0.019088674 -0.00044273585
000290 90 c0 97 bb ec c4 11 3d b1 3a be bd 3d 60 8d bd
       -0.0046311095 0.03558819 -0.09288538 -0.069031216
0002a0 76 c6 4a 3d 8a 6d 8b bd f6 e4 4a bd 52 c9 57 bd
       0.049505673 -0.06808002 -0.04953476 -0.05268223
0002b0 fc 77 1f 3d 33 93 c1 bd 2a 85 2e bd f5 8e 9b be
       0.038932785 -0.09451904 -0.042607464 -0.30382505
0002c0 3a 5d 0b 3d 92 0e b6 be 1f 0e d0 3e 78 f2 41 3d
       0.034024455 -0.3555799 0.40635774 0.047350377
0002d0 c5 97 10 3e 0c e6 a0 3e b4 7e e7 3e 17 c6 b2 be
       0.14120395 0.31425512 0.45213854 -0.34916756
0002e0 32 f2 02 bf f4 6b fd be 97 9c c4 bd 98 94 49 3f
       -0.5115081 -0.49496424 -0.0960018 0.7874236
0002f0 36 b2 af bc e0 8d cf 3e 1e be a3 3d 56 61 40 bf
       -0.021447282 0.4053793 0.07995246 -0.7514852
000300 c6 b0 18 3f ab 1b 15 3e 2f 59 0d 3e 87 fe 4b be
       0.59644735 0.14561336 0.13803552 -0.19921313
000310 80 02 3c bc 68 b5 45 3d a7 21 15 be 49 32 95 be
       -0.011475205 0.048268706 -0.14563619 -0.29139927
000320 82 e0 05 bf 04 00 08 bf f2 41 48 be ec 43 a5 be
       -0.52295697 -0.53125024 -0.19556406 -0.32278383
000330 36 d0 be be f7 56 7c be e3 ab 9b be 74 b7 22 3f
       -0.37268227 -0.2464255 -0.30404577 0.6356118
000340 b6 67 6f 3f 8d f6 89 3e 5d 16 5b 3e 13 b0 cc bd
       0.93517625 0.26945916 0.2139525 -0.09994521
000350 b1 5d 9f 3e 21 53 98 bd 98 09 ad 3d 64 79 f2 bc
       0.31126168 -0.074377306 0.084490955 -0.0295989
000360 00 b0 e7 bd 1f 5a bb be 55 c5 b3 3d b7 ff 12 3e
       -0.11312866 -0.36592194 0.087778725 0.1435536
000370 96 af 40 bd ce 23 b0 3d 59 07 e3 3e 59 14 69 be
       -0.04704245 0.08600579 0.44341543 -0.22761668
000380 e0 13 d2 be 6c 67 33 3d f3 96 7f 3d 40 ab fb 3d
       -0.41030788 0.043799803 0.062399816 0.12288523
000390 12 73 9b 3d 5e 94 0d be 15 4d 95 3d 5c a4 c6 bd
       0.07590307 -0.13826129 0.07290093 -0.09699318
0003a0 7f 9e 26 3e 71 40 4b 3e b7 b7 96 be 88 d8 2d be
       0.16271399 0.19848801 -0.29437038 -0.16977131
0003b0 bf 9f 09 3e 6a 4a d4 3d 2f e8 e0 bd 46 72 0c be
       0.13439845 0.10365756 -0.109817855 -0.13715467
0003c0 dc 69 b9 3d db cc 46 3e f5 b1 6e 3d f4 e3 82 bc
       0.09053394 0.19414084 0.05827518 -0.015977837
0003d0 f6 92 ea 3d 0a 87 5b 3d 21 8d ef be 0d 68 9c 3d
       0.11453812 0.05359558 -0.4678736 0.076370336
0003e0 42 99 7d be 7f 6e f1 be db a4 50 be 64 bf f8 bd
       -0.24765494 -0.47154614 -0.20375387 -0.1214588
0003f0 84 ad 24 3f a3 ff 5f 3e f2 24 dc 3e 02 68 9f be
       0.64327264 0.21874861 0.42996937 -0.3113404

embedding.bias f4 [46]
000000 ae 72 e8 be ff 81 4a be 7c b8 66 3e 6c 66 14 be
       -0.45399994 -0.19776152 0.22531313 -0.14492196
000010 d1 27 ba bd c0 1f fb be e8 6d d7 bc ae 4e af bd
       -0.090896256 -0.4904766 -0.026297525 -0.08559929
000020 df 09 da 3c 73 ad 91 be d1 e4 9f be 60 10 87 be
       0.026616035 -0.28452644 -0.3122926 -0.2637968
000030 0c d1 d0 bd 50 60 ad be 4f 96 33 be 9f 84 7b be
       -0.101961225 -0.33862543 -0.17537807 -0.2456231
000040 48 a6 0f bf 01 4e 52 be 68 b2 be be ff 84 21 3c
       -0.561131 -0.20537569 -0.37245488 0.009858369
000050 9a 68 dd be 71 ce 58 be dd cb 43 be 80 6a c0 be
       -0.43243867 -0.21172501 -0.19120736 -0.37581253
000060 77 a4 64 be c5 5a 75 3c 68 95 c1 bd 65 21 a5 be
       -0.22328363 0.014975254 -0.09452325 -0.3225204
000070 e4 df 74 3e b6 51 f6 bd 71 1d 7c be da 0e 9f be
       0.23913532 -0.12027304 -0.24620606 -0.31066018
000080 b2 28 14 be b7 54 cc be b2 b8 21 3d b0 75 8e be
       -0.14468649 -0.39908382 0.03948278 -0.27824163
000090 e4 eb f3 bd 53 33 8a bd 66 3c af be fa c5 13 bd
       -0.11910227 -0.067480706 -0.34225768 -0.036077477
0000a0 cf 4d df be 1c a4 71 be dc 5d c2 be 50 15 d7 bc
       -0.4361405 -0.23597759 -0.37962234 -0.02625528
0000b0 0d 8a 22 be db cd d6 be
       -0.15872975 -0.4195393

convs.0.fc_full.weight f4 [92, 98]
000000 12 99 e0 3e e9 bc 99 bb 5c 18 b9 3d 1d 3b b8 3d
       0.43866783 -0.0046917093 0.09037849 0.0899565
000010 68 7a 9a be 87 f8 a5 3e 2c a1 ec bd 9e eb d8 3e
       -0.30171514 0.32416174 -0.115541786 0.42367262
000020 35 99 a8 3e 23 72 ae be 90 29 9e be 86 84 1b bf
       0.32929388 -0.34071454 -0.30891085 -0.6074909
000030 1e 98 8e 3d a0 08 c7 3e 43 ca ec 3d b2 c4 7e be
       0.06962608 0.38873768 0.11562016 -0.24879721
000040 74 21 99 be c1 ac 0f 3f 62 f4 8d bc ac 68 86 3e
       -0.29908335 0.56122977 -0.017328445 0.26251733
000050 93 06 36 3d 7b 45 47 3e ef 35 d3 3e 9f 17 aa bd
       0.044439863 0.19460098 0.41252086 -0.083052866
000060 f8 1c ed 3e e5 8d 97 be 2e a8 f0 3e c0 83 a8 be
       0.46311164 -0.29600444 0.4700331 -0.32913017
000070 35 60 77 bd 75 9f b0 be 1a 25 1e 3f 5d e7 46 bf
       -0.060394485 -0.34496656 0.6177536 -0.7769678
000080 3e 67 fc 3e 60 57 72 be 64 14 14 3f a9 56 55 be
       0.49297518 -0.23666143 0.57843614 -0.2083384
000090 29 22 85 be 8c ae a8 be d6 0e 17 bf 39 4f 39 3d
       -0.26002625 -0.3294567 -0.5900701 0.04524157
0000a0 4c 42 00 bf fb 70 36 3e 2c 66 00 3e 0f 54 f1 3e
       -0.5010116 0.17816536 0.12538975 0.47134444
0000b0 05 a2 1e 3d 3c 92 30 be 8d 49 6b be 3d a3 90 3e
       0.038728733 -0.17243284 -0.22977276 0.2824954
0000c0 e8 c6 1e be 22 fa 4a bd 92 a7 4a be 86 c2 8d 3e
       -0.15505564 -0.04955495 -0.19790486 0.27687472
0000d0 76 bc 84 3e b1 78 cd be a3 40 6d be ce 2c 9b be
       0.25925034 -0.40131143 -0.23169188 -0.3030762
0000e0 36 c4 da 3e 41 29 e3 bd fd 55 8e be 65 b0 07 3d
       0.42727822 -0.11091853 -0.2779998 0.033127207
0000f0 45 10 a0 be 52 51 30 bd 7a de 95 3d 44 70 68 bd
       -0.31262413 -0.043046303 0.07317825 -0.05674769
000100 cc 33 3d 3e dc 8d dd 3d a8 22 c6 3b 5c a7 66 bd
       0.1847679 0.10818073 0.006046612 -0.05631195
000110 e8 a2 c4 bd 74 09 09 3d 8c fa a0 be 4d 16 c9 3e
       -0.096013844 0.03345628 -0.31441152 0.39274827
000120 56 6f 2f 3e f4 70 b3 bd 64 30 82 3e 8d 74 04 3e
       0.17132315 -0.087617785 0.25427544 0.12935086
000130 af 1a f7 3c e9 c2 0e 3e 4f ba ae bc 07 2f e0 3d
       0.03016409 0.1394154 -0.021329073 0.1094647
000140 d3 82 9f 3d 43 2d 80 3e 07 5f 06 bd 0a a3 40 be
       0.077886246 0.25034532 -0.03280547 -0.18812194
000150 5a 19 9e 3e f2 19 5d 3e a5 ce 62 3e 23 9f d3 3e
       0.30878717 0.21591929 0.22149141 0.4133235
000160 34 b6 95 be 4c 6a 0e 3f df fa 80 bd 4d f3 42 be
       -0.29240572 0.55630946 -0.0629785 -0.19038124
000170 e3 1f 23 3f 7e 09 c9 bd 34 84 de bd 17 17 5c bd
       0.6372053 -0.098162636 -0.108650595 -0.053732958
000180 36 67 a6 be 5b d3 98 be 33 15 7b be d7 0c bb 3c
       -0.3250062 -0.2984875 -0.24519806 0.022833271
000190 29 99 01 bf ea 5b 10 be 50 c4 d5 3e 63 2e a8 bc
       -0.5062433 -0.14097562 0.41751337 -0.020529931
0001a0 66 fa ff bc 2c a3 cb be 28 dc 58 bd cb cb 66 3e
       -0.031247329 -0.39772928 -0.052944332 0.22538678
0001b0 60 2f cb 3d 40 53 3e 3d a0 d1 39 3d f7 f4 c7 3d
       0.099211454 0.046466112 0.04536593 0.0976352
0001c0 2b de 4e be 52 ae dd 3d 4d 93 2e be a6 8d 68 be
       -0.20201938 0.108242646 -0.17048378 -0.22710285
0001d0 c1 b1 a0 bd f4 d0 0e 3e 8b 2d 73 be c0 4d f6 bc
       -0.07846404 0.13946897 -0.23747842 -0.030066371
0001e0 b1 31 73 3e 19 36 e5 3e a5 b7 63 3d bd 90 98 be
       0.23749425 0.44767836 0.05559506 -0.29797927
0001f0 7d e6 88 3e ee 4d 0c bf 7e 3c 31 be 7d a2 f2 3e
       0.2673835 -0.5480641 -0.17308232 0.47389594
000200 51 94 6a 3d 9f 9a 3c 3d 3b c8 b3 be b9 bc 06 3f
       0.05727035 0.046045896 -0.351137 0.5263172
000210 d8 75 b7 3d 55 95 3d 3e 2c 8e b3 3e a9 50 06 be
       0.08958024 0.18513997 0.35069406 -0.13116707
000220 b9 b8 8e 3e 0d 10 f8 3d 9c c0 39 3e ed 69 74 be
       0.27875307 0.121124364 0.18139881 -0.23868532
000230 af 70 ed 3d a3 15 89 bd 5b e9 e1 bd 35 a2 f9 be
       0.11593758 -0.0669358 -0.11030837 -0.48756567
000240 57 ab 7a 3d 94 9f 90 be 60 bf 46 3d 44 34 82 3b
       0.06119856 -0.28246748 0.048522353 0.0039735157
000250 fa 3e 9f be 39 38 85 3d ed bd 18 3e 5a f3 a8 3d
       -0.31102735 0.06504864 0.14916201 0.082495406
000260 85 3e 03 3f 88 8a f9 be a0 93 9a 3e de 1b 93 3e
       0.5126727 -0.48738503 0.30190754 0.28732198
000270 e5 4c 48 bd 0b d6 3b 3e e7 de 91 3e 34 2b 63 3d
       -0.048901457 0.1834337 0.28490373 0.055461124
000280 92 e4 b8 be 2c ea d6 3e 0f f8 bb be bd 5e 3f 3e
       -0.36111885 0.41975534 -0.3671269 0.18688484
000290 86 36 05 3e 40 dc fa 3d e3 03 76 3e b1 eb 7d be
       0.1300908 0.122490406 0.2402492 -0.2479694
0002a0 26 58 9a 3e c1 0e 04 be b6 f6 b6 3b a0 32 74 be
       0.30145377 -0.12896253 0.0055836095 -0.23847437
0002b0 b1 59 1a bd ec 0a 08 bf 40 5c 48 be ff 69 bd be
       -0.037683193 -0.53141665 -0.1956644 -0.3699493
0002c0 64 17 a9 3e 77 86 dd bd 2c b0 de 3e ee fc bd 3c
       0.33025658 -0.10816663 0.43493783 0.023191895
0002d0 70 cd 66 be 72 97 be 3e 68 9a 6b 3e 92 cc 7b 3d
       -0.22539306 0.3722492 0.2300812 0.06147439
0002e0 b1 b1 32 be c7 c4 07 bf 53 d4 89 bd d3 00 9e 3e
       -0.17450596 -0.53034633 -0.06729951 0.30860004
0002f0 cc 64 04 3f 6e 54 14 bf 5a 5a 8f bf 7c 42 d1 be
       0.51716304 -0.5794133 -1.1199448 -0.40871036
000300 15 8a 88 bf d0 5a a6 bf 5f 1d 75 3d 9c d6 08 40
       -1.0667139 -1.2996464 0.059842464 2.1380987
000310 86 62 0f 3f 4f e5 07 3e 64 ac 07 bf 46 52 6f 3e
       0.5600971 0.13271068 -0.5299742 0.23371229
000320 b1 2f c5 be 9f 66 81 3e ee f2 f0 bd 73 75 7a 3e
       -0.38512948 0.25273606 -0.11765085 0.24458866
000330 11 10 c1 3e c3 c3 a9 bd 61 e3 f9 3d f6 10 4a be
       0.3770757 -0.08289292 0.12201572 -0.19733033
000340 74 7b e3 3c 0e f2 69 3e cd 78 11 3f 01 ce c1 3e
       0.027768828 0.22846243 0.5682495 0.3785248
000350 47 19 60 3e a8 b9 95 3d 7d 30 14 be b7 59 e4 3c
       0.21884643 0.07310802 -0.14471622 0.02787481
000360 b0 17 98 3e 07 7d b9 bd 05 35 9e bc d5 75 56 bd
       0.29705572 -0.0905705 -0.019312391 -0.052358467
000370 ad 4d 6f be 76 ba 6c be 26 1e d6 3c 13 3a 85 be
       -0.23369475 -0.23118004 0.026137423 -0.2602087
000380 7d df 17 bc b6 f0 58 bc 6a 31 31 3e ad 43 a6 be
       -0.009269592 -0.013240984 0.17304006 -0.32473508
000390 83 29 0b 3d 80 00 f2 bd f8 65 dc 3e 92 7e fc 3e
       0.033975136 -0.118165016 0.43046546 0.49315315
0003a0 a0 0d 9b bd c0 f3 5b bd 47 6f 30 be 12 53 64 be
       -0.07570958 -0.053699255 -0.17229949 -0.22297314
0003b0 ba 75 14 bf fa 5f e6 bc e6 96 e1 be 75 ff 56 bd
       -0.57992136 -0.028121937 -0.4406044 -0.052489717
0003c0 80 39 10 bd 42 56 33 bd d3 fc e9 be 5f 6a 30 bf
       -0.035211086 -0.043783434 -0.45700702 -0.6891231
0003d0 35 00 64 3e 61 e3 84 be 59 a1 f3 be 87 6f 4f be
       0.22265704 -0.25954726 -0.47584036 -0.20257388
0003e0 28 97 5c bd 6a 39 84 be bf 25 cd bc 15 e8 f6 be
       -0.05385509 -0.25825053 -0.025042413 -0.4822394
0003f0 d8 9e f9 bd f1 c5 94 3e 92 57 d0 be 3f 81 d1 be
       -0.121885 0.29057267 -0.4069181 -0.4091892

convs.0.fc_full.bias f4 [92]
000000 a9 38 02 bd 76 64 fa 3d d9 5a b5 bd e5 27 1f 3e
       -0.031792317 0.12226193 -0.088552184 0.15542562
000010 03 9e 84 3d a2 ab 43 3a 28 dc c3 3d 33 fb 29 bd
       0.06475451 0.0007464235 0.09563476 -0.041499328
000020 81 1e 89 bd 2d b6 d3 3d 8a ce ed bb fc 53 79 bc
       -0.06695271 0.10337482 -0.0072572874 -0.015217777
000030 dd 09 95 bd 0d 33 57 3d e6 1c 30 3e 27 f4 be bd
       -0.07277272 0.05253892 0.17198524 -0.09323912
000040 3c 7d b3 bc 6e b7 ca bd c7 91 d5 3c 30 5d af 3d
       -0.021910302 -0.09898268 0.026070489 0.08562696
000050 20 b1 2e 3d 2b 9d 5d 3c 4b 48 5a 3d 37 fb 2c bd
       0.04264939 0.013526241 0.0532916 -0.042231765
000060 ba 14 93 bd 65 e3 bf bd 7f af 49 bc 5e 71 4e 3d
       -0.07181688 -0.09369544 -0.012309908 0.050401084
000070 28 33 0f 3e 80 78 2c bd 95 d0 05 be 4f 30 66 bd
       0.13984358 -0.042107105 -0.13067849 -0.056198414
000080 a5 82 8c 3c 73 1c 1a be e9 be a3 3c 2b 52 ec 3d
       0.01715214 -0.15049915 0.019988494 0.1153911
000090 a3 f1 0b 3d b8 c5 4c 3d 92 c7 aa bc 23 b2 27 bc
       0.03416599 0.049993247 -0.020847116 -0.010235342
0000a0 d1 c4 bc 3c 40 d2 ae 3a d9 4e c9 3c 9a fc be 3d
       0.023043068 0.0013337806 0.02457373 0.09325524
0000b0 16 2c 28 bd 0f a9 9f bd 51 d7 85 bd 2d f4 c4 3c
       -0.04105767 -0.07795917 -0.06535209 0.024042213
0000c0 68 48 a5 3d 07 32 0b 3d 60 37 9c bd 54 76 00 3c
       0.08070451 0.033983257 -0.076277494 0.007840712
0000d0 44 b3 ea bc 07 5f ae bc 6f 79 56 bd 9b fe 33 bd
       -0.028649934 -0.021285547 -0.0523619 -0.043943983
0000e0 d6 ae 55 3d fc ba 4f bd fb b8 da 3d 62 c5 a9 bd
       0.05216869 -0.05071543 0.106798135 -0.08289601
0000f0 2c d3 7a bd 31 6c 55 bc 39 b7 cb 3d 86 a0 80 bc
       -0.061236545 -0.013026283 0.09947056 -0.015701544
000100 75 74 f4 3c 68 a9 b4 bd 94 df f0 bc d4 67 3d 3d
       0.029840687 -0.08821374 -0.029403485 0.046241596
000110 b6 4d 9b 3d f2 c3 19 3b 22 c0 a2 bd 31 8b d7 bc
       0.075831816 0.002346274 -0.07946803 -0.026311489
000120 25 75 c3 3b 16 0a c3 bd 62 1b a8 3c 3a bd b6 3c
       0.0059648925 -0.09523408 0.02052087 0.022307027
000130 32 38 2d bd 9e 4f b5 3d ad 3d 95 3b ca bb 9c 3d
       -0.04228992 0.088530764 0.0045544715 0.076530054
000140 92 7e 47 bc 2c e8 42 3c 8b 8e 98 bd 50 5a 3c bd
       -0.012176173 0.011896174 -0.07449063 -0.045984566
000150 79 f5 e2 bd 95 10 22 3c 5f 36 96 bd cc a0 5d bd
       -0.110819764 0.009891649 -0.07334589 -0.054108426
000160 8d ca 14 bc 53 2b 6d 39 e7 93 eb bd ac 7d 11 3d
       -0.009081495 0.00022618221 -0.115028195 0.03552024

convs.0.bn1.weight f4 [92]
000000 38 2a 10 3f 90 a1 1f 40 6c ee f6 3f 52 9d 9f 3f
       0.5631442 2.494236 1.929151 1.2469885
000010 af 40 46 40 89 67 25 40 2e 19 32 40 7e de e8 3f
       3.097698 2.5844443 2.7827868 1.8192899
000020 25 37 d6 3f e2 f6 00 40 80 f0 0e 40 ce cc f8 3f
       1.6735579 2.0150685 2.233429 1.9437501
000030 8d ee f3 3f 5b 0e e1 3f 39 c9 19 40 fc b2 96 3f
       1.9057175 1.7582506 2.4029067 1.1773372
000040 88 a5 47 3f fe ff 1b 40 dc e8 b5 3f 6a 98 08 3f
       0.77986956 2.4374995 1.4211688 0.53357565
000050 08 3a 42 40 a5 a0 9b 3f 5c c1 b3 3f ff 31 00 40
       3.034792 1.21584 1.4043384 2.0030515
000060 b5 23 d4 3f 06 ec 0a 40 4e 44 05 40 de 7b 10 40
       1.6573397 2.1706557 2.082294 2.2575603
000070 fe 11 a0 3f f7 d7 dc 3f 0a cd de 3f 9e 0f 83 3f
       1.2505491 1.7253407 1.7406323 1.0239141
000080 a6 82 19 40 e3 08 e0 3f 2e 58 c8 3f e8 eb db 3f
       2.3985991 1.7502712 1.565191 1.7181368
000090 5c 3a be 3f c4 1d d6 3f 1b 22 db 3f a1 34 c4 3f
       1.486156 1.6727834 1.7119783 1.5328561
0000a0 fb 56 ea 3f 43 9a 26 40 f5 07 ec 3f bd a8 25 40
       1.8307794 2.6031654 1.8439928 2.588424
0000b0 f6 d7 8e 3f 4d ff 58 3f 36 df b1 3f 20 2b 98 3f
       1.1159656 0.8476456 1.3896244 1.1888161
0000c0 4b 4b 8a 3f 6d b4 bc 3f 20 82 c0 3f 0a e4 9d 3f
       1.0804228 1.4742562 1.5039711 1.2335217
0000d0 bf 96 55 3f 3e 52 d3 3f 16 99 de 3f 31 e0 de 3f
       0.83433145 1.6509473 1.7390468 1.7412168
0000e0 28 f9 4f 3f ae 2e 06 40 af 06 37 3f f6 11 d7 3e
       0.8123956 2.096599 0.71494573 0.4200589
0000f0 25 f1 86 3f f9 80 a1 3f 0e 8a 83 3f 4e fe db 3f
       1.0542341 1.2617484 1.0276506 1.7186983
000100 a9 2d 8a 3f 60 46 b9 3f 7c 14 7e 3f 4f b9 d3 3f
       1.0795184 1.4474602 0.99250007 1.6540927
000110 7e 82 b6 3f d0 77 97 3f d1 8f 7a 3f 92 00 f8 3e
       1.4258573 1.1833439 0.97875696 0.48437935
000120 48 18 98 3f 41 c9 91 3f 53 37 91 3f f1 a6 05 40
       1.188241 1.1389543 1.1345009 2.0883143
000130 93 fb d9 3f 99 fb f1 3f 9e d2 29 3f 62 df e7 3f
       1.7029899 1.8904907 0.66337 1.8115046
000140 fc 46 5e 3f 58 42 ae 3f b5 d8 8e 3f 52 db 5a 3f
       0.86827064 1.3613997 1.1159884 0.85490906
000150 4d 14 ad 3f 98 67 bf 3f f4 7d 95 3f 5e 3d aa 3f
       1.352182 1.4953489 1.1679063 1.3299978
000160 9b e9 09 40 b3 fd 54 3f 8d f3 23 40 31 ac 76 3f
       2.1548831 0.83199614 2.5617402 0.96356493

convs.0.bn1.bias f4 [92]
000000 9f db 91 be 3e 6b 03 bf ff 26 92 be ea ad 50 be
       -0.2848787 -0.51335514 -0.28545377 -0.20378843
000010 45 fb 19 3e 74 68 cf be 65 24 13 3e 17 5b ab be
       0.15037258 -0.4050938 0.14369352 -0.33467934
000020 e7 b5 4e 3d e1 fc 99 3d 56 03 98 be 9f e8 e0 3d
       0.050466444 0.07518936 -0.29690045 0.10981869
000030 a4 e2 41 3e d5 7d 33 3f cb 08 5c 3e c0 e8 57 3e
       0.18934113 0.7011388 0.21487729 0.21084881
000040 bc 02 84 be 82 86 c8 3d 46 48 e2 be 16 5f b6 3d
       -0.25783336 0.0979128 -0.44195765 0.08904855
000050 4d f8 df be 99 45 c2 bd d6 8b 01 3f 30 18 9f bd
       -0.43744126 -0.09485931 0.50604 -0.07768285
000060 fb 86 88 be b5 e4 06 3f 8c 42 93 3e 31 37 88 be
       -0.26665482 0.5269273 0.2876171 -0.26604608
000070 e2 f6 8d be 69 3e ca 3d 16 fd 69 3d ed c6 41 bd
       -0.2772742 0.09875185 0.057126127 -0.04730885
000080 29 f3 1d bf c8 67 e3 3e ec 0c 48 be 50 63 94 be
       -0.6169916 0.44415116 -0.1953618 -0.2898202
000090 ca d5 1d be 7c 53 c1 3e 14 3b 18 3e ea 1b 30 bd
       -0.15413585 0.37759006 0.14866287 -0.04299537
0000a0 66 5a 87 bd a5 a3 82 3c 99 e1 2c be 3e 6e 0b bf
       -0.06609039 0.015947172 -0.16882934 -0.5446509
0000b0 22 04 5f bd 75 f5 0f be a3 8b a5 be 40 5a 6f be
       -0.0544473 -0.14058478 -0.32333097 -0.23374271
0000c0 99 44 fb be 88 87 bb 3d 70 45 af 3e 16 1a cd bd
       -0.49075773 0.0915671 0.34232664 -0.10014741
0000d0 ca 1e fb 3e a2 3a 70 3b b1 a8 c0 3d a8 98 40 3d
       0.49046928 0.0036656042 0.09407175 0.047020584
0000e0 5b dd 9c be 64 29 c2 bd ff bd 0b 3f cb 3b 36 3f
       -0.3063763 -0.09480551 0.54586786 0.71184987
0000f0 5a c6 b3 3e 87 55 02 3d 0c fa c6 be af e2 68 3e
       0.35112268 0.031819846 -0.38862646 0.22742723
000100 1b 34 cf be cd a4 4b be 43 e1 dd be d4 c5 35 be
       -0.4046944 -0.19887085 -0.43335924 -0.17751247
000110 ec 8f 88 3e 0c 9f 08 be 1a 32 c3 be 61 7a 27 3f
       0.26672304 -0.13341922 -0.38124162 0.6542111
000120 67 51 00 3e 4f ec be be 76 38 9f be 0f 2b 15 3d
       0.12531053 -0.37289664 -0.31097764 0.036418017
000130 87 3d 00 3e e8 f9 ba 3c 9b fa 11 bf 4e 84 5b 3e
       0.12523471 0.022824243 -0.5702302 0.21437189
000140 b6 5c 97 be 26 09 54 bd 4b 44 ec be fe 3f d4 3e
       -0.2956292 -0.051766537 -0.46145853 0.41455072
000150 8b 83 bc 3d 78 e4 1e be b0 34 3f be fe 55 f4 bd
       0.09204777 -0.15516841 -0.18672442 -0.11930464
000160 7c 48 3c be 34 c7 eb be 15 0d 45 bd 66 41 60 be
       -0.18387026 -0.46050417 -0.04810818 -0.21899948

convs.0.bn1.running_mean f4 [92]
000000 ac f5 a9 be 46 e3 30 bd 35 7f 92 3f c2 92 80 bf
       -0.33195245 -0.043185495 1.144507 -1.0044787
000010 ee 0a 41 3e 22 1e 5d 3f c5 ff 53 3f 28 1e 34 3f
       0.18851826 0.86374104 0.8281215 0.70358515
000020 1c ad 01 be b5 aa 3b c0 e1 07 67 3b b7 9a ad be
       -0.12663692 -2.9322941 0.00352525 -0.339071
000030 a3 0c 60 bf a1 1c 6b bf 4c 32 b7 bf 14 79 96 bf
       -0.8751928 -0.9184056 -1.4312224 -1.17557
000040 a2 51 f1 3e d9 4c ec 3f 2d b4 c7 3f 36 22 02 bf
       0.47132593 1.8460952 1.560186 -0.5083345
000050 28 15 88 3f b6 f9 e7 be 2f 91 43 bd 87 39 96 3f
       1.0631456 -0.45307702 -0.04774588 1.1736306
000060 74 03 9a be 50 3a 14 3e 57 54 57 3e 61 b6 57 bf
       -0.3008076 0.1447537 0.21028267 -0.84262663
000070 0b 77 14 bf 13 9f 21 3f 98 35 52 3f 64 90 55 bf
       -0.57994145 0.63133353 0.8211303 -0.8342345
000080 78 19 3d be fd c8 c7 bf 96 96 f7 bd 90 6e 4b 3f
       -0.18466747 -1.5608212 -0.12089269 0.7946558
000090 3c 16 2e 3f 44 14 2f bf c2 80 8c be 9b 56 a0 3f
       0.68002677 -0.683903 -0.27441984 1.252643
0000a0 79 fe 2d bd 20 5b 5b c0 f8 40 19 3f e8 d0 16 bd
       -0.042479012 -3.4274368 0.5986476 -0.036820322
0000b0 18 db df be 78 bc 61 3e 2d 27 43 bf bf e8 91 bf
       -0.43721843 0.22044551 -0.7623165 -1.1399153
0000c0 4b 78 7f 3f 5d ec dd bf a6 ea 20 bf c5 01 fe 3d
       0.9979293 -1.7337757 -0.62858045 0.12402681
0000d0 77 af 25 bf 24 7f ea be e4 19 c9 bf aa e7 d1 bf
       -0.64720863 -0.45800126 -1.5711026 -1.6398823
0000e0 49 32 24 bf 9e 32 c3 bf 89 3e 38 3f 99 53 a1 3f
       -0.6413923 -1.5249822 0.7197042 1.2603637
0000f0 3a 14 29 c0 29 a0 f2 bf 98 eb 8c bd 76 c4 27 40
       -2.6418595 -1.8955127 -0.068808734 2.621366
000100 cc 7d 4c 3f 4d 58 0e 3e 71 43 9a 3e 09 37 20 3f
       0.7987945 0.13900872 0.3012958 0.62583977
000110 57 78 42 3f c8 41 6a 3f 3b 52 2e be 7d b3 10 3f
       0.75964874 0.91506624 -0.17023556 0.5652388
000120 ac 6a a0 3e 1a bd 80 3f 84 df 42 bf 28 01 5f bd
       0.31331384 1.0057709 -0.7612231 -0.054444462
000130 07 f6 53 bf 03 41 91 bf 0d e2 ae be f1 70 07 bf
       -0.8279728 -1.1347965 -0.34156838 -0.5290671
000140 8f 00 7f bf 8c 59 13 3f b6 46 88 bd c9 de cb 3d
       -0.9961023 0.5755851 -0.06654112 0.09954602
000150 fe 9c 39 3f 94 7e 93 3f f1 8d 20 3e 39 c5 48 bf
       0.72505176 1.1523004 0.15679146 -0.7842594
000160 5a 01 20 bf 0f 8c b8 bf 7b 2c 81 3f e5 29 9a 3f
       -0.6250206 -1.4417742 1.0091699 1.2044035

convs.0.bn1.running_var f4 [92]
000000 4b eb 27 41 fd 61 51 41 ba ca 9e 41 e2 93 5f 41
       10.494945 13.086423 19.848988 13.973604
000010 54 b6 0d 41 a8 26 67 41 8e 67 2b 41 f7 15 c3 41
       8.857014 14.446938 10.712782 24.385725
000020 f3 aa af 41 27 3b 68 41 49 55 9c 41 fb f1 bc 41
       21.958471 14.5144415 19.541643 23.618155
000030 5d 55 6a 41 d9 62 59 41 7a 12 18 41 67 e7 5b 41
       14.645841 13.586633 9.504511 13.743995
000040 8d 84 62 41 8d eb a1 41 df d3 a0 41 d0 e3 56 41
       14.157361 20.240015 20.103453 13.430618
000050 be 30 8e 41 55 af 50 41 ed 14 35 41 22 a6 d7 40
       17.7738 13.042806 11.317609 6.73903
000060 e2 61 85 41 e8 14 90 41 e1 3e 96 41 29 90 80 41
       16.672794 18.010208 18.780703 16.07039
000070 5d 1e b1 41 82 11 01 41 c1 c4 d1 41 07 3d 84 41
       22.139826 8.066774 26.221071 16.529799
000080 4b 51 af 40 27 ef 4b 41 9d 36 3e 41 de 60 9c 41
       5.4786735 12.745887 11.888333 19.547298
000090 69 44 3a 41 53 f8 05 41 f9 ca 27 41 c4 ce 25 41
       11.641702 8.373126 10.487054 10.36298
0000a0 6c 44 8a 41 89 9c 2a 41 8a 1e 41 41 bd 75 1e 41
       17.28341 10.663217 12.069956 9.903745
0000b0 d6 8a 07 41 e7 81 46 41 40 41 9b 41 20 69 8a 41
       8.4713955 12.406714 19.40686 17.30133
0000c0 f2 86 3d 41 cb 83 84 41 45 13 93 41 b2 35 4f 41
       11.845446 16.564352 18.384409 12.950609
0000d0 9b cf 43 41 6a 30 31 41 8f 3e 58 41 79 f4 c8 41
       12.238185 11.07432 13.515273 25.119371
0000e0 f9 89 84 41 7b df 95 41 3a 1b c7 41 90 76 6e 41
       16.56737 18.734121 24.888294 14.903946
0000f0 56 ef 03 41 98 bd 90 41 ea f1 8a 41 bc 67 bb 41
       8.245932 18.092575 17.368122 23.425652
000100 bf 11 b6 41 f2 e2 9e 41 0e 5d 94 41 d1 db 89 41
       22.758665 19.860813 18.545437 17.232332
000110 78 41 90 41 e0 8f 51 41 cd c1 5e 41 a2 9a 81 41
       18.031967 13.097626 13.922315 16.200504
000120 b0 79 87 41 13 88 48 41 11 61 8b 41 ed 09 96 41
       16.934418 12.533221 17.422396 18.754847
000130 a2 d9 94 41 18 60 84 41 b8 b7 13 41 a6 cb b0 41
       18.606266 16.54692 9.232353 22.099438
000140 37 07 2b 41 23 c3 6f 41 9d 58 72 41 4b d0 3f 41
       10.689261 14.985141 15.146634 11.988353
000150 8f 39 92 41 3f b7 92 41 79 d2 83 41 f4 e7 81 41
       18.278105 18.339476 16.47777 16.238258
000160 a7 1f 2d 41 e3 78 60 41 b2 67 b3 41 a1 b6 19 41
       10.820228 14.029513 22.425632 9.607087

convs.0.bn2.weight f4 [46]
000000 d7 87 7f 3f 2f 1e c3 3f 1f e9 ae 3f 88 42 2e 3f
       0.9981665 1.5243586 1.3664893 0.6807027
000010 d6 a2 88 3f b0 87 92 3f be 10 76 3f e7 51 9b 3f
       1.0674694 1.1447659 0.96119297 1.213437
000020 62 8d 71 3f a4 2b a3 3f f1 fb 9d 3f 82 29 76 3f
       0.9435636 1.2747693 1.2342511 0.96157086
000030 13 43 80 3f 08 f5 ae 3f e4 72 50 3f 53 72 70 3f
       1.002047 1.3668528 0.8142531 0.93924445
000040 1c 36 81 3f eb 74 87 3f 07 e0 77 3f 4d 70 9c 3f
       1.0094638 1.0582556 0.96826214 1.2221771
000050 01 53 96 3f de c9 81 3f e4 f0 90 3f 4b a3 12 3f
       1.1744081 1.013973 1.1323514 0.57280415
000060 9c 19 93 3f 7d 7e 8a 3f 0c d4 a9 3f 3b 0f 85 3f
       1.149219 1.0819851 1.3267837 1.0395273
000070 78 72 96 3f 47 fc 54 3f 67 59 a9 3f f1 16 a5 3f
       1.1753683 0.83197445 1.3230408 1.2897626
000080 b3 05 bd 3f 9c 1d 66 3f a9 ba 9c 3f 56 9b 97 3f
       1.4767364 0.8988893 1.2244464 1.184428
000090 9a 3e a7 3f 31 6c 4e 3f ed a2 b1 3f aa de a3 3f
       1.306598 0.80633837 1.3877846 1.2802327
0000a0 b5 e3 83 3f 59 b7 9d 3f 58 34 62 3f dc ca b4 3f
       1.0303866 1.2321578 0.8836112 1.4124408
0000b0 11 a5 7d 3f 63 47 9f 3f
       0.99079996 1.244366

convs.0.bn2.bias f4 [46]
000000 45 35 d8 be 87 ac 98 be ee bd 1f 3e a6 23 1e be
       -0.4222814 -0.29819128 0.15599796 -0.15443286
000010 2e fc 29 be 32 d5 f6 be b4 ca df bd 31 f8 f9 bd
       -0.16600105 -0.4820953 -0.109273344 -0.12205542
000020 75 d0 90 3d 50 d6 82 be 21 53 8e be fe 0b 6a be
       0.0707101 -0.25554132 -0.27797797 -0.22856137
000030 36 20 2d be 9b 18 b4 be e2 5a 60 be fd e7 27 be
       -0.16906819 -0.35175022 -0.21909669 -0.1639709
000040 4d f9 08 bf 19 e1 7d be 53 c5 d6 be 4d 0c 24 bd
       -0.535054 -0.24792899 -0.4194742 -0.040050793
000050 bb ec f4 be b7 1a 3e be 85 c1 1a be c4 84 de be
       -0.4783686 -0.18564878 -0.15112884 -0.43460667
000060 e7 27 65 be fa 12 65 3c f5 8c 77 bc 0d 4a 69 be
       -0.22378503 0.013981575 -0.01510929 -0.22782154
000070 d8 be 68 3e 6a 3e 03 be 32 6a a1 be 64 cb 76 be
       0.22729051 -0.12816778 -0.31526333 -0.24101025
000080 b0 35 69 be 2e f0 bd be d7 b3 33 bd 71 91 93 be
       -0.22774386 -0.37097305 -0.04387268 -0.288219
000090 84 1f f5 bd 56 24 a2 bd 99 fb df be c7 aa 80 3c
       -0.11968902 -0.07917087 -0.4374664 0.015706433
0000a0 1d 77 db be 20 97 8f be 9f 67 bd be 3e 71 1b bd
       -0.42864314 -0.28044987 -0.3699312 -0.037949793
0000b0 88 5b c0 bd 24 1a c3 be
       -0.09392458 -0.3810588

convs.0.bn2.running_mean f4 [46]
000000 91 ec 38 40 90 9b 1d 40 4b 7a ff 3f b8 65 ab 40
       2.8894389 2.4626198 1.9959196 5.356167
000010 5b 2f e4 40 4d 59 3a 40 f9 36 95 40 5a 04 a5 40
       7.1307807 2.9117005 4.6629605 5.156781
000020 1f 3a 9d 40 fb 6e d9 40 d9 52 4a 3f 6f 0f e5 40
       4.913345 6.7947974 0.79032665 7.158134
000030 17 06 ac 40 5f 9f c8 40 4f d1 b1 40 61 e8 95 40
       5.3757434 6.2694545 5.5568004 4.6846166
000040 c3 98 0b 40 13 3d 02 41 80 6b 1b 40 56 16 6e 40
       2.1811988 8.139911 2.4284363 3.7201133
000050 5c 21 af 3f b3 c3 a3 40 88 8c df 40 1d 08 58 40
       1.3682055 5.117639 6.9859047 3.3754952
000060 66 92 00 40 78 34 c1 40 f9 95 9b 40 7a 1e 09 40
       2.0089355 6.037655 4.862057 2.1424851
000070 1c d4 15 40 a9 75 01 41 8a ae d0 40 2f ac b9 40
       2.3410711 8.091226 6.521306 5.8022685
000080 09 24 0d 3f ac fb 06 41 d2 4b b0 3f 6a 35 67 40
       0.5513311 8.436443 1.3773139 3.6126351
000090 80 89 23 40 05 4d ae 40 7f 16 ac 40 85 a2 98 40
       2.5552673 5.446902 5.377746 4.769839
0000a0 30 0b 50 40 a8 02 64 40 2b 62 69 40 f4 b6 38 3f
       3.2506828 3.5626621 3.6466167 0.72154164
0000b0 c0 b2 ed 40 93 8b eb 3f
       7.42807 1.840197

convs.0.bn2.running_var f4 [46]
000000 7d 35 90 41 4e a9 32 41 46 53 c3 40 bc 5f 5d 42
       18.026117 11.166334 6.103915 55.34349
000010 ed 64 a9 42 16 c6 a6 41 87 12 22 42 f9 ab 48 42
       84.69712 20.846722 40.518093 50.167942
000020 96 91 1c 42 21 0b ba 42 f4 e0 59 40 8f a7 d1 42
       39.142174 93.021736 3.404355 104.82726
000030 66 75 bb 41 b0 56 a0 41 6e e9 47 42 60 23 4d 42
       23.432323 20.042328 49.97796 51.284546
000040 7a 7a 0c 41 30 44 c6 42 fd 1f 78 41 dc e0 0f 42
       8.7799015 99.13318 15.50781 35.96959
000050 77 b7 9d 40 aa 0a 38 42 ac 88 6d 42 32 9e 21 42
       4.9286456 46.010414 59.38347 40.404488
000060 f7 15 2b 41 55 df aa 41 19 3e 7e 42 17 1f 93 41
       10.6928625 21.359049 63.560642 18.39018
000070 01 15 3e 41 0e f3 fd 42 e0 0b 2a 42 22 dd 61 42
       11.880128 126.97472 42.511597 56.46595
000080 3a f6 64 3f 21 c0 f7 42 ba d2 62 41 a9 8d 13 42
       0.8943821 123.87525 14.176447 36.88834
000090 b4 dc bb 41 f5 59 17 42 ab 88 d3 41 73 a4 13 42
       23.482765 37.83785 26.441732 36.910595
0000a0 b7 f6 01 42 1e 0b 1c 42 71 20 36 42 08 04 21 40
       32.490932 39.010857 45.53168 2.515871
0000b0 93 fe cc 42 ca 8e 9b 40
       102.497215 4.8611803

convs.1.fc_full.weight f4 [92, 98]
000000 04 aa 87 3e b0 50 96 3e 81 c2 4a bd 3f 45 8e be
       0.264969 0.29358435 -0.0495019 -0.27787206
000010 fa 08 cf be 12 ac 20 3e 76 ab b2 bc c6 e9 93 3d
       -0.40436536 0.1569064 -0.021810275 0.07222323
000020 f8 4b 8c be 91 93 1a 3e 70 09 7b 3e af 27 dc 3e
       -0.2740171 0.15095355 0.24515319 0.42999026
000030 b0 16 82 be f0 76 dd be ae ff d5 3d f9 dc 22 bf
       -0.25407934 -0.43254805 0.10449158 -0.6361843
000040 76 40 7b be b3 88 2e be 68 00 31 bd cf 86 c6 bb
       -0.24536309 -0.17044334 -0.043213278 -0.006058551
000050 aa 59 21 be 24 66 60 bd a6 e0 af 3e 77 62 52 bd
       -0.1575686 -0.05478491 0.3435108 -0.051363435
000060 6b 1e b3 be 0c bd 1c bd 9e af 49 be 96 1c f5 be
       -0.34984145 -0.038266227 -0.19695899 -0.47873372
000070 8f 76 1f 3e 27 4c d5 be fa a4 68 be ad d4 31 3f
       0.1557257 -0.41659662 -0.22719184 0.6946514
000080 7d 6f f4 3d 25 d5 2a be 0a 86 2c 3f 7e c6 41 3e
       0.11935327 -0.1668287 0.6739203 0.18923375
000090 58 14 17 3e 68 12 75 be 8b 59 6e 3d fc 38 59 be
       0.14753854 -0.23932803 0.058190864 -0.21213144
0000a0 95 e2 01 bf 11 09 56 bf af f7 9a be 41 61 23 be
       -0.5073636 -0.83607584 -0.30267093 -0.15955068
0000b0 a6 37 bc 3d 3c 8e ec be 7c c3 20 be 34 11 61 be
       0.091903016 -0.46202266 -0.15699571 -0.21979219
0000c0 56 0d 1e 3b cf 3e d7 bd b4 7f 00 3f a9 fb 44 bf
       0.0024116836 -0.10510027 0.5019486 -0.769465
0000d0 9b 7a 82 3d ef 24 56 bf 49 8f c6 bc 4e 6d a6 3e
       0.063710414 -0.83650106 -0.024238246 0.32505268
0000e0 7a d2 1b 3f c0 3f c2 be 34 b5 10 3b ff 9b b0 be
       0.60868037 -0.37939262 0.0022080662 -0.34494016
0000f0 1e 68 39 3f 77 af 9e bd 6f 59 f2 3b 64 d9 e5 be
       0.72424495 -0.07748311 0.007395915 -0.44892418
000100 90 ac 01 3f 8c b5 7d bd f4 ef dd be ca 19 1f be
       0.50653934 -0.061940715 -0.43347132 -0.15537181
000110 df 9e 52 3e fa fa 73 3e 38 37 29 be 30 99 50 be
       0.20568417 0.23826209 -0.1652497 -0.20370936
000120 ca f7 45 be 3c 78 18 3d 85 74 67 3e 6e 79 ec 3e
       -0.19332805 0.03722404 0.22603042 0.46186393
000130 21 d2 3b be 77 7a eb 3c 46 04 c2 be d5 c3 51 3e
       -0.18341877 0.02874492 -0.37893885 0.2048486
000140 ac 04 1c 3f b2 fa b3 39 c0 e3 2f 3e a4 32 4c bd
       0.6094463 0.00034328323 0.17176723 -0.049852982
000150 9f 8c 9a 3d e0 c1 db bd 43 63 f8 3e ae 8b f7 bc
       0.075463526 -0.10730338 0.4851323 -0.030217972
000160 4f 9b 4a bf 76 f3 31 bf 30 9b ee 3d 92 a7 8b bd
       -0.7914323 -0.69512117 0.116506934 -0.06819071
000170 83 13 e5 3e dd 69 a6 bd 3c 95 ea be d6 1c 79 3d
       0.4474145 -0.081256606 -0.45816982 0.060818516
000180 2f aa 34 be f0 35 0c be a5 df d6 bd 97 d7 a6 bd
       -0.17643045 -0.1369245 -0.104918756 -0.08146589
000190 13 b1 35 3f 0a 81 41 be ff f6 bb 3d b7 ef c5 bd
       0.7097332 -0.18896881 0.0917797 -0.096648626
0001a0 a7 8a 7d be 6a a6 a4 3e 9a 74 52 3e e6 90 08 bd
       -0.24759923 0.32158214 0.20552292 -0.03334131
0001b0 7e 1f 96 bb c3 d4 d4 bb 66 4a 4c be 1e b4 13 be
       -0.004581391 -0.0064950897 -0.19950256 -0.14424178
0001c0 84 2d f3 bd 22 49 e3 bd a5 c0 54 be ca c6 b7 be
       -0.11873916 -0.11097933 -0.20776613 -0.35893852
0001d0 21 19 98 3e 75 a3 82 3e e5 1e a3 3e 79 c6 69 bd
       0.29706672 0.25515333 0.31859508 -0.057074044
0001e0 3f 06 91 be 00 41 42 3e f3 5d e5 3d 38 4e 1b 3e
       -0.28325078 0.18970108 0.1119956 0.15166557
0001f0 ce 53 88 be 98 12 5b 3e e4 7f 40 3f 81 e8 18 be
       -0.26626438 0.21393812 0.75195146 -0.14932443
000200 ee f7 fc 3e f5 e6 37 bf 2d 81 c4 3e 1b 0c 4f be
       0.49407905 -0.7183679 0.38379803 -0.20219462
000210 0d 28 c4 3e 27 6b ae 3e 27 d3 18 be 0f 8d 69 be
       0.38311806 0.34066126 -0.14924298 -0.22807716
000220 16 c1 e6 3e 56 7e 28 3d 74 a9 aa bd bc 77 b8 be
       0.45069188 0.04113611 -0.08333102 -0.3602885
000230 a6 e5 99 3e 31 aa 8e 3d e7 1d 37 be 4e 00 2c bb
       0.3005802 0.06966055 -0.178825 -0.0026245299
000240 9f 4a 18 bd 7f 7f f8 be c1 cc 29 bf c8 33 93 3e
       -0.03718054 -0.48534772 -0.66328055 0.28750443
000250 8a 40 76 3e c0 73 2d 3e 6f 2e 38 be a8 75 ab 3e
       0.24048057 0.16938686 -0.17986463 0.33488202
000260 d5 31 4a 3c 46 8a cd 3d 23 32 0c 3f 60 e3 d6 3d
       0.012340982 0.10036139 0.54764 0.10492587
000270 95 32 1c be 9d c8 73 be 86 71 84 be c3 42 b0 be
       -0.1525367 -0.23806997 -0.25867862 -0.34425935
000280 9c 53 62 3e 18 f4 84 be f6 c9 e6 3e 93 20 76 be
       0.22102207 -0.2596748 0.4507596 -0.24035864
000290 03 4e 4b bf 10 fb d7 3e 1c 2e 56 3e aa a6 a3 bd
       -0.7941591 0.42183733 0.20916027 -0.07990773
0002a0 01 ba 28 bf a6 87 85 3e 13 54 c1 be c4 30 7a bd
       -0.6590882 0.26080054 -0.37759456 -0.061081663
0002b0 6a 52 a7 3e 8a 35 01 be 91 bf 17 bf f8 e5 55 3e
       0.32680064 -0.1261808 -0.5927668 0.20888507
0002c0 f5 51 4c bd ac 56 4f 3e c5 fa 28 3f 19 b2 5c be
       -0.049882848 0.20247906 0.66007644 -0.21552314
0002d0 c2 b8 0a be b5 2c f8 be e7 f3 b4 be 5a 6f 82 bf
       -0.13547042 -0.4847161 -0.35342333 -1.0190232
0002e0 d8 27 8e bd 15 1f 4f be 43 97 41 3e 3c 81 50 3b
       -0.06941193 -0.202267 0.18905358 0.003181531
0002f0 7f d7 79 bd c1 8b e4 bd eb 28 0d 3e 00 a6 9e bc
       -0.06099653 -0.111594684 0.1378514 -0.019366264
000300 fe 6f fd be e9 2a 2c bf 91 22 36 be d0 f3 d0 3e
       -0.49499506 -0.67252976 -0.17786624 0.40811014
000310 39 b9 83 be ed a0 9b 3e ec 6a 20 3e eb 61 98 be
       -0.2572725 0.30396214 0.15665787 -0.29762205
000320 c5 7f 61 be a2 91 96 be 1d 79 c4 3d f8 00 82 be
       -0.22021396 -0.29407984 0.09593413 -0.25391364
000330 a5 61 0a bf 20 e2 a7 bd ea c0 e5 3d b4 34 b0 3d
       -0.54055244 -0.08197427 0.11218436 0.08603802
000340 c1 34 73 be 43 be 8e bb c3 ea 54 be 86 49 e2 3e
       -0.23750593 -0.004356177 -0.2079268 0.4419672
000350 0e 5b 10 bd 98 06 0d 3e 92 58 94 be 0f 88 df bd
       -0.035243087 0.13772047 -0.28973824 -0.10914623
000360 c3 71 6f 3c a6 b9 a4 3d bf 2b c7 3d df f1 cf bc
       0.014614525 0.08043222 0.09725141 -0.025383888
000370 4d 27 81 bd 31 27 d3 3d c6 74 b2 bb d9 eb 4e 3f
       -0.06306324 0.103102095 -0.0054460494 0.80828625
000380 e1 62 3c be f1 fc 13 bd 85 f2 25 3d b3 87 24 be
       -0.18397094 -0.036129896 0.040514488 -0.1606739
000390 de cc a4 3e 42 83 d8 be 1e e5 3c bd 7d 0a bc be
       0.3218755 -0.42287642 -0.04611694 -0.36726752
0003a0 a6 ed 33 3d 53 20 56 bc 09 c8 e5 be 93 ef e6 be
       0.04392781 -0.01306923 -0.44879177 -0.45104656
0003b0 54 15 f1 bd 92 8b 7f be cc 0d a4 be 1a 08 ef 3e
       -0.11771646 -0.24955586 -0.32041776 0.46685869
0003c0 81 2e c2 bc da a0 57 3e e9 39 a3 3d 52 af d3 3e
       -0.023703815 0.21057454 0.0797003 0.41344696
0003d0 ef 05 56 bd 51 2c cc bb 61 b4 a4 be 3b 07 87 be
       -0.052251752 -0.006230869 -0.32168868 -0.26372704
0003e0 0a f1 25 be ff 87 fd bc 0c fc 42 be 65 de 9e be
       -0.1620523 -0.030948637 -0.19041461 -0.3102905
0003f0 5b 4f a4 be 54 81 0c 3e 07 36 ba bd fe 10 30 bd
       -0.32091793 0.1372121 -0.09092336 -0.042984955

convs.1.fc_full.bias f4 [92]
000000 a8 ac 66 3d 4f c5 b1 bd 04 0b 0d 3d 1f ae 94 bb
       0.056317 -0.08680212 0.034434333 -0.0045373584
000010 37 db 96 bd 6e 1c ba 3c f9 24 a0 bd 45 0e a1 bd
       -0.07366031 0.022718634 -0.07819552 -0.0786405
000020 de a7 eb 3b 16 39 10 3d 4c 6a 83 3d af f8 1a be
       0.007191642 0.03521069 0.06416759 -0.15133928
000030 97 fe e7 bd 2c 38 93 bb 2c 24 c0 bd 5b c0 da 3d
       -0.11327856 -0.00449278 -0.09381899 0.1068122
000040 77 80 a8 3c a4 6b e2 bd 19 0f cf 3d 5d 0d 91 bd
       0.02056907 -0.11055687 0.101103015 -0.07082627
000050 10 5c 43 bd 52 bb a3 bb 52 dd 29 bd 98 2c 9c bc
       -0.04769522 -0.0049966956 -0.041470833 -0.019064233
000060 28 c5 99 3c 21 01 ca 3d c0 97 af 3d 0a 42 1f bd
       0.01877077 0.098634966 0.08573866 -0.03888134
000070 05 e8 02 3d 12 dc 35 bc 1b 9b b0 3d 7e f2 94 3d
       0.031959552 -0.011099832 0.08623334 0.07272814
000080 f1 41 89 bd 64 a4 32 3d e5 ec d9 3d 15 f9 d3 bb
       -0.067020305 0.043613806 0.10640887 -0.006468902
000090 49 9d a0 3d f8 fa 71 3d ce a5 5b bc 0f 42 62 bc
       0.078425 0.059077233 -0.01340623 -0.013809695
0000a0 1b 33 72 3d b4 ec 93 3d 92 66 94 3d 36 11 b6 bd
       0.05913077 0.07222882 0.07246126 -0.088900015
0000b0 fb 5a 41 3d 89 9c a0 bd 0a 4c c4 3d 27 57 89 bd
       0.047205906 -0.07842357 0.09584816 -0.06706076
0000c0 f2 bd 01 3d f7 14 9d 3c 94 8e 65 3d f4 b0 06 bd
       0.031675287 0.019175036 0.056044176 -0.0328836
0000d0 61 73 d2 3d 4b d3 a8 bd 0f 66 9e 3d 94 9a 40 3d
       0.10275913 -0.08243426 0.0773431 0.047022417
0000e0 f6 a5 d7 3d 65 74 b8 bc 6e 15 6f bc 2e 0f 20 bc
       0.105297014 -0.022516439 -0.014592512 -0.009769244
0000f0 e1 b5 65 bd 9f 23 a0 bb 49 e0 3f bd 7d 02 1c 3d
       -0.056081656 -0.004887059 -0.046844754 0.03808831
000100 a2 c4 1d bd 58 94 7f bb cb 0b 96 3d a1 dc 1e bd
       -0.0385176 -0.0038998332 0.07326468 -0.038784627
000110 d3 1e 9e 3d bc 89 11 bd f5 61 ea bd 85 06 c6 bd
       0.07720723 -0.035531744 -0.11444465 -0.09669212
000120 fc da 0b 3d 4e db 84 3d eb ee f1 bb 74 fc 20 b9
       0.034144387 0.064871415 -0.0073832176 -0.00015352835
000130 cf dd 9a bd 77 89 3a bd 19 0e a8 3d 6c 64 7d 3d
       -0.07561838 -0.045541253 0.08205814 0.061863348
000140 4c 4a a4 3d d2 b6 c9 bd 8b 46 d6 bc df 19 2f bd
       0.080219835 -0.09849323 -0.026156684 -0.042749282
000150 91 0b 95 3d 09 1c a8 3c 18 82 37 bd 9d 9f b8 bd
       0.07277597 0.02052118 -0.0448018 -0.09014819
000160 b5 8a be 3d 98 59 81 3d ff 9b 1a 3d 86 55 03 3d
       0.093038 0.06315917 0.037746426 0.032063983

convs.1.bn1.weight f4 [92]
000000 62 b6 ce 3f 47 bb 14 40 98 20 37 3f ff 30 9a 3f
       1.6149409 2.3239305 0.7153411 1.2046202
000010 b5 60 0e 40 75 12 d4 3f c3 c3 bd 3f ea 8c 88 3f
       2.2246525 1.6568133 1.4825367 1.0668004
000020 b8 8f 08 40 d3 27 ef 3f af ce 01 40 08 81 c1 3f
       2.133772 1.8684028 2.02824 1.5117502
000030 b5 40 50 40 eb f6 be 3f e5 99 ba 3f ac 8f c6 3f
       3.2539494 1.4919103 1.4578215 1.5512595
000040 e3 fb 8a 3f 2b dd d4 3f b9 27 26 40 9f ed 7b 3f
       1.085812 1.6629995 2.5961745 0.98409456
000050 31 dc dd 3f 4a cd ea 3f be bb b0 3f ca 15 b2 3f
       1.7332822 1.8343899 1.3807294 1.39129
000060 fe c1 f5 3f 4d d9 d4 3f a7 94 1c 40 ce b7 c6 3f
       1.9199827 1.6628815 2.446573 1.5524843
000070 7f fd 9a 3f 9e 07 90 3f 94 6d 15 40 9d 53 cd 3f
       1.2108611 1.1252325 2.334813 1.6041142
000080 97 64 3b 3f ec 7a 00 40 f3 17 c4 3f dd eb 22 40
       0.7320036 2.0075026 1.5319809 2.545646
000090 44 64 ff 3f 47 cb 05 40 7f dd 2f 40 18 4d f9 3f
       1.9952474 2.090532 2.747894 1.9476652
0000a0 a9 b4 b5 3f e2 fe 2c 40 34 5f fa 3f a1 f4 29 40
       1.4195758 2.7030568 1.9560304 2.655556
0000b0 f0 cb c8 3f 77 df f8 3f 24 22 9a 3f 01 da 51 3f
       1.5687237 1.9443196 1.2041669 0.8197327
0000c0 89 1a ef 3f 34 09 c1 3e 87 0d b5 3f 66 74 68 3f
       1.8679973 0.37702334 1.4144753 0.9080261
0000d0 83 01 f7 3f ab 95 07 40 1c 93 f0 3f fb 06 a2 3f
       1.9297336 2.11851 1.8794894 1.265838
0000e0 53 6a a8 3f 3d 59 ae 3f e9 f8 1a 3f 6c d6 33 3f
       1.3157448 1.3620983 0.60536057 0.70249057
0000f0 34 3d 87 3f a5 36 a9 3f 01 16 89 3f 57 be 24 40
       1.0565553 1.3219801 1.070984 2.5741174
000100 25 ad bd 3f 4c c4 fb 3f 12 1a d1 3f e3 f2 13 3f
       1.4818465 1.966928 1.6336081 0.5779249
000110 d6 bd c5 3f 9e 80 9c 3f 59 48 17 3f 92 8a 03 40
       1.5448558 1.2226751 0.5909477 2.0553327
000120 f1 f3 a6 3f 81 e0 9a 3f d8 eb c2 3f b6 02 da 3e
       1.3043195 1.2099763 1.5228224 0.42580193
000130 4e 24 73 3f b8 e7 97 3f d4 54 57 3f 8e 00 3d 3f
       0.9497727 1.186759 0.8411381 0.7382897
000140 3b 72 64 3f e0 f2 f8 3f dd 8f 4c 3f 9e ad bc 3f
       0.892368 1.944912 0.7990702 1.4740484
000150 5c a9 43 3f 35 cd 84 3f cc db b8 3f 9f 6a 34 3f
       0.76430297 1.0375124 1.4442077 0.7047519
000160 cc b3 c9 3f fc 9c 9a 3f 67 4d cb 3f 3e 43 52 3f
       1.5757995 1.2079158 1.5882996 0.82133853

convs.1.bn1.bias f4 [92]
000000 d1 43 2f bf 74 3a a5 be c9 5f 99 be ef c9 22 bf
       -0.68462855 -0.3227116 -0.2995589 -0.63589376
000010 61 06 1f bd 08 12 f3 bd 6d 94 80 3d 98 c0 a5 be
       -0.038824443 -0.118686736 0.0627831 -0.323735
000020 3c 9c f4 be 13 d9 12 bf b3 84 5d be f7 f5 3c be
       -0.47775447 -0.5736248 -0.21632652 -0.18453203
000030 fc 54 90 be 80 08 7f bf 78 67 af be ee 5d d5 3d
       -0.28189838 -0.99622345 -0.34258628 0.10418306
000040 39 47 dd be 69 22 57 be 68 d9 89 be 34 b2 e2 3d
       -0.432184 -0.2100922 -0.2692368 0.11069146
000050 18 54 ad be d6 10 dc be d9 61 30 be 2f 0c aa be
       -0.3385322 -0.42981595 -0.17224826 -0.3321242
000060 9a 32 4e bf 84 a9 cf be 9c 1d 2c be 64 87 53 be
       -0.8054596 -0.40559018 -0.1680817 -0.20657116
000070 d6 f0 01 bf 97 0e 16 bf 48 d2 e0 be 0c 3d 59 be
       -0.5075811 -0.5861601 -0.43910432 -0.21214694
000080 b4 31 ef be 81 b5 a4 be d5 53 3a be 22 95 7f be
       -0.46717608 -0.32169726 -0.18196042 -0.24959233
000090 6f 77 f3 bc 3e e4 76 be 17 d7 86 bc c3 aa 39 3e
       -0.029720036 -0.24110505 -0.016459985 0.18131547
0000a0 21 25 b0 3d 64 75 a1 be 81 8d 8e 3e 27 12 13 bd
       0.08600832 -0.31534874 0.27842334 -0.035905983
0000b0 0b 7b b2 be f5 2f 18 bf bd 21 15 be 14 32 09 bf
       -0.348595 -0.59448177 -0.14563651 -0.5359204
0000c0 cd be ab be 9e b4 53 bf f6 cc 1f be 89 de 86 be
       -0.33544007 -0.82697475 -0.1560553 -0.26341656
0000d0 47 5a f1 3b 63 0f 6b bd cd 95 0b be b3 b9 96 be
       0.007365498 -0.05738772 -0.13631363 -0.29438552
0000e0 5a 45 ac bd 04 4c 9d be bc 44 1f bf 33 e4 49 bf
       -0.08411665 -0.30722058 -0.62214255 -0.7886383
0000f0 30 bf a4 be 8a 7b 34 3e 25 8f 78 be d5 f5 98 3d
       -0.32177114 0.17625251 -0.24273355 0.07468764
000100 76 b5 74 be b9 61 0e 3c 64 3c a5 be 14 f4 15 bf
       -0.23897347 0.008690291 -0.32272637 -0.5857556
000110 85 6e aa 3a b9 41 19 bd 8c 1f 24 bf ca c9 df bd
       0.0013002908 -0.037416194 -0.64110637 -0.1092716
000120 c0 ce f7 bd 52 6d c3 be 23 e8 b3 be 4c 32 38 bf
       -0.12099981 -0.38169342 -0.35138044 -0.71951747
000130 6e ed ed be 38 33 a8 be 39 4b f9 be 26 99 02 bf
       -0.46470207 -0.32851577 -0.48690203 -0.51014936
000140 18 51 be be 9a 92 3d bd 27 df 0e bf 50 fa a7 bd
       -0.37171245 -0.04628239 -0.55809253 -0.0820204
000150 2a be 45 be 62 0f 92 be 89 5d 96 3e 2c f8 20 bf
       -0.19310823 -0.2852736 0.29368237 -0.6287868
000160 a9 81 95 be bc 5b 6d be f5 6a b8 be 62 74 0d bf
       -0.29200485 -0.23179525 -0.36019102 -0.5525571

convs.1.bn1.running_mean f4 [92]
000000 c7 e5 a9 bf 00 0e fa bd f2 25 e2 bf 0f 47 22 bf
       -1.3273247 -0.122097015 -1.766783 -0.63389677
000010 19 9d 45 c0 df 81 64 3f d8 34 a5 bf 35 3c 8f 3e
       -3.0877135 0.8926067 -1.2906752 0.27975622
000020 3e 0e 85 3f bf e2 22 40 e9 15 04 40 32 d3 c6 c0
       1.0394971 2.5450895 2.0638373 -6.2132807
000030 2d cb 3f c0 e5 ad 71 bf 98 fe 1e 3f a4 da 00 c0
       -2.9967759 -0.94405967 0.6210723 -2.0133448
000040 4b b0 2f 3f 55 58 3c 3e 7a 37 7c bf 9c dc 91 be
       0.68628377 0.18393071 -0.9852215 -0.28488624
000050 ee 75 a7 bf 58 d3 d2 be 31 77 e2 be 27 75 96 3f
       -1.3082864 -0.41176867 -0.4423156 1.1754502
000060 53 a2 43 40 d6 60 f8 be 7c 76 cb 3e 67 2e c6 be
       3.0567825 -0.4851138 0.39738834 -0.38707277
000070 e4 18 84 bf cf 63 64 bd 8a df a1 3e 3c 4c 0c 40
       -1.0320096 -0.055759247 0.3161586 2.192153
000080 91 be 0e bf ae 19 30 c0 11 a8 b6 bf 04 3f 08 3f
       -0.5575953 -2.7515674 -1.427004 0.53221154
000090 26 6f b2 bf 2c 1f b3 3f a4 99 d6 bf 06 81 1b c0
       -1.394017 1.3993888 -1.6765637 -2.42975
0000a0 44 81 88 bd ef f6 7b bf d9 53 b1 c0 1e 5d 1a c0
       -0.066652805 -0.98423666 -5.5414853 -2.4119334
0000b0 79 d9 21 bf 19 02 ba bd fa c9 26 40 a5 50 a2 be
       -0.6322246 -0.09082431 2.6060777 -0.31702152
0000c0 8c 33 4b bf d0 6f 82 bf da ef 3c bf ab be e8 bf
       -0.7937553 -1.0190372 -0.73803484 -1.8183187
0000d0 ad 41 2f 3f 0f c9 49 c0 a7 64 5e bf b5 1c 6e 3f
       0.6845959 -3.1528966 -0.86872333 0.93012553
0000e0 ec b5 93 bf cf 3b ba bf a6 1d 25 3f d3 dc fe bf
       -1.1539893 -1.4549502 0.64498365 -1.991114
0000f0 80 5f 1b c0 1a 4b 91 c0 9e 03 90 bf 69 7f 13 c0
       -2.4277039 -4.5404177 -1.1251104 -2.3046515
000100 74 26 cd be 85 32 9f bf 5e 60 96 c0 6f 85 b8 3f
       -0.400684 -1.2437292 -4.6992636 1.4415721
000110 2a 13 91 bf a4 c5 01 40 fd 7e 14 bf 6d 0a d1 be
       -1.1333973 2.027688 -0.5800627 -0.40828267
000120 a9 4b 3c 3f 0a 95 69 bf 86 17 45 c0 6a ee c8 3f
       0.7355295 -0.9124304 -3.0795608 1.5697758
000130 ae a3 65 c0 03 af 5b 3f d3 0f 84 c0 fa 27 28 c0
       -3.5881152 0.8581392 -4.1269317 -2.62744
000140 1c f7 eb be 90 44 f1 bf c8 2b 13 c0 72 6a ac be
       -0.46086967 -1.8849049 -2.2995472 -0.3367496
000150 f4 1f 69 bf c7 63 ab 3f 64 7a 33 be 8c be b2 bc
       -0.9106438 1.3389825 -0.17527157 -0.021819375
000160 12 b5 81 3e cb 7c 91 bf 9f a7 28 c0 df b6 1f bf
       0.25333458 -1.1366209 -2.6352308 -0.62388414
