dropout/NN_ensemble/histories/3_d25_valid_best_params.pt (torch_old, 452453 bytes, 103 tensors)

embedding.weight f4 [46, 98]
000000 38 26 42 bc d6 d7 5a 3d 32 03 ca bd a6 4e 02 bf
       -0.011849932 0.053428493 -0.09863891 -0.5090126
000010 2b 13 9c be 50 3b 90 3d 16 45 b5 bd 17 8d 57 be
       -0.30483374 0.07042563 -0.08851068 -0.21049915
000020 9e c6 a4 be 0a 50 48 3e 1f 1d 5e 3f c4 65 8e be
       -0.32182783 0.19561782 0.86763185 -0.27812016
000030 8c 54 51 bf cf 87 84 bc 26 8c ed bd ef ee 68 bd
       -0.81769633 -0.01617804 -0.11598997 -0.05686849
000040 c6 da 19 be 29 e2 4a 3f f4 f6 cb 3d 4a 01 06 3d
       -0.15024862 0.79251343 0.09959212 0.032716073
000050 17 b4 93 be 99 27 10 3c 97 d0 0d bf af fd 19 3f
       -0.28848335 0.008798503 -0.5539641 0.60152715
000060 0c 97 ab be 17 25 cb bd e2 d5 1d bf 38 72 98 bc
       -0.33513677 -0.09919184 -0.61654484 -0.018609151
000070 ce 3d 4a be d2 e7 32 be 80 ae 31 3e b9 40 26 3e
       -0.19750139 -0.17471245 0.17351723 0.16235627
000080 20 cf ba 3d 61 7d fa 3c 7a 7a ea be 7a 5e 88 3d
       0.09121537 0.030577363 -0.45796567 0.06658645
000090 6b 86 53 3e 4c b6 12 bf b3 f8 ea 3d 5d 29 48 3e
       0.20656745 -0.5730941 0.11473217 0.19547029
0000a0 f3 7c 46 be 53 7f 1f bd 1c d8 2d be d4 43 8a 3e
       -0.19383602 -0.038939785 -0.1697697 0.27004874
0000b0 6e 1a 41 bd b9 74 f4 be 11 be 3a 3d 43 0d 1c 3d
       -0.047144346 -0.47745302 0.045591418 0.038098585
0000c0 27 f0 5c bd 18 9b 91 be 5e 74 39 3d d0 1d 5e be
       -0.053939965 -0.2843864 0.045276992 -0.2169106
0000d0 c2 96 68 be bf 56 95 be 42 18 78 3e 38 ff 64 3e
       -0.2271376 -0.29167745 0.24228004 0.22362983
0000e0 a5 85 8a be af 10 97 3e c5 bf 24 bf f5 67 e7 bd
       -0.27055088 0.29504916 -0.6435512 -0.11299125
0000f0 89 93 04 be b1 f8 9f 3a db b2 3e be d3 05 27 3e
       -0.12946905 0.0012204853 -0.18622915 0.16310816
000100 79 74 4c be 98 e0 c8 3c cc 32 e9 bc 36 cd 30 bd
       -0.19966306 0.024521157 -0.028466605 -0.043164454
000110 10 08 df 3b 84 7e 6b 3d 86 28 70 bd 58 9d cd 3c
       0.006806381 0.0574937 -0.058632396 0.025099441
000120 92 a9 e5 3e 6b b6 74 3e d1 f1 a9 be f3 15 a3 3d
       0.44855934 0.23897712 -0.33192304 0.07963171
000130 4e ed 8c 3d b6 20 38 3f c9 bf 77 bd 81 9a 0c bd
       0.068812 0.7192491 -0.060485635 -0.034327034
000140 6a 0e fb bd a8 1b 85 3d 5d 86 b5 3d 83 98 8c bd
       -0.12258609 0.06499416 0.088635184 -0.06865027
000150 ea 00 19 3d a0 c8 e6 3e 45 6e d9 be 6b 56 8e be
       0.037354387 0.4507494 -0.4246694 -0.27800307
000160 27 53 2b be 93 bb e6 3e 3a f3 10 bf c1 b7 b6 be
       -0.16730939 0.45064983 -0.56621134 -0.35687068
000170 c9 ce 5a bf aa 96 9b 3e d4 66 c8 be 2f 22 30 3f
       -0.8547178 0.30388385 -0.39140952 0.6880216
000180 af 37 15 bf 6f 57 8c 3e 30 d0 49 bd 55 02 12 3e
       -0.5828809 0.27410457 -0.04927081 0.14258702
000190 7a ed 0e be 71 e5 75 bf 34 87 60 be 1d 12 43 bf
       -0.13957778 -0.96053225 -0.21926576 -0.76199514
0001a0 3e 4c 36 bf 4d c4 05 bf a3 bf db be d5 10 22 be
       -0.71210086 -0.52252656 -0.42919645 -0.15826733
0001b0 47 8c c8 3e 67 06 50 3f 80 1a ee 3e 58 bb c1 3d
       0.39169523 0.8125977 0.46504593 0.09459561
0001c0 c6 19 54 3e 23 c5 97 3e db 60 9c 3d e4 eb 23 bd
       0.20712957 0.2964259 0.07635661 -0.040019885
0001d0 78 7f 56 3d 88 f5 53 be aa c2 83 3e a9 65 2a bf
       0.052367657 -0.20699131 0.25734454 -0.6656137
0001e0 d9 bf 35 3e f0 06 b3 3e 75 f0 83 be c7 2f 89 bd
       0.17748965 0.3496623 -0.25769392 -0.06698566
0001f0 c1 ca 7f 3e 5d 6f 35 3e 7e 6a b1 be c8 be bb be
       0.24979688 0.17718263 -0.3465156 -0.36668992
000200 5a f2 56 3e 11 98 6c 3e 38 bb 51 3d 7b ba 0a 3d
       0.20990887 0.23104884 0.051203936 0.033869248
000210 53 25 81 bc 4c 8a 59 3d c0 d4 43 be 17 1a 3c be
       -0.015764868 0.053110406 -0.19124126 -0.18369327
000220 55 6d 5f 3e f9 b4 eb bd 5e 57 2f 3e db 91 84 be
       0.2181905 -0.11509127 0.17123172 -0.2589253
000230 df e1 d4 be 8e 44 81 3c 2c 64 0e 3d 73 36 e9 be
       -0.41578576 0.01577976 0.0347635 -0.45549354
000240 80 cf 69 3e 3e 8f 8e be 23 ac 84 3d e4 20 0d be
       0.22833061 -0.2784366 0.06478145 -0.13782078
000250 e9 e7 7d be 78 ab 0a bf d9 47 0b bf d3 85 a8 be
       -0.24795498 -0.5416789 -0.54406506 -0.329146
000260 fa 56 5e be 39 d5 01 3e b8 91 58 3f 03 e0 28 3f
       -0.21712866 0.12678994 0.8459735 0.65966815
000270 01 8e 29 3e 89 d2 1a 3f e6 5c 78 bd 52 de 87 be
       0.16558076 0.604775 -0.06063547 -0.26536804
000280 b3 57 8b bd f9 b8 1d 3f f0 a2 9c bc b0 e3 2e bc
       -0.06803837 0.6161037 -0.019120663 -0.010674402
000290 51 24 97 bd f0 25 7d bc 19 c8 ca bd 88 d5 0b 3c
       -0.07379974 -0.01545094 -0.09901447 0.008534797
0002a0 01 a1 ac 3b b8 98 5b 3c 24 aa 8c 3c bb 10 65 be
       0.0052682166 0.01340311 0.017170973 -0.22369663
0002b0 92 b1 27 be fe d4 0f 3c 84 45 ae bc 76 69 20 bd
       -0.16376331 0.008778809 -0.021273382 -0.039163075
0002c0 75 0c 6d bb e8 3e bb 3e f6 d4 cf be 78 61 af bc
       -0.0036170755 0.3657143 -0.40592164 -0.021408781
0002d0 c8 31 05 3e 18 2a 11 bd 32 d2 c9 be 3c 7b 2c be
       0.13007271 -0.035440534 -0.3941818 -0.16843885
0002e0 97 4d c3 3e ea 01 32 3f 4e b6 30 be ad b8 a3 be
       0.38145134 0.6953417 -0.17257044 -0.31976834
0002f0 b9 82 a3 3e 88 fa a1 be ac 9c de bd aa 00 19 bf
       0.3193567 -0.31636453 -0.108697265 -0.5976664
000300 ae 87 8f 3f f7 cb 45 be 99 b1 04 bf a8 b7 7d 3e
       1.1213281 -0.19316088 -0.5183349 0.2477709
000310 ca b7 0e bd 39 18 0c 3e a0 ea 30 bd b7 08 f5 be
       -0.034843244 0.13681115 -0.043192506 -0.4785821
000320 54 08 12 be dd d8 2c 3e c7 38 c3 be 68 7e ce be
       -0.1426099 0.16879602 -0.38129255 -0.40330815
000330 03 1a 4e be e5 2e b8 3e e8 f8 6f 3e ee 99 20 be
       -0.2012711 0.35973278 0.23434794 -0.1568372
000340 b0 96 1a 3b ef 86 a7 bc 70 47 c9 3d 8f dc c1 bd
       0.0023588352 -0.020450084 0.09828079 -0.09465896
000350 26 d3 b7 3d 62 8c bd 3e 18 85 73 3d 2f 0c d3 3d
       0.0897582 0.37021166 0.0594531 0.10305058
000360 dd c8 0b be 2c a6 2f be 4c ce 0e 3e b1 80 75 bd
       -0.13650842 -0.17153233 0.13945884 -0.059937183
000370 3e 40 17 be b0 7e 3d 3d ef 15 f0 be c4 77 b1 3c
       -0.147706 0.046263397 -0.46891734 0.021663554
000380 f8 c1 17 be 24 bd 0e be 71 f3 3c 3e 47 dc 43 bd
       -0.14820087 -0.13939339 0.1845224 -0.047817495
000390 1e d6 9a 3d 18 ab 57 be b1 1f 6e 3e 3c 86 55 bd
       0.07560371 -0.21061361 0.23254277 -0.05212997
0003a0 b3 54 24 3e f0 24 21 3e 1d ee a5 be 0e b6 bb 3e
       0.16047935 0.15736747 -0.3240823 0.36662334
0003b0 d9 be 11 be 51 4b 53 be e6 e1 02 be c2 41 a2 be
       -0.14232959 -0.206342 -0.12781486 -0.31690794
0003c0 f5 58 42 bd a5 36 2b bf c4 e4 ed 3d d8 8f 53 be
       -0.047448117 -0.66880256 0.11615899 -0.20660341
0003d0 89 b4 01 bd f3 bb 56 3c e3 6a 2a bd ab d8 7e be
       -0.031666312 0.013106334 -0.04160584 -0.2488734
0003e0 4a 4a aa be 8c 77 c7 bd 8e f9 ac 3e be 22 96 bd
       -0.33259803 -0.09739599 0.33784145 -0.07330845
0003f0 44 36 33 be ae ee a7 3e 3e f2 bf be 3f ea 90 3d
       -0.1750117 0.32799286 -0.37489504 0.07075929

embedding.bias f4 [46]
000000 a4 ba fb be 81 a1 e8 be 64 20 4c be 6a 47 db be
       -0.49165833 -0.45435718 -0.19934231 -0.42827922
000010 9c 5f ca 3d fc 96 4d be b2 9b 0a bd 83 46 2a bf
       0.09881517 -0.20077127 -0.03383989 -0.6651384
000020 0a 44 d8 be b3 9b b6 be e9 54 19 bf 93 65 2a be
       -0.4223941 -0.35665664 -0.5989519 -0.1664031
000030 30 47 8a be 47 dc 02 bf 0e be 74 bc 6c 73 f6 be
       -0.27007437 -0.51117367 -0.014937891 -0.48134935
000040 9f 86 15 be 32 22 c4 be 5a 53 34 3e 6b 48 c2 be
       -0.14602135 -0.3830734 0.17609921 -0.37945876
000050 e7 63 4a be de 97 f1 be 34 57 8e bd b5 e6 81 be
       -0.19764672 -0.47186178 -0.069502264 -0.25371328
000060 07 2d bd be b9 bb 0f bf af 13 0b bd c6 28 c7 be
       -0.36948416 -0.5614582 -0.03395432 -0.38898295
000070 a7 7b de bd 3b 00 86 be a3 ac a7 be 80 82 9b be
       -0.108634286 -0.2617205 -0.327489 -0.30373
000080 e6 8e 5c be 8f 74 fd be ed 33 51 bf a0 f7 e2 be
       -0.21538886 -0.4950299 -0.8171986 -0.44329548
000090 49 0d 66 be 7d 39 b8 be 3a c9 de be 0d 3a cf be
       -0.22466005 -0.3598136 -0.435129 -0.40473977
0000a0 5e 79 ef be 67 9c 42 3b a6 79 8f be 86 64 e1 be
       -0.46772283 0.0029695274 -0.28022498 -0.44022006
0000b0 01 1c b7 be cf bd 05 bf
       -0.35763553 -0.5224275

convs.0.fc_full.weight f4 [92, 98]
000000 68 fc 83 3e a6 52 9c 3e 0f 0a cc 3e 8e 1b 47 bd
       0.25778508 0.30531806 0.39851424 -0.048610263
000010 94 54 50 3d f6 81 65 be d8 f1 3e bd bc 5a 2b bc
       0.05086191 -0.22412857 -0.04661736 -0.0104586445
000020 a8 6a 61 be 82 c4 d2 3d 8f 7a b0 3e 0d 91 95 3d
       -0.22013342 0.10291387 0.34468505 0.07303057
000030 f8 5d d5 3e 15 bb 9a 3d 77 fd fe 3e 62 b5 88 be
       0.41673255 0.07555214 0.49802753 -0.26700884
000040 28 d2 08 bf 90 20 05 3e 45 43 bb be a3 04 1a be
       -0.53445673 0.13000703 -0.3657476 -0.15040831
000050 97 b2 8f be c2 86 1c bf ae de 4c 3e 10 2a c4 3d
       -0.2806594 -0.61143124 0.2000682 0.09578335
000060 41 0b 9b 3d c8 7e 1d 3d 55 c6 75 3d b5 dd 80 be
       0.07570506 0.038450986 0.060003597 -0.2516915
000070 f5 cb 8d 3d 4d 06 ee bd cd 3a 46 be 59 0f 93 be
       0.06923667 -0.116222955 -0.19358368 -0.28722647
000080 e3 6a b3 3e 60 88 18 bf 28 12 e2 3d fd 4e c0 bd
       0.35042486 -0.5958309 0.11038619 -0.09390066
000090 3e c6 76 be de 26 ce 3e d0 fd e6 3e fa de 7a bd
       -0.24099061 0.40264028 0.4511552 -0.061247803
0000a0 44 5f 32 3e 3c 0b fe be 01 19 10 3d 41 3f 9e be
       0.17419153 -0.49617946 0.035180096 -0.30907634
0000b0 70 8d f4 be cc 66 58 3e c0 93 26 3e d7 53 fb 3d
       -0.47764158 0.21132964 0.162673 0.122718506
0000c0 a9 db 65 3e cb 9a f1 3e 90 7a 7b be 5e 3c 21 3e
       0.22447075 0.4718841 -0.24558473 0.15745685
0000d0 23 e1 ec 3e 84 03 b8 be 71 95 98 3e 0c ae dd 3d
       0.46265516 -0.35940182 0.29801515 0.108242124
0000e0 47 e0 19 3f a2 7f 9f 3e ce 8f 2f 3f c6 71 91 bf
       0.60107845 0.31152064 0.68578804 -1.1362846
0000f0 fe b5 6e bb da 76 22 bf b5 31 aa be fd c6 ef 3d
       -0.0036424394 -0.63462603 -0.33241048 0.11707876
000100 60 84 8a be 57 00 90 be 30 6b 4b bf 8f ee 37 3f
       -0.2705412 -0.2812526 -0.7946043 0.71848387
000110 c0 92 0d 3d 48 2c 21 bf 1a 1e 14 be 3b e7 53 3e
       0.03456378 -0.6295819 -0.14464608 0.20693676
000120 4e 05 e3 bd 75 37 f8 be 16 7c b2 3e 2f ee 67 be
       -0.11084996 -0.4847981 0.34860295 -0.22649454
000130 0f cc 30 be e3 2e a6 bd 11 84 42 3f ed 4a 62 be
       -0.17265342 -0.08114412 0.7598277 -0.22098894
000140 12 28 50 3f bb f2 ce be 00 d2 1b be 71 93 ea be
       0.8131114 -0.40419564 -0.15216827 -0.45815614
000150 19 43 02 3f e6 a8 ac be 7e c8 c6 be 76 5b b0 3e
       0.5088363 -0.3372261 -0.38824838 0.3444478
000160 05 3e 4e be 35 c6 82 3c 4f 94 4d 3e 82 3c 6c bf
       -0.20140846 0.015963653 0.20076106 -0.9227983
000170 52 d0 46 3e 44 bd a7 3e e1 66 19 bf 98 d9 83 be
       0.19415405 0.32761586 -0.59922606 -0.25751948
000180 98 d1 49 3e 30 a5 9a 3e 3b c6 b7 3e 87 b3 3a be
       0.1970886 0.30204153 0.35893425 -0.18232547
000190 c8 41 43 bb 4c bc 74 3e 5b 19 90 bd b5 e4 c7 3d
       -0.0029793847 0.23899955 -0.07036086 0.09760419
0001a0 41 07 b3 be a0 86 32 3e 29 11 e2 3d b1 6e a9 bc
       -0.34966472 0.17434168 0.11038429 -0.020682665
0001b0 4a 83 2e 3d aa ec e8 bd b1 95 5e be 9f c8 1e 3d
       0.042605676 -0.11373265 -0.2173679 0.038765546
0001c0 cd a8 0b bf 13 77 8e bd 3e 5d 8b be d0 59 d6 3d
       -0.54554445 -0.06956305 -0.27219576 0.10466349
0001d0 7f a3 3e be 98 a6 96 bd 53 e8 6c 3e 4d c2 69 3e
       -0.18617056 -0.07355994 0.231355 0.22828026
0001e0 97 d0 13 be d8 10 8d 3e 4b c9 fe be 27 23 a1 3e
       -0.1443504 0.27551913 -0.4976295 0.31472132
0001f0 f6 b2 10 3f 72 4a 76 be 2e 2d 9c be 72 05 ce 3e
       0.5652307 -0.24051836 -0.3050322 0.4023853
000200 63 36 5f 3f 83 59 f9 be 93 c4 ed bc cc 8a 8b bf
       0.8719236 -0.48701105 -0.029024398 -1.0901732
000210 b3 32 e8 3e c2 fe ca bd 68 1f fb 3e 10 bd ff 3e
       0.4535118 -0.099118724 0.490474 0.4994893
000220 2b fc 88 3f 09 e4 05 bb 4e f8 82 be 2b a4 80 3e
       1.0701956 -0.002043011 -0.25580066 0.2512525
000230 74 cb 1d 3e 53 58 aa be ae 3c f5 38 e8 02 c2 3e
       0.15409642 -0.3327051 0.00011693813 0.37892842
000240 49 2a 47 bf 09 e1 8c bd 03 92 e9 3e f1 c7 e7 3d
       -0.777989 -0.068788595 0.4561921 0.11317433
000250 1c c2 67 bd e0 72 38 3e b1 e6 78 3e 10 e0 f6 be
       -0.0565816 0.18012571 0.24306752 -0.4821782
000260 61 5c a3 3e 2d 47 a8 3d 2b 81 f8 be 0e c3 dc be
       0.31906417 0.08216701 -0.48536047 -0.43117565
000270 1e 83 08 be cf ef 14 bf 84 d5 c3 be bf 74 e7 3e
       -0.13331267 -0.5817842 -0.38248837 0.45206258
000280 13 3e 03 3e a3 35 68 be e4 8d 52 be 5f 13 7c bb
       0.12816648 -0.22676711 -0.2056194 -0.0038463695
000290 7d f1 b3 3e d8 b3 84 3d 1f 3c 0e 3e 28 05 d2 bd
       0.35145178 0.06479615 0.13890122 -0.1025489
0002a0 1e 2e 8c 3e 46 5c 71 bd ff 6f ef be 08 d3 7d 3e
       0.27378935 -0.05892589 -0.46765134 0.24787533
0002b0 ab 4a 96 bd ba 50 0f bf 3c 66 c7 3e 9a 6e 1d bd
       -0.073384605 -0.55982554 0.38945186 -0.038435556
0002c0 d5 79 8b be ee 26 32 3f f9 79 d1 be d6 af 03 39
       -0.27241388 0.6959065 -0.4091337 0.00012558638
0002d0 49 f4 ac be 3d 5d 2a 3e ae a2 e3 3e a3 25 9b 3e
       -0.33780125 0.1663713 0.44460052 0.30302152
0002e0 19 e4 d4 be 75 ac 07 3e 91 40 0d bf 03 89 f9 3e
       -0.41580275 0.13249381 -0.55176646 0.48737344
0002f0 17 48 f6 3e 74 88 0a be 97 9c 39 bf f1 d1 32 be
       0.48101875 -0.13528615 -0.7250456 -0.17462899
000300 4b 81 ae 3f 02 25 d0 3f 27 f7 ec 3d a4 de 5f bf
       1.3633207 1.6261294 0.11570578 -0.874491
000310 70 51 24 bf 24 17 fb be 73 03 b7 bc 77 d2 71 be
       -0.64186764 -0.49041092 -0.022340512 -0.23615442
000320 b1 13 e7 be 5f bf 26 3e 93 64 40 be 83 a9 59 3e
       -0.4513221 0.1628394 -0.18788366 0.2125607
000330 c6 ce ce 3e a4 18 0b 3e 61 d4 b1 be 6d 9d 4a be
       0.4039213 0.13583618 -0.34732345 -0.19786616
000340 4d 30 34 bf 1b ad d8 be c0 7a bc 3c e4 9e d5 3d
       -0.703862 -0.4231957 0.02300775 0.104306966
000350 8c 46 cd be 30 d3 25 3e b2 ca d8 be 83 ec c9 be
       -0.40092885 0.16193843 -0.42342144 -0.39438257
000360 04 6a b3 3e f1 f8 27 be 9d a4 6a 3d fa 0c fe 3d
       0.3504182 -0.16403557 0.057285894 0.12404819
000370 65 df e7 3e bf 45 81 be ca 51 d7 bd 04 85 bf 3e
       0.45287624 -0.25248525 -0.10513647 0.3740617
000380 f1 02 f1 bc 9a 33 3e bf 3c 9e a6 bd 59 cb ee 3e
       -0.029420348 -0.7429749 -0.081356496 0.46639517
000390 c5 9f f9 3e f1 7e 86 3c 83 84 e1 be 48 29 95 3e
       0.48754707 0.016417952 -0.4404641 0.29133058
0003a0 de 9c 46 be 2e e3 fb be 1a cf d4 be f4 11 33 be
       -0.19395778 -0.49196762 -0.41564256 -0.17487317
0003b0 dd a9 12 be e1 fd 22 3d 5c 7b 2d bf 83 99 b4 be
       -0.1432261 0.0397929 -0.67766356 -0.3527337
0003c0 0e 19 b2 3e ce a3 a1 3e c2 9e b0 be 73 54 37 3d
       0.3478474 0.31570286 -0.34496123 0.04475827
0003d0 44 f8 fa be 16 ba 8a be ad d1 d0 3e ef ab fd bd
       -0.49017537 -0.27095097 0.4078497 -0.12386309
0003e0 8c ab c2 be a6 4b ce 3e 56 74 11 3e 2f 06 08 bf
       -0.38021505 0.4029209 0.14204535 -0.53134435
0003f0 79 5c 3e 3f 6c aa de 3d a2 fd 23 3e 32 65 f7 be
       0.7435985 0.10872349 0.16014722 -0.48319393

convs.0.fc_full.bias f4 [92]
000000 34 87 b8 3d 3f 5a c0 3b ee 76 ad bd ed 83 73 bd
       0.09010163 0.005870133 -0.0846995 -0.059451986
000010 fa af 62 bd d0 b4 8c be 2a e6 dd bc c3 b9 06 3e
       -0.055343606 -0.274817 -0.02708729 0.131568
000020 72 27 93 3d 69 61 b2 bc a4 84 13 be b0 4f b8 bd
       0.07185258 -0.021774964 -0.14406067 -0.08999574
000030 0f 21 4d bd 6d 7d 1f be a3 ac bc 3c 1e 4c 1e bd
       -0.050080355 -0.1557519 0.023031538 -0.03864681
000040 23 e4 04 3e fc 7d d3 3d f4 a2 f6 ba 47 ed e2 3d
       0.12977652 0.10326764 -0.0018816874 0.11080413
000050 2c dd 13 3e 03 4c 99 3d 60 c3 29 3d 3d de 44 3d
       0.14439839 0.07485201 0.04144609 0.048063505
000060 e9 05 83 3d c5 60 14 3d 85 e0 e5 bd 67 cb 89 bd
       0.06397612 0.0362251 -0.11224464 -0.06728249
000070 e8 22 07 3d e9 e8 e1 bc cc e2 ba bd 64 cf b4 3d
       0.032992274 -0.02757688 -0.09125289 0.08828619
000080 20 e6 29 3d 6c 92 e4 ba 7f 9c 09 bd 4c 02 83 bd
       0.04147923 -0.0017438657 -0.033596512 -0.063969225
000090 c9 41 7d 3d 84 87 fa bb 8e 2f 9a 3b 5f 57 fb bc
       0.061830316 -0.0076455493 0.004705376 -0.03068131
0000a0 00 35 9c bd fa 4a b5 bd 74 ea 87 3c 65 3b 35 3d
       -0.076272964 -0.08852191 0.016591288 0.044246096
0000b0 55 bd 9b bc 3e 4c 2a be 06 77 75 bd 01 c1 7b bd
       -0.019011179 -0.16630647 -0.059927963 -0.06146336
0000c0 6a 82 c4 3d 88 c5 58 bc 3c e5 3d 3d 8c bc 98 3d
       0.09595187 -0.013230689 0.046361193 0.074578375
0000d0 3f 85 ac bd 46 92 ed 3c 17 cf 45 3d f5 11 b3 3c
       -0.08423852 0.029000413 0.0482932 0.021859149
0000e0 6b 1a 5e 3d 8a 19 8b bd 35 c2 af bc 83 d4 9a 3d
       0.054224413 -0.067919806 -0.02145491 0.07560065
0000f0 5d 83 8b 3d b9 e9 ec bc c1 58 00 be cd 0d ab bd
       0.06812165 -0.028920041 -0.12533857 -0.08352242
000100 8d e1 5a 3d 30 98 be 3d b8 84 a6 3c 35 90 70 3d
       0.05343776 0.09306371 0.020326957 0.058731277
000110 11 77 8c 3d 03 dd 00 3d e1 b1 26 3c 05 2c 94 3d
       0.068586476 0.031460773 0.010174246 0.072349586
000120 20 bc 69 bb 0e 3a af bd 7f cd 8c 3d 93 7d b2 bc
       -0.003566511 -0.08555995 0.06875133 -0.021788394
000130 4f b2 5d 3d a6 d2 ec 3c e9 73 41 bd 35 14 c3 bc
       0.054125126 0.028909039 -0.04722968 -0.023813346
000140 a4 ef c2 3d 14 5e 89 3d b0 07 e7 bd c0 f5 29 bd
       0.09518364 0.06707397 -0.11280763 -0.04149413
000150 26 49 7d bd 21 1f 40 3d fa 32 63 bd c4 b7 3f 3e
       -0.061837338 0.046904687 -0.055468537 0.18722445
000160 17 19 da 3d 44 7c dc bd dd b5 dd 3e 13 7d 84 bd
       0.10649317 -0.10765889 0.43302813 -0.064691685

convs.0.bn1.weight f4 [92]
000000 01 65 0d 40 f2 ab 06 40 df f0 16 3f e1 e8 c1 3f
       2.2092898 2.1042447 0.5896129 1.5149194
000010 8c 64 c8 3f d5 c7 85 3f d9 57 c1 3f e5 87 6c 3f
       1.5655684 1.0451609 1.5104934 0.9239486
000020 0f d0 c2 3f 24 48 80 3f 0e 6b ec 3f d7 e5 f1 3f
       1.5219744 1.0022016 1.847017 1.8898267
000030 9c 80 c3 3f d2 56 95 3f 91 b9 33 3f b6 83 00 40
       1.5273623 1.166712 0.70205027 2.008039
000040 98 29 ef 3f da c8 33 3f 48 9a 0a 40 92 c3 fc 3f
       1.8684568 0.7022835 2.1656666 1.9747183
000050 36 76 0c 40 2c 71 64 3f b6 48 22 40 cb f0 58 40
       2.194715 0.89235187 2.535688 3.3896968
000060 56 c0 ec 3f d6 c8 c2 3f c2 23 a8 3f 67 4c 00 40
       1.8496196 1.521754 1.3135912 2.0046632
000070 d1 24 a1 3f e8 16 3f 40 7a 1a 00 40 c4 08 3a 3f
       1.258936 2.985773 2.001616 0.72669625
000080 10 dd 58 40 dd 17 b4 3f b2 45 7f 3f f7 11 59 40
       3.3884926 1.4069782 0.9971572 3.3917215
000090 df 35 16 40 9e 85 06 40 f2 04 e5 3f 53 c0 a2 3f
       2.347038 2.1019053 1.7892134 1.2714943
0000a0 c1 22 9d 40 7c 52 26 40 95 67 da 3f 31 80 f1 3f
       4.9104924 2.5987844 1.7062861 1.8867246
0000b0 58 45 56 3f 8b 33 e5 3f ef cf 93 3f 7b e5 9c 3f
       0.8369956 1.7906355 1.1547831 1.2257532
0000c0 f2 4d bf 3f 20 e1 aa 3f 04 19 22 40 65 ae b4 3f
       1.4945662 1.3349953 2.5327768 1.4115721
0000d0 20 88 18 40 85 05 43 3f e2 91 92 3f 60 be 62 3f
       2.3833084 0.761803 1.145077 0.8857174
0000e0 86 79 db 3f 74 1f a5 3f dd 4b 1b 40 b2 c4 84 3f
       1.7146461 1.2900224 2.4265053 1.0372527
0000f0 8e ae a5 3f e1 df a1 3f 3f 37 07 40 c0 9d c3 3f
       1.2943895 1.2646447 2.112747 1.5282516
000100 1f 6a 9f 3f 82 36 93 3f 6c 92 ba 3f a7 43 ee 3f
       1.245426 1.150101 1.4575934 1.8614396
000110 e7 24 9f 3f bf 5e be 3f ec 4e d0 3f 7d 47 df 3f
       1.2433137 1.4872664 1.6274085 1.7443691
000120 99 6b ef 3f b0 6b 28 3f 03 0c b9 3f 64 78 dc 3f
       1.8704711 0.6578932 1.4456791 1.722424
000130 6e 41 b0 3f 05 50 13 40 d3 42 ac 3e 8a 0a 03 40
       1.3769968 2.301759 0.33644733 2.0475183
000140 8d b5 b1 3f 7c aa 8e 3f dc ff 84 3f 7c 7a ee 3f
       1.388353 1.1145778 1.0390582 1.8631129
000150 4a d7 86 3f 74 7f 9f 3f cd ce 8e 3f ea e1 58 3f
       1.0534451 1.2460771 1.115686 0.8471972
000160 d3 f5 e2 3f 62 fe cc 3f f5 75 4e 3f 13 d6 52 3f
       1.773127 1.6015131 0.8064874 0.823579

convs.0.bn1.bias f4 [92]
000000 88 06 b6 3d 44 71 9c 3d 23 05 c6 be 09 68 00 3f
       0.088879645 0.07638791 -0.38675794 0.50158745
000010 87 9a 2b 3f b3 5b 03 3d f8 8d c6 3e b2 59 c7 be
       0.67032665 0.032069873 0.3878019 -0.3893562
000020 2f a5 90 3e 6b b2 a2 bd 2b 46 a1 be 65 39 94 3d
       0.28251025 -0.07944187 -0.31498846 0.0723751
000030 1e 0d 5f 3e 45 21 0d bf 16 0b 0c be a9 6e 10 bf
       0.21782348 -0.5512889 -0.13676104 -0.56418854
000040 1e 17 4f be eb 60 20 bd a6 75 35 bd 4a 04 3e 3d
       -0.20223662 -0.03915493 -0.04430165 0.04639081
000050 38 d0 7c 3e 65 3c 23 be 7f 68 3d 3e 4a 33 e9 3e
       0.24688804 -0.15941007 0.18496893 0.45546943
000060 44 c9 5c 3e 13 65 f0 bd 3b 71 df 3d c7 f6 25 bf
       0.21561152 -0.117380284 0.10910269 -0.6482968
000070 14 67 72 be 91 b6 8b 3d 47 7b 07 3f 05 9c 39 be
       -0.23672134 0.06821931 0.5292248 -0.18125923
000080 af e0 1e be 8f 5c b6 3d c7 02 5e be 7b af 96 3e
       -0.15515397 0.08904373 -0.21680747 0.29430756
000090 0a 3d 07 be d5 e7 70 bd 7e 65 a7 be 7d 97 18 bf
       -0.13206878 -0.058814842 -0.3269462 -0.5960615
0000a0 2a d7 9a bf 64 b6 99 bc f1 75 3e 3e 32 1e 5f be
       -1.2096913 -0.018763728 0.18599679 -0.21788862
0000b0 2c 58 2a bf 65 f6 06 bf ef 8e 9b be 8f 35 86 3c
       -0.6654079 -0.5271972 -0.30382487 0.01638296
0000c0 39 a1 01 be 6b 24 a6 3e 26 ba bc 3c 2a 11 67 3e
       -0.12659158 0.3244966 0.023037981 0.22565141
0000d0 da 94 ea 3b 88 c2 13 bf eb 75 a6 3e 24 ee eb be
       0.007158858 -0.57718706 0.3251184 -0.46080124
0000e0 f5 73 51 be a8 a2 c3 3e e5 29 db 3d 95 3f ba be
       -0.2045439 0.38210034 0.1070135 -0.36376634
0000f0 b1 57 8a be 3c 92 f5 be 37 cc 1d 3d 6a 8c 1d 3e
       -0.27020028 -0.4796313 0.038524833 0.15385595
000100 1f de 90 be b1 38 bd be f6 ba df 3e fc 8f cb 3d
       -0.28294465 -0.36957315 0.43697327 0.09939572
000110 fe 9a d8 3e f3 10 0a 3f e8 27 8d 3e 95 31 e8 bd
       0.4230575 0.5393211 0.2756951 -0.11337582
000120 f6 e2 12 be ca 75 21 bf 21 55 87 bd bf ee f4 3d
       -0.14344391 -0.63070357 -0.06608034 0.119596
000130 08 81 92 3e 3f e5 91 3e 83 0d 8d 3f 28 4a 39 be
       0.28614068 0.28495213 1.1019748 -0.18094695
000140 db 54 85 be fb c3 37 3f f3 81 0b bf 18 50 bc 3c
       -0.26041302 0.7178342 -0.5449516 0.02298741
000150 1a 1b c2 be 62 84 b3 be 30 fc c9 be 08 6d 0d bf
       -0.37911302 -0.35061938 -0.39450216 -0.55244493
000160 4e 0e 57 bd 9c 35 1e be ee fe fe be a5 f5 02 bf
       -0.052503876 -0.15450138 -0.4980387 -0.51156074

convs.0.bn1.running_mean f4 [92]
000000 fe 5c 12 40 e1 a8 c4 be 7f ac cd 3f 05 5b fd 3e
       2.2869258 -0.38410094 1.6068267 0.49483505
000010 4b 49 69 bf 63 c8 2b c0 26 88 25 3f 22 97 bc 3f
       -0.9112746 -2.6841056 0.6466087 1.4733622
000020 91 53 e5 3f 73 fa 1d c0 9f 13 d8 c0 7e d5 58 c0
       1.7916127 -2.4684112 -6.752395 -3.3880305
000030 c7 5c 86 bf 04 5c df 40 59 3d b3 40 db b3 cb 40
       -1.0497063 6.9799824 5.6012387 6.365705
000040 a4 b1 9a 40 fc ad ef 40 0e fb 4e bf ed 49 f7 be
       4.8341846 7.4899883 -0.8085183 -0.48298588
000050 53 de 7c bf e0 72 a9 3f 9b 3a 44 40 1b ce dc 3f
       -0.9877674 1.3238182 3.066077 1.7250398
000060 7b 70 14 bf df 77 72 40 42 11 c3 3f d3 21 11 bf
       -0.5798413 3.7885664 1.5239642 -0.56692237
000070 0e f2 11 c0 b2 e9 40 c0 b4 ff 7c bf b9 26 cf bf
       -2.2803988 -3.0142636 -0.9882767 -1.6183692
000080 4e a4 0c 40 ef 79 70 be 52 23 a7 40 7f 32 70 3f
       2.1975284 -0.23484014 5.2230616 0.9382705
000090 66 6f 14 c0 b3 d2 8f 3e 35 3a 0d bf 59 9c 01 40
       -2.3192992 0.28090438 -0.5516694 2.0251677
0000a0 13 a5 f4 3f 02 e4 48 3f 5d f1 71 40 0d b2 1f 40
       1.9112877 0.7847291 3.7803566 2.4952424
0000b0 ac da 90 40 fc 25 c2 3f 5c 36 4d bf b8 75 d3 bf
       4.5266933 1.5167842 -0.8016107 -1.65203
0000c0 c7 b8 87 bf 1a f9 da 3d 32 98 ba 3f 0e da ad be
       -1.0603265 0.106920436 1.4577696 -0.33955425
0000d0 60 ae 54 3f a7 52 f6 3f e6 02 35 40 8f bd 89 40
       0.83078575 1.9243973 2.828302 4.3043895
0000e0 86 95 94 40 10 21 c0 bf c8 2d 94 3e b2 b4 89 40
       4.6432524 -1.501009 0.28941178 4.3033075
0000f0 be 5e 82 40 d5 8d 71 40 b3 31 2f 3f 02 d7 f9 40
       4.074065 3.7742817 0.6843521 7.807496
000100 cc ba 55 3e a3 44 4c 40 f2 54 31 c0 e6 30 3a 40
       0.20872039 3.1916893 -2.7708097 2.9092345
000110 25 bf a6 40 06 52 5d 40 c3 3a 1b 3f 30 1d c8 3f
       5.210833 3.4581313 0.6063654 1.5633907
000120 d2 e9 90 3f b2 79 2f 40 ac 64 bc 3f 9b f6 75 40
       1.1321356 2.7418027 1.4718223 3.8431766
000130 e6 4e 85 3f 5f 86 e5 be d8 ac 0a c0 f1 33 06 40
       1.0414703 -0.4482908 -2.1667995 2.0969203
000140 3d 12 55 40 11 93 7e 3f f4 64 06 40 21 68 f6 3f
       3.3292382 0.99443156 2.0999117 1.9250528
000150 f0 97 98 3f b4 f1 57 40 45 6c 40 40 46 75 7b 40
       1.1921368 3.3741274 3.0066082 3.9290328
000160 78 da 6c bf db 5c 43 c0 33 b8 1b c0 a8 3c c5 40
       -0.92520857 -3.0525424 -2.4331176 6.1636543

convs.0.bn1.running_var f4 [92]
000000 de 3f 10 42 6a b0 33 42 46 40 3e 42 1e 72 03 42
       36.06237 44.92228 47.562767 32.861443
000010 60 a5 45 42 36 df 37 42 01 6f 3e 42 99 3a 04 42
       49.4115 45.96798 47.608402 33.057224
000020 9d 98 db 41 43 18 25 42 50 a3 75 42 8a c2 44 42
       27.449518 41.273693 61.409485 49.18998
000030 72 11 26 42 f7 bb 35 42 e4 9a 5f 42 f6 61 4e 42
       41.517036 45.43356 55.90126 51.595665
000040 d5 b6 22 42 5f 9f 66 42 d1 2a 2e 42 d2 6a 86 42
       40.678547 57.655636 43.541813 67.20863
000050 b4 73 5d 42 f8 ad 8b 42 81 b0 32 42 13 d2 19 42
       55.36299 69.83978 44.672367 38.45515
000060 8c 55 3d 42 81 d6 5e 42 2b ca 53 42 6e fb 5e 42
       47.33354 55.709476 52.94743 55.745537
000070 f0 80 68 42 4b 99 1e 42 34 d1 85 42 67 c9 6a 42
       58.125916 39.6497 66.9086 58.696682
000080 27 bc e4 41 ea f9 2a 42 b1 13 88 42 7d be 7f 42
       28.591871 42.744057 68.03846 63.936024
000090 0f 1e a2 42 2a ed 28 42 55 f4 4b 42 c9 44 88 42
       81.05871 42.231606 50.988605 68.134346
0000a0 90 74 86 41 33 00 46 42 1f 21 a0 42 5b 14 6a 42
       16.806915 49.500195 80.06469 58.51988
0000b0 99 f0 64 42 82 6b 1c 42 01 37 a9 42 a2 e8 2b 42
       57.23496 39.10499 84.60743 42.97718
0000c0 2e 3f fd 41 d1 ec 6a 42 82 25 2f 42 e8 4e 17 42
       31.65585 58.731266 43.78663 37.827057
0000d0 05 50 64 42 25 ed 92 41 5c e8 16 42 1c bc 71 42
       57.078144 18.365793 37.726913 60.4337
0000e0 99 e8 63 42 85 c3 63 42 02 e1 2c 42 fa f1 45 42
       56.977146 56.940937 43.219734 49.486305
0000f0 b4 d0 a9 42 57 54 5c 42 60 97 78 42 2a 24 84 42
       84.90762 55.082363 62.147827 66.07063
000100 e6 6a 2c 42 01 0e e3 42 a2 80 03 42 f8 de 30 42
       43.104393 113.52735 32.875618 44.217743
000110 23 53 f4 41 fa 50 a2 42 77 52 86 42 b1 26 92 42
       30.540594 81.15816 67.161064 73.07557
000120 e9 f4 4f 42 f8 e8 45 42 04 9a 63 42 55 7b 9a 42
       51.98917 49.47751 56.900406 77.24088
000130 df db cc 42 b9 bc 6b 42 ad 3e 24 42 e5 a5 6c 42
       102.429436 58.9343 41.061207 59.162006
000140 eb 1c 1b 42 e9 18 83 42 d9 66 a1 42 51 57 c3 42
       38.77824 65.54865 80.700874 97.67054
000150 69 50 99 42 ae 32 59 42 91 74 99 42 fc 68 fc 41
       76.65705 54.29949 76.72767 31.551262
000160 55 bb 8c 42 0e e1 47 42 55 df d9 41 a7 b0 96 42
       70.36588 49.96978 27.234049 75.345024

convs.0.bn2.weight f4 [46]
000000 bb 58 6c 3f ee 63 75 3f 74 c3 46 3f fd 7d 62 3f
       0.9232289 0.95855606 0.7764199 0.8847349
000010 29 2d b6 3f 37 46 93 3f ed c9 99 3f 29 38 8a 3f
       1.4232532 1.1505803 1.2014748 1.0798389
000020 e7 1f c3 3e a4 07 85 3f 81 51 f0 3f cb bc 92 3f
       0.38110277 1.0392957 1.8774873 1.1463865
000030 5a 90 22 3f 09 81 86 3f 46 18 97 3f 01 93 9e 3f
       0.63501513 1.0508128 1.1804283 1.2388612
000040 53 51 7f 3f 1e 96 76 3f 37 a8 a9 3f 7c 60 a0 3f
       0.99733466 0.9632281 1.325446 1.2529445
000050 31 5c 19 3f be 5c 81 3f 20 82 3f 3f a7 a9 3d 3f
       0.599063 1.0106428 0.7480793 0.74086994
000060 93 1a 5b 3f c6 cd 83 3f 82 d6 67 3f b8 a7 ab 3f
       0.85587424 1.0297172 0.9056169 1.3410559
000070 f8 30 63 3f 64 f4 81 3f 5b 77 56 3f c6 3c 69 3f
       0.88746595 1.0152707 0.8377587 0.9110836
000080 37 11 8b 3f f2 4a 80 3f 7b fd 7a 3f bb e8 a4 3f
       1.0864629 1.0022871 0.9804303 1.2883524
000090 ee b0 9c 3f b9 21 91 3f 3d b5 66 3f 79 31 bb 3f
       1.2241495 1.1338416 0.901203 1.4624473
0000a0 bc 25 04 40 bf 02 85 3f 40 d9 75 3f 10 c0 9e 3f
       2.0648031 1.0391463 0.9603462 1.2402363
0000b0 1f 80 b4 3f 14 1a 76 3f
       1.41016 0.9613354

convs.0.bn2.bias f4 [46]
000000 aa bd 06 bf 09 51 b6 be eb a3 56 be 3b f9 ab be
       -0.52633154 -0.356087 -0.20960967 -0.33588585
000010 af 1a 96 3c 44 42 90 be d8 d1 56 bd a9 01 14 bf
       0.01832327 -0.28175557 -0.052446216 -0.57815033
000020 82 2e cc be 0c 50 b9 be a7 b2 0a bf cf fa 4f be
       -0.39879233 -0.36193883 -0.5417885 -0.2031052
000030 5e fc 90 be 98 65 0c bf e6 7b e9 bd 26 84 14 bf
       -0.2831754 -0.5484252 -0.11400585 -0.5801414
000040 c0 7d 70 be 4f 57 b9 be 49 16 53 3e 1d 2c dd be
       -0.2348547 -0.36199424 0.2061397 -0.43197718
000050 af e1 71 be 49 91 c4 be 11 53 7c bd 14 55 89 be
       -0.23621248 -0.38392094 -0.061602656 -0.26822722
000060 38 63 ad be 5e 37 08 bf c9 9e 68 3d 5d 5d 9b be
       -0.3386476 -0.53209484 0.056792054 -0.30344668
000070 53 b9 34 be 16 d5 88 be 73 5a a9 be eb 94 96 be
       -0.1764882 -0.26725072 -0.3307682 -0.2941049
000080 d3 36 4a be 67 71 10 bf ee c3 38 bf 03 f0 c1 be
       -0.19747476 -0.5642304 -0.72173965 -0.37878427
000090 8a c5 28 be b4 43 af be 87 32 ef be f1 97 de be
       -0.16481605 -0.3423134 -0.46718237 -0.43475297
0000a0 f7 61 00 bf f6 43 89 bd 08 f2 a7 be 52 57 f1 be
       -0.5014948 -0.06702416 -0.32801843 -0.47136933
0000b0 31 ec 92 be a8 7b 16 bf
       -0.28695825 -0.58782434

convs.0.bn2.running_mean f4 [46]
000000 d6 db 43 40 5e ff 6e 40 25 52 2f 40 c7 07 e0 40
       3.0602927 3.7343364 2.7393887 7.0009494
000010 90 fe 21 41 4f ac 93 40 6b d9 1b 41 be 3e 18 3f
       10.124649 4.614784 9.740581 0.59470737
000020 f9 9f c3 40 93 78 91 3f 02 4e 76 40 d7 b5 b9 40
       6.113278 1.1364921 3.8485112 5.8034472
000030 8c 70 1d 41 cf 84 d5 3f de 39 45 40 07 01 13 40
       9.839977 1.6681155 3.081657 2.2969377
000040 b7 cc d1 40 61 b3 ae 40 9c 49 2c 40 a9 6a 32 40
       6.5562396 5.459397 2.6919928 2.78776
000050 6e 4e ee 40 d2 f4 b9 40 9f b6 aa 40 1d fa 10 41
       7.447074 5.8111353 5.3347926 9.061063
000060 87 f4 f2 40 9d d9 c3 40 95 3a b3 40 21 f9 db 3e
       7.5923495 6.120314 5.600901 0.42963508
000070 ae 36 75 40 aa 6a c5 40 48 07 f5 40 1c 19 e1 40
       3.8314624 6.1692705 7.657139 7.034315
000080 4d fd c8 40 9d 81 d0 40 b2 57 1e 40 ed 8b c4 40
       6.2809205 6.515822 2.4741025 6.142081
000090 0b 1e 0c 40 ca b5 f2 40 7c 24 1e 40 8d 08 14 40
       2.1893337 7.584691 2.4709768 2.313022
0000a0 e9 57 65 3f 51 97 86 3f c7 c0 af 40 81 0d 91 40
       0.89587265 1.0514928 5.4922824 4.5328984
0000b0 b4 b9 5d 3f 51 a5 8d 3f
       0.86611485 1.1066076

convs.0.bn2.running_var f4 [46]
000000 3d 66 a4 41 0b 04 ff 41 36 af 76 41 84 25 58 42
       20.549921 31.876974 15.417776 54.036636
000010 c0 1e 5d 43 09 13 44 42 ad ff 1e 43 cf 81 71 40
       221.12012 49.01859 158.99873 3.773548
000020 14 32 59 42 65 6e 77 40 17 52 45 42 f8 81 d8 41
       54.298904 3.866113 49.330166 27.063461
000030 6d f3 23 43 c6 6f 21 41 9d 08 56 41 95 9b 85 41
       163.95088 10.089788 13.377103 16.700968
000040 58 33 22 43 3e 03 4c 42 ce c6 30 41 21 d4 55 41
       162.20056 51.003166 11.048536 13.364289
000050 6d a2 e3 42 34 6b 92 42 b5 1d 77 42 ec 6f aa 42
       113.81724 73.20938 61.77901 85.2186
000060 ca bb c7 42 b7 8d 98 42 a3 5e 94 42 4b ff f4 3f
       99.866776 76.27679 74.18484 1.9140409
000070 e7 5b 13 42 5e ba fa 42 0a e3 5c 42 8d e4 70 42
       36.83975 125.364 55.221718 60.223194
000080 ae de c7 41 7e 84 76 42 3d 6f 27 41 20 bd 64 42
       24.98373 61.629387 10.464658 57.184692
000090 3f 7b 01 41 39 27 b0 42 98 cd e2 41 98 fc 20 41
       8.092589 88.07661 28.350388 10.061668
0000a0 fe ba 3a 40 dd bc 9b 40 2c ed 02 42 0e 2d 1f 42
       2.917663 4.8668046 32.731613 39.794
0000b0 a2 d6 74 40 94 1c 04 41
       3.8256001 8.256977

convs.1.fc_full.weight f4 [92, 98]
000000 00 5b 0c be 79 70 0e 3e f2 fb b2 3e 62 53 01 bd
       -0.13706589 0.13910092 0.34957844 -0.03157366
000010 34 ab 3f 3e 78 55 89 3e 71 d9 02 bc 26 dc ca be
       0.18717653 0.2682302 -0.007986412 -0.39621085
000020 77 d5 93 3e ac 24 6c 3e 2b 3f 17 bc a8 90 d7 3e
       0.28873798 0.23060864 -0.009231369 0.4210255
000030 0f 01 54 bf 00 b6 ce 3e bd 71 32 bf 26 d3 ae be
       -0.82814115 0.4037323 -0.697048 -0.34145468
000040 e4 80 93 3e f6 31 3e 3e 4f 22 2e bf 90 2a ad 3e
       0.28809273 0.18573746 -0.680211 0.33821535
000050 26 8c 0d 3f 1f 32 2e bd 71 c0 60 3e 60 bb b8 3e
       0.55291975 -0.042528268 0.2194841 0.36080456
000060 19 5c e2 3e 4c eb 61 bf 0f 62 7e 3c 04 3f 8c be
       0.4421089 -0.8824966 0.015526309 -0.27391827
000070 7f 15 2c bc f2 1d 90 3b 4a 3e d0 bd 77 18 f0 be
       -0.010503172 0.004398101 -0.10168131 -0.46893665
000080 44 06 a3 bd 11 00 12 bd eb e3 05 be ce 74 cd bd
       -0.079601794 -0.035644595 -0.13075225 -0.10032044
000090 90 a5 d1 be c2 07 33 3e ae 85 c6 3e 47 70 48 3d
       -0.40946627 0.17483428 0.38773865 0.0489352
0000a0 c9 dc 46 3e 01 9e 99 3d 0a ed 2e bf a8 56 b7 be
       0.1942016 0.0750084 -0.6833044 -0.358083
0000b0 16 1a 20 3f b0 6b f5 3d c5 d2 ad bf e1 07 40 3f
       0.62539804 0.119834304 -1.3579947 0.7501202
0000c0 2a 4b 9b be ea d6 00 3e c4 61 95 bd 95 14 c0 be
       -0.30330783 0.12581983 -0.07294038 -0.37515703
0000d0 8b 4a 4e be 8b 8e a1 be 39 2c e0 3d 3d 95 8c be
       -0.20145623 -0.31554064 0.10945935 -0.2745761
0000e0 fd 5c 05 3f ed 3f f0 be 12 ae 54 bf 6c 9a 93 be
       0.52095014 -0.46923772 -0.8307811 -0.28828752
0000f0 a2 01 4e be e1 a8 ac be aa 42 91 3e fb a6 17 3e
       -0.2011781 -0.33722594 0.28371173 0.14809792
000100 31 99 a7 3e 85 76 f7 be b9 cb 93 3e 06 96 f2 be
       0.32734063 -0.4833261 0.28866366 -0.47380084
000110 b5 1a 14 bf 4c dd 66 3f 4b f8 a5 3d b1 d2 68 bf
       -0.5785325 0.9018142 0.08103999 -0.9094649
000120 18 53 8b 3d 20 c1 47 be 7e 18 ec be af fc b3 bb
       0.06802958 -0.19507265 -0.46112436 -0.0054927687
000130 7a e6 b6 3e de 77 dd 3e 8d 31 cb be 32 d7 bc 3d
       0.35722715 0.43255514 -0.39686242 0.09220733
000140 1d 9d ce bd 32 f8 70 be c5 16 9a 3d a8 47 5e 3e
       -0.10088561 -0.23532179 0.07523874 0.21707022
000150 5f 10 c8 3e 20 9b ad 3f 21 71 30 3f 58 d9 51 bf
       0.3907499 1.3562965 0.6892262 -0.81972265
000160 93 e2 3e 3d d6 9a 15 3d f9 cb 32 bf 81 55 6d 3e
       0.046602797 0.036524616 -0.6984249 0.23177148
000170 2f 1e 86 3f 96 ca 9d 3c c6 12 d9 bd d6 1c 88 bf
       1.0477961 0.01926164 -0.10599284 -1.06338
000180 7f 96 61 bf 06 06 07 bf 7a 55 b2 be f4 1d 38 3e
       -0.88120264 -0.52743566 -0.34830838 0.17980176
000190 96 11 01 bd 61 7e 6d 3e 15 4a bd 3e bb 5e f6 3e
       -0.031510912 0.23192741 0.36970583 0.4811915
0001a0 42 15 4c 3d 7f 52 3a bf c5 87 d6 3e f6 90 85 3e
       0.04982496 -0.7278213 0.4190046 0.2608716
0001b0 99 2d 22 be ff c6 7f 3e eb 5e 6f 3e 3d 63 a6 3e
       -0.15837707 0.24978255 0.23376052 0.32497588
0001c0 90 91 de 3e a2 5d 04 3f c8 51 f5 be d0 2a 70 3e
       0.4347043 0.5170537 -0.47913957 0.23453832
0001d0 ec 14 f6 be 87 e5 0f be 0b f7 88 bd 9b 5c 04 3f
       -0.48062837 -0.14052401 -0.06687745 0.51703805
0001e0 f5 e6 a3 3b db 2c 8b 3e 1d c0 bd 3e 3e fe a5 3c
       0.0050018975 0.2718266 0.37060633 0.020262834
0001f0 03 e9 ac bd 1c 11 e6 be 3b 19 16 3f b6 1f c0 bd
       -0.08442881 -0.44934928 0.5863225 -0.093810484
000200 31 09 94 3d 0d 4f 84 be 34 f4 c3 3d 02 d9 b5 be
       0.072283156 -0.2584156 0.095680624 -0.35517126
000210 fd 6a 53 be 8f 34 2b bb 46 e4 dc be 4d b6 07 3f
       -0.20646282 -0.0026123857 -0.4314291 0.53012544
000220 ff 44 67 bf 45 a1 3d be f4 7d 48 bf 90 81 2d 3f
       -0.90339655 -0.1851855 -0.7831719 0.6777582
000230 a2 8b b9 be aa c4 d8 be d1 84 42 bf c2 a0 98 be
       -0.36239344 -0.42337543 -0.7598391 -0.29810148
000240 ee 89 40 be 49 5a ba be ec f5 e7 3c ef 28 8c 3e
       -0.18802616 -0.36397007 0.028315507 0.2737498
000250 ab df 58 be 04 27 a5 3e f4 40 c6 3c 95 71 fe 3e
       -0.21179073 0.3225633 0.024200894 0.4969603
000260 dc eb fd 3e be eb 1e 3e d3 6a 44 be 1f 35 5c 3e
       0.4959401 0.15519616 -0.19181375 0.21504639
000270 8b f8 83 3e 90 85 e5 3d 2e 45 3d bf 11 0d bb 3c
       0.2577556 0.11207116 -0.73933685 0.022833379
000280 19 52 62 be 2d bf 15 be f4 9a 69 be 00 b5 be 3e
       -0.2210163 -0.14623709 -0.22813016 0.37247467
000290 c6 a8 b5 3e 28 e6 c1 3e 32 e0 c3 be f1 86 35 3e
       0.35480326 0.37870908 -0.38256985 0.17727257
0002a0 f0 5b 7a 3e a0 89 98 be 30 67 f8 bd 58 53 fe be
       0.24449134 -0.297925 -0.121290565 -0.4967296
0002b0 ca 1b 39 3f 72 df 42 3c dc 5e b7 3e b9 be 11 bd
       0.7230803 0.011894094 0.3581456 -0.035582278
0002c0 32 1d 5f 3e da c8 3d bf ae 0f 53 bf 0e 6e 1b 3f
       0.21788481 -0.741346 -0.824458 0.60714805
0002d0 63 11 0f 3f 03 47 0d 3d 0a f0 02 be 05 cb 9b bf
       0.55885905 0.03449155 -0.1278688 -1.2171332
0002e0 3a b3 60 3f 0f 67 bb 3e d5 7b cc 3e a9 83 22 3f
       0.8777348 0.36602065 0.39938226 0.6348215
0002f0 73 10 4a 3e a3 2b 76 3d 24 2f 7a bc fc c6 ab 3f
       0.19732837 0.06010021 -0.015270028 1.34201
000300 bb 66 90 3f ed cf 12 3f bb 37 0c bf 2e f5 ec bf
       1.1281351 0.5734852 -0.5477254 -1.8512323
000310 1c 2b f7 3d 9d 70 0f 3f a0 cf b6 3e a8 81 3b bf
       0.12068769 0.5603121 0.3570528 -0.73244715
000320 ec 1b 15 3f 23 aa 74 3f 17 7c 4e bf c7 27 78 3e
       0.5824573 0.9557211 -0.80658096 0.24233924
000330 df 1d 7d 3f c1 3e 10 bf 67 c3 2e be f3 d7 65 3e
       0.98873705 -0.56345755 -0.17066728 0.2244566
000340 b3 12 bb bc b5 45 b3 3e 90 d1 96 bf f1 68 e8 3e
       -0.022836065 0.3501412 -1.1782703 0.45392564
000350 b0 11 dd 3e 34 62 98 3e 80 00 f7 be 98 67 a3 3e
       0.43177557 0.29762423 -0.4824257 0.31914973
000360 0b c9 ae 3f 57 fe a3 3e 40 b1 f9 be b6 53 9d bc
       1.3655103 0.32029983 -0.48768044 -0.019204956
000370 ed 7e 06 3f 1f f3 97 bf 3f 78 b0 3d 96 fe a6 3d
       0.52537423 -1.187107 0.08616685 0.08154027
000380 b8 d8 c3 3e d4 02 a9 3c 36 50 c8 3e 9d 79 bd bd
       0.3825128 0.020631231 0.39123696 -0.092517115
000390 f5 76 13 3f 6a ec 55 3e f6 f5 79 bf 34 a3 0d 3f
       0.5760339 0.20890966 -0.9764093 0.55327153
0003a0 4c a0 1e be 85 ef 04 be d6 97 ce 3e cf a1 2a bf
       -0.15490836 -0.12981994 0.40350217 -0.6665315
0003b0 f4 67 17 3f 2c 04 9c 3e e0 9d 0c be e8 b1 30 bf
       0.59142995 0.30471933 -0.137321 -0.69021463
0003c0 e4 4a 0a 3e 23 99 79 3f a5 22 e9 3e 8a c2 bc 3e
       0.13505131 0.97499293 0.45534244 0.36867172
0003d0 33 f3 09 bf f3 94 bc be 7d ec a6 3c 8b 5a 6b 3e
       -0.5388672 -0.3683239 0.020376438 0.22983758
0003e0 3b ea 40 3f 5d 4c 43 3e ae 34 7c 3e e0 fe 65 3d
       0.7535741 0.19072099 0.2462947 0.05615127
0003f0 2d b7 17 be 26 6c a7 be be 9a 24 3e 6a af 9a be
       -0.1481597 -0.32699698 0.16074654 -0.30211955

convs.1.fc_full.bias f4 [92]
000000 af 3c 4f 3d d9 26 97 3d f7 00 d3 bd 11 b2 82 3c
       0.05059498 0.073804565 -0.103029184 0.01595405
000010 4e 37 80 bd 25 98 e7 3d 20 e0 bf bd 43 93 55 3d
       -0.062605485 0.11308316 -0.0936892 0.052142393
000020 07 7d 9d bd a5 bd 53 3d 56 15 f7 bc 23 e9 6c bd
       -0.07689863 0.05169453 -0.030161541 -0.057839524
000030 7f 38 39 be 5d 10 6c bd d8 54 9f 3d 4e 9f 4d bd
       -0.18087958 -0.057632793 0.077798545 -0.050200753
000040 a4 24 70 bd f4 e3 95 3d e8 49 f2 bb d8 24 ec bb
       -0.058628693 0.07318869 -0.007394064 -0.0072065406
000050 b0 2d dd bc 5f 3a 09 3d 61 d9 f8 bc 8a 76 6e 3c
       -0.026999325 0.033502933 -0.030377092 0.014554629
000060 d4 24 a2 3d 61 d4 07 3b 42 f1 15 3d ce 61 d0 3c
       0.07917181 0.0020725953 0.036607035 0.025437262
000070 68 4e fe 3c 85 97 60 3d 60 88 43 bd a7 e1 6c bc
       0.031043246 0.054832 -0.04773748 -0.014458097
000080 b4 7f 8f bd 87 4b fe bc 97 54 41 3d b8 4c d6 bd
       -0.07006779 -0.031041874 0.04719981 -0.10463852
000090 82 6e dc 3d 1c 14 60 bd f2 57 e8 bd e5 3c 56 bd
       0.10763265 -0.054706678 -0.11344899 -0.052304167
0000a0 1b ba 91 bb ee a3 da 3c 97 2f bf bd 41 12 a0 3a
       -0.0044472343 0.026689496 -0.09335249 0.0012212471
0000b0 1f 4e 96 bd 4b aa 55 bd 78 73 b1 3d 7b e8 14 bd
       -0.07339119 -0.052164357 0.08664602 -0.036354523
0000c0 f3 4c 58 bc 0b 7c f8 3b b9 ba 2e 3d 59 e1 20 bc
       -0.01320194 0.0075831464 0.04265854 -0.009819352
0000d0 ae de 74 3c 5d 09 da 3d 36 34 9b 3d 2a 93 00 bd
       0.014945669 0.10646317 0.07578318 -0.031390347
0000e0 82 39 08 bc 08 bf 82 3d 3b e5 8e 3e f9 3b 4a bd
       -0.008314492 0.063840926 0.27909264 -0.0493736
0000f0 59 f0 84 bc 8a 97 a0 bd ab ad 5e 3a d2 27 93 bc
       -0.016227888 -0.07841404 0.00084945065 -0.017963324
000100 05 c9 15 3d 78 f4 d4 bd 4b a7 bc 3d 88 c6 ae 3d
       0.03656866 -0.10398191 0.09211596 0.085339606
000110 e0 f7 74 3c 28 f2 a3 3a a9 d9 64 3d 57 f2 39 bd
       0.014951676 0.0012508081 0.05587164 -0.04539713
000120 47 d2 a6 3d 22 98 a4 bd d5 0d 88 bc 72 79 b1 bd
       0.08145576 -0.080368295 -0.016608158 -0.08665742
000130 36 db 3e 3d 18 98 52 3d cf 9f a0 3d f8 51 77 3d
       0.046595775 0.05141458 0.07842981 0.060380906
000140 9e f7 af bd 2f 89 db 3c d4 48 be bd 94 fa b1 3d
       -0.08592151 0.026798813 -0.092912346 0.08690372
000150 76 3e a4 bd 93 67 eb 3c 9f 86 a0 3d fc 58 0f bd
       -0.08019726 0.028735911 0.07838177 -0.03499697
000160 d2 e6 74 3d 57 16 b5 3d 68 c4 87 bc fd 60 77 3c
       0.05979044 0.088421516 -0.016573146 0.015098807

convs.1.bn1.weight f4 [92]
000000 da 24 1a 40 83 f3 0e 40 38 e9 53 40 8e 1d 02 40
       2.4084992 2.2336128 3.3111095 2.0330539
000010 88 0b 5f 40 b4 f8 3a 40 df 54 70 40 cd 5d 09 40
       3.4850788 2.9214296 3.7551801 2.1463501
000020 f9 35 6f 3f 63 c9 84 3f 2a 4b 0b 40 62 95 6a 40
       0.9344173 1.0373958 2.1764627 3.6653676
000030 59 47 0c 40 95 04 10 40 b3 ef 09 40 f6 03 0a 40
       2.1918547 2.2502797 2.155255 2.1564918
000040 58 3b d0 3f d6 bc f5 3f 81 34 fd 3f 51 6d 13 40
       1.626811 1.9198253 1.9781648 2.3035471
000050 06 e5 3e 40 4a 42 22 40 2d b7 e1 3f 99 d3 1e 40
       2.9827285 2.535296 1.7634026 2.481665
000060 09 9e 09 40 81 41 d4 3f 57 e1 a9 3f ba 72 15 40
       2.1502707 1.658249 1.3271893 2.3351274
000070 5f 73 e2 3f bb 5f 11 40 59 33 48 40 61 ff 19 40
       1.7691458 2.271468 3.128134 2.406212
000080 80 c6 50 40 80 b3 01 40 d4 bb 27 40 ed 57 16 40
       3.2621155 2.0265808 2.620839 2.3491166
000090 01 ce d8 3f d8 cf 17 40 ab 1e 04 40 97 74 ac 3f
       1.6937867 2.3720608 2.0643718 1.347308
0000a0 33 14 f2 3f 29 ca f1 3f f6 6e e3 3f 3e 8a 67 40
       1.8912414 1.8889819 1.7768238 3.6178126
0000b0 39 62 22 40 1a dd 4e 40 e8 5f 0b 40 a2 e0 3e 40
       2.537245 3.232245 2.1777287 2.9824605
0000c0 e6 2e d0 3f 62 ae f8 3f 07 a5 d6 3f 39 3b 5d 3f
       1.6264312 1.9428217 1.6769112 0.8641849
0000d0 ba 50 f5 3f d5 78 81 3f 7e 19 b0 3f 95 bd ac 3f
       1.9165261 1.0115 1.375778 1.3495356
0000e0 4a fc c2 3f 97 77 c0 3f c4 e4 e9 3e ad b7 a0 3f
       1.5233243 1.5036496 0.45682347 1.2556053
0000f0 90 02 7f 3f 8f 88 76 3f 77 0f 0e 3f 6a 48 bf 3f
       0.99613285 0.9630212 0.5549235 1.4943974
000100 5f 65 dc 3f 42 31 98 3f 60 53 01 40 73 94 2f 3f
       1.7218436 1.1890032 2.0207138 0.6858589
000110 4c 77 97 3f a2 cf af 3f f7 85 13 40 31 f2 6a 3f
       1.1833282 1.373524 2.3050516 0.91775805
000120 d8 3f b4 3f a3 ae b9 3f ec 06 17 3f fe ed 2d 3f
       1.4081984 1.450642 0.58994937 0.6794127
000130 12 85 ba 3f ac 5a e8 3f b9 73 0a 40 e6 3d 82 3f
       1.457186 1.8152671 2.1633132 1.017514
000140 21 17 2f 40 ff d7 95 3f 1d ed 08 3f b5 f7 18 3f
       2.7357867 1.1706542 0.53486806 0.5975297
000150 0d ee d3 3f 42 31 3b 3f 19 31 a9 3f 76 7a c7 3f
       1.6557022 0.73122036 1.3218108 1.5584247
000160 f0 ae b9 3f 46 81 e6 3f ba f1 ee 3f d6 11 76 3f
       1.4506512 1.8008201 1.8667519 0.96120965

convs.1.bn1.bias f4 [92]
000000 8c d7 4b be 79 c3 00 3e 50 23 94 3e 58 ea 73 3e
       -0.19906443 0.12574567 0.2893319 0.23819864
000010 09 88 29 3e 50 d6 b3 be 7a fe 0b bf fb db 65 bf
       0.165558 -0.35124445 -0.54685175 -0.8978879
000020 32 ae be be b4 20 34 bd 7a 24 77 bf 4c 87 f8 be
       -0.37242275 -0.0439765 -0.96540034 -0.48540723
000030 3a 11 93 bf eb 03 99 3c de 0d 6f bf 7e eb 6b be
       -1.1489632 0.018678626 -0.93380535 -0.23039052
000040 70 69 f3 be d5 03 04 3f c2 ca 6b be b0 79 cd be
       -0.4754138 0.5156835 -0.23026565 -0.40131903
000050 90 58 29 3e 38 7d 88 3c bb 8e 1d bf 0a da 1f bf
       0.1653769 0.016661271 -0.61545914 -0.62442076
000060 09 ef 22 be 64 60 f3 bd fe 41 47 bf 3b 68 95 3e
       -0.15911497 -0.118836194 -0.7783507 0.29181084
000070 a3 80 62 bf 2b f8 bf be 8c f4 ba be 9e 26 84 bd
       -0.88477534 -0.37494025 -0.365147 -0.06452678
000080 b2 f9 5c 3e e1 99 23 be ff 5b 44 bd 06 d5 4a be
       0.21579626 -0.15976669 -0.047939297 -0.19807824
000090 2e 61 70 bf 7a 9f 35 bf b3 fc c3 be 06 2b 56 bf
       -0.93898284 -0.70946467 -0.38278732 -0.836594
0000a0 4e 5b 8c 3e 44 eb 45 be 79 0b d0 be 1e 62 16 be
       0.2741341 -0.19328028 -0.40633753 -0.14685866
0000b0 39 0b d9 3a 8a 8f f1 bd c9 46 27 be 7c 17 b8 3c
       0.0016559131 -0.11794956 -0.16335596 0.022472136
0000c0 4b d6 5d 3e c9 55 e2 bd 10 8f 82 be 74 9a 1c bf
       0.21663778 -0.110515185 -0.25499773 -0.61173177
0000d0 d7 b5 69 be fe a2 17 bf f5 6e dc be 74 62 db be
       -0.22823273 -0.5923308 -0.43053403 -0.4284855
0000e0 0e 3b 47 be 45 fd ac 3e 31 e2 52 bf a7 bb 9c be
       -0.19456121 0.3378698 -0.8237639 -0.30611917
0000f0 fe 20 1b bf b6 59 f4 3e 84 1d 3e bf 3c 5a 7c 3e
       -0.6059722 0.47724694 -0.7426379 0.24643797
000100 f3 7f 08 bf 7a 9e 60 be 37 0b 58 bc b6 bd 43 3f
       -0.53320235 -0.21935454 -0.013186268 0.7646135
000110 ce 78 d9 be 5b 07 fb be ce e2 2a 3e 10 e9 22 bf
       -0.4247498 -0.4902905 0.16688082 -0.63636875
000120 bd b2 9f be d9 9d d2 3e eb 6e 37 bf 1b a8 35 bf
       -0.31191054 0.41136053 -0.7165362 -0.70959634
000130 22 8d e1 be ce c9 65 3e 52 e5 9b 3e c6 c3 44 be
       -0.44052988 0.22440264 0.30448395 -0.19215307
000140 6b 08 9a be dc 93 e9 be 64 71 62 bf 84 0d 51 bf
       -0.30084547 -0.4562062 -0.8845427 -0.8166125
000150 b7 9f 71 3d 02 a4 31 bf eb c9 7d 3e 22 57 90 be
       0.058990207 -0.6939088 0.24784057 -0.28191477
000160 56 41 81 be 25 3b c0 3e 09 1c 76 be da 4d d7 be
       -0.2524516 0.37545124 -0.24034132 -0.42051584

convs.1.bn1.running_mean f4 [92]
000000 8b d6 c7 bf 76 ff f0 3e 8f 63 66 bf af 50 89 c0
       -1.5612348 0.470699 -0.89995664 -4.291099
000010 0e d4 c6 bf ec 8b 97 bf 14 ee 3a be cb 95 ca be
       -1.5533464 -1.1839576 -0.18254882 -0.39567408
000020 2b 6d 93 c0 09 96 a0 3f 19 6a 20 40 41 f2 09 be
       -4.607076 1.2545787 2.5064757 -0.13471319
000030 87 15 5c c0 77 94 f7 be a1 ea af bf b1 d5 07 3f
       -3.438814 -0.48355457 -1.3743478 0.5306044
000040 07 38 ef bf d2 dd 29 c0 8f 85 27 c0 8b 12 03 bf
       -1.8688973 -2.6541638 -2.6175268 -0.5120017
000050 fa 8d 67 3f d2 53 8d bf 80 fc e7 3f 13 6d 0f c0
       0.90451014 -1.1041205 1.8123932 -2.2410324
000060 ac 66 e5 be 2d 62 53 c0 8a 70 fc 3f e0 32 1d 40
       -0.44804895 -3.3028672 1.9721844 2.4562302
000070 eb e2 be 3d 83 5d a9 bf 4d cd 67 bf ca 87 92 be
       0.09320625 -1.3231663 -0.9054764 -0.28619224
000080 cd 69 88 3f 7b be 75 be 11 03 e9 bf 99 60 39 c0
       1.0657288 -0.23998444 -1.8204061 -2.8965209
000090 ea 2e 2a 40 9c 43 44 3e d2 1b f3 3f 6f 38 17 bf
       2.6591134 0.19166416 1.8992865 -0.59070486
0000a0 27 c3 e0 bf 9f 62 db bf 7d 2d 03 be 37 24 0c 40
       -1.7559556 -1.7139472 -0.12810321 2.1897104
0000b0 a5 0a 06 c0 79 d9 fa bf e2 9d 33 c0 e0 9d 52 be
       -2.0943997 -1.9597617 -2.8065114 -0.20568037
0000c0 1d 54 24 c0 2d 2c 85 c0 18 ca d5 3f b2 76 28 c0
       -2.5676339 -4.1616426 1.6702299 -2.6322446
0000d0 b4 68 74 bf c1 42 7d c0 1e d7 4b c0 28 5f a4 bf
       -0.95472264 -3.9571993 -3.1850047 -1.2841539
0000e0 9e 42 65 3f 5b 5d 1e bf b9 49 03 c0 a0 c4 8b bf
       0.89554775 -0.618612 -2.0513747 -1.091938
0000f0 3a f7 73 bf 5d 05 1e c0 c1 49 00 c0 2d c7 28 c0
       -0.9529911 -2.4690773 -2.0045016 -2.6371567
000100 88 19 66 c0 e3 72 60 c0 1b 4d dd be 4d f5 b7 bf
       -3.5953083 -3.5070121 -0.4322289 -1.4371735
000110 3c e6 41 bf 6c 33 03 c0 79 eb 7f c0 5f f6 a9 c0
       -0.75741935 -2.0500135 -3.998747 -5.3113246
000120 f5 4f a0 be 21 03 fa bf 5e 9a 54 c0 5c 76 81 be
       -0.31311002 -1.9532205 -3.3219218 -0.25285614
000130 c8 a1 71 c0 d7 b2 47 c0 5f 60 d9 bf 46 dc 8e bf
       -3.7754993 -3.1202905 -1.6982535 -1.1160972
000140 bf 0f 38 c0 b9 f1 92 3f 97 24 3c c0 ca f9 10 be
       -2.875961 1.1480018 -2.9397333 -0.14157787
000150 be 74 4f c0 33 8f 44 c0 0c 65 60 bf aa 03 e9 bf
       -3.2415004 -3.0712402 -0.87654185 -1.8204243
000160 45 8d 89 bf 88 b8 8f be ad 9b d8 bf fb e4 4d c0
       -1.0746237 -0.28070474 -1.6922508 -3.2171009
