dropout/NN_ensemble/histories/3_d5_valid_best_params.pt (torch_old, 452453 bytes, 103 tensors)

embedding.weight f4 [46, 98]
00000000: fc0d c4bd 822b cbbe 43b9 a43d ba28 7d3f
00000010: 712e 943e d73a 143e 06ba dd3e bf56 073f
00000020: a8b2 843e 5eab d33d cbac b2be d777 46be
00000030: d8cf 5cbf 3098 06be c8e8 1d3e 41dc 2f3e
00000040: 3a05 9cbe 6961 29be 82e7 ae3d 4acf e8bd
00000050: 51b5 24be 3a95 463e cb15 01be 6240 22be
00000060: 1608 073f 80e6 4cbc 0601 0f3e 5cb0 dabe
00000070: 890d 923e c560 c43c ea01 1c3e 4860 40bd
00000080: e858 61bc e5c6 0bbe e0c8 1c3d f0af 203d
00000090: b702 0dbe 2216 e4bd 9210 cebd 7ec6 e6bc
000000a0: 8962 abbe 8df0 903e 7e7c f23d 1e52 ec3e
000000b0: 88b6 1b3d c57d bd3d 2cce d9be f381 38bd
000000c0: 887f 82bd 9a39 683e bc6a 423e cded 363e
000000d0: 1b86 f93e d2a6 953e d16a 223d 6ab7 2fbe
000000e0: d444 1bbe 35ce 3fbf aa89 c1bc 9942 a3bf
000000f0: 2db4 3bbc 8f77 c3bd 099a 653e 69a1 b7be
00000100: bfdd 08be 088e 1dbc aa38 a8bd 0629 c2bd
00000110: f679 b23d 38b7 083d de0d 24be 4676 a73d
00000120: 41e6 08be 144b 9abc a01c b43d f412 8c3d
00000130: 59d6 cebd 40b0 b2bd 4f7e d0be dd40 26be
00000140: f410 803e 2815 c23d 46ad 703d 8ebd f73c
00000150: 37fe ae3e 1c2d f1bd 4d76 b9bd 7e95 27bf
00000160: 6ecd 58be e918 053f 4a8f 9c3d 994c 473d
00000170: b2a4 013e 983a 483f bf09 463d 6b97 86bf
00000180: d4b3 7ebf 1898 f03e 28ae 143d 1a55 303e
00000190: 21a4 d93e 30cf 683e 592d 993e a5b0 e7be
000001a0: a6c8 85bf 05d4 f5be d592 3dbf 4332 00bf
000001b0: 5279 92be 272c 363f 16a3 d63e 21f1 fdbd
000001c0: e839 e23c 8dc7 ed3d e84a 833e 52ed 8b3e
000001d0: f314 cabd 3eb0 54be 7479 6a3d 91b6 893c
000001e0: 6000 3a3e 4c3c 02be 1332 023e 40f9 4bbb
000001f0: e2cd fcbc 5633 6d3f f3dd a03e 096a dabe
00000200: 901e f23d 1c37 023e b4b8 403d 33f2 15b9
00000210: 7c64 073e 50f4 b63b 0b2c 24be af60 5c3e
00000220: 3b0f febd 7dd3 10bc b3f1 133e c0d8 11be
00000230: 11d9 c53e 3968 8e3e 252d 2dbd 77e3 c6bd
00000240: 5db6 133e 138f 123f 5a33 95bd edfe ef3d
00000250: b34e bfbd cf96 fbbd cd56 c5be d6af 1ebf
00000260: 519e 0cbf 6231 523d 89f7 133f 7706 bf3c
00000270: ea86 b23d 0c01 5d3f 87ba 883e 12fd 73be
00000280: 057e 0ebd 3c77 da3d 3dbf 403d 6059 ab3c
00000290: 1a8f ad3d 7424 753d 18d6 fc3c b158 5abd
000002a0: 956a 22be 28c7 873d 6772 043d 9d43 853d
000002b0: 8715 c13d 135a 653e eef9 813d cde4 c83e
000002c0: c66b e13e 4608 2c3e 9642 6fbe 89dc 39bd
000002d0: cc9a da3c a2ff d9bd fc58 35be a518 62be
000002e0: 6eb7 093e 20bb 003f 5f0c f63e f1a2 ff3e
000002f0: b10b 953d 9984 17bd ffb9 a23e 7e1a 5a3e
00000300: c37f f53e bea8 66bf 3c25 07bf efb5 b63e
00000310: aa24 c1bd 7cb9 b13c 9183 92be 21b5 713e
00000320: dbc7 f13e dd34 1a3e 5e6a 14bd ea65 eabb
00000330: 78d3 4bbe 8270 8bbe 3258 3b3e d743 933c
00000340: a860 28be cc3c 60be 9971 cebe 43dc c73c
00000350: 42ea cc3e 3215 f73e 6864 dc3c c746 4b3e
00000360: 9a13 e3be 59a8 55bf e47c 353d 7a81 123f
00000370: b9e8 913e 302d 8bbd 1ced 4abe f6e4 0ebf
00000380: d541 913e 4b73 17be e64d 353e 6708 353d
00000390: 00c7 5ebc b9f8 56be c4d7 a2be 8882 3e3d
000003a0: 90c1 1b3e 68f1 ffbe 26a7 5abe 00ae 1ebe
000003b0: 25a0 d4bd 8601 973e c66f e93d f7db 0bbf
000003c0: 605f 2fbb 37a1 ddbe 9766 c73a 8aed 88be
000003d0: 7372 88be 2788 50be db8e 313e d466 9f3e
000003e0: d7ff 263c fc22 91be e6db 2abe 72af a93e
000003f0: 7c3a 8b3c ef89 b9bd 85d5 8cbe 2dd9 c7be
-0.0957298 -0.3968163 0.08043148 0.9889027 0.28941682 0.1447557 0.43305987 0.5286674
0.25917554 0.1033542 -0.34897456 -0.19381653 -0.86254644 -0.13143992 0.1542083 0.17173864
-0.30472738 -0.16541065 0.0854025 -0.11367662 -0.16084792 0.19392863 -0.1260597 -0.15844873
0.52746713 -0.012506127 0.13965234 -0.42712677 0.28525952 0.023971925 0.15235105 -0.04696682
-0.013754107 -0.13650091 0.038277507 0.039230287 -0.13770567 -0.11137034 -0.10061754 -0.02817082
-0.33473614 0.28308526 0.11840151 0.461564 0.038015872 0.09252504 -0.4254011 -0.045045804
-0.06371981 0.22678223 0.18986028 0.17864151 0.48735127 0.29228836 0.03965265 -0.1715981
-0.15162975 -0.7492402 -0.023625214 -1.2754699 -0.0114565315 -0.09544288 0.22422041 -0.35865334
-0.1336584 -0.009616382 -0.08213933 -0.09480481 0.087146685 0.033377856 -0.16020915 0.08176856
-0.13369085 -0.018834628 0.08794522 0.068395525 -0.10099477 -0.08725023 -0.40721366 -0.16235681
0.25012934 0.094766915 0.058758996 0.030241754 0.34178326 -0.11776182 -0.09055767 -0.6546248
-0.21172115 0.51991135 0.07644518 0.048657034 0.12660483 0.78214407 0.04834914 -1.0514959
-0.99493146 0.46991038 0.0362989 0.17219964 0.42508033 0.22735286 0.2991741 -0.45251957
-1.0451858 -0.4801332 -0.7405217 -0.50076693 -0.28608185 0.7116112 0.419213 -0.12399507
0.027615502 0.11610327 0.25643086 0.273295 -0.09867277 -0.20770356 0.057244733 0.016810687
0.18164206 -0.12718314 0.12714414 -0.0031123906 -0.030859891 0.9265646 0.31419334 -0.42659023
0.118222356 0.12716335 0.047051147 -0.00014299974 0.13221925 0.0055833235 -0.16032426 0.21521257
-0.12405249 -0.008839485 0.1444767 -0.1424284 0.3864217 0.2781389 -0.04227938 -0.09711354
0.14425035 0.57249564 -0.07285185 0.11718545 -0.093411826 -0.12284624 -0.38542786 -0.61987054
-0.5492907 0.051316626 0.57799584 0.023318512 0.08717139 0.8632972 0.2670481 -0.23827007
-0.03478815 0.106672734 0.04705738 0.02091664 0.0847456 0.059849218 0.030863807 -0.05330724
-0.1586097 0.06629783 0.032335665 0.06507037 0.09427934 0.22397642 0.063464984 0.3923706
0.44027537 0.16800031 -0.23365244 -0.045376334 0.026685141 -0.10644461 -0.17709726 -0.22079714
0.13448879 0.5028553 0.48056313 0.49929002 0.072776206 -0.03699169 0.3178253 0.21299168
0.47949037 -0.9010123 -0.5279119 0.3568568 -0.09430821 0.021694891 -0.28616002 0.23604251
0.4722279 0.15059228 -0.036234252 -0.0071532624 -0.19904888 -0.27234274 0.18295363 0.017976684
-0.16443121 -0.21898192 -0.40321043 0.024397021 0.40022475 0.48258358 0.026903346 0.19851218
-0.44350892 -0.83460003 0.044308558 0.57228816 0.28497866 -0.06795728 -0.19817013 -0.55818117
0.28370538 -0.14790075 0.17705497 0.044197466 -0.01359725 -0.20993318 -0.3180524 0.046511203
0.15210557 -0.49988866 -0.21352825 -0.15496063 -0.10382108 0.2949335 0.11398272 -0.54632515
-0.0026759729 -0.4328706 0.0015213069 -0.26743728 -0.26649818 -0.20364438 0.17339651 0.3113314
0.010192833 -0.28347003 -0.16685447 0.33141667 0.016995661 -0.09059512 -0.27506652 -0.3903288

embedding.bias f4 [46]
00000000: f39a c2be 9982 333e beca 48be 5946 a2be
00000010: 5f33 a43a f567 c9be 736b 25be 2462 32be
00000020: ac79 fbbd dd4d 06bf 3e29 c7be 2030 62be
00000030: 9f1d 0abf 45c2 19bf d417 793d d87e fdbd
00000040: 3e6b 16bf aa07 bbbd c3ea e33e deea 8d3d
00000050: 397a ce3b e9ba 1d3e 6742 02bf ef3a f7be
00000060: 1297 0fbc 065e c5be d488 71be b468 4cbc
00000070: 5972 0abf 612c 8ebe be9d 74be b49e 69bd
00000080: 7924 3ebe 8350 ffbe 4d5f a8be a74f 1abf
00000090: 2a3b 18be 3d80 2dbe 5786 9abe 82aa bdbe
000000a0: 45a3 2cbf c6a4 59be ec9f c5be 8207 adbe
000000b0: af63 e9be 2973 d0bd
-0.38008842 0.17530288 -0.1960859 -0.31694296 0.0012527517 -0.39337125 -0.1615427 -0.1742025
-0.122790664 -0.5246256 -0.38898653 -0.2208867 -0.5395145 -0.60062057 0.06081374 -0.12377709
-0.5875739 -0.09132321 0.44515046 0.06929563 0.006301191 0.15403332 -0.5088257 -0.4828715
-0.008764045 -0.38548297 -0.23587352 -0.012476135 -0.5408073 -0.27768233 -0.23888299 -0.057036117
-0.185686 -0.49866113 -0.3288521 -0.6027779 -0.1486632 -0.1694345 -0.30180618 -0.3704415
-0.6743663 -0.21254262 -0.38598573 -0.3379479 -0.45583865 -0.10178215

convs.0.fc_full.weight f4 [92, 98]
00000000: 08e3 50bd 979f 2f3e ea50 183e a8dc 64be
00000010: a485 b1be 0646 b73e 1fe4 1ebf 3dc8 dabe
00000020: 9875 88be 0f11 03bf 1d40 13be 74c2 983c
00000030: ba2d 53be 26a0 843d 3d19 c33d a19b 3fbf
00000040: 17d8 06be bcab 47be 734c f3be 903d 2c3e
00000050: e451 bbbe 1528 373d 2a82 243e 9c91 883d
00000060: e4f0 1cbe 3600 3fbe 53d1 8d3e b329 41bd
00000070: df97 963e 18cc 56be de9a 81be 17b2 8fbe
00000080: 9ae2 003e 149e d53e 5981 88be 73ee c2be
00000090: 542b f4bd 1fca 08bf 4cd1 9b3e 5e5d a73d
000000a0: ee63 77bd fb66 bdbe acab 50bb 07c4 913e
000000b0: 2916 153e 4a91 94be aa41 4bbf de40 c63e
000000c0: 1144 fa3e 8d39 39ba 9ef7 6d3e 2790 a13f
000000d0: dc77 25be d85d 9cbe d899 89bd 8f2b 453d
000000e0: 28dc 333e 2cfc 9b3e dfa9 a9be c420 7d3f
000000f0: f041 4bbd 5e64 7bbf c562 0a3f eba6 34bf
00000100: 0581 033f 387c 683d bdf0 bdbe 1368 41bd
00000110: 7b8b 343e 2546 58bf 7e03 15bf 0ef4 fdbe
00000120: 0cc7 82be 182c 323f 900c eabc d068 ce3b
00000130: eb21 78be a95f e1be 16fe d03d 5a23 d63e
00000140: 81fb 523f bc6d 00bf e2da b03d 1c22 acbe
00000150: 583e 893f 6c80 98be 1e3d f53d b14d 8ebe
00000160: 511c c33e 5174 e03e e8a7 3b3f 6343 233e
00000170: 9549 ecbd 4e9d 90be d264 523f 5271 9a3f
00000180: 605f 24bf 1ddb e8be 16de 48be 1957 64bd
00000190: 06b2 e33e b192 d1bd 4708 a7bd f118 febe
000001a0: 0e3b c0bd caef a8ba 5699 8fbe 84a2 64be
000001b0: abf4 ccbe 182e 9b3e c658 ecbe f0ea 06bd
000001c0: 85f0 a33e 2fc8 b9be 9a8b 773e 1192 2ebf
000001d0: af65 24bf e39e 113e b2c6 003d bfb6 54bd
000001e0: 1de4 8b3d 1653 b53c 0e35 ff3d 5120 2dbe
000001f0: 29cb 6cbe 5773 843e c705 76bd b871 3e3e
00000200: 5d17 afbe da82 853e 3a82 243f 69ba ddbc
00000210: 2d14 c4be 963c 693e d6e4 1b3e e90f 34bc
00000220: f954 4cbe 4cbd 9f3e f495 2b3e 6d63 f3be
00000230: 3828 4ebe ee25 ba3e 5b0a 02be 673a 093e
00000240: 1328 b5bd 88c6 b2be 5268 583f 49f9 bfbe
00000250: 73a5 54bf 0de0 d5bd 6a5a 9fbd 752a 13bf
00000260: d44a 0f3f 66bd 0d3e 0957 223f d3d1 063f
00000270: c06e f53e 9fac 2e3f 5ab6 37be 7391 d5be
00000280: e19d 963e 7eb1 9cbe 88cd 6e3e 2ed8 c9bd
00000290: 5afc b0be 9f5e 813a 728e c03e c87f ecbe
000002a0: a731 89be 1638 e63b bc59 3fbf 57b0 293f
000002b0: ebd4 91bd f686 73be 5c42 dbbe ae88 0e3f
000002c0: 5abf 8abe e751 00bf 75cd 4fbe 2181 1dbe
000002d0: 8fea 27bd 634d 213f 4bc2 4d3f 2105 cbbe
000002e0: 05a6 223e 5bf0 813e cb9c 01be 9afc e43e
000002f0: f844 223d b947 513e a14f c3bf 30bd 273d
00000300: 6af1 933f c079 9a3f c5c1 333e b47c 84be
00000310: 12af f7bd f5ec 113f 5666 4f3e 9353 c23e
00000320: a6b7 a73e 3461 803e c99e df3e 4bc2 89be
00000330: c259 993e c79c 8fbe 3a00 93bd c5e9 83be
00000340: 317c 56bf 1b2c bd3e 62da d4bd b9ad ad3e
00000350: b4e1 733d bccd 0f3e 4587 b7bc b6e6 393f
00000360: 0f96 1f3e ad0b a6bd f856 f6be df24 cd3e
00000370: 61ae 85bd 1e46 ea3d 3822 d53e ce22 c7be
00000380: d5ff 1f3f c37a 973e 00d8 233f 3609 093d
00000390: e260 56be 1547 953b 3831 493e a52b 273f
000003a0: c7b4 18bf 4f02 29bd 560c 47be 5b5c 31bf
000003b0: f9a1 9cbe 3f50 d9be 6705 02bf ef1b 25bf
000003c0: e1ef d1bb eac1 273e bad4 9ebd de26 b8be
000003d0: d141 8b3e 87ba 563c 4a60 2ebf da8a a53d
000003e0: 0984 103e 8df2 703f e2f0 dd3e c100 053f
000003f0: 8b61 a5bd 89c1 34be 5f37 3b3e cb81 32bb
-0.050997764 0.17150722 0.14874616 -0.22349799 -0.34672272 0.3579561 -0.62066835 -0.42730895
-0.26652217 -0.51197904 -0.14379926 0.01864741 -0.20622912 0.064758584 0.09526298 -0.74846846
-0.13168369 -0.19499105 -0.47519264 0.16820359 -0.36585915 0.04471596 0.16065279 0.06668398
-0.15326267 -0.18652424 0.27698764 -0.047158908 0.29412743 -0.20976293 -0.25313467 -0.2806556
0.12586442 0.41722167 -0.26661184 -0.38072547 -0.11922327 -0.5343341 0.30433118 0.08172105
-0.060398035 -0.3699263 -0.0031840606 0.2846987 0.14559235 -0.29017097 -0.7939707 0.38721365
0.48880056 -0.00070657657 0.2323899 1.2622117 -0.16159004 -0.30540347 -0.067187965 0.048137244
0.17564452 0.3046583 -0.33137414 0.9887812 -0.04962343 -0.98200023 0.5405696 -0.70567197
0.51368743 0.05675909 -0.3709773 -0.047218394 0.17631333 -0.8448203 -0.58208454 -0.4960026
-0.25542486 0.6959853 -0.028570443 0.0062991157 -0.24231689 -0.44018295 0.10204713 0.41823846
0.82415015 -0.5016744 0.086354986 -0.33619773 1.0722151 -0.29785478 0.11974548 -0.2779365
0.3810754 0.43838742 0.7330308 0.15943675 -0.11537472 -0.28245014 0.8218509 1.2065833
-0.6420803 -0.4547967 -0.19615969 -0.055747125 0.4447176 -0.10233057 -0.08155876 -0.49628404
-0.09386264 -0.0012888846 -0.28046674 -0.2232762 -0.40030417 0.30308604 -0.4616148 -0.032938898
0.3201944 -0.3628554 0.24174348 -0.6819163 -0.64217657 0.14220767 0.03143949 -0.051932093
0.068306185 0.022134345 0.12461291 -0.16906859 -0.23124374 0.25869247 -0.060064103 0.18598068
-0.34197512 0.26076394 0.6426121 -0.027066426 -0.38296643 0.22777018 0.15224013 -0.010990121
-0.1995429 0.3119911 0.16756421 -0.47536793 -0.2013253 0.36357063 -0.12699263 0.13401185
-0.08845534 -0.34917092 0.8453418 -0.37494877 -0.83064955 -0.10443125 -0.07780917 -0.5748666
0.55973554 0.13841781 0.63414055 0.52663916 0.47936058 0.6823215 -0.17940655 -0.4171253
0.29417327 -0.30604166 0.23320591 -0.09855686 -0.3456753 0.0009870118 0.37608677 -0.4619124
-0.26795694 0.007025729 -0.747463 0.662847 -0.07120689 -0.23781952 -0.42824066 0.55677307
-0.27099115 -0.50124973 -0.2029322 -0.1538129 -0.040995177 0.6300871 0.8037459 -0.3965235
0.15883644 0.2537869 -0.12657468 0.4472397 0.039616555 0.20437516 -1.5258676 0.040951908
1.1558049 1.2068405 0.17554386 -0.2587639 -0.12093939 0.5700219 0.20253882 0.37954387
0.327573 0.2507416 0.4367583 -0.26906046 0.29951292 -0.280493 -0.071777776 -0.2576429
-0.8378325 0.36947712 -0.10393216 0.33921602 0.05954142 0.14043325 -0.022403369 0.7261766
0.15584587 -0.08107696 -0.48113227 0.40067193 -0.06527401 0.11439155 0.4162767 -0.3889374
0.62499744 0.29585847 0.64001465 0.03345605 -0.20935395 0.004555593 0.19647682 0.6530097
-0.59650844 -0.041261967 -0.194383 -0.6928155 -0.30592325 -0.42444035 -0.50789493 -0.6449575
-0.0064067696 0.16382566 -0.07755418 -0.35967153 0.2719865 0.013105995 -0.68115675 0.080831245
0.14112867 0.94120103 0.43347842 0.51954275 -0.080752455 -0.17651953 0.18282841 -0.0027238007

convs.0.fc_full.bias f4 [92]
00000000: d51d 57be e3bc a03d 8db1 90bd 5318 613d
00000010: 6f75 d2bc 2052 e2bd 7626 183e a3cf 513d
00000020: 507c 773d ae70 e63d a7b4 bfbb fcca 3abe
00000030: 6f3b 863d af28 9a3d 9d20 ab3c 009c 813d
00000040: cbc1 8f3d ab5d 0b3e b94d d23b d3e1 36bd
00000050: 4943 4abc 65d0 c6bc 6193 74bd 03de 003e
00000060: ed5b de3d e032 68bd 78ba 7bbd 0aa2 0cbd
00000070: 2c02 fbbd 962a 853d e18b c43d 63c1 673e
00000080: f746 1ebd 1376 5cbe 4715 dfbc 72b0 6abe
00000090: 7b38 c13d f2c9 c3bd c313 8cbe a81d 03be
000000a0: 2d82 f7bc 0138 543d c827 313d 6bb3 433d
000000b0: f6d9 db3b 1bb6 913c 276f ba3d cc7f 923c
000000c0: 161a 93bd f745 34bd 6b86 abbd 6626 11bd
000000d0: 12a8 273e 0b11 adbd 2ee6 193d b1e2 b33d
000000e0: bda3 b0bd ff73 4d3d 79c2 e3bc bcae 1dbe
000000f0: d991 233e 946c a03e fd56 41ba 8dda 2dbd
00000100: 1515 a03e dbf1 a8bc b503 a1bc 22ab 18bd
00000110: b4de 4c3d 505b e2bb ddd6 333d 769c 7fbd
00000120: 7895 903c d996 98bd 9fe7 71bd 0bad edbb
00000130: c22d 983d 9aa7 3cbe 9c53 893d 43f0 9bbc
00000140: 8f7a 483d 9f7f a33d 84f2 803d 8497 363d
00000150: e836 af3d e57e 28bd 05ab 483d 41b0 7a3c
00000160: ad47 54bb 6c38 ff3b d293 123e 0932 c03d
-0.21007474 0.07848527 -0.07065115 0.054954838 -0.025690762 -0.1105082 0.14858422 0.05122341
0.060421288 0.11251961 -0.005850393 -0.18241495 0.06554305 0.07527291 0.020889575 0.06328583
0.07019385 0.1360995 0.0064179567 -0.044648957 -0.012345144 -0.024269292 -0.059710864 0.12584691
0.10857377 -0.056689143 -0.061457127 -0.03433422 -0.122562736 0.06502263 0.09596992 0.22632365
-0.038641896 -0.21529417 -0.027231826 -0.22918871 0.09434601 -0.095600024 -0.27358827 -0.12804282
-0.03021344 0.051811222 0.04325083 0.04777853 0.0067093326 0.01778703 0.09103232 0.017883204
-0.0718271 -0.044012036 -0.083752476 -0.03543701 0.16372707 -0.08450516 0.037573032 0.08783472
-0.086249806 0.05015945 -0.027802693 -0.15398687 0.15973605 0.3133284 -0.0007375328 -0.042444754
0.31266084 -0.020623138 -0.019655088 -0.03727258 0.050017074 -0.006907858 0.04390608 -0.062405072
0.017649397 -0.07450647 -0.05905878 -0.0072532943 0.074306026 -0.1842331 0.067054 -0.019035464
0.048945006 0.07983326 0.06296256 0.04457809 0.085553944 -0.04113664 0.048991222 0.015300811
-0.0032391355 0.0077887084 0.14314201 0.093845434

convs.0.bn1.weight f4 [92]
00000000: cd8c 0540 340b 2840 61ab 913f d79b 2040
00000010: 5ce3 fc3f 30ce f43f 0335 1440 1b1f f13f
00000020: 8d63 e33f 5d53 a23f a0eb fa3f cbab e73f
00000030: 1874 1d40 5fc1 ab3f d0ad b13f f168 7640
00000040: b891 873f 03cc 4740 70d7 2a40 9bab fc3f
00000050: 73cd 2d40 4c11 aa3f ea8f e73f ce6c 763f
00000060: fbaf cf3e 0f2e 0340 3f1f 9b3f 2ab9 0c40
00000070: fd2a d33f c71f 1b40 4cfc c23f 237d f13f
00000080: 41ab f43f 6342 633f d6e4 e73f ea7d d73f
00000090: 6afd 1f40 628e 2440 aed6 f53f 54c7 1340
000000a0: 0394 0040 d4eb 3e40 9e53 c63f 82cf d43f
000000b0: 5559 e53f ffdd bd3f ddcd 1f40 1871 b93f
000000c0: 7f25 fd3e 93e7 c73f dfb0 0b40 0bd5 f03f
000000d0: 918f 603f ddb2 c63f f76b a53f 0c89 0740
000000e0: d49e 2640 fae7 e03f e135 9c3f c5c8 2f3f
000000f0: c9fa 963f 62a3 3d3f 9470 5b3f 9d1e ed3f
00000100: b55f 7b3f 92c9 1440 38a4 1240 c6d6 9d3f
00000110: d389 343f 2f30 cd3f c57f 933f 90a7 1a3f
00000120: 499d a33f c3c3 143f 2e06 e23f 8257 d13f
00000130: a860 0b40 00ec 603f ac95 b13f 41e8 833f
00000140: c808 1440 6c33 8340 d0a4 953f 2d63 9d3f
00000150: 0d23 d23f 9e24 803f b243 1b40 18ab 613f
00000160: 0b66 9c3f 2078 743f e110 773f 1124 513f
2.0867188 2.6256838 1.1380426 2.5095117 1.9756885 1.9125423 2.3157356 1.8837618
1.7764755 1.268169 1.9603157 1.8099302 2.4602108 1.3418387 1.3881168 3.850155
1.0591345 3.121827 2.6693993 1.973987 2.7156646 1.3286529 1.8090794 0.9625977
0.4056395 2.0496862 1.211891 2.1988015 1.6497494 2.4238145 1.5233245 1.8866314
1.9114763 0.88773173 1.811671 1.6835301 2.4998422 2.5711904 1.920614 2.309041
2.009034 2.9831438 1.5494268 1.6625826 1.7917887 1.4833373 2.49694 1.4487638
0.4944267 1.5617546 2.1826704 1.8815016 0.87719065 1.5523335 1.2923573 2.1177397
2.603444 1.7570794 1.2203943 0.68665725 1.1795284 0.7407743 0.85718656 1.8524967
0.9819291 2.3248029 2.291273 1.2331169 0.70522803 1.603033 1.1523367 0.6041193
1.2782375 0.5811121 1.7658136 1.635483 2.1777744 0.8786011 1.3873801 1.0305253
2.313036 4.100027 1.1690922 1.2295891 1.6416947 1.0011175 2.4260068 0.88151693
1.2218641 0.95495796 0.9651013 0.8169566

convs.0.bn1.bias f4 [92]
00000000: 7811 573d 3732 853e fd33 a4be 0d60 a73d
00000010: b71e 00bd 5479 b4bd c5c7 20bf ed48 f23d
00000020: 0636 5c3e 5018 bfbe 23f4 093e 9864 ac3d
00000030: 7313 6ebd db91 8dbe 3942 7cbe e144 66bf
00000040: 6f38 c0be 2b6a d73e d121 08bf 7983 373e
00000050: d0e5 053f cf43 7dbe e120 d8be 3eeb 923e
00000060: 23c4 afbd 8c0d 883f 8371 bf3d 5747 413f
00000070: 801f 0d3c e98d 18bf 50d4 67be cc11 78be
00000080: 1550 4b3f a816 cd3e 0d6a e93e 8d0b 413e
00000090: 787c eabe 8e08 81be 03c8 bebe 531d 2e3e
000000a0: 2b0e cfbe cf53 11bf 7bdb 8dbe 11af 493d
000000b0: 615f d03d c0e3 18bf 1f7e b63d 0719 6d3e
000000c0: eaad 30bf 04eb a73e 59e4 f8bd d781 5bbe
000000d0: 779b 01bf 49dc b3be 3c16 c23c a2b0 c3bd
000000e0: f2d3 9cbb ec0e bebe 21bf acbe e6c9 01bf
000000f0: eb02 91be d6b2 18bf 4360 10bf 89d3 6a3e
00000100: e2be d1be 9e83 0c3e c597 823e 0058 dabe
00000110: 91c9 0bbf b67c ddbd b92c 00bf 31fc 313f
00000120: dab4 2a3d 741c 603f cc5b d83d 85fd 83be
00000130: 045a 27be 7a61 edbe fdaf a73e cf1e ec3e
00000140: b508 dcbd 7c6a 3ebe 17bb c6be ea6a d7be
00000150: 5652 f2bd 4800 94be 46d6 63be c414 ecbe
00000160: b70a f7be 332d 61be 05d4 a4be db49 03bf
0.052506894 0.26014873 -0.32070914 0.08172617 -0.031279292 -0.08812204 -0.62804824 0.11830316
0.21504983 -0.37323236 0.13472037 0.08417624 -0.058124017 -0.2765034 -0.24634637 -0.8994885
-0.37543055 0.42073187 -0.531766 0.17921247 0.5230379 -0.24732898 -0.42212585 0.286951
-0.08582332 1.0629134 0.093478225 0.7549948 0.008613467 -0.5959154 -0.22639585 -0.24225539
0.7941907 0.40056348 0.45588723 0.18852063 -0.45798087 -0.2520184 -0.37261972 0.17003374
-0.40440497 -0.56768507 -0.27706513 0.049239222 0.10174442 -0.5972252 0.089107744 0.23154078
-0.6901537 0.3279649 -0.12152929 -0.21436249 -0.50627846 -0.35129002 0.023692243 -0.095551744
-0.004786008 -0.3712076 -0.3373957 -0.506987 -0.2832254 -0.5964788 -0.56396884 0.22932257
-0.40965945 0.13722083 0.25506416 -0.42645264 -0.5460444 -0.10814802 -0.5006824 0.6952544
0.04167638 0.87543416 0.10564384 -0.25779358 -0.16342932 -0.4636343 0.32751456 0.46117255
-0.10743848 -0.18595308 -0.38814613 -0.42073756 -0.118321106 -0.28906465 -0.22249708 -0.46109593
-0.48250362 -0.21989898 -0.32193008 -0.5128457

convs.0.bn1.running_mean f4 [92]
00000000: db47 04c0 c7b9 12c0 ba67 80bf 4c6e 65c0
00000010: 7912 4540 534f 8b3f a268 fc3f ad9e 9c40
00000020: 41d1 0fbf 13d3 6d40 8481 75c0 c101 65c0
00000030: 3209 86bf fc4a 1ec0 3d13 623f 98f8 3640
00000040: b239 aac0 c65e 13c1 d26e 4cbf a2a7 1f3f
00000050: b93b 5ec0 bbab 07be e85f fbbf b860 9f3f
00000060: 523c b240 5c7b 94bf f37c 8940 4f77 3b40
00000070: 3e2e b73f ef13 cd3f 8ae1 b3be 81d0 3440
00000080: 6467 983d 9105 9dc0 5064 19c0 9d59 39c0
00000090: 8244 3cbf 291f b8c0 7cd5 2ec0 7f6b 2fbf
000000a0: 8eec adbf 8f27 583e 96d6 a640 0e73 6fc0
000000b0: 3708 b83f 8caa 09bf 1e01 4b40 7a59 d0bf
000000c0: 2128 abc0 8695 fe3e 282d ca40 b3a7 0540
000000d0: bf18 3cc0 85a0 7d40 767f cfbf b61c 6a40
000000e0: 75c9 463e 22f0 13c0 d72b 54be 33c9 adc0
000000f0: 8ff2 d6c0 260a b0c0 5c31 4540 1f66 8fbd
00000100: d078 60c0 184e c03f fd99 8cbf e322 3a3f
00000110: b546 49c0 0a13 02c0 8226 0a41 9f1d 2ac0
00000120: 52a5 d03f 7c9a 1e40 0380 44bf a447 2740
00000130: da68 6e3f 642c 13c0 ed47 553f b097 30c0
00000140: 780f 2fc0 4179 923e 5bce 4540 8764 bc3f
00000150: 1dde b73e 1da9 34c0 6251 4abf 2ac6 39c0
00000160: 8e09 7ac0 4ea4 b7c0 f8e3 7cbf 6013 8ec0
-2.0668857 -2.292589 -1.0031655 -3.584857 3.0792525 1.0883583 1.9719431 4.8943696
-0.5617867 3.716008 -3.83603 -3.578232 -1.0471556 -2.4733267 0.88310605 2.858923
-5.319543 -9.210638 -0.798566 0.6236516 -3.4723952 -0.13249104 -1.9638643 1.2451391
5.5698633 -1.1600146 4.2965026 2.929157 1.4310987 1.6021708 -0.3513301 2.825226
0.07441595 -4.9069295 -2.3967476 -2.8960946 -0.73542035 -5.7538037 -2.73178 -0.685234
-1.3587816 0.2110884 5.2136946 -3.7413974 1.4377507 -0.5377586 3.1719432 -1.6277306
-5.3486485 0.49723452 6.318012 2.0883605 -2.9390104 3.9629223 -1.6210773 3.6580024
0.19412787 -2.3115315 -0.20719849 -5.4308105 -6.717109 -5.501239 3.0811377 -0.070019
-3.5073738 1.5023832 -1.0984493 0.7270948 -3.1449406 -2.032412 8.634401 -2.658058
1.6300452 2.478179 -0.7675783 2.6137476 0.9312874 -2.2995844 0.83312875 -2.7592583
-2.7353191 0.28608134 3.09072 1.4718179 0.35911646 -2.8228219 -0.7903043 -2.90272
-3.9068332 -5.7388067 -0.9878535 -4.439865

convs.0.bn1.running_var f4 [92]
00000000: c92c 5342 e387 0342 6f07 b341 6520 4842
00000010: 52a6 8742 5bc4 5842 8e36 2842 3647 a742
00000020: 6fd7 3a42 18d0 9042 e54f 3642 7f92 1d42
00000030: 8c4d 5942 5062 a641 2d4a 7842 342a 8741
00000040: 9657 8142 b44f 7c42 17ff 6d42 24c7 2642
00000050: 4ebf 4842 fc84 7542 8041 1c42 8f57 4542
00000060: 2826 1d42 8bef 2542 8fca 2742 05a8 2442
00000070: 8c0d 1142 aa0c 3942 1912 2a42 ddc9 0a42
00000080: bfb1 4442 f8de 1142 f785 2342 5e34 2842
00000090: d8d6 4642 55da 9142 a3bf c841 14d4 4742
000000a0: 54b8 fb41 225c 3442 fffa 9142 8aa3 5442
000000b0: 7384 2842 9d0d 3942 ed5a 7442 345e e241
000000c0: 13fe b741 fe28 1f42 99f2 2b42 f93a 5f42
000000d0: 6837 5c42 d5db a142 8ca8 8542 eff5 1442
000000e0: 671b 7742 74c7 d741 e0a1 7342 73af 1942
000000f0: bcd0 1b42 aab9 5a42 5efa 4642 aacf 8d42
00000100: cdef 1b42 5f50 3b42 23ee 6642 1f51 6642
00000110: 24c1 e741 a7c9 3442 8f66 5b42 92d1 3b42
00000120: b986 dc41 535c 6542 5b9c 2042 7e97 0f42
00000130: cebf 8342 c930 1642 b99b 4442 6a21 2142
00000140: cc9a 9b42 3844 0242 8836 8e42 f88f 5442
00000150: 7899 d041 26a7 9a42 3765 bd41 78ba 6742
00000160: 1cdc 4e42 225c 4942 a483 5342 c2ab 8342
52.793736 32.8827 22.37863 50.031635 67.824844 54.191753 42.053276 83.639084
46.710384 72.40643 45.578022 39.393063 54.32573 20.798004 62.072437 16.895607
64.67107 63.077835 59.49911 41.694473 50.18682 61.379868 39.063965 49.335506
39.287262 41.48393 41.94781 41.16408 36.26323 46.262367 42.517673 34.697132
49.17358 36.467743 40.880825 42.05114 49.70981 72.92643 25.093573 49.957108
31.465004 45.089973 72.99023 53.159706 42.129345 46.263294 61.088795 28.295998
22.99906 39.79003 42.98691 55.80759 55.054108 80.92936 66.82919 37.24017
61.77676 26.97239 60.90808 38.421337 38.953842 54.681313 49.7445 70.905594
38.98418 46.828487 57.732555 57.57922 28.969307 45.196926 54.850155 46.95466
27.565783 57.34016 40.15269 35.89794 65.87462 37.54764 49.152073 40.28263
77.80234 32.56662 71.10651 53.140594 26.074936 77.32646 23.674421 57.9321
51.71495 50.339973 52.878555 65.835464

convs.0.bn2.weight f4 [46]
00000000: f5f9 953f 3c9f 1c3f 93e4 8b3f 2bce 4e3f
00000010: accd 953f ca15 af3f 125f 8a3f f9df ab3f
00000020: 165f 863f 9807 8e3f 7a0b be3f a9cb c23f
00000030: 7bf1 953f 2a53 833f 63b1 303f 9803 dd3f
00000040: dac6 aa3f 2389 653f c88f c83f f421 613f
00000050: 0379 e13f f0a7 b03f 9be7 8b3f 112a 943f
00000060: b2a1 803f 50a9 463f b662 853f 94f9 843f
00000070: 4086 533f 0c1d 9c3f b115 8e3f dc52 d63f
00000080: 0638 5c3f 4444 3e3f 80ad 903f 089f bd3f
00000090: 3f11 b93f f49b 6c3f 11b2 963f de27 883f
000000a0: 472a c23f 52fa 9f3f 5190 883f 9181 643f
000000b0: 586b a23f aa81 793f
1.1716906 0.6118047 1.092913 0.8078334 1.1703391 1.3678524 1.0810263 1.3427726
1.0497768 1.1096067 1.4847252 1.5218402 1.1714319 1.0259755 0.6902067 1.7266722
1.3341935 0.8966238 1.5668879 0.87942433 1.7615055 1.380125 1.0930055 1.1575338
1.0049345 0.776021 1.0420749 1.0388665 0.82626724 1.2196364 1.110037 1.6744037
0.86022985 0.74322915 1.1302948 1.4814157 1.4458388 0.92425466 1.1773092 1.0637167
1.5169152 1.2498267 1.0669042 0.892602 1.2689009 0.97463477

convs.0.bn2.bias f4 [46]
00000000: d848 91be a80f 3a3e ee97 6ebe c157 8fbe
00000010: 7cfa b13b 25de c7be d959 80be e772 13be
00000020: 55ee 2abd 505f f5be 3dd9 d2be 86ed 08be
00000030: 8a19 15bf fafe 19bf 9e11 733d c97d 5cbd
00000040: c39c 2abf ac2f f1bd 9b66 e43e 2ade 153e
00000050: 27a3 fc3c 90a5 113e 08ea 02bf 6961 e8be
00000060: e121 4ebc df91 b8be b82a 6cbe 40ac b03a
00000070: 7c45 f8be 4f6d a4be fc3f 69be 1b11 0cbe
00000080: d3a5 05be ee5f edbe 1953 c0be 9782 06bf
00000090: 0e62 fcbd 5040 89be bf9a bfbe 9042 98be
000000a0: d6a2 44bf d52d 87be b668 b4be 03a3 9abe
000000b0: 9a3f b6be 2b1e abbc
-0.28375888 0.18170035 -0.23300144 -0.27996638 0.0054314714 -0.3903667 -0.25068548 -0.143993
-0.041731197 -0.4792428 -0.41181365 -0.13371858 -0.58242095 -0.6015469 0.059342973 -0.053830896
-0.6664545 -0.11776671 0.44609532 0.1463553 0.030839516 0.14223313 -0.51138353 -0.45386818
-0.01258132 -0.3604879 -0.23063171 0.0013479069 -0.48490512 -0.32114646 -0.22778314 -0.136784
-0.13051538 -0.4636225 -0.37563398 -0.52543014 -0.1232339 -0.2680688 -0.3742275 -0.29738283
-0.7681097 -0.26402155 -0.35236138 -0.30202493 -0.355954 -0.020888409

convs.0.bn2.running_mean f4 [46]
00000000: cdc3 f740 9ad7 cc40 3309 113e 96d5 f340
00000010: 0165 9b40 2c0e 8640 9e8e c53f f092 9540
00000020: 118e 8d40 4943 9f40 06dc 0b41 9b67 9b40
00000030: dce0 6140 57b1 493f 7035 f43f 276c 963e
00000040: 156d 743f 87fe c640 2455 b83f 2a16 1841
00000050: cb1e 1541 0e8a 2640 1d1b 153f 3fc0 a240
00000060: 5a3d f73f d67c e140 f5c1 6f40 5940 0441
00000070: 73fb cf40 194e 4c40 e653 7640 a6c0 833f
00000080: cbaf f440 3f71 af40 f37e 1841 c250 5541
00000090: ef70 2740 2a1e 3a40 4709 7840 2e14 2e40
000000a0: 81e8 c140 6e63 a83f 7837 f33f 58be 0840
000000b0: 14c9 0f40 c593 7d3f
7.7426515 6.4013186 0.14163665 7.6198225 4.8560796 4.18923 1.5434148 4.6741867
4.423592 4.9769635 8.741217 4.856397 3.5293493 0.78786224 1.9078808 0.2937939
0.95478946 6.21857 1.4400983 9.505411 9.320018 2.6021762 0.58244497 5.0859675
1.9315598 7.046489 3.7462132 8.26571 6.4994445 3.1922667 3.8488708 1.0293167
7.646459 5.482574 9.530993 13.332216 2.616268 2.908091 3.8755662 2.7199817
6.059632 1.3155344 1.9001303 2.1366177 2.2466478 0.99053603

convs.0.bn2.running_var f4 [46]
00000000: b6ff d542 b06c 8b42 8bfb f03f 4077 7142
00000010: e316 aa42 e678 dc41 6b21 c240 a7af 4342
00000020: 0554 e941 0d84 7442 d449 c142 f466 0042
00000030: 265b a041 34a4 0041 74dc 0e41 2d67 0a3f
00000040: 1eff 7a40 fc7e bb42 96b2 9640 dbfd f642
00000050: 3965 c842 d094 8141 85ca 1d40 ca3b ab42
00000060: 1615 1641 dfcb ab41 0d53 bc41 fbe2 1e42
00000070: 220c a542 b7fe 9d41 8e00 fa41 ec94 8840
00000080: 040f 9042 ebd6 1c42 efeb 1d43 1747 f742
00000090: 9c08 8041 1cca 9441 c907 5a42 fc49 7141
000000a0: 7b7d eb41 3113 8940 dc21 2041 2ce9 5441
000000b0: 4097 1e41 bf77 9840
106.999435 69.71228 1.8826765 60.366455 85.0447 27.559032 6.0665793 48.921535
29.166025 61.128956 96.644196 32.10054 20.044506 8.040089 8.928822 0.54063684
3.921821 93.74802 4.7093 123.49581 100.1977 16.197662 2.4654858 85.616776
9.380148 21.474546 23.540552 39.72166 82.5237 19.749372 31.25027 4.268179
72.02933 39.20988 157.92162 123.63885 16.004204 18.598686 54.507603 15.080563
29.43627 4.2835927 10.008266 13.306927 9.911926 4.7646174

convs.1.fc_full.weight f4 [92, 98]
00000000: 384a 2a3e 7062 abbd 8420 8abd 097a 91bd
00000010: 9abe 373e dc2c 9cbd 1c50 013f 7d77 d6bd
00000020: e667 07bf 10b7 7bbc 86dc ce3d 415e 03bf
00000030: ecc4 8cbd 1781 96bb 3af8 f53d 7b23 d43e
00000040: e62d 023e 0a84 293f a86d 12be d846 f1be
00000050: 1cee 183f 2718 5fbf 1386 30be ef8f 95bd
00000060: cfc2 acbe cba1 393d 6c98 fe3e 2818 323d
00000070: 1253 053e dcb1 c9bd c051 0abf 8c08 9ebe
00000080: 81c0 d6be 8e5e 0f3d 1bab c7bd 15ac 043f
00000090: 583d c53d 590e 743d 7eb7 cbbe 827c ee3e
000000a0: ed94 8abd 83f9 ed3d 0b66 0e3f 9354 653e
000000b0: 3649 103f 1cc2 17be 425e 953d 3318 2cbe
000000c0: 4477 643e de17 613e 4827 0a3f 8533 283e
000000d0: 75ae 813f 0552 f7be 5d44 9ebe 1bc6 c4be
000000e0: 0aac 0ebf a7c1 30bf b0b5 063e 9b5d 1fbd
000000f0: 52f1 eabd b926 d73e 8bc3 7f3e 8341 563f
00000100: 4975 abbe 973d e5be 9198 993d 2d63 7cbf
00000110: e5d2 203d e542 7dbe 1e89 debd e963 993d
00000120: 6456 083e 04bc 26bf 7e53 3e3e 6f57 993c
00000130: ceae 573e b8a0 3abd d860 18be 3a81 a73d
00000140: 2f92 6dbe 1227 ee3e ba5b 273e ca86 e8be
00000150: f4e8 cabd 3fd6 67be e14f 89bd c47d 073f
00000160: 5598 173f 6473 fa3e 4b15 1b3f 8a6d 343e
00000170: 2d6c 9d3f ceed 643f c36a 86bf dc8e efbf
00000180: daaa 4abf 7bd4 b93e fa90 1dbe c296 3e3f
00000190: 7ead 043f 8e42 7d3c 5dfa 253f 3257 c53e
000001a0: 4207 133e 852c d4be 05f8 3fbe 0ecd 543d
000001b0: 5455 c03d 2f0c 913f c599 3dbe 420d 4e3f
000001c0: ac85 50bf bb80 c2be 7e87 91bd 6b51 fd3e
000001d0: d34f fd3e 8d9d bdbe b215 2e3e ad6b 8dbe
000001e0: 1d8e 8ebe 7775 a5be 88d8 c0be eacf c63e
000001f0: b845 d73e f9e7 a43d 99b9 113f a2fd 4bbe
00000200: 40f8 ccbe 9699 4ebd c124 e03d 818e c5bd
00000210: ffb7 4d3e 6b2b abbe 603b 68be 2695 06bf
00000220: ae86 113e ddaa 493f bc31 98bf 10d4 dc3e
00000230: 739f eb3d d409 06bf 50d6 e23e 0305 493d
00000240: 8a7c b13e fa83 43bf ec29 19bf d01e 5c3e
00000250: d035 303e d513 6a3f 5e06 8c3e c8d4 4ebe
00000260: 1e6a 8c3e 38e3 443e a0df 333e c7b5 1fbf
00000270: 4058 97bd b172 25bf 2ac2 07bf ce4c 193f
00000280: 3436 803f 0067 5fbd 7303 693f f316 073f
00000290: c9c1 a73e 3ccd 273f 4b1a 353d 3eb4 813e
000002a0: 5350 3ebe 8db7 cf3d 564a cbbd b560 b43c
000002b0: 878e 10bd 3366 c7bd 4226 c83d 8512 2d3d
000002c0: de9f eebd 6fdb 97bf b152 483f 884b 98bd
000002d0: adee f33d e958 93be f049 49bc 56cc 17bf
000002e0: 8f9b 853e 99f5 953e a647 d5bb f5a3 3ebf
000002f0: b7d6 d13c 0409 9f3e b42f 86bf 085d 803d
00000300: 6c17 e13f 9bb1 dabe c407 3dbf 5764 e0bc
00000310: db23 263e 6198 7fbe a860 063f 8f74 943e
00000320: c639 733d 206b e63e f608 ac3e 91d8 f03d
00000330: d296 0a3f 8aad 243d 229b bdbd 233b 4f3f
00000340: 8eef 00be 2e7b 90be c81f ef3d ad26 8f3e
00000350: 9676 f4be a869 39be a96d 0f3f c800 aebe
00000360: dbfc 7ebe 1b71 e6be ca99 ce3e 0f7b 2cbf
00000370: 870e 7d3e 385a 5e3e 3c38 61be 4fb0 98bf
00000380: dba8 e83d 0f57 90be aafc 483f 2a63 133e
00000390: ba12 ba3e cb80 893c 87cf 28bf 57b1 8ebd
000003a0: 6e11 223d 5efc c7be 0e49 ccbe 0405 27bd
000003b0: 1fb5 893c 9bfb 3abf 1be5 cabe 0923 ca3e
000003c0: 39ca 903f 93cb 0abe 1ff0 363e a028 743f
000003d0: bdf7 083f 6399 09bf c6d1 26be 76f3 adbd
000003e0: 0e55 f4bd 8d5b 4c3b 313e 8fbe 1e32 08bd
000003f0: 6380 4cbe a0bb 2d3e 76db a93d b8b0 0a3f
0.16629875 -0.08368385 -0.06744483 -0.071033545 0.17943802 -0.07625744 0.5051286 -0.10472009
-0.5289291 -0.01536347 0.10100655 -0.51315695 -0.06873497 -0.0045930254 0.12010236 0.4143332
0.12712821 0.662171 -0.14299643 -0.47124362 0.59738326 -0.8714623 -0.17238645 -0.07302844
-0.33742377 0.045320313 0.49725664 0.04348007 0.1301997 -0.09848377 -0.5403099 -0.30865896
-0.41943744 0.035002284 -0.09749433 0.51825076 0.09630841 0.059583995 -0.3978843 0.46579367
-0.067666866 0.11619856 0.55624455 0.22395544 0.5636171 -0.1482014 0.07293369 -0.16806106
0.22311121 0.21981761 0.5396619 0.16425903 1.0131365 -0.48304763 -0.30911532 -0.38432392
-0.5573126 -0.6904549 0.13155246 -0.03890763 -0.114718094 0.4202173 0.24976937 0.8369371
-0.3348792 -0.44773552 0.07499803 -0.9858883 0.039263625 -0.2473255 -0.10865997 0.074897595
0.13314205 -0.6513064 0.18586537 0.01871845 0.21062776 -0.04556343 -0.14880693 0.08178945
-0.23200296 0.46514183 0.16343585 -0.45415336 -0.099077135 -0.22640322 -0.06704689 0.5292628
0.59216815 0.4891616 0.60579365 0.17619911 1.2298638 0.8942536 -1.0501331 -1.8715472
-0.7916695 0.36294922 -0.15387335 0.7444879 0.5182723 0.015457762 0.6483515 0.38543087
0.14358237 -0.41440216 -0.18746956 0.051953368 0.09391275 1.1331843 -0.1851569 0.8048898
-0.8145397 -0.3798884 -0.07105921 0.4947618 0.49474964 -0.37034264 0.17000464 -0.27621213
-0.278428 -0.3231618 -0.376652 0.388305 0.4204538 0.08052058 0.56923825 -0.19920972
-0.4003315 -0.05043944 0.1094451 -0.09646321 0.2008972 -0.33431563 -0.226789 -0.5257133
0.14211532 0.7877634 -1.1890178 0.4313054 0.11505022 -0.52358747 0.44304132 0.049077045
0.34665328 -0.76373255 -0.5982959 0.21496129 0.17208028 0.9143651 0.27348608 -0.20198357
0.2742471 0.19227302 0.17565775 -0.62386745 -0.07389879 -0.6462813 -0.53030646 0.5988282
1.0016541 -0.054541588 0.9102089 0.5276939 0.32765034 0.6554754 0.044214528 0.25332826
-0.18585329 0.101424314 -0.09926288 0.02201877 -0.035292175 -0.0973629 0.09772922 0.04225399
-0.11651586 -1.1863841 0.7825118 -0.074362814 0.11910758 -0.2877877 -0.0122856945 -0.59296167
0.26095244 0.2928894 -0.0065087853 -0.7446893 0.02561508 0.31061566 -1.0483308 0.06267744
1.7585273 -0.42713627 -0.73839974 -0.027391596 0.16224615 -0.24960472 0.52491236 0.28995177
0.05938127 0.45003605 0.33600587 0.11760057 0.54136384 0.040204562 -0.09258105 0.8094961
-0.12591383 -0.2821898 0.11675984 0.27959195 -0.47746724 -0.18106711 0.56026703 -0.3398497
-0.24901144 -0.45008168 0.40351707 -0.6737527 0.24712573 0.21714103 -0.21994108 -1.1928805
0.113603316 -0.2819142 0.78510535 0.14393297 0.36342412 0.016785046 -0.6594166 -0.06967419
0.039567403 -0.39059728 -0.39899486 -0.040776268 0.016809998 -0.7304017 -0.3962792 0.39479855
1.1311713 -0.1355422 0.17865036 0.9537449 0.5350302 -0.53749675 -0.1629096 -0.08493702
-0.119302854 0.0031182498 -0.27977136 -0.03325092 -0.1997085 0.16966105 0.08293812 0.541759

convs.1.fc_full.bias f4 [92]
00000000: 0887 7a3d 74ec 1ebd 1847 b3bd 7c60 b83d
00000010: 1b49 d7bd cde0 67bc 96d8 533c 21bc 633c
00000020: ae4b 18bd f9ba a63d 998b cb3d b61c 8e3c
00000030: ed8b b6bd df2d 23bd f331 023d 1817 cfbd
00000040: 7c38 30bd 7328 b83b 1603 843d 45d7 51bb
00000050: 643b a93d 60dd dbbd 7e3d 1bbd aa09 b03c
00000060: 3e7b 7abd 577a 4e3d 143c 0d3d 15e7 c43d
00000070: a567 7bbd 38cf 80bc fe36 343d 414e 6c3d
00000080: e690 e23b 1501 2a3d c0f1 963d b720 a9bc
00000090: 4213 71be dd01 473e 753a 84bc 5122 893d
000000a0: 6e81 e8bc d21a 8c3d 7167 23bd ef14 33bd
000000b0: 78ea 90bd 315f d7bd 3648 bbbd f831 393d
000000c0: be34 843c 61d8 563d 14ac 9ebd 98cb cabc
000000d0: 1247 b43d d053 3c3c 8227 0c3e 96fb 223d
000000e0: 0e0e 8bbd f28f f13a 584b 87bd 46a2 d3bc
000000f0: 7232 563d 104b d2bd 7ace e83d c5b9 fcbc
00000100: fd49 64bd c400 aebd 5783 143c e978 18bd
00000110: 1a50 b03d ac4b d1ba 991f 3bbd 4e22 b3bd
00000120: 963e 60bd dfd9 f43c ce12 05bd 7a85 233c
00000130: 9472 06bd b233 663d 1b37 87bd 78bd 1f3d
00000140: 16a7 8f3c 19e3 3dbd cff9 a03d 0544 1cbd
00000150: 37ba 983b 3edd ad3d 1805 a9bc 04fd 873c
00000160: c5e5 40bc 3bcf 863d fb04 883d 3baa 993d
0.061163932 -0.038799718 -0.087537944 0.09002778 -0.10511991 -0.014152718 0.012930056 0.013899834
-0.03718155 0.08141131 0.099387355 0.017347675 -0.089134075 -0.039838668 0.031785917 -0.10111827
-0.043022618 0.0056200563 0.06445901 -0.003201918 0.08263281 -0.10735583 -0.03790044 0.021488983
-0.06115269 0.05040964 0.034481123 0.09614388 -0.06137814 -0.01572381 0.043997757 0.057691816
0.006914246 0.04150494 0.07370329 -0.020645482 -0.23542503 0.19434305 -0.016141156 0.066959985
-0.02838203 0.06841053 -0.03989357 -0.043721136 -0.07075971 -0.10516203 -0.091446325 0.04521367
0.01613843 0.05245245 -0.07747665 -0.024755284 0.08802618 0.011494592 0.13686946 0.039790712
-0.0678979 0.001842974 -0.066061676 -0.025834214 0.052294202 -0.10268223 0.11367507 -0.0308503
-0.055734623 -0.0849624 0.009064517 -0.037224684 0.08609028 -0.0015967987 -0.04568443 -0.087467775
-0.054747187 0.029889045 -0.032488637 0.009980554 -0.032824114 0.056201644 -0.066023074 0.03899905
0.017535727 -0.046359155 0.07860147 -0.038150806 0.0046608704 0.08489464 -0.020632312 0.01660014
-0.011773531 0.06582495 0.06641575 0.07503172

convs.1.bn1.weight f4 [92]
00000000: a55f 0e40 77c7 6b40 3899 4440 a551 2f40
00000010: fbc5 2440 3e17 e43f e96d 0840 1ba7 3d40
00000020: ca00 ea3f c265 1a40 f890 1840 d93f ed3f
00000030: c48c 1840 0ce2 2c40 a8ed 3640 62fc 3940
00000040: aeda a63f de5f 1f40 15b2 3840 2296 4440
00000050: 73a0 8440 4e81 6340 caec ac3f f108 5740
00000060: 1578 1540 2b50 0440 3629 7240 32ec d43f
00000070: 1caa 943f 8f5c 2b40 ffe2 3540 5e04 5a40
00000080: 042a c23f b549 803f c4b7 4440 7ab4 5f40
00000090: a6f5 9a3f 169e 2c40 dac1 1340 9510 8840
000000a0: fc6c 2640 8d91 0340 980b 0d40 c67a a040
000000b0: a20b 2940 2a98 4e40 6441 0040 2831 d03f
000000c0: ee59 ee3f 7004 863f 508f 8e3f 445f 9f3f
000000d0: 0573 ba3f 76c6 703f b5ed 073f 4dee 103f
000000e0: 9d07 ad3f 91cc 9d3f 4678 133f b4de f53f
000000f0: ca8f a83f 973e 323f bd0b e53e ab2c 9f3f
00000100: 415b 5e3f 3198 a13f 3cc1 8e3f 47c1 0e40
00000110: cd07 2040 09ca ff3f 2fe0 6f3f bdbe e03f
00000120: 75d9 f03f 6019 573f 0bb9 a93f 6a72 943f
00000130: e7b8 ff3f 6041 ed3f d1fc 973f 79c2 983f
00000140: ff74 b33f 4d25 e83f 8fcb 133f e97e c83f
00000150: 5c3d 0d40 6095 883f 3199 8f3f 9ffb de3f
00000160: e2f0 af3f fcc1 703f 5593 d43f b09d 9a3f
2.2245877 3.6840494 3.0718517 2.7393582 2.5745838 1.7819593 2.1317084 2.9633243
1.8281491 2.4124608 2.3838482 1.853511 2.3835917 2.7012968 2.8582554 2.9060292
1.3035486 2.4902263 2.8858693 3.0716634 4.144586 3.5547671 1.3509762 3.3599207
2.3354542 2.067393 3.7837653 1.6634581 1.1614413 2.6775243 2.8419797 3.4065166
1.5169072 1.0022494 3.0737162 3.4953904 1.2106216 2.6971488 2.3087068 4.252024
2.6004019 2.0557587 2.2038326 5.014987 2.641335 3.2280374 2.0039911 1.6265001
1.8621194 1.0470104 1.1137486 1.2450948 1.4566351 0.9405283 0.5309709 0.5661362
1.3517948 1.2328054 0.576054 1.9208589 1.3168881 0.69626755 0.44735518 1.2435507
0.8685799 1.262457 1.115272 2.2305467 2.5004761 1.9983531 0.9370145 1.7558209
1.8816363 0.84023094 1.3259596 1.1597416 1.9978303 1.8535576 1.1874028 1.1934348
1.4020079 1.8136383 0.5773248 1.566373 2.20687 1.0670586 1.1218625 1.7420539
1.3745387 0.94045997 1.6607462 1.2079372

convs.1.bn1.bias f4 [92]
00000000: d226 30be 886d 82bc 85eb 7c3e 6e1e 343e
00000010: 5f15 a63e 9be9 98be 4953 d5be fec0 afbe
00000020: 2aeb 27be 865e 40bf 8c88 d23e b163 54bf
00000030: f4e8 24bf a9ab 823e 72bb 8ebd 7f7c 6abf
00000040: afc5 3ebf e29a 283e cc54 10bf 19f3 0dbf
00000050: 79f9 393d 7c50 b3bd 53b5 93bd 60d2 b9bd
00000060: 2621 8cbf fe29 84be 9f35 6cbe 4e53 55bf
00000070: 8e09 73bf 120c 593d 11f4 10be b564 563e
00000080: f9e6 56bf ba0f ffbe 02bf 6fbf 2215 cabe
00000090: c3c5 0dbf 0527 19bd fc13 b8be e607 f9be
000000a0: 1758 acbe a293 df3e ca4f a1be a965 083e
000000b0: 5811 98be f974 98bf 48ab 51be 90c6 91bd
000000c0: 9805 7f3e 858e 053f acb6 913e 2903 d7be
000000d0: 7773 c0be c72f 35bf 60cc 52bf 54ac 40bf
000000e0: 665b 133f 0fd6 97be 714d 34bf b17d 95ba
000000f0: f905 85bd 6170 34bf e043 75bf ff02 16bd
00000100: 1289 0bbf b1fb c0be a1d6 ad3e 9466 5ebd
00000110: bffa 67be 34da 653e e6fc 11bf e194 b2be
00000120: ef34 7dbb 9c8e 3abf b15a e8be beca 03bf
00000130: 09fd 803d 6930 17be 95c5 cebe 60f5 d6be
00000140: 8e6b c9be 37b1 a6be c8c8 45bf 0749 8cbe
00000150: f893 cdbe 722b 0bbf 5f52 d6be 7e69 083e
00000160: 2ac5 88be 9a6d 2a3f 2829 f5be d528 debe
-0.17202309 -0.01592137 0.24699219 0.17589733 0.3243818 -0.29865727 -0.41665104 -0.3432693
-0.16398302 -0.7514423 0.41119802 -0.82964617 -0.6441796 0.2552159 -0.06969346 -0.91596216
-0.7452039 0.16465333 -0.5637939 -0.5544906 0.04540393 -0.087555856 -0.07212319 -0.09073329
-1.0947616 -0.25813287 -0.2306733 -0.8333024 -0.94936454 0.052990027 -0.14155604 0.20936854
-0.83946186 -0.49816686 -0.9365083 -0.39469248 -0.55379885 -0.037390728 -0.35952747 -0.4863884
-0.33660957 0.43667322 -0.31506187 0.1332003 -0.29700732 -1.1910697 -0.20475495 -0.07117951
0.24904478 0.5217059 0.2845968 -0.41994599 -0.37588093 -0.7077603 -0.823431 -0.7526295
0.5756134 -0.296555 -0.70430666 -0.0011405257 -0.0649528 -0.70483977 -0.95806694 -0.03662395
-0.5450603 -0.37692025 0.3395281 -0.054297045 -0.22654246 0.22446519 -0.5702652 -0.3487921
-0.0038636287 -0.72873855 -0.45381692 -0.51481235 0.062982626 -0.14764561 -0.40385118 -0.4198408
-0.3933987 -0.3255708 -0.7725949 -0.27399465 -0.40151954 -0.5436317 -0.4185972 0.13321492
-0.26712924 0.6657349 -0.47882962 -0.43390527

convs.1.bn1.running_mean f4 [92]
00000000: e9f3 81bf 2c28 2740 238f 863f a91b 1fc0
00000010: 3700 51c0 74c7 ecbf 402f 6b3f c1b0 e13f
00000020: f585 0dc0 c842 d9be b26a 12c0 45bc a7bf
00000030: 8201 e5bf 0664 30c0 3fbf 23bf 4208 e9bc
00000040: dbd2 27c0 1c5c 37c0 2845 2c3f 6feb 0ebf
00000050: d0b8 7540 df48 b540 e174 a4c0 fa02 6a3f
00000060: c15f 57c0 787b dd3e 8edc 2b40 bb39 a5bf
00000070: 2bad c0be cbc6 5fc0 c62a fdbf 0491 5bc0
00000080: 4574 fb3f 7dd1 c23f 483a 8e3f b00a d4c0
00000090: 7b1d c1c0 3738 97c0 7c61 643f 8d47 02c0
000000a0: 42a6 1ec0 0bc2 34c0 66f5 3a40 3259 aebf
000000b0: 0e7e 07c0 1e42 2440 6f9e 08c1 b0eb 95c0
000000c0: 5349 c23f f65c 86c0 7ccd c1c0 5418 83c0
000000d0: 9d97 b8c0 fcb5 6fc0 18b4 06c0 692d 3cc0
000000e0: 1bb1 83c0 4cfc 50be e8ab 87c0 e4ce b4c0
000000f0: a987 a13e 4cc6 9dbf 28da 68c0 e45f 8ec0
00000100: 39f0 5cbe b3af b1c0 338e 49c0 8a81 c73f
00000110: ee13 b7c0 43ac 2ec0 fa82 81c0 8342 2cc0
00000120: aadc 82c0 4516 92c0 648f 1bc0 abc5 b4bf
00000130: 8ce4 7340 b481 85c0 10a8 b4c0 0505 9fbf
00000140: c823 87bf 02e9 d2bf 16cc 60c0 ef0f e8c0
00000150: 1e07 c9be 87ae 4a3e 1f5a 3b3e fa69 f9bf
00000160: 8121 7a3f 83bf 96c0 0dcd 22c0 4524 73c0
-1.015256 2.611827 1.0512432 -2.4860632 -3.265638 -1.8498368 0.9186897 1.7632066
-2.211301 -0.42433763 -2.2877622 -1.310433 -1.7891085 -2.756105 -0.63963693 -0.02844632
-2.6222446 -2.864997 0.67293024 -0.55827993 3.839405 5.6651454 -5.1392674 0.9141079
-3.3652194 0.43258262 2.6853366 -1.2908243 -0.37632117 -3.4965084 -1.9778678 -3.430726
1.9644858 1.5220181 1.1111536 -6.6263046 -6.0348487 -4.725612 0.8921125 -2.035617
-2.4788976 -2.8243434 2.921228 -1.362097 -2.1170688 2.5665355 -8.53868 -4.6850204
1.5178627 -4.198848 -6.0563335 -4.0967197 -5.7685075 -3.7454824 -2.104742 -2.9402716
-4.1153693 -0.20408744 -4.2397346 -5.650255 0.31548813 -1.232614 -3.6383152 -4.4492054
-0.21576013 -5.5526977 -3.1493042 1.5586407 -5.721183 -2.729264 -4.0472383 -2.6915596
-4.0894365 -4.5652184 -2.4306269 -1.4122823 3.8108244 -4.172083 -5.6455154 -1.2423407
-1.0557795 -1.6477358 -3.5124564 -7.251945 -0.39263242 0.1979314 0.18296097 -1.9485466
0.9770737 -4.710878 -2.5437653 -3.7990887

convs.1.bn1.running_var f4 [92]
00000000: 27b1 cc41 bae3 9841 d220 9541 b5b5 b241
00000010: b806 8941 a352 b941 1df5 6841 6c87 cb41
00000020: 3909 a241 df17 9441 0ccc 9541 423d a441
00000030: a3e1 b041 a5f7 ba41 7723 4441 509b 0f42
00000040: c75d ab41 b6d2 b941 7135 8d41 4535 5e41
00000050: 2c40 a441 453c 9141 b16f 7f41 36e2 5041
00000060: 7ddc ba41 8f45 a741 84f5 a941 d4d1 9341
00000070: 4e35 f341 8d1f a141 bb5f 9841 a1f5 8541
00000080: 9149 f141 7862 ef41 eb04 d041 bd55 d241
00000090: 99a1 9741 e32a 9c41 601d 9b41 b704 ad41
000000a0: 0866 c241 1a58 7a41 9a5b b841 f198 8441
000000b0: 9ec0 a041 9eac 9a41 fbae c841 643e a741
000000c0: c9e7 9c41 f1dd b941 aa3b ff41 5e33 9441
000000d0: 371f 0842 5f9d b941 6ed8 8741 8952 d541
000000e0: 2623 cd41 988c b141 ce3e a441 9cfb fe41
000000f0: 2bdb 8e41 aa18 ed41 ca41 9341 d621 ce41
00000100: 39ea 8c41 fee8 cc41 9b6d a241 00b2 bf41
00000110: 82bc b141 e184 e241 133e 0a42 0b4c ac41
00000120: c785 db41 5919 e941 6e63 8341 e2f9 ad41
00000130: 0baa 8a41 815d ab41 6643 e341 bcd1 c141
00000140: a8fd d941 7cdd 8541 595d af41 d899 8241
00000150: 3614 a241 6e3c d941 cecf b541 efb3 a941
00000160: 15f1 c941 1a8f aa41 a2c1 a941 7f43 c241
25.5865 19.111195 18.641026 22.338724 17.12828 23.16535 14.559842 25.441124
20.254503 18.511656 18.724632 20.529911 22.110174 23.37092 12.258658 35.901672
21.42079 23.227886 17.651094 13.888005 20.531334 18.154428 15.964768 13.055227
23.35766 20.908964 21.24488 18.477455 30.401028 20.140406 19.046743 16.744936
30.160921 29.92308 26.002401 26.291864 18.953905 19.52094 19.389343 21.627302
24.29982 15.646509 23.044727 16.574678 20.094051 19.334286 25.08544 20.905464
19.613176 23.23337 31.904133 18.525082 34.030483 23.201841 16.980679 26.6653
25.642162 22.19365 20.530666 31.872856 17.857016 29.637043 18.407124 25.766521
17.614367 25.613766 20.303518 23.961914 22.217045 28.314882 34.56062 21.53713
27.440321 29.137377 16.42355 21.747013 17.333029 21.420656 28.40791 24.22741
27.248856 16.733147 21.92058 16.325119 20.259869 27.154507 22.726467 21.212858
25.242716 21.319874 21.219547 24.282957

convs.1.bn2.weight f4 [46]
00000000: 7998 833f 1faf 8d3f a237 853f 6aed a53f
00000010: 4516 a73f 96b1 803f 73f9 763f e54f 9b3f
00000020: 02be ac3f 508d b83f 7969 583f 31dd 923f
00000030: 8815 793f 6093 7a3f 384a 8b3f 9651 9a3f
00000040: c573 da3f d0ad 8c3f f01b 843f a7fb 9b3f
00000050: cfbb 273f acde 943f ad53 8d3f 8355 833f
00000060: da4d a83f 2090 8a3f 9b36 a43f 98ef a73f
00000070: 6d96 a23f 2ebd 593f fabe 673f 17d2 b33f
00000080: 6510 7a3f ea89 7d3f 2391 883f 7c62 9b3f
00000090: c6f4 b23f 3256 853f e0cb 623f d083 943f
000000a0: 50d6 503f 6794 2a3f 9732 803f 4b6e 9d3f
000000b0: 264e 1b3f 920e 953f
1.0280906 1.1069068 1.0407603 1.2963078 1.3053671 1.0054195 0.9647438 1.2133757
1.3495486 1.4418125 0.8453594 1.1473752 0.9729848 0.97881126 1.0882025 1.2056148
1.706658 1.0990543 1.0321026 1.2186173 0.6552095 1.1630454 1.1041161 1.0260471
1.3148758 1.0825233 1.2829164 1.3119993 1.2702156 0.8505429 0.9052578 1.4048489
0.97681266 0.99038565 1.0669292 1.213943 1.3980949 1.041693 0.8859234 1.1602726
0.81577015 0.66632694 1.0015439 1.2299284 0.6066612 1.1645072

convs.1.bn2.bias f4 [46]
00000000: c286 f7be 5606 16bf f905 15bf 6692 33bf
00000010: eb28 2cbe 8005 98be 3584 17bf 9ec1 91bd
00000020: d1ba 53be 9a75 b2be f133 9d3d 1953 31bf
00000030: 0257 06be 01af dbbd 3f18 49bf b4b1 1abf
00000040: 41c3 8bbe 8bd2 a2be 6bac c7be 0641 b7be
00000050: a0f0 15be c3f1 0fbf c533 08bf 5660 d8be
00000060: 4c6f 753e 0972 3cbf a1ce 8abd e03e fcbe
00000070: a27c bcbe 4d59 3abe c449 98be cdad 1bbf
00000080: 61cd 48bf 3e02 09bf d9a9 90be 487b 37bf
00000090: f3d3 9dbd df5b ecbe a8f2 15bf d50c e2be
000000a0: 614b e93b e2b4 c7bd da17 eabd 12a5 00bf
000000b0: f66c 0dbd 59ea cebd
-0.48345 -0.5860342 -0.5821224 -0.7014526 -0.16812484 -0.29691696 -0.59186107 -0.07117008
-0.20676734 -0.34855348 0.07675923 -0.6926742 -0.13119128 -0.10726739 -0.7855262 -0.60427403
-0.27297404 -0.31801257 -0.38998732 -0.35791796 -0.14642572 -0.56228274 -0.53203994 -0.42260998
0.23968238 -0.73611504 -0.067776926 -0.4926672 -0.36813837 -0.18198128 -0.2974378 -0.60812074
-0.78438383 -0.53519046 -0.28254583 -0.7167249 -0.07706442 -0.46163842 -0.5857339 -0.44150415
0.0071195816 -0.097512975 -0.114303306 -0.5025188 -0.03452774 -0.10103292

convs.1.bn2.running_mean f4 [46]
00000000: 84cb aa40 9522 4340 c0bb bf40 6915 b940
00000010: 9470 b040 1df6 0440 a91f 2340 d166 1d3f
00000020: bb55 3e3d ce1a 673d ba26 e940 c8ed d73f
00000030: c44f 1b3e b2d4 b540 78c5 2940 f184 aa3e
00000040: ebab b0bc dacd 4b40 9cec a23f d213 1840
00000050: ba16 8340 4925 b640 bc7d e440 eb0b d540
00000060: e5b0 e33e c1c6 5840 74a2 8d40 f2a4 d23e
00000070: f086 a53f 5886 dd3f ccad c840 1ce9 8b40
00000080: 4be5 8c3f fadf c43f 354f ad3f a3b8 7940
00000090: 94a4 f83d ec69 4c40 6345 5b40 fff4 803f
000000a0: eafb fd3f 7de6 d940 08de dd3f b8c4 bf40
000000b0: ad29 0640 7a58 8e3f
5.337343 3.0489857 5.9916687 5.7838635 5.5137424 2.0775216 2.5488074 0.6148501
0.046468478 0.056422047 7.2859774 1.686944 0.15167147 5.682214 2.6526775 0.3330455
-0.021566352 3.1844392 1.2728457 2.3762097 4.0965242 5.6920514 7.1403484 6.657705
0.44470897 3.387131 4.4260807 0.41141468 1.2931805 1.7306623 6.2712154 4.3722057
1.1007475 1.5380852 1.3539797 3.9018943 0.12140766 3.193965 3.42611 1.0074767
1.9842503 6.809386 1.7333384 5.9927635 2.0962937 1.1120751

convs.1.bn2.running_var f4 [46]
00000000: 5ce8 3742 0951 bd41 3e0b 9842 1190 3042
00000010: 610a 1c42 7cdb 2f41 76c7 9b41 894f 5740
00000020: 5463 123f 0fc9 ee3d 8407 7142 9f17 0941
00000030: af2b 023f 7a0e 8642 c565 1842 4b29 823f
00000040: e1ee 5f3c a100 9441 c185 e340 9269 a641
00000050: 4a70 ca41 4066 9042 4698 a442 8994 1c43
00000060: 1acb b53f 0dba d341 bea8 4b42 ddd9 523f
00000070: 4df7 9a40 0b92 6841 0bc0 f242 2761 1f42
00000080: 4b17 8e40 854e e140 ad1c 5341 69d3 2a42
00000090: 4a92 773e 5561 d841 31e8 9342 0f5b 2d41
000000a0: 9375 a741 6095 9542 664d 9041 20f9 2342
000000b0: e8a1 b641 7109 2241
45.976913 23.664568 76.02196 44.14069 39.010136 10.991085 19.472393 3.3642294
0.5718281 0.11659443 60.25734 8.568267 0.50847906 67.028275 38.099384 1.0168852
0.013667793 18.500307 7.1100774 20.801548 25.304829 72.19971 82.29741 156.58022
1.4202607 26.465845 50.914787 0.82363683 4.842688 14.535655 121.375084 39.844875
4.4403434 7.040835 13.194501 42.706455 0.24176899 27.047525 73.9535 10.834731
20.93241 74.79175 18.037792 40.993286 22.829056 10.127305
