dropout/NN_ensemble/histories/4_d20_valid_best_params.pt (torch_old, 452453 bytes, 103 tensors)

embedding.weight f4 [46, 98]
0	0xbd5899fd	-0.05288123
1	0xbdb640fa	-0.08899112
2	0x3e070786	0.13186464
3	0x3f3f596c	0.7474582
4	0xbe1d552a	-0.15364519
5	0x3cc46c7e	0.023977514
6	0x3c077c5c	0.008269396
7	0xbdcd9d92	-0.1003982
8	0xbe812ddb	-0.25230297
9	0xbea5b1a8	-0.32362103
10	0xbd9ca884	-0.07649329
11	0x3ea0e355	0.3142344
12	0x3e3fc012	0.18725613
13	0x3be73ef8	0.007057067
14	0x3de84192	0.113406315
15	0x3e2b1812	0.16708401
16	0xbe3ea2ea	-0.18616834
17	0xbde9134f	-0.11380636
18	0xbaf91340	-0.0019002929
19	0x3e646114	0.22302657
20	0xbe627846	-0.22116193
21	0xbe7de5f2	-0.24794748
22	0x3e9f4a5d	0.31111422
23	0x3e630918	0.22171438
24	0xbecf4e5e	-0.40489477
25	0x3d815d14	0.06316581
26	0x3e83957f	0.25699994
27	0xbe2a6797	-0.16641079
28	0x3c956cf6	0.018240433
29	0x3d4048e8	0.04694453
30	0x3b88c30d	0.0041736425
31	0x3e6ac0cb	0.22925107
32	0xbd358faf	-0.04432648
33	0xbe404a00	-0.18778229
34	0xbe97bac2	-0.29634672
35	0x3d86af74	0.06576434
36	0x3e6656b9	0.2249402
37	0xbe264ca3	-0.16240172
38	0xbd415f50	-0.047210038
39	0xbe9e7c2a	-0.30954105
40	0x3d0a14f7	0.0337114
41	0x3e6fd177	0.23419748
42	0x3e2117be	0.15731713
43	0x3ee75540	0.45182228
44	0xbcacc500	-0.02109003
45	0xbe24a482	-0.1607838
46	0xbd7e8751	-0.062140767
47	0x3d52b341	0.05144048
48	0x3e10c16b	0.14136283
49	0xbdf421b5	-0.119204916
50	0x3d98660d	0.0744134
51	0xbe4c9d04	-0.19981772
52	0xbe0a3564	-0.1349693
53	0xbea6a05a	-0.32544214
54	0xbf010410	-0.50396824
55	0xbd91a94c	-0.07112369
56	0x3e3d9850	0.18515134
57	0x3d88356d	0.06650815
58	0x3e501b99	0.20323028
59	0xbecf41a6	-0.40479773
60	0x3e437ecd	0.1909134
61	0xbd8ed9cb	-0.069751345
62	0x3d064ba1	0.03278697
63	0xbe8b7c2f	-0.27243182
64	0xbe8a2acc	-0.26985776
65	0x3db353fc	0.08756253
66	0xbd8dcaa0	-0.06923413
67	0xbd11f992	-0.0356384
68	0xbd8da80e	-0.069168195
69	0x3dc6e228	0.09711105
70	0xbdf77b07	-0.120840125
71	0xbd95882c	-0.07301363
72	0xbd86de38	-0.065853536
73	0x3deb0ac7	0.11476665
74	0x3d382296	0.04495486
75	0xbd57ea5f	-0.052713748
76	0x3d5c7e04	0.053831115
77	0xbe12cc30	-0.14335704
78	0xbdb48ece	-0.088163
79	0x3db68bf9	0.089134164
80	0xbdf1cae0	-0.118062735
81	0xbd2aab65	-0.04166736
82	0x3dba0d9c	0.09084627
83	0x3d9e691b	0.07734891
84	0xbd575d55	-0.052579243
85	0xbe1d8f0b	-0.15386598
86	0xbe4ec15f	-0.20190953
87	0x3e2af46d	0.16694804
88	0xbb68e014	-0.0035533952
89	0x3eb2c896	0.3491866
90	0x3e7776c3	0.24166398
91	0xbe21c2cd	-0.15796967
92	0x3cd0c050	0.025482327
93	0x3f21a562	0.6314298
94	0xbfed8273	-1.8555435
95	0x3f2b352d	0.66878015
96	0x3e8073f0	0.25088453
97	0xbe4b8676	-0.19875512
98	0x3dbc6d94	0.09200588
99	0x3cd43577	0.0259044
100	0xbe95829b	-0.29201207
101	0x3dd5942a	0.10428651
102	0xbe739646	-0.23787794
103	0xbd4a2187	-0.04934838
104	0xbe2d53f7	-0.16926561
105	0x3ef0ef9d	0.4705781
106	0x3e2c8637	0.16848074
107	0x3e13387d	0.14377017
108	0x3d9ebc37	0.07750743
109	0xbe2e4b68	-0.17020953
110	0xbe7e9f73	-0.24865513
111	0x3d6d8aed	0.057993818
112	0xbe207b98	-0.15672147
113	0xbe8937fa	-0.2680052
114	0xbdcc829d	-0.0998585
115	0xbeb84079	-0.3598669
116	0x3d87d7cc	0.06632957
117	0x3eab195e	0.3341779
118	0xbe44ac6c	-0.19206399
119	0x3d3c7945	0.04601409
120	0xbee60e0c	-0.44932592
121	0x3d81cccc	0.0633789
122	0x3dd26915	0.10273949
123	0xbd413c1b	-0.04717646
124	0xbe8dcc73	-0.27695045
125	0xbeea0c03	-0.4571229
126	0xbeda37f0	-0.42620802
127	0x3f0851a2	0.5324956
128	0x3c399c4d	0.011328769
129	0x3be44816	0.006966601
130	0xbcec72b8	-0.028863296
131	0xbe4f5371	-0.20246674
132	0xbf0b8bb0	-0.5451002
133	0xbdb71846	-0.08940177
134	0x3ec452b6	0.38344353
135	0xbec85b56	-0.39132184
136	0x3cfb64a9	0.030687647
137	0x3ccf6fc2	0.025321845
138	0xbd920ab8	-0.07130951
139	0x3dda5a9a	0.10661812
140	0xbe40c54f	-0.18825267
141	0xbe00944b	-0.1255657
142	0xbc0f13d8	-0.008732758
143	0xbf58ff3f	-0.84764475
144	0x3b8d81a3	0.0043184324
145	0xbe998a3e	-0.29988283
146	0x3e107e03	0.1411057
147	0xbe8e857f	-0.27836224
148	0xbe90a959	-0.28254202
149	0xbe6ff6a5	-0.23433931
150	0x3f11db2b	0.5697505
151	0x3e7434d3	0.23848276
152	0x3e2dcd5f	0.16972874
153	0xbd4882eb	-0.048952978
154	0xbe067121	-0.13129093
155	0x3e000bf7	0.12504564
156	0xbeaa6463	-0.33279714
157	0xbec95b17	-0.3932731
158	0xbe037fc0	-0.12841702
159	0xbd2f5934	-0.04280968
160	0x3e34259e	0.17592475
161	0xbd2e56ee	-0.04256337
162	0xbd4fb5c4	-0.050710455
163	0x3db2f0fa	0.08737369
164	0xbc8c7374	-0.017144896
165	0xbce1c340	-0.027558923
166	0x3b2778e0	0.0025554225
167	0x3d21c908	0.03949836
168	0xbe85e080	-0.26147842
169	0xbd5a8314	-0.053347662
170	0xbea394bd	-0.31949416
171	0xbd714ac9	-0.05890921
172	0xbdde3f9b	-0.108519755
173	0x3e977950	0.29584742
174	0xbca89e6c	-0.020583354
175	0xbeb5d00d	-0.35510293
176	0xbe0d79f8	-0.13816059
177	0xbea5d242	-0.32386976
178	0x3dd09664	0.10184935
179	0xbd6036f7	-0.05473992
180	0x3e3c5491	0.18391635
181	0xbd6938b3	-0.05693884
182	0x3c6a1b01	0.014288665
183	0x3d934aa5	0.07191972
184	0xbe831464	-0.25601494
185	0x3dc8a958	0.09797925
186	0xbe0571d6	-0.13031706
187	0xbe20cea1	-0.15703823
188	0xbdefa1de	-0.117007956
189	0xbf68bbbf	-0.9091148
190	0x3e0eccf1	0.13945366
191	0x3f69f85c	0.9139459
192	0xbf3356a4	-0.7005408
193	0x3e2dc91f	0.16971253
194	0xbf594cdd	-0.8488291
195	0xbe273953	-0.16330461
196	0xbd26e857	-0.04074892
197	0xbd9d891a	-0.07692166
198	0x3e3c5fdc	0.18395942
199	0x3ef87b7e	0.48531717
200	0xbdc7a9f1	-0.097492106
201	0xbe8c90c2	-0.2745419
202	0xbf046ed3	-0.51731604
203	0xbef4f541	-0.47843364
204	0xbf11c3e2	-0.5693952
205	0xbf013c5d	-0.5048273
206	0xbb6ae512	-0.0035842103
207	0x3ea1995e	0.31562322
208	0x3d8ee71c	0.06977674
209	0xbe53d39e	-0.20686194
210	0x3e6349c3	0.22196107
211	0x3e2574e6	0.16157874
212	0x3d801e59	0.06255788
213	0x3ec14de4	0.37754738
214	0xbd9ef748	-0.07762009
215	0xbdc7a263	-0.0974777
216	0x3dcae93f	0.099077694
217	0x3e4779cc	0.19480056
218	0xbdabccb9	-0.08388657
219	0xbe56396a	-0.20920339
220	0x3da12457	0.078682594
221	0x3d1adb90	0.037807047
222	0xbe770ef0	-0.24126792
223	0x3e32f10b	0.17474763
224	0xbe4ffb00	-0.20310593
225	0xbe59a988	-0.21256077
226	0xbcabbfef	-0.020965545
227	0xbe3b48cb	-0.18289487
228	0x3d8fa7d2	0.07014431
229	0x3e8130f6	0.25232667
230	0xbe1f214f	-0.1554005
231	0x3d72e098	0.05929622
232	0xbcee0ac2	-0.029057864
233	0xbd01f570	-0.031728208
234	0x3dba7d96	0.09105985
235	0x3d0b8c9a	0.034069635
236	0x3e006484	0.12538344
237	0xbf1c6d00	-0.6110382
238	0x3ec52989	0.3850825
239	0xbdbca0b3	-0.092103384
240	0xbbf0de70	-0.0073507354
241	0xbe7b8608	-0.24562848
242	0xbdfcfae7	-0.12352543
243	0x3e87e6c9	0.26543263
244	0xbd328e9a	-0.043593027
245	0x3d28943a	0.041156985
246	0xbc4d2338	-0.012520604
247	0x3d0ad7df	0.033897277
248	0xbea5b336	-0.3236329
249	0xbf108341	-0.5645028
250	0xbf04766c	-0.517432
251	0xbda58125	-0.08081273
252	0x3e32d7f0	0.17465186
253	0x3e0cf452	0.13765076
254	0xbda44891	-0.080216534
255	0x3cab3c8a	0.02090289

embedding.bias f4 [46]
0	0xbe224eb8	-0.15850341
1	0x3d3aae70	0.045576513
2	0xbec76a2e	-0.38948196
3	0xbd971b61	-0.07378269
4	0xbe9bfe03	-0.30467233
5	0xbf1a9441	-0.6038247
6	0xbe0c38bb	-0.13693516
7	0xbed1a820	-0.40948582
8	0xbd1fcd3f	-0.039014097
9	0xbe904bbd	-0.28182784
10	0xbe585e5a	-0.21129742
11	0xbe4edcb4	-0.20201379
12	0xbe373a37	-0.17893301
13	0xbe7d4e15	-0.24736817
14	0xbe882d7f	-0.2659721
15	0xbdf6a4d7	-0.120431595
16	0xbed3d030	-0.41369772
17	0x3a475a8a	0.0007604739
18	0xbe9d2522	-0.30692393
19	0xbdd513ac	-0.10404143
20	0xbdbfb64a	-0.09360941
21	0xbe49d206	-0.19709024
22	0xbc8dcbfe	-0.017309185
23	0xbe959287	-0.29213354
24	0xbe9b50ee	-0.30335182
25	0x3d524ede	0.051344745
26	0xbee31a67	-0.4435608
27	0x3d73c6d3	0.059515785
28	0xbe9486c9	-0.29009083
29	0xbe0738ff	-0.13205336
30	0xbe2e0583	-0.1699429
31	0xbe8c0a10	-0.27351427
32	0xbf08f060	-0.53491783
33	0xbe748d6e	-0.23882076
34	0xbe5a886a	-0.213411
35	0xbf0001c1	-0.50002676
36	0xbe75490e	-0.2395365
37	0xbe645723	-0.22298865
38	0xbe3179cc	-0.17331618
39	0xbe8340d4	-0.25635397
40	0xbe3bcc92	-0.18339756
41	0xbe93396e	-0.28754753
42	0xbeada2d8	-0.33913302
43	0xbe213f5f	-0.1574683
44	0xbe1da16d	-0.1539361
45	0xbdcd415c	-0.10022232

convs.0.fc_full.weight f4 [92, 98]
0	0x3d977800	0.07395935
1	0x3e51d03d	0.20489593
2	0x3ebe24a2	0.37137324
3	0x3d408458	0.047001213
4	0x3ddca124	0.10772923
5	0x3d3c0ac4	0.045908704
6	0xbf1022d3	-0.5630314
7	0xbeba4499	-0.3638046
8	0xbf49ce64	-0.7883055
9	0xbe2c4d70	-0.16826415
10	0xbd77096c	-0.06031172
11	0x3d0f754a	0.035023965
12	0xbe9ad24b	-0.30238566
13	0x3ebdf412	0.37100273
14	0x3e9e8f4b	0.309687
15	0x3e7cc392	0.24683979
16	0x3e1cd4ec	0.15315598
17	0x3eca626d	0.39528218
18	0x3f275e71	0.6537848
19	0x3f04a715	0.51817447
20	0xbed7c813	-0.42144832
21	0xbdbb075c	-0.09132263
22	0xbdf271b4	-0.118380934
23	0xbd3f20cf	-0.046662148
24	0x3e3b72cb	0.18305509
25	0xbe1aa3dd	-0.15101571
26	0x3db6d00e	0.08926402
27	0xbe884754	-0.2661692
28	0x3e59ccf4	0.2126959
29	0xbe822ff0	-0.25427198
30	0x3f4e08c3	0.8048212
31	0x3d6b3d20	0.05743134
32	0x3e948686	0.29008883
33	0xbd74aacc	-0.059733197
34	0x3e97c230	0.2964034
35	0x3e8754b8	0.26431823
36	0xbe79a8d6	-0.24380812
37	0x3e25776b	0.16158836
38	0xbd5b0444	-0.053470865
39	0x3ced789c	0.028988175
40	0xbe306ea7	-0.1722971
41	0x3cb138a8	0.021633461
42	0xbe9dcc89	-0.3082011
43	0x3f470aea	0.7775103
44	0xbd96e4d1	-0.07367862
45	0x3e3397df	0.17538403
46	0xbf047168	-0.51735544
47	0x3d26884f	0.040657338
48	0x3e992d03	0.29917154
49	0x3cd3bc60	0.02584666
50	0x3de31a8d	0.110890485
51	0x3e1a2315	0.15052445
52	0xbed2c860	-0.411685
53	0xbe9cee00	-0.3065033
54	0xbf00f3b8	-0.50371885
55	0xbe8484c5	-0.25882545
56	0xbe7ad0ba	-0.24493685
57	0xbe73ad9c	-0.23796695
58	0x3d8cd4f1	0.06876553
59	0xbd6071ee	-0.05479615
60	0x3ed9e587	0.42557928
61	0xbe85f413	-0.26162776
62	0x3dbe808d	0.09301863
63	0x3ea2c7a1	0.3179293
64	0x3e9b1a95	0.30293718
65	0x3e97c3b0	0.29641485
66	0x3e192ba2	0.14958051
67	0x3e5bab17	0.21451984
68	0x3e735cae	0.23765823
69	0xbeb76227	-0.35817072
70	0xbe1c6ac5	-0.15275104
71	0xbef2c3b4	-0.47414935
72	0x3e8b42e8	0.27199483
73	0xbe66b853	-0.22531252
74	0x3d481266	0.04884567
75	0x3d97d04e	0.07412778
76	0x3d887d09	0.066644736
77	0x3df0c3d9	0.11756105
78	0x3c204d94	0.009784121
79	0xbe78a865	-0.24282987
80	0x3d178f90	0.037002146
81	0xbe76672f	-0.24062799
82	0xbe8e3d49	-0.27781132
83	0x3e3f194f	0.18661998
84	0x3d72d2ed	0.059283186
85	0x3e3f02c4	0.18653399
86	0x3e19044d	0.14943047
87	0x3ea4f757	0.32219955
88	0xbe0835c8	-0.13301766
89	0x3defabf8	0.11702722
90	0x3e137cce	0.14403078
91	0x3e855923	0.26044568
92	0x3e2896f7	0.16463839
93	0x3e40883e	0.18801972
94	0x3eb30251	0.34962705
95	0x3e84b461	0.25918868
96	0xbd32b562	-0.04363001
97	0xbebc9ea9	-0.36839798
98	0xbe83cf4a	-0.25744087
99	0xbd41e2d0	-0.047335446
100	0xbf8e72ff	-1.1128844
101	0xbe9cdaa5	-0.30635563
102	0xbf341100	-0.7033844
103	0xbe138daa	-0.1440951
104	0x3ef0a93b	0.47004113
105	0x3f0f111c	0.5588548
106	0xbd88149f	-0.06644558
107	0x3f542b69	0.8287874
108	0x3d3ba0d6	0.045807682
109	0x3e6acac5	0.22928913
110	0xbe670f82	-0.2256451
111	0x3d21615e	0.039399497
112	0xbd8d2e57	-0.06893604
113	0xbe851227	-0.25990412
114	0xbed931b5	-0.42420736
115	0xbe7af0d0	-0.24505925
116	0x3e315414	0.1731723
117	0xbe10c909	-0.14139189
118	0x3edfaad5	0.43685022
119	0xbdab16d1	-0.08353961
120	0x3ddb7bf2	0.10717
121	0xbe2eac51	-0.17057921
122	0x3e33c492	0.17555454
123	0x3e1a27ed	0.15054293
124	0xbe14cf00	-0.14532089
125	0xbc084ae5	-0.0083186375
126	0x3e1b07ba	0.15139666
127	0x3e06f057	0.1317762
128	0xbe11c422	-0.14234975
129	0x3e4a2453	0.19740419
130	0xbee30f81	-0.44347766
131	0x3e350125	0.17676218
132	0x3d2e0c71	0.042492334
133	0xbcfbe2ce	-0.030747797
134	0x3e96755e	0.2938642
135	0x3d902a7e	0.07039355
136	0xbda22111	-0.07916463
137	0x3ea8021b	0.32814106
138	0x3e094407	0.13404857
139	0x3ef9a817	0.48761055
140	0x3ea43eb3	0.32079086
141	0xbd0185bf	-0.03162169
142	0xbf3bb2b6	-0.73319566
143	0xbdd97bde	-0.10619329
144	0x3e9b248c	0.3030132
145	0xbe022e4b	-0.12712972
146	0x3c8eb2c5	0.017419228
147	0x3d3c607f	0.045990463
148	0x3e56c853	0.20974855
149	0xbdd0855d	-0.10181687
150	0xbd6d39b4	-0.057916358
151	0xbf09a6df	-0.5377025
152	0x3e25fc7a	0.16209593
153	0x3e06b16f	0.13153623
154	0xbf3cd5a9	-0.7376352
155	0xbe4b2d22	-0.19841436
156	0xbe9b75e2	-0.30363375
157	0x3edc54fd	0.4303359
158	0x3f26ebea	0.65203726
159	0x3e3d88cd	0.18509217
160	0xbced6192	-0.02897719
161	0xbeb39cf1	-0.35080674
162	0x3c022531	0.007943437
163	0x3f32b35d	0.69804937
164	0x3d2458d0	0.04012376
165	0x3e13eec3	0.14446549
166	0x3d8b2465	0.06794051
167	0x3d6aaf73	0.057296228
168	0xbe14ea6c	-0.1454255
169	0xbe92db21	-0.28682807
170	0x3eec2462	0.46121508
171	0x3ecf94d2	0.40543228
172	0x3e04cac6	0.12967977
173	0xbe9082e3	-0.2822486
174	0xbeec2de2	-0.46128756
175	0xbded7562	-0.115946546
176	0xbcf18f48	-0.029487267
177	0xbd1f09a2	-0.038827546
178	0xbe8b1f02	-0.27172095
179	0x3c5b7eea	0.013396958
180	0x3ea0e913	0.31427822
181	0x3cdca139	0.026932346
182	0x3eb63f33	0.35595092
183	0xbb984aaa	-0.0046475725
184	0x3d76fa6b	0.06029741
185	0xbe73279b	-0.23745577
186	0xbdb7cbab	-0.089743935
187	0xbe54cf45	-0.20782192
188	0x3e4a6cd5	0.19768079
189	0xbe38469d	-0.17995687
190	0xbd9cc8f1	-0.07655514
191	0xbecc5623	-0.39909467
192	0xbdca22af	-0.098698966
193	0x3e57f185	0.21088226
194	0x3ec56ddb	0.38560376
195	0x3e4d79b5	0.20065959
196	0x3b9cf036	0.0047893776
197	0x3ea6bd98	0.32566524
198	0xbde6d358	-0.11270779
199	0xbe219cc0	-0.15782452
200	0xbf01aac2	-0.5065118
201	0xbe5fdb1f	-0.21860932
202	0x3ec9e959	0.39435843
203	0x3b28fc56	0.002578517
204	0x3f6eb57f	0.9324569
205	0x3d845be3	0.064628385
206	0x3d5dd4be	0.054157965
207	0xbea6ad85	-0.3255426
208	0x3eaf1a6b	0.34199843
209	0xbb9ef5b5	-0.004851068
210	0xbbacc84e	-0.0052729016
211	0xbe8e082a	-0.27740604
212	0xbefbccf4	-0.49179804
213	0x3eb3f619	0.35148695
214	0xbee3a09c	-0.44458473
215	0x3eec61f6	0.46168488
216	0x3e3eb635	0.18624194
217	0xbda5ae5b	-0.08089896
218	0xbdc64c5c	-0.09682533
219	0x3e6b306c	0.2296769
220	0xbf6c2690	-0.9224634
221	0x3deb29c3	0.11482575
222	0x3d81f54a	0.06345613
223	0x3d4f2149	0.050568853
224	0xbd03f464	-0.03221549
225	0xbdd5d3a5	-0.104407586
226	0x3eded4b6	0.4352166
227	0x3cec9250	0.028878361
228	0x3eeb61ec	0.45973146
229	0xbe7b61fe	-0.245491
230	0x3e995ad9	0.29952124
231	0xbebfefa4	-0.3748752
232	0xbe0acd8e	-0.13554975
233	0x3e43dc70	0.19127059
234	0xbe53b6d8	-0.20675218
235	0x3badb99e	0.0053016683
236	0xbdbedaff	-0.09319114
237	0x3e6b770d	0.22994633
238	0x3fc6581b	1.5495638
239	0x3d439447	0.04774883
240	0xbeeaef90	-0.45885897
241	0xbdb11285	-0.086461104
242	0xbcad3d0f	-0.02114728
243	0xbaa752e2	-0.001276579
244	0x3c4964b7	0.012292079
245	0x3e7281b2	0.23682287
246	0x3db38fbb	0.08767649
247	0x3ee2a387	0.44265386
248	0x3ebda02b	0.3703626
249	0x3c42025b	0.011841382
250	0x3ee7943f	0.4523029
251	0xbe6d6839	-0.23184289
252	0xbe1f6400	-0.1556549
253	0xbe5a132f	-0.2129638
254	0x3ec623d7	0.3869922
255	0x3dd41b39	0.10356755

convs.0.fc_full.bias f4 [92]
0	0x3cb72fc0	0.022361636
1	0x3cbc42d4	0.022981085
2	0xbc6bb605	-0.014386659
3	0x3b85564d	0.0040691257
4	0xbcb27a14	-0.021786727
5	0xbc3b0950	-0.0114157945
6	0x3e8d3a77	0.27583668
7	0xbd5afe28	-0.05346504
8	0x3d7762af	0.060396846
9	0x3b3a7733	0.0028452396
10	0xbc9445b8	-0.01809965
11	0x3de8a10d	0.11358843
12	0x3b2b1819	0.0026106893
13	0x3d68b049	0.056808744
14	0x3dae569b	0.085126124
15	0xbc9743a9	-0.01846488
16	0x3e055875	0.13022025
17	0xbd9b38c0	-0.075791836
18	0xbc97feff	-0.018554209
19	0x3ddf35ff	0.10898971
20	0x3d380674	0.04492803
21	0x3ca6b289	0.020348804
22	0x3ca582c1	0.02020395
23	0xbdd50d97	-0.10402983
24	0xbd343853	-0.043999027
25	0xbd1dd98f	-0.03853756
26	0xbd5a4abe	-0.053293936
27	0xbe54f96e	-0.20798275
28	0x3d897c8f	0.06713211
29	0xbdd38ea7	-0.10329943
30	0x3d7a91d7	0.06117424
31	0x3c8bb1d8	0.017052576
32	0xbd2570bb	-0.04039071
33	0xbad7dd15	-0.0016469086
34	0xbe1f32fc	-0.15546793
35	0xbc693bc3	-0.01423544
36	0xbc4b9e73	-0.012427914
37	0x3d1bd9a9	0.038049374
38	0xbc1dd359	-0.009632909
39	0x3d92c927	0.07167273
40	0xbd9f0087	-0.077637725
41	0x3d726914	0.05918224
42	0xbd95da5c	-0.07317039
43	0xbd1a2218	-0.03763017
44	0x3d78bddf	0.06072795
45	0xbe07bece	-0.1325638
46	0x3da63253	0.08115067
47	0x3da62885	0.08113197
48	0x3ba80fb9	0.0051288274
49	0xbbe146f3	-0.006874913
50	0xbf38fbdf	-0.72259325
51	0x3aabe834	0.0013115467
52	0x3d84c4a2	0.06482817
53	0xbd47ffcb	-0.048827928
54	0xbc8f9875	-0.017528752
55	0x3a87ccbc	0.0010360698
56	0x3d7fa7ab	0.06241576
57	0x3ca0e4b0	0.019640297
58	0x3c7734a4	0.015088234
59	0xbce8773b	-0.028377166
60	0x3d9b26b5	0.07575742
61	0xbc6050b2	-0.013691114
62	0x3ccb011b	0.0247808
63	0x3daedfe5	0.08538798
64	0xbdd3b41e	-0.10337089
65	0x3d9e708e	0.07736312
66	0x3d656b86	0.056010745
67	0xbdcf7c55	-0.10131136
68	0xbdc1db81	-0.09465695
69	0xbdc113d8	-0.09427613
70	0x3ca4897a	0.020085085
71	0x3c189214	0.0093121715
72	0x3d34c6b5	0.044134814
73	0x3eb4ea43	0.35334978
74	0xbc695279	-0.014240854
75	0x3c12012a	0.00891141
76	0xbc87f1d9	-0.016594814
77	0xbcf004b5	-0.02929912
78	0x3c3f3dee	0.01167248
79	0x3d6042e2	0.054751284
80	0xbb500236	-0.00317396
81	0xbc844dcb	-0.016150376
82	0xbce01f91	-0.027358802
83	0xbcea3278	-0.028588519
84	0x3dd1f2e7	0.10251408
85	0xbd17ddc5	-0.03707673
86	0x3ddb785e	0.107163176
87	0x3d5f08a2	0.054451592
88	0x3dc75e32	0.09734763
89	0x3d22ae51	0.039717022
90	0x3b158b5b	0.0022818658
91	0x3d07a317	0.03311452

convs.0.bn1.weight f4 [92]
0	0x4020d902	2.513245
1	0x3f9f1398	1.2427855
2	0x3fb256e1	1.3932763
3	0x4001b22c	2.0264997
4	0x3f8f169b	1.1178774
5	0x3fc1a38b	1.5128034
6	0x3fa7b96e	1.3103464
7	0x4006b405	2.1047375
8	0x3f9614eb	1.1725134
9	0x3fd5a5d7	1.6691235
10	0x3f9cb6eb	1.2243322
11	0x40156238	2.3341198
12	0x40174bab	2.3639934
13	0x3f98ed41	1.1947404
14	0x3f991e1d	1.1962315
15	0x3fbe6e31	1.4877378
16	0x40098a82	2.1490788
17	0x3fd6ad2d	1.6771599
18	0x3f60f4e7	0.8787369
19	0x401aa107	2.4160783
20	0x3fa99a30	1.3250179
21	0x3fbb85c7	1.4650201
22	0x3fcf0350	1.6172886
23	0x3fea4f65	1.8305479
24	0x3f9c1939	1.2195197
25	0x3fa4e378	1.2881918
26	0x3fa6e217	1.3037747
27	0x400b7d3c	2.1795187
28	0x3fe17c18	1.7615995
29	0x3fd4084c	1.6565032
30	0x40132590	2.2991676
31	0x3fe80d17	1.8128995
32	0x3fa6902b	1.3012747
33	0x3fedf45f	1.8590201
34	0x4006ce9a	2.10636
35	0x3f87fd59	1.062419
36	0x3fdaf7b1	1.710684
37	0x401e990b	2.478091
38	0x3fe2ee26	1.7728927
39	0x3fd5a763	1.6691707
40	0x3fed5edf	1.8544577
41	0x3f76a327	0.963427
42	0x40059bf9	2.0876448
43	0x3fa6350b	1.2984937
44	0x3faeb1be	1.3647993
45	0x3f23ac3b	0.6393468
46	0x400bb885	2.1831372
47	0x3fca7ad4	1.5818734
48	0x3f1a1102	0.601822
49	0x3efcb337	0.4935548
50	0x3ed7a7dd	0.42120257
51	0x3f4ee5fb	0.8081967
52	0x3f6e9cb8	0.93207884
53	0x3f8fa16a	1.1221135
54	0x3f806066	1.0029418
55	0x3f52c969	0.8233858
56	0x3f52ca62	0.8234006
57	0x3f5a0af1	0.85172945
58	0x3fa04551	1.2521154
59	0x400cea77	2.2018106
60	0x3f407921	0.7518483
61	0x3f14b85a	0.580938
62	0x3fcc3de2	1.5956385
63	0x3f9df11c	1.2339206
64	0x4017956f	2.3684957
65	0x3f3f6bcb	0.74773854
66	0x3f8898c1	1.0671617
67	0x3f765b35	0.9623292
68	0x3fdcb4a8	1.7242632
69	0x3fdc3252	1.7202857
70	0x3f81ce05	1.0140997
71	0x3f0e3add	0.5555857
72	0x3f410c46	0.7540935
73	0x3f42816e	0.75978744
74	0x400ed6b1	2.2318537
75	0x3fe0de55	1.756785
76	0x3f4a1ab3	0.7894699
77	0x4003e4c4	2.0608377
78	0x3f38c564	0.72176194
79	0x3fce8f84	1.6137547
80	0x3f4b0eb5	0.79319316
81	0x3fcc558f	1.596361
82	0x3f9320f6	1.1494434
83	0x3efe3019	0.4964607
84	0x3f6c69bb	0.9234883
85	0x400e79cc	2.226184
86	0x3f925b25	1.1434065
87	0x40050c31	2.078869
88	0x3f76ccd7	0.9640631
89	0x3f9d3f8f	1.2285022
90	0x3fcc15d6	1.5944164
91	0x3f75e65c	0.96054626

convs.0.bn1.bias f4 [92]
0	0x3d824552	0.06360878
1	0x3d4f212a	0.050568737
2	0xbe79a87a	-0.24380675
3	0x3e9d5877	0.30731556
4	0xbf167b5a	-0.5878197
5	0xbf988bd8	-1.1917677
6	0xbecde586	-0.40214175
7	0x3d26387c	0.04058121
8	0xbddef018	-0.10885638
9	0xbe962986	-0.29328555
10	0x3e1e63ff	0.15467833
11	0x3ee52531	0.44754937
12	0xbe02520b	-0.1272661
13	0x3e203110	0.15643716
14	0xbe8b5363	-0.27212057
15	0x3ee25406	0.4420473
16	0xbdc8098a	-0.097674444
17	0xbd89a2c7	-0.067205004
18	0x3e14c7e8	0.14529383
19	0x3d977d9b	0.07397004
20	0xbd741d75	-0.059598405
21	0xbf0274e1	-0.50959593
22	0x3e9d680f	0.30743453
23	0xbeef440f	-0.46731612
24	0xbf142fba	-0.57885325
25	0x3f0987dc	0.5372293
26	0xbe4593b6	-0.19294629
27	0xbeda2e2c	-0.4261335
28	0x3ec19a06	0.37812823
29	0xbe6c647e	-0.2308521
30	0xbe597c41	-0.21238805
31	0x3e417d48	0.18895447
32	0xbf256eeb	-0.6462237
33	0xbc699542	-0.014256777
34	0xbe41e445	-0.18934734
35	0x3b013fe7	0.0019721927
36	0xbea28dcb	-0.31748804
37	0x3e9d0466	0.30667418
38	0x3c83c811	0.01608661
39	0x3eb7eb76	0.3592183
40	0xbe8da359	-0.27663687
41	0x3c8ad429	0.016946869
42	0x3ddf4cf6	0.10903351
43	0x3eb90a50	0.3614068
44	0xbdc9406b	-0.0982674
45	0xbca191f5	-0.019722918
46	0x3dcdf807	0.10057073
47	0xbe0d695a	-0.1380972
48	0xbf54ce10	-0.83126926
49	0x3f353896	0.7078947
50	0xbf2a1f67	-0.66454166
51	0xbf014d5b	-0.5050866
52	0xbec3d872	-0.38251072
53	0xbe638928	-0.2222029
54	0xbe6897b4	-0.2271412
55	0xbf04e6cc	-0.5191467
56	0x3e8b9bbc	0.27267253
57	0x3ed5c3a9	0.4175084
58	0xbe7e8d60	-0.24858618
59	0x3dbbe226	0.09173994
60	0xbf2137e2	-0.62975895
61	0x3edab2e6	0.42714614
62	0xbcc905cf	-0.024538903
63	0x3e1a9b63	0.15098338
64	0xbdaa331c	-0.083105296
65	0x3f1aea3b	0.6051366
66	0xbe60933f	-0.2193117
67	0xbee8d366	-0.45473784
68	0xbcf9364a	-0.030421395
69	0x3d89466e	0.067028865
70	0xbebb9ded	-0.36643925
71	0x3f0be195	0.54641086
72	0xbea49ff5	-0.32153288
73	0xbef1bd4d	-0.47214738
74	0xbc5c35b4	-0.013440538
75	0xbe06da05	-0.13169105
76	0xbed3a5b8	-0.4133737
77	0xbca3bb08	-0.019986644
78	0xbf28f1c1	-0.6599389
79	0xbdbc4d57	-0.09194439
80	0xbf000108	-0.50001574
81	0xbdbc92e8	-0.09207708
82	0xbe84edff	-0.25962827
83	0x3f2df751	0.679555
84	0xbebee869	-0.3728669
85	0x3da95baf	0.082694404
86	0xbeda4581	-0.42631152
87	0xbe1391b0	-0.14411044
88	0x3ed2a1eb	0.4113916
89	0x3e2815cb	0.16414563
90	0xbeb97295	-0.36220232
91	0xbe62b38a	-0.22138801

convs.0.bn1.running_mean f4 [92]
0	0xc040893b	-3.008376
1	0x3f02ea94	0.5113919
2	0x3fdec3b1	1.740347
3	0xc006c803	-2.1059577
4	0x40553c63	3.3318107
5	0x40054d0f	2.0828283
6	0x40044126	2.0664763
7	0x3f10d04b	0.5656783
8	0x3f927fce	1.1445253
9	0x40338b89	2.8053916
10	0xbe089798	-0.13339078
11	0xbfbcfc41	-1.4764482
12	0xc05a87d3	-3.41454
13	0xbe23e800	-0.1600647
14	0xc007c2c8	-2.1212635
15	0xc0451994	-3.0796862
16	0x40431f3a	3.048781
17	0xbee8d8ca	-0.45477897
18	0x404cbab1	3.1988947
19	0xc0806c4b	-4.0132194
20	0xc0159895	-2.3374379
21	0xc0953ab6	-4.663417
22	0x3d97d7fe	0.07414244
23	0xc01a9e58	-2.4159145
24	0x3e35b5d3	0.17745142
25	0x3f7addc3	0.9799463
26	0x3f15869a	0.5840851
27	0x3f963264	1.1734128
28	0x3f976e70	1.1830578
29	0xc017fb37	-2.374708
30	0xbfcbb1cf	-1.5913638
31	0xc001aed8	-2.0262966
32	0x40266d5a	2.6004243
33	0xbfd398a8	-1.6530962
34	0xbf0c2a90	-0.54752445
35	0xbfea7519	-1.8316985
36	0xbf02bf5c	-0.5107324
37	0x400ea604	2.2288828
38	0xbedd2e99	-0.43199614
39	0xc064ede0	-3.5770187
40	0x3fa8439a	1.314563
41	0xbed97805	-0.4247438
42	0x3fb86820	1.4406776
43	0x3f52c49e	0.82331264
44	0x3e6bd75b	0.2303137
45	0xc042ac94	-3.0417833
46	0xc09b4615	-4.852305
47	0x3f1fcbd1	0.62420374
48	0xc0019187	-2.0245073
49	0xbf5c2a5b	-0.8600213
50	0xc04aabb7	-3.1667306
51	0xbfa672d1	-1.3003789
52	0xc01f0729	-2.484812
53	0xbe9152e5	-0.28383556
54	0xbf8282fa	-1.0196221
55	0xbfb8ae1c	-1.4428134
56	0x3fbb479b	1.4631227
57	0xc09c0c8e	-4.8765326
58	0xbf183381	-0.5945359
59	0xbf71b43d	-0.94415647
60	0x3faa3503	1.3297428
61	0xc0837f0c	-4.1092587
62	0xc03fb8cd	-2.9956543
63	0xc0a8c503	-5.2740493
64	0x405104a5	3.2659085
65	0xbf90ab85	-1.1302344
66	0xc0145227	-2.3175142
67	0xbf5f5458	-0.87238073
68	0x3f00516b	0.50124234
69	0xbff51f27	-1.9150132
70	0xbe4a15f9	-0.19734944
71	0x3fe2a2c7	1.7705926
72	0xbf20a8d6	-0.62757623
73	0xc02c983b	-2.6967914
74	0x3e8eb8a2	0.2787524
75	0x3fea7619	1.831729
76	0xc03037b3	-2.7533996
77	0xbff34876	-1.9006488
78	0x3f93a9bc	1.1536174
79	0xc02b4d68	-2.6765995
80	0xbeef4b41	-0.46737102
81	0xbf9d2f22	-1.2280009
82	0x400d7090	2.2099953
83	0x404eb0ba	3.2295365
84	0x4019e050	2.404316
85	0xc0a2dc0d	-5.0893617
86	0x4030dda1	2.7635272
87	0x3f38c807	0.7218022
88	0xbf3e894c	-0.7442825
89	0x3f550ba9	0.83220917
90	0x3fc63c63	1.5487179
91	0xbf8d0aa4	-1.1018872

convs.0.bn1.running_var f4 [92]
0	0x41b410f5	22.50828
1	0x41daa860	27.332214
2	0x41c15ea3	24.17121
3	0x4171c8ff	15.111571
4	0x41ca32cb	25.274801
5	0x4218f71d	38.24132
6	0x4197b87f	18.965086
7	0x417f879e	15.97061
8	0x418c5ec5	17.546274
9	0x41c5feea	24.74947
10	0x414b0280	12.68811
11	0x4121d2f6	10.114004
12	0x418ce6c9	17.612688
13	0x4168e7ec	14.556622
14	0x41be1fbf	23.765501
15	0x40f258c8	7.5733376
16	0x41b79b72	22.950901
17	0x418623ef	16.767546
18	0x416f9156	14.972982
19	0x4122f668	10.185158
20	0x41fdc07d	31.718988
21	0x42355e0f	45.341854
22	0x414adff7	12.679679
23	0x418f1eb3	17.88999
24	0x41a8e094	21.109657
25	0x41cb3db7	25.405134
26	0x416ddf33	14.866992
27	0x422f2b40	43.792236
28	0x417787d7	15.470664
29	0x41fa02d7	31.251387
30	0x418e6d97	17.80351
31	0x413f8bbd	11.971616
32	0x41c6aaa8	24.833328
33	0x4183f4c6	16.494518
34	0x41b4c494	22.595985
35	0x41f76b6c	30.927452
36	0x4186004f	16.75015
37	0x41aa9e82	21.327396
38	0x41a34628	20.409256
39	0x41814287	16.157484
40	0x42002112	32.032295
41	0x41b8a192	23.078892
42	0x4177cb8c	15.487194
43	0x418df56b	17.744833
44	0x418fd87c	17.980705
45	0x4178e732	15.556444
46	0x42062703	33.538097
47	0x4202d939	32.71213
48	0x412b73d1	10.7157755
49	0x4142d0ca	12.175974
50	0x4184eb97	16.615034
51	0x413ad7fa	11.677729
52	0x418dca57	17.723799
53	0x41aabe65	21.342966
54	0x41a5a8a8	20.707352
55	0x41bce525	23.611887
56	0x4148ac4a	12.542063
57	0x41d7511a	26.9146
58	0x418eb5f5	17.838846
59	0x41a5d6ee	20.729946
60	0x4196892e	18.816982
61	0x4121fc59	10.124108
62	0x418869a6	17.051586
63	0x4182b475	16.338114
64	0x418d8f54	17.694984
65	0x41a408cd	20.504297
66	0x418a61bf	17.297728
67	0x4168d406	14.551764
68	0x415ada30	13.678268
69	0x41704a20	15.018097
70	0x418e1960	17.76239
71	0x41e81907	29.01222
72	0x41447e33	12.28081
73	0x4194acc3	18.584356
74	0x41ab856a	21.440144
75	0x41b53ee3	22.655706
76	0x41d7047d	26.877192
77	0x416ed020	14.925812
78	0x41dae8c7	27.36366
79	0x41858424	16.689522
80	0x41b12991	22.145296
81	0x41d21f2c	26.26522
82	0x41d4cbb2	26.59946
83	0x41d04264	26.032417
84	0x419f6eb8	19.929062
85	0x41adc533	21.721289
86	0x4179f5be	15.622496
87	0x41c35452	24.416172
88	0x41c6eab6	24.864605
89	0x41b20c38	22.255966
90	0x41eb779d	29.433405
91	0x41700962	15.002291

convs.0.bn2.weight f4 [46]
0	0x3f4e5d46	0.80611074
1	0x3f6d37d0	0.9266329
2	0x3f914e71	1.1352063
3	0x3f2b12d4	0.66825604
4	0x3f972c4c	1.1810393
5	0x3fecb81d	1.8493687
6	0x3f853088	1.0405436
7	0x3f929a9b	1.1453432
8	0x3f87d777	1.061263
9	0x3fa1770b	1.2614454
10	0x3f23b11f	0.6394214
11	0x3f5978fa	0.8495022
12	0x3f87b791	1.0602895
13	0x3f454f2f	0.7707395
14	0x3f81ea36	1.01496
15	0x3eeb9d67	0.46018526
16	0x3f6981a8	0.91213465
17	0x3f563816	0.8367933
18	0x3fb013b8	1.3756018
19	0x3f6dd990	0.929101
20	0x3f811916	1.0085781
21	0x3fb66153	1.4248451
22	0x3f8adb4b	1.0848173
23	0x3f71c9ce	0.94448555
24	0x3f8dd195	1.1079584
25	0x3f76f70f	0.9647073
26	0x3f86a0f7	1.0517873
27	0x3fca8001	1.5820314
28	0x3f80ffcc	1.0078063
29	0x3f5e67e4	0.86877275
30	0x3f873c1b	1.0565218
31	0x3f494a0a	0.786286
32	0x3f9d86f6	1.2306812
33	0x3f819bbc	1.0125651
34	0x3f8fb22a	1.1226246
35	0x3faab59e	1.3336675
36	0x3f852b74	1.0403886
37	0x3fbec8a6	1.4904983
38	0x3f953ce7	1.1659211
39	0x3f600035	0.87500316
40	0x3f9553b8	1.1666174
41	0x3f829f02	1.0204775
42	0x3f4dafbe	0.80346286
43	0x3f5389bf	0.8263206
44	0x3fa5cba4	1.2952771
45	0x3f8196fc	1.0124202

convs.0.bn2.bias f4 [46]
0	0xbe81f947	-0.25385496
1	0xbaa45cc1	-0.001253985
2	0xbec59511	-0.3859029
3	0xbe19e5fe	-0.15029141
4	0xbea54103	-0.32276163
5	0xbf1cbcae	-0.612254
6	0xbdff9da3	-0.12481239
7	0xbef8352c	-0.48478067
8	0xbde677ed	-0.11253343
9	0xbeb3b975	-0.3510243
10	0xbe1b512b	-0.15167682
11	0xbe87cd7b	-0.26523957
12	0xbe7923cf	-0.24330066
13	0xbe1e4487	-0.15455829
14	0xbe308d19	-0.17241324
15	0xbe487dd5	-0.19579251
16	0xbecc5154	-0.39905798
17	0x3dcf9b4c	0.101370424
18	0xbe94bff8	-0.2905271
19	0xbe39df16	-0.18151507
20	0xbe302f2e	-0.17205498
21	0xbe1778c8	-0.14792168
22	0xbd8cd8f4	-0.06877318
23	0xbeb3cccf	-0.35117194
24	0xbe9e9fca	-0.30981284
25	0x3c48171e	0.012212543
26	0xbefe40b6	-0.49658746
27	0x3e20fc45	0.15721233
28	0xbe9a0728	-0.30083585
29	0xbe1cf499	-0.15327682
30	0xbe1d62a8	-0.15369666
31	0xbea58bd2	-0.32333237
32	0xbf0a1a0f	-0.5394601
33	0xbe5163fc	-0.20448297
34	0xbe8a9bfd	-0.27072135
35	0xbef695b8	-0.481611
36	0xbe761a3d	-0.24033447
37	0xbe209b42	-0.15684226
38	0xbe5dcc87	-0.21660052
39	0xbe821709	-0.254082
40	0xbe1eb115	-0.15497239
41	0xbe8434cd	-0.25821534
42	0xbe8f368d	-0.27971306
43	0xbe80bae5	-0.2514259
44	0xbe36db66	-0.17857131
45	0xbe492dac	-0.19646329

convs.0.bn2.running_mean f4 [46]
0	0x40f3f667	7.6238284
1	0x407c3c09	3.9411643
2	0x3e1ebc59	0.15501536
3	0x40aa47b5	5.3212533
4	0x3d228f95	0.03968771
5	0x3f0b134a	0.5432631
6	0x3fb3d674	1.4049821
7	0x4049b18e	3.151462
8	0x3fc293be	1.5201337
9	0x3f3e13b2	0.742488
10	0x4087917f	4.2365108
11	0x40a1d4d7	5.0572314
12	0x40241b9a	2.5641847
13	0x40d0eb6b	6.5287375
14	0x3f3cf1e0	0.7380657
15	0x408e5901	4.4483647
16	0x4064793b	3.5698993
17	0x401b6643	2.4281166
18	0x40e1d763	7.0575423
19	0x40933fcb	4.601537
20	0x3fd7a10d	1.6846024
21	0x3f9280ab	1.1445516
22	0x40d80043	6.750032
23	0x40a5d81d	5.182631
24	0x3fb764c2	1.4327624
25	0x40b29c34	5.581568
26	0x3fbb7920	1.464634
27	0x3eb86306	0.3601305
28	0x4118eb55	9.557454
29	0x40496394	3.1467028
30	0x3f87d183	1.0610813
31	0x40e18dc6	7.0485563
32	0x3edaca80	0.4273262
33	0x40a267d6	5.0751753
34	0x3f9a9c99	1.207904
35	0x40ace493	5.402902
36	0x401c3930	2.4409904
37	0x40c71acc	6.222021
38	0x3fc80758	1.5627241
39	0x411cdafe	9.803465
40	0x3fd6a33a	1.6768563
41	0x40b4bcad	5.6480317
42	0x40bebab4	5.960291
43	0x40b74ef1	5.7283864
44	0x40953046	4.6621428
45	0x40085679	2.1302779

convs.0.bn2.running_var f4 [46]
0	0x42eff3a6	119.975876
1	0x420962d1	34.3465
2	0x3ed42d8c	0.41441
3	0x41da38a1	27.27765
4	0x3da858a8	0.08220035
5	0x3f67d768	0.9056306
6	0x4108f6db	8.560267
7	0x4183d8d5	16.480875
8	0x40ddf70f	6.9364085
9	0x40634a08	3.5513935
10	0x418e854a	17.815083
11	0x42215e70	40.342224
12	0x419b94c0	19.447632
13	0x42b088ca	88.267166
14	0x4009e070	2.1543236
15	0x4201e50d	32.473682
16	0x41ef6215	29.922892
17	0x41a46060	20.547058
18	0x42adf4fe	86.9785
19	0x423be0c5	46.9695
20	0x411e6b51	9.9012
21	0x3fea5c17	1.8309354
22	0x42b92b16	92.58415
23	0x4295fe62	74.99684
24	0x40c4627b	6.1370215
25	0x418a2a4c	17.270653
26	0x41b82ed4	23.022865
27	0x3f0cfb5c	0.55071044
28	0x42fb29d0	125.581665
29	0x42196134	38.344925
30	0x40a4cb08	5.149784
31	0x431267b8	146.40515
32	0x3f3b0273	0.7305061
33	0x42c11fa0	96.56177
34	0x40559636	3.3372931
35	0x424e39dc	51.556503
36	0x418fc98f	17.973417
37	0x41e34659	28.40935
38	0x40d91c44	6.7847004
39	0x4314d99d	148.85005
40	0x410ff3f6	8.997061
41	0x4252a68a	52.662636
42	0x424d15b7	51.271206
43	0x424ef2e9	51.737217
44	0x425943b7	54.316128
45	0x419fc7e8	19.97261

convs.1.fc_full.weight f4 [92, 98]
0	0x3f21c2f6	0.6318811
1	0xbbd48c9f	-0.00648649
2	0x3ef2fce8	0.47458577
3	0xbe3db402	-0.18525699
4	0x3e13158b	0.14363687
5	0x3ec83d37	0.39109203
6	0xbeb183f3	-0.34670982
7	0x3e61fa79	0.22068204
8	0xbd52ae66	-0.05143585
9	0x3e82ecf5	0.2557141
10	0xbd0faf8c	-0.035079524
11	0x3f0d3154	0.55153394
12	0xbe870352	-0.2636972
13	0x3e81395a	0.25239068
14	0x3ea4cf37	0.32189342
15	0xbd0a2243	-0.03372408
16	0xbed0a0c8	-0.40747666
17	0x3e234c99	0.15947188
18	0x3ce65d55	0.028120676
19	0xbdda76f7	-0.10667222
20	0x3e2a06da	0.16604176
21	0x3e60c6d0	0.21950841
22	0xbda5a4d9	-0.08088083
23	0x3e30b82b	0.17257755
24	0xbf3b56fd	-0.7317961
25	0x3db1c25e	0.08679651
26	0xbe2dfa2e	-0.16989967
27	0x3e52d104	0.20587546
28	0x3e774598	0.24147642
29	0xbe97fced	-0.29685155
30	0x3e1a1cda	0.15050068
31	0xbe4515ef	-0.19246648
32	0xbf202f37	-0.62572044
33	0x3e3bf860	0.18356466
34	0x3f057476	0.5213083
35	0x3de7ec47	0.11324363
36	0xbd262b9d	-0.040568937
37	0x3dc5a86c	0.096512645
38	0x3e11fe95	0.14257272
39	0xbcdbf1ed	-0.026848758
40	0x3e9a16e4	0.3009559
41	0x3ec98afd	0.39363852
42	0xbece4b32	-0.40291744
43	0xbe710878	-0.23538387
44	0xba599905	-0.0008300695
45	0xbeb5cdd4	-0.35508597
46	0x3f2dca73	0.6788704
47	0xbebc2c49	-0.36752537
48	0x3eb2acbf	0.3489742
49	0x3e3434be	0.17598245
50	0xbdf3720b	-0.11886986
51	0xbec66428	-0.38748288
52	0xbeef4a1a	-0.46736223
53	0x3ed5bcb2	0.41745526
54	0xbc433b80	-0.011916041
55	0x3cebe560	0.028795898
56	0x3ec02cf1	0.37534288
57	0x3f22d1a1	0.6360112
58	0x3d25091c	0.04029189
59	0x3db9d62e	0.09074055
60	0xbeabf7b9	-0.33587435
61	0x3e50f355	0.20405324
62	0xbe481949	-0.19540896
63	0x3ecc7751	0.3993478
64	0x3eefcb5d	0.4683484
65	0xbd0cf006	-0.03440859
66	0x3e85d751	0.26140836
67	0x3ec2d5d7	0.38053772
68	0x3ecae988	0.39631295
69	0x3eac6e62	0.33677965
70	0xbefbb3c5	-0.4916059
71	0xbd85d87b	-0.06535431
72	0x3e8fed7d	0.28110877
73	0x3eb7a82f	0.358705
74	0x3eb3befb	0.35106644
75	0xbd7da9cd	-0.061929513
76	0x3d34bf57	0.04412779
77	0x3df603b2	0.120124236
78	0x3f136587	0.57576793
79	0x3e89d135	0.26917425
80	0x3f9be994	1.2180657
81	0x3e9fd8f8	0.31220222
82	0xbda853d4	-0.08219114
83	0xbe279cc3	-0.16368394
84	0xbda2bf77	-0.07946675
85	0x3c6b7c11	0.014372841
86	0xbd80e4c9	-0.06293637
87	0x3e2bc764	0.1677528
88	0xbede0ae5	-0.43367687
89	0xbe7ca8af	-0.24673723
90	0xbe268e91	-0.16265322
91	0x3ea75086	0.32678622
92	0x3e99ce70	0.30040312
93	0xbf4389a7	-0.76381916
94	0x3ddcab99	0.10774917
95	0x3f825398	1.0181761
96	0xbd04e9c1	-0.032449488
97	0xbf3f99b6	-0.7484392
98	0xbcd8c307	-0.026460184
99	0xbe899156	-0.26868695
100	0x3f005f12	0.50145066
101	0xbef35e9e	-0.47533125
102	0xbdafcb4b	-0.08583697
103	0xbdc806e8	-0.09766942
104	0xbf45794f	-0.7713823
105	0xbe86c000	-0.2631836
106	0x3e99ae11	0.30015615
107	0xbf026bfd	-0.5094603
108	0x3de06840	0.10957384
109	0x3f224423	0.6338522
110	0x3ef713f8	0.48257422
111	0xbf0db2ea	-0.55351126
112	0xbe639431	-0.222245
113	0xbd3bf88a	-0.045891322
114	0xbe970c11	-0.29501393
115	0xbed9a0c6	-0.42505473
116	0xbdc5e9a4	-0.09663704
117	0xbef963af	-0.48708865
118	0x3e9626cb	0.29326472
119	0xbf421221	-0.7580891
120	0x3f0f2d27	0.5592827
121	0x3dd7b463	0.10532453
122	0xbe9253a3	-0.28579435
123	0xbc8cbab4	-0.01717887
124	0xbec8921c	-0.39173973
125	0xbe194ef1	-0.1497152
126	0xbe5f1032	-0.21783522
127	0x3ded5ef6	0.11590378
128	0xbec76bd5	-0.38949457
129	0x3da69165	0.081332006
130	0x3ec4b289	0.38417462
131	0xbea86fd4	-0.32897818
132	0xbcb0483b	-0.021518817
133	0xbe43aaef	-0.19108175
134	0x3ea728d7	0.32648346
135	0xbf44d741	-0.7689095
136	0xbea51f63	-0.3225051
137	0xbda7aed2	-0.08187641
138	0x3e98c763	0.2983962
139	0x3e0189a4	0.12650162
140	0xbd1e8fc4	-0.038711324
141	0xbde30e0f	-0.11086666
142	0x3d94af99	0.07260055
143	0x3bcef170	0.0063154027
144	0xbe9a36e9	-0.30120018
145	0x3e1a5f27	0.1507536
146	0xbda7923a	-0.081821874
147	0x3ef4cb0d	0.47811165
148	0xbe3543ce	-0.17701647
149	0xbf0a4b06	-0.54020727
150	0x3efc659d	0.49296275
151	0xbe250322	-0.16114476
152	0x3bf30475	0.007416303
153	0xbf39be1a	-0.72555697
154	0x3c1e2f38	0.0096548125
155	0xbf0c9eea	-0.54929984
156	0xbea9be2d	-0.33152905
157	0x3e0e510e	0.13898107
158	0xbeeae2ef	-0.45876262
159	0xbda6c364	-0.081427366
160	0xbf199ca9	-0.6000467
161	0x3e1636f9	0.14669408
162	0x3eb53e73	0.35399207
163	0x3e773935	0.24142917
164	0xbe91d77b	-0.2848471
165	0xbb82a9cf	-0.003987528
166	0xbe96df35	-0.29467168
167	0xbef426e9	-0.47685936
168	0xbf14dffe	-0.58154285
169	0xbef0f7a2	-0.4706393
170	0xbeab99d8	-0.3351581
171	0x3d5fae68	0.054609686
172	0xbf95c661	-1.1701165
173	0xbf16e0da	-0.58936846
174	0xbe5e0eca	-0.21685329
175	0x3d12bbb2	0.03582353
176	0xbdd88ffd	-0.105743386
177	0xbf7a7576	-0.9783548
178	0x3e30092f	0.17191003
179	0x3e1b588b	0.15170495
180	0xbc952939	-0.018208133
181	0x3dbfec4c	0.09371242
182	0x3f062a4f	0.5240831
183	0xbf2863c5	-0.65777236
184	0x3f933cd4	1.1502938
185	0x3eaa416e	0.33253044
186	0x3e20265b	0.15639631
187	0x3e3dedaf	0.185477
188	0xbe7256d0	-0.23665929
189	0xbf107d48	-0.56441164
190	0xbf02a450	-0.5103197
191	0xbf2d5238	-0.6770358
192	0xbf4c46d7	-0.79795593
193	0xbf09a823	-0.5377218
194	0x3ed17ea3	0.4091693
195	0x3f866e0c	1.0502334
196	0xbe93e8da	-0.2888859
197	0xbe9ba86e	-0.3040194
198	0x3d8b9f8a	0.06817539
199	0xbeff65f5	-0.49882475
200	0x3c4bec02	0.012446405
201	0x3dd5cb72	0.10439195
202	0xbe8d2f68	-0.2757523
203	0xbe45a716	-0.1930202
204	0x3e381763	0.17977671
205	0x3e1fbf74	0.15600377
206	0x3ba0d831	0.0049085845
207	0x3d9b604f	0.07586729
208	0x3f1c4d1f	0.6105518
209	0x3ba088c7	0.0048991176
210	0x3e2bd932	0.16782072
211	0xbeb46311	-0.35231832
212	0xbed02376	-0.40652055
213	0xbea69bf9	-0.32540873
214	0x3e38acae	0.18034622
215	0xbe69b6fa	-0.22823706
216	0xbd31bf1f	-0.043395158
217	0x3e87cc93	0.26523265
218	0xbf349bec	-0.7055042
219	0xbdf3cbe4	-0.119041234
220	0x3e9be855	0.30450693
221	0x3dffd7ce	0.12492333
222	0xbcf3c70e	-0.029758003
223	0x3f18ca70	0.59683895
224	0x3e7c5322	0.24641088
225	0x3d92f981	0.07176495
226	0x3eac7574	0.3368336
227	0xbe53085f	-0.20608662
228	0x3d503063	0.050827395
229	0x3d9c02ee	0.07617746
230	0x3e41beb3	0.18920402
231	0x3efd0c09	0.49423245
232	0xbe3f7e4c	-0.18700522
233	0xbe46cb12	-0.19413403
234	0x3ed8a992	0.42316872
235	0xbe835b99	-0.2565582
236	0x3c769998	0.015051268
237	0x3cd0eeb9	0.025504457
238	0xbf0cf71e	-0.5506457
239	0xbe8bd257	-0.27308914
240	0xbe3af589	-0.18257727
241	0x3db68c1d	0.08913443
242	0xbdf407c6	-0.11915545
243	0xbd85b933	-0.065294646
244	0x3d834926	0.06410436
245	0xbde918c5	-0.113816775
246	0x3f1a029d	0.6016024
247	0x3e03926c	0.12848824
248	0x3e648c31	0.22319104
249	0x3eb25b60	0.3483534
250	0x3d8bc405	0.06824497
251	0xbcd36b1c	-0.02580791
252	0x3c259d27	0.010108269
253	0x3e0fd699	0.14046706
254	0x3f71c02b	0.9443385
255	0x3e26ddda	0.16295567

convs.1.fc_full.bias f4 [92]
0	0x3c9c6e70	0.01909563
1	0xbd09b2bc	-0.03361772
2	0xbd1b85ac	-0.037969276
3	0xbd3e287f	-0.04642534
4	0x3c577dd7	0.013152561
5	0xbcb757c0	-0.02238071
6	0x3d3a1015	0.045425493
7	0xbcfeca7b	-0.03110241
8	0x3de9d6f1	0.1141795
9	0xbd024aee	-0.03180974
10	0x3d6a93ff	0.057270046
11	0xbdd19f9d	-0.10235522
12	0xbbcaeb65	-0.006192612
13	0xbd4e59b0	-0.0503785
14	0x3bc5e818	0.0060396306
15	0xbd017609	-0.031606708
16	0x3d2d1929	0.042260323
17	0x3cc5e76f	0.024158208
18	0x3d4b9299	0.049700353
19	0xbd25f7f0	-0.040519655
20	0xbd451732	-0.048117824
21	0xbd5a246f	-0.053257402
22	0xbd35c4b1	-0.044377033
23	0xbdec75a5	-0.115458764
24	0xbd9eea6f	-0.077595584
25	0xbb6c2429	-0.0036032295
26	0xbd6a8e38	-0.057264537
27	0x3c9f135b	0.01941841
28	0x3d0a85a5	0.03381886
29	0xbdc9f0d5	-0.09860388
30	0xbd9539a8	-0.07286388
31	0xbda9d1ab	-0.08291944
32	0xbdeff0cd	-0.11715851
33	0x3b5bf20a	0.0033561015
34	0xbc6987aa	-0.014253536
35	0x3d80996e	0.062792644
36	0xbda0f20a	-0.07858665
37	0x3de94013	0.11389174
38	0x3cf97905	0.030453214
39	0xbdf794f8	-0.120889604
40	0x3d923d02	0.071405426
41	0x3badd17b	0.005304513
42	0x3d1ade9f	0.037809964
43	0x3da3e3aa	0.08002408
44	0x3c5a9fed	0.013343793
45	0xbdb92318	-0.09039897
46	0xbd22e688	-0.039770633
47	0xbdc424c5	-0.09577326
48	0x3d521566	0.05128994
49	0x3db8fbeb	0.090324245
50	0xbc80ef0f	-0.015738992
51	0x3d0b9c98	0.034084886
52	0x3c15d4d4	0.00914498
53	0xbcd0e664	-0.025500484
54	0x3d769616	0.060201727
55	0x3ccae1b7	0.024765832
56	0xbcc8bfa1	-0.024505438
57	0xbcc2df1d	-0.02378803
58	0x3d852cb9	0.06502671
59	0x3daf88f4	0.085710436
60	0xbd30cc80	-0.043163776
61	0x3d2cece7	0.042218115
62	0xbdb78e81	-0.08962727
63	0xbd88a04f	-0.066712014
64	0xbdb2bfd6	-0.08727996
65	0xbd8fa53d	-0.070139386
66	0xbd62266a	-0.055212416
67	0xbd81530c	-0.06314668
68	0xbda93213	-0.08261504
69	0xbdac601f	-0.08416771
70	0x3d39f55c	0.04540001
71	0x3dbdc714	0.09266487
72	0x3da95477	0.082680635
73	0xbdb458af	-0.088059776
74	0xbda9021e	-0.08252357
75	0xbd78c7d3	-0.060737442
76	0xbcc966d8	-0.024585173
77	0xbceb7ccf	-0.028746037
78	0x3dba3c5b	0.09093543
79	0xbd6a7b2d	-0.057246376
80	0x3ca150bf	0.019691823
81	0x3cd51f2b	0.026015839
82	0x3bf22b68	0.0073904283
83	0x3d98f3d0	0.074683785
84	0x3db21923	0.08696201
85	0xbc08b936	-0.008344939
86	0xbc4a53d2	-0.012349086
87	0xbd967f80	-0.073485374
88	0xba03f959	-0.0005034409
89	0xbda1c29b	-0.07898446
90	0xbd6c6d7b	-0.057721596
91	0xbda664b4	-0.08124676

convs.1.bn1.weight f4 [92]
0	0x3fa5e0c2	1.2959216
1	0x3fc0e228	1.5069017
2	0x3fc2d718	1.5221891
3	0x3fea30f5	1.829619
4	0x3ff4a3bc	1.9112468
5	0x40131021	2.2978594
6	0x4018279e	2.377418
7	0x40068054	2.1015825
8	0x3fd6dd56	1.6786296
9	0x400eebd6	2.2331443
10	0x3ffa28d8	1.9543715
11	0x3fc97344	1.5738301
12	0x3f62e42c	0.8862941
13	0x40063a04	2.097291
14	0x3fcaff43	1.585915
15	0x3f69d9c8	0.9134793
16	0x4037b780	2.870575
17	0x403e2cf5	2.971494
18	0x3fe5e6ca	1.7961056
19	0x3ff30bcb	1.8987974
20	0x40002d8c	2.00278
21	0x3ff9b750	1.9509068
22	0x3fac2e7b	1.3451685
23	0x40052863	2.08059
24	0x3ff42801	1.9074708
25	0x3ff761da	1.9326737
26	0x3fe94619	1.8224517
27	0x3fe11982	1.7585909
28	0x3ff0dc64	1.8817258
29	0x3fc72fc9	1.5561458
30	0x3fc1b223	1.5132488
31	0x3f9d240f	1.2276629
32	0x3fc2069a	1.5158265
33	0x3fd8d31e	1.6939428
34	0x3fc24733	1.5177978
35	0x3fa94460	1.3223991
36	0x3fe53d1f	1.7909278
37	0x3ff58b4a	1.9183133
38	0x400639e6	2.0972838
39	0x3feec6e1	1.8654443
40	0x400934c3	2.1438453
41	0x3ff4ffc5	1.9140555
42	0x3fc06325	1.5030257
43	0x402b53ca	2.676989
44	0x3f9f525d	1.244701
45	0x3f8ef42e	1.1168268
46	0x3f9261e9	1.143613
47	0x3f025de4	0.50924516
48	0x3f4c77c5	0.79870254
49	0x3f485619	0.78256375
50	0x3ffa529d	1.9556462
51	0x3f9725f8	1.1808462
52	0x3f39c7f4	0.7257073
53	0x3f16c396	0.5889219
54	0x3fa641af	1.2988795
55	0x3fadffac	1.359365
56	0x3f613508	0.87971544
57	0x3fd27af8	1.6443777
58	0x40066f1a	2.100531
59	0x3f86e284	1.0537877
60	0x3f8d1c56	1.1024272
61	0x3fbf4318	1.494235
62	0x3f7c8b86	0.98650396
63	0x3f5bed80	0.8590927
64	0x3f3a8507	0.72859234
65	0x3f513cd5	0.8173345
66	0x3f9b1cdf	1.2118186
67	0x3f640cfe	0.89082325
68	0x3f1a9710	0.60386753
69	0x3f960bd3	1.1722358
70	0x3facfd7b	1.3514856
71	0x3fa96e35	1.3236758
72	0x3f97af38	1.1850348
73	0x3fd0835d	1.6290089
74	0x3f90a09d	1.1299015
75	0x3f2fb4b7	0.68635124
76	0x3fa94463	1.3223995
77	0x3f01d73a	0.50719035
78	0x3f278a12	0.65445054
79	0x3fc30215	1.523501
80	0x3f384e6b	0.71994656
81	0x4007341d	2.1125557
82	0x3fac9b42	1.3484881
83	0x3f76bf27	0.96385425
84	0x3fd3eec4	1.655724
85	0x3f6f16a2	0.9339391
86	0x3fab007c	1.3359523
87	0x3f8c575e	1.0964162
88	0x3f547777	0.8299479
89	0x3f99a3f6	1.2003162
90	0x3f8be620	1.0929604
91	0x3f6f34d9	0.93440014

convs.1.bn1.bias f4 [92]
0	0xbd0fd0e3	-0.03511132
1	0xbf12df93	-0.573724
2	0xbdf730e0	-0.12069869
3	0xbf126f90	-0.5720148
4	0xbd9f65eb	-0.07783111
5	0xbe8bb41c	-0.2728585
6	0xbe614017	-0.21997105
7	0xbef45a67	-0.47725222
8	0x3e6b7682	0.22994426
9	0xbde2f6c2	-0.110822216
10	0x3dcbda02	0.09953691
11	0xbca0b942	-0.019619588
12	0x3f0916f8	0.5355067
13	0xbe6630cb	-0.2247955
14	0x3be2cc35	0.006921316
15	0xbf3127ee	-0.6920155
16	0xbe3aed8d	-0.18254681
17	0xbe17559c	-0.14778751
18	0xbe92472c	-0.28569925
19	0xbc33416b	-0.01094089
20	0xbcee2a80	-0.029073
21	0xbf002d48	-0.50069094
22	0xbf051916	-0.51991403
23	0xbc1d3925	-0.009596144
24	0xbead5396	-0.33852834
25	0x3d2bf9e6	0.04198637
26	0xbe8c7e2c	-0.27440012
27	0xbec5ead6	-0.38655728
28	0xbe484eb5	-0.19561274
29	0xbf303fb6	-0.68847215
30	0x3d29a3d9	0.041416023
31	0xbf6e30e0	-0.9304333
32	0x3ea2a18a	0.3176387
33	0xbedd93a4	-0.43276703
34	0xbf20fbfa	-0.62884486
35	0xbeb823d3	-0.35964832
36	0xbe9c473b	-0.30523095
37	0x3e0acbc5	0.13554294
38	0x3de2a6d1	0.11066974
39	0xbe4ed44f	-0.20198177
40	0xbe10b80c	-0.14132708
41	0xbdcad83a	-0.09904523
42	0x3e904eb9	0.2818506
43	0x3e6e3e7b	0.23266022
44	0xbe0a5bbf	-0.13511561
45	0xbd9855b6	-0.07438223
46	0x3e47cb11	0.19511057
47	0xbf53c3bc	-0.8272054
48	0xbeeab3ae	-0.4584021
49	0xbec5158c	-0.38493
50	0x3c336c7d	0.010951159
51	0x3e85591d	0.2604455
52	0xbf114e9d	-0.5676058
53	0xbf0ca570	-0.5493994
54	0xbe6ec1ac	-0.23316067
55	0xbee49cc9	-0.44650868
56	0xbee0908d	-0.43860283
57	0xbe98d721	-0.2985163
58	0x3cf1fc25	0.029539177
59	0xbed4ee32	-0.4158798
60	0xbec4f16e	-0.38465446
61	0xbe42f433	-0.19038467
62	0xbea7ed06	-0.32798022
63	0x3f106e07	0.5641789
64	0xbf077816	-0.5291761
65	0x3ec4a0c6	0.3840391
66	0x3ec59998	0.38593745
67	0xbf0f8350	-0.5605974
68	0xbefb850a	-0.49124938
69	0x3e99b8ce	0.30023807
70	0xbb8b39be	-0.0042488268
71	0xbebf36ce	-0.373465
72	0xbd03747b	-0.032093506
73	0xbe81fa01	-0.2538605
74	0xbe50fd0c	-0.2040903
75	0xbf24145c	-0.64093566
76	0xbe65d463	-0.224443
77	0xbf500c30	-0.81268597
78	0x3f0c9073	0.5490791
79	0xbe166080	-0.1468525
80	0xbf0e3aeb	-0.5555865
81	0xbe560ba0	-0.20902872
82	0xbeb71c26	-0.35763663
83	0xbebdb840	-0.37054634
84	0x3e4e69b4	0.2015751
85	0xbe3d4dab	-0.18486659
86	0xbea8429a	-0.32863313
87	0xbef1fed2	-0.47264725
88	0x3eeb92cc	0.46010435
89	0x3e09906e	0.13434002
90	0x3e6d1b00	0.23154831
91	0xbec3785a	-0.38177758

convs.1.bn1.running_mean f4 [92]
0	0x4009a183	2.150483
1	0xc0401028	-3.000986
2	0x3fdf29a0	1.7434578
3	0xbeb1ff2a	-0.34764987
4	0xc0307df9	-2.7576888
5	0x3e528f66	0.20562515
6	0xbff60dc2	-1.9222949
7	0xbd7290aa	-0.059219994
8	0xc0445602	-3.0677495
9	0x3da4bbe1	0.080436476
10	0x3e10965c	0.14119858
11	0xbc34d2f7	-0.011036626
12	0xc07621ce	-3.8458133
13	0xbe758b68	-0.2397896
14	0x3f37be60	0.71774864
15	0xbff41f7f	-1.9072112
16	0x3df9ad29	0.12191231
17	0xbf418c2f	-0.7560453
18	0x3e3d9aa0	0.18516016
19	0x3ea61264	0.32435906
20	0x3f26b0e4	0.65113664
21	0xc039ac70	-2.9011497
22	0xc045e8a8	-3.0923252
23	0xbe448145	-0.19189937
24	0x3fa31443	1.2740558
25	0xbe89124c	-0.26771772
26	0xbf0fb5a9	-0.56136566
27	0xbfa74d76	-1.3070514
28	0xbfb99b2f	-1.4500483
29	0xbff18b18	-1.8870573
30	0xbfdf61c4	-1.7451711
31	0xc0a6b4f2	-5.209588
32	0xbe5449de	-0.20731303
33	0x3f9a28cb	1.2043699
34	0xbfa6f3dc	-1.304317
35	0x3f8d2c3c	1.1029124
36	0x3fa4e997	1.2883786
37	0x3eae71df	0.34071252
38	0xbf845fdf	-1.0341758
39	0x3ff134ac	1.8844199
40	0xbf83cc5a	-1.0296738
41	0xbfeb6ca8	-1.8392534
42	0x3f103083	0.56324023
43	0xbf37147a	-0.7151562
44	0x403e277a	2.9711595
45	0xbf0bc89b	-0.54602975
46	0xbf886a78	-1.0657492
47	0xbe7abd5b	-0.24486296
48	0x3fab11c4	1.3364797
49	0xbeb6aa13	-0.3567663
50	0xbeeeac7c	-0.4661597
51	0x3bcc952e	0.0062433695
52	0xbf9c1faf	-1.2197169
53	0xbfce3772	-1.611067
54	0x3fd5f3c5	1.6715018
55	0xc007ac25	-2.1198819
56	0x3f3d6cf1	0.73994356
57	0xc000e845	-2.0141766
58	0xc00e7808	-2.2260761
59	0xbf8b8ac4	-1.0901723
60	0x3f79b449	0.9754072
61	0xc002b292	-2.042149
62	0xc00b6365	-2.1779416
63	0x3fa71a14	1.3054833
64	0x3fc27dde	1.5194662
65	0xbfbf832b	-1.4961904
66	0xc03c146e	-2.938747
67	0xc03a6acf	-2.912769
68	0xbf593029	-0.8483911
69	0xc013eda8	-2.3113804
70	0xc080ec75	-4.0288644
71	0xc0021c4b	-2.0329769
72	0xc0163f3d	-2.3476098
73	0xbf74b5bc	-0.95589805
74	0xc0244fe4	-2.5673761
75	0xc0006215	-2.0059865
76	0xc0a3f79a	-5.123975
77	0xc00ed88e	-2.2319674
78	0x3c3042df	0.010758131
79	0xc0075398	-2.1144772
80	0xbff00c5f	-1.8753775
81	0xc034031e	-2.8126903
82	0xc08a4380	-4.3207397
83	0x3fe390ad	1.7778527
84	0xc0bf381e	-5.9756002
85	0x401f45ee	2.4886432
86	0xbf183424	-0.5945456
87	0xbe4f4b9a	-0.20243683
88	0x3ff1599e	1.8855474
89	0x3fcad8af	1.5847377
90	0xc07b9574	-3.930997
91	0x3e9180b4	0.28418505

convs.1.bn1.running_var f4 [92]
0	0x411efe04	9.937016
1	0x4195c744	18.722298
2	0x41298391	10.594621
3	0x413bd86f	11.74034
4	0x41932616	18.393597
5	0x415daca3	13.854648
6	0x41604330	14.016403
7	0x41901243	18.008917
8	0x417729ab	15.447673
9	0x410f3f32	8.952929
10	0x4161e501	14.118409
11	0x41774c44	15.45612
12	0x412babec	10.729473
13	0x41ac9733	21.573828
14	0x41873052	16.898594
15	0x416de716	14.868917
16	0x41082667	8.509376
17	0x417bac0f	15.7295065
18	0x414c3d57	12.764976
19	0x40b325cd	5.5983644
20	0x4164c84d	14.298902
21	0x4146592a	12.396769
22	0x41ee7039	29.804796
23	0x40c630ac	6.1934414
24	0x4169d83a	14.61529
25	0x4130bd9c	11.046291
26	0x40d92bb6	6.786586
27	0x417c22e8	15.758522
28	0x412e6ef2	10.902086
29	0x41822eb7	16.27281
30	0x41169c86	9.413214
31	0x41e80f3a	29.007435
32	0x40c5d829	6.1826367
33	0x4126271e	10.38455
34	0x4147380d	12.451184
35	0x41cd60db	25.672293
36	0x410d2fb3	8.824145
37	0x40deff76	6.968684
38	0x40f6cdb1	7.712609
39	0x41730349	15.188302
40	0x412aee7a	10.683222
41	0x41aa49bf	21.286009
42	0x40f51225	7.658465
43	0x4126d485	10.426885
44	0x417f6f45	15.964665
45	0x417eeaad	15.932294
46	0x412e29e0	10.885223
47	0x417a913a	15.660456
48	0x4145f4fd	12.372312
49	0x40dd4cf0	6.915642
50	0x4161cadc	14.112026
51	0x4155b4fa	13.356684
52	0x411d3bf1	9.827134
53	0x416b5262	14.707613
54	0x414db3c0	12.856384
55	0x4184522c	16.540123
56	0x419dc7dd	19.72259
57	0x41985e51	19.046053
58	0x410229c2	8.135195
59	0x41b63343	22.77503
60	0x412ca546	10.79035
61	0x41972a20	18.895569
62	0x412fef58	10.995934
63	0x416cc2ca	14.797556
64	0x412e392c	10.888958
65	0x4104ea27	8.307166
66	0x412ab753	10.669757
67	0x41bbd91e	23.481014
68	0x411bf8fd	9.748288
69	0x410a049f	8.626128
70	0x4170677a	15.025263
71	0x41944e4d	18.538233
72	0x416a8053	14.656329
73	0x410a6019	8.648461
74	0x4108eb11	8.557389
75	0x413f9e84	11.9762
76	0x418125f1	16.143526
77	0x41c19186	24.196056
78	0x410d98d4	8.849812
79	0x4113f65e	9.247648
80	0x411b1d1e	9.694609
81	0x41779538	15.47393
82	0x41a87725	21.058176
83	0x4149e281	12.617799
84	0x41c9c737	25.222273
85	0x4140dc4c	12.053783
86	0x41249148	10.285469
87	0x41488320	12.532013
88	0x411fcfab	9.9882
89	0x41372b31	11.448045
90	0x416b367d	14.700803
91	0x4137dd96	11.491598

convs.1.bn2.weight f4 [46]
0	0x3f84d488	1.0377359
1	0x3fcaca05	1.5842901
2	0x3fa2c8d1	1.2717534
3	0x3f88e977	1.0696248
4	0x3fb433c9	1.4078304
5	0x3fad1907	1.3523263
6	0x3fa33e8d	1.2753464
7	0x3fcaa18b	1.5830549
8	0x3f948adc	1.1604877
9	0x3f9aef53	1.2104286
10	0x3fb53eb3	1.4159759
11	0x3f774109	0.9658361
12	0x3f605867	0.8763489
13	0x3fc35e86	1.5263221
14	0x3f485262	0.78250706
15	0x3f694ede	0.91135967
16	0x3f988ecc	1.1918578
17	0x3f856e91	1.0424367
18	0x3f7e3062	0.99292576
19	0x3f518ffd	0.81860334
20	0x3f497b8f	0.7870416
21	0x3f930c50	1.1488132
22	0x3fa51501	1.2897035
23	0x3f4d13e1	0.8010846
24	0x3fa4b7ec	1.2868629
25	0x3f3ecd74	0.74532247
26	0x3f4c76b4	0.79868627
27	0x3f8afaa2	1.0857737
28	0x3f8ba3a4	1.0909314
29	0x3fa9f712	1.3278525
30	0x3f7655c4	0.9622462
31	0x3fa55fe9	1.2919894
32	0x3f39df63	0.72606486
33	0x3f6d07eb	0.92590207
34	0x3f9ea08e	1.2392747
35	0x3f945733	1.1589111
36	0x3f74f294	0.95682645
37	0x3f04b51b	0.51838845
38	0x3f7b91f6	0.98269594
39	0x3f9b0147	1.2109765
40	0x3f825688	1.0182657
41	0x3fa668b4	1.3000703
42	0x3f89bc55	1.0760599
43	0x3f0fff39	0.56248814
44	0x3f8d64f8	1.1046438
45	0x3f7a5bb6	0.9779619
