dropout/NN_ktran/valid_best_d20_params.pt (torch_old, 452453 bytes, 103 tensors)

embedding.weight f4 [46, 98]
00000000: 76a0 82bd 0511 5d3d 12ed 2d3e 1b72 e7be
00000010: d38a 793e 46ac 99bd a47b 673e 916c 9b3e
00000020: 21d3 0e3e 41e3 b5be 973e 30bf 1dd8 ba3d
00000030: 17bb 9d3d 202a 1dbc 2836 ba3c d9a4 a93e
00000040: 8ea9 1f3e 1241 993d 00ee c4ba b599 27be
00000050: 8d36 983c f93f 453e 02f3 52be bba4 62be
00000060: 9696 223e a839 c3bc f18c 0b3d 153e a03d
00000070: 73f6 903d 9b9b 6bbc cb55 0ebe 1c6f 2cbe
00000080: d845 08bd 9250 17be 0f42 093f e056 9c3b
00000090: e0e1 79be 0b03 e73e da20 1abc 57e7 0fbd
000000a0: c975 8abd ba56 89bb f1aa 693d 738e cc3e
000000b0: 178c 32bd 7142 953b 87ee 7e3d 3e20 51bc
000000c0: 02fa 033d 3e9e 3239 810d 883e 1dba 943e
000000d0: be11 963e f1f1 103e d51e c0be abbd aabe
000000e0: 6c5a 1dbc 2b8d 6bbe 4e8b bebd ceec 913e
000000f0: 8848 903d 1394 31bd 8e7e e1bd cdda 1d3e
00000100: 81e9 b0bc 4488 643d a667 9a3d ded6 c9bd
00000110: bacd c33d 041e b03c bc1a 61bd 482b a8bc
00000120: 2687 33be dc97 8f3d c341 7d3d 050f 85be
00000130: 70c2 e23b acf6 bf3d e1b1 0f3d 506b 353e
00000140: 78d9 92be 68aa ae3c ff4d 3abc 6c4a c9be
00000150: da87 913d 82cb a03d c89b c03d 6b0f 14bd
00000160: f1b7 e53d 2854 323f d819 0ebe 4534 e63c
00000170: 31e1 363e 781e 2c3f 4d69 fdbe 67fb 3bbf
00000180: ac85 623d 6521 233e f043 26bd 5604 2b3e
00000190: 6554 6b3e f1d1 5a3f 9904 de3e 6d2b 0ebe
000001a0: f8d7 2fbf fa1b 473e b56d adbe 20e0 973d
000001b0: e964 a53c 27cf 02be 51dc e4be c7ce a93d
000001c0: 1592 cdbe b40c 8abd 2b7d 843e e6da 8a3d
000001d0: f03e 8fbd 2c0f ff3d c574 82be 5e61 8bbe
000001e0: 1c10 203d c449 723e b4e2 e7bd 235f afbd
000001f0: 745f e23d 64cf 973e 9383 ed3e 362e 56be
00000200: 44b2 c7be 5c50 743e ef9d 84bd cc28 d5be
00000210: c422 803e 342b 9f3c 47a3 043e 96d2 163e
00000220: b87d b5be 0a00 dbbd 6d2d 55be 6660 55bc
00000230: 3699 ad3e 4abe 4b3e f12f 48bd 9345 303e
00000240: f46a d63d 4186 2c3e 024e 723e 6ce2 37be
00000250: 1016 8cbd 6980 88be 66d8 793e 2d6e bcbe
00000260: 0e88 83bc bc22 81bd e640 b7bd e2b3 36bd
00000270: d07c 6f3d b9b3 0c3e 81e4 513e 4612 79be
00000280: e90f 27be 88e0 aa3d afd5 a4be bcd9 c53d
00000290: 2874 8abc b4c0 463d 1ecb a2bd 0c73 7f3d
000002a0: b7c6 12bf 503c 203d c56e 3fbd cd10 6a3e
000002b0: fbac 21be ca18 813d 4807 9d3d 6801 1e3d
000002c0: 47ee 973e 4e6f fcbd c9b4 19be fe41 1cbd
000002d0: f7d2 893d 30f0 b43d d543 b9be 48ab 0cbe
000002e0: c0e4 2fbe d15d b23e ad08 973d 9d77 db3b
000002f0: 6029 d93d dfec 763d 8c6d 293e 1359 fa3d
00000300: 36c7 273e 66a3 09be 3853 19be bb09 c3be
00000310: b0a7 1f3d 7528 12bd 9722 ddbd cdf1 0cbe
00000320: 046c 943e a66f 62be d027 4cbe c846 ab3d
00000330: 85fa 5abe 544c a43e 2774 993d 2733 20be
00000340: c877 7a3c 9467 6d3c 1990 1cbc 9a6c 3ebd
00000350: 5bd6 2dbd ea5b 843d 984e e6bc 192f cf3e
00000360: 3afa 09be 9ddc 0c3e 3bbf 81be 226c d9bc
00000370: 89d9 913e 50d1 7b3d 611c 0fbe 0fd5 aebe
00000380: 77a8 3d3e 9fce 823c ee2b b9bd 2706 583b
00000390: 5fa2 c3bd 3039 3a3e b4ef babe 10d9 9c3d
000003a0: df28 d03e 61d9 d9be 3df0 5bbe 610e e6bd
000003b0: 6f97 b2bc 11fa 083e ff21 9abe 5568 f03e
000003c0: 52be b1bd b146 8cbd 0f5c 043e b31c 25be
000003d0: ca9a b83d 8f9c 86bd bcf5 a2bd 1150 81be
000003e0: 0806 c53d 8291 96be 1ce6 8b3e f1f6 6a3e
000003f0: 1a30 98be fd16 1fbe 132f dcbd 09af acbe
-0.06378262 0.05397131 0.16984966 -0.45204243 0.24369363 -0.07503562 0.22605759 0.30356267
0.13947727 -0.35524943 -0.68845505 0.091232516 0.077017 -0.009592563 0.022730902 0.3313358
0.15592024 0.07483114 -0.0015024543 -0.16367228 0.0185807 0.19262685 -0.20600513 -0.22133152
0.15877756 -0.023831204 0.03406996 0.07824341 0.070782565 -0.014380361 -0.13899915 -0.1683926
-0.033269733 -0.14776829 0.5361642 0.0047710985 -0.2440257 0.4511951 -0.0094072465 -0.035132732
-0.06760747 -0.004191247 0.057047788 0.3995243 -0.04359063 0.0045550396 0.062239196 -0.012764035
0.032220848 0.00017034353 0.26572803 0.29048243 0.2931041 0.14154793 -0.37523523 -0.3334783
-0.009604078 -0.2300307 -0.09303914 0.2850098 0.07045084 -0.043354105 -0.110104665 0.15415497
-0.021595718 0.055794016 0.075393006 -0.09855436 0.095607236 0.021498688 -0.054957137 -0.02052845
-0.17532024 0.07011387 0.061830293 -0.25988021 0.0069201514 0.09373221 0.035081748 0.17716718
-0.2868154 0.02132149 -0.011371135 -0.39314592 0.0710599 0.07851316 0.09404713 -0.036147516
0.11216725 0.6965966 -0.13877046 0.028101096 0.17859341 0.6723399 -0.494944 -0.73430485
0.05530326 0.15930708 -0.040592134 0.16700873 0.22981413 0.85476595 0.43362883 -0.13883753
-0.6868892 0.19444266 -0.33872762 0.07415795 0.02018972 -0.12774335 -0.44699338 0.08291393
-0.40150514 -0.06740704 0.25876746 0.06780033 -0.06994426 0.12454066 -0.25479713 -0.27222723
0.039077863 0.23660952 -0.11322537 -0.08563068 0.110533625 0.29650414 0.46389446 -0.20916066
-0.39003193 0.2385878 -0.06475436 -0.41632688 0.25026524 0.01942978 0.1295291 0.1472877
-0.35447478 -0.10693367 -0.2081811 -0.013023471 0.33905953 0.19896808 -0.048873845 0.1721404
0.104696184 0.16848089 0.2366257 -0.17957467 -0.068401456 -0.2666047 0.24398956 -0.36802807
-0.016056087 -0.06305453 -0.08947925 -0.044605143 0.05846864 0.13740434 0.20497324 -0.24323377
-0.16314663 0.08343607 -0.32194278 0.0966067 -0.01690109 0.04852362 -0.07948898 0.062365577
-0.57334465 0.03912002 -0.046736497 0.22857971 -0.15788643 0.06303556 0.076674044 0.03857556
0.2967398 -0.12325917 -0.1501037 -0.038148873 0.067296915 0.08834875 -0.36184564 -0.13737214
-0.17177105 0.348372 0.07374702 0.0066976086 0.10603595 0.06028449 0.16545695 0.12224021
0.16384587 -0.13441238 -0.14973152 -0.3809336 0.03897828 -0.035683114 -0.10797613 -0.13764115
0.2898866 -0.22112903 -0.19937062 0.0836311 -0.21384628 0.32089484 0.074928574 -0.15644513
0.015287347 0.014490027 -0.00955584 -0.04649029 -0.042440753 0.06462844 -0.028113648 0.4046562
-0.1347436 0.13756032 -0.2534121 -0.02654082 0.2848628 0.061478913 -0.1397567 -0.34146926
0.18521295 0.015967665 -0.09041582 0.0032962651 -0.09552454 0.18185878 -0.36511004 0.07658589
0.40656182 -0.4254866 -0.21478362 -0.11233211 -0.021800725 0.13376643 -0.30104062 0.469546
-0.08678879 -0.06849421 0.12925743 -0.16124229 0.09013899 -0.0657283 -0.07957026 -0.25256398
0.09620291 -0.2940789 0.27323997 0.22945763 -0.297242 -0.15536113 -0.10751166 -0.3372729

embedding.bias f4 [46]
00000000: 61c7 25bd f4a7 1cbe 6387 80be ec14 42be
00000010: c073 4dbe 4b74 c5bd d8b4 823d ed2b b7be
00000020: 3a9d 69bd 5790 6cbd 375c b4bd bfb8 c5bd
00000030: 8676 d23d 23c6 84be aa55 7abe 4a8d ea3c
00000040: ac87 43be 530a a73c a7e1 b6bd cc8f a6be
00000050: 7380 42be ad79 43be 6177 f3bd 1f63 2bbd
00000060: f3f9 5dbe 3883 14be 9d85 17be be6f b9be
00000070: 068b 533d 7d27 6b3d ca7c 63bd 5a2f b3be
00000080: 2352 afbe 7280 9fbd 8113 4d3d 17ea 53be
00000090: 599e c2be 6bd4 5cbe da61 80bd 855a 40be
000000a0: 773d 03be db87 58be 6e68 76be 4831 c8be
000000b0: d441 ccbd f886 723c
-0.040473346 -0.15298444 -0.25103292 -0.18953294 -0.20063686 -0.09641322 0.063821495 -0.357757
-0.05703471 -0.05775484 -0.08806651 -0.09654378 0.10276513 -0.25932416 -0.24446741 0.028631825
-0.19094723 0.020390665 -0.089297585 -0.32531583 -0.18994312 -0.19089384 -0.11888004 -0.041842576
-0.2167738 -0.14503181 -0.14797063 -0.36218065 0.051646255 0.057410706 -0.05553893 -0.34997064
-0.34242353 -0.07788171 0.05006743 -0.20694767 -0.38011435 -0.21565406 -0.06268664 -0.1878453
-0.12816416 -0.21145575 -0.24063274 -0.391001 -0.09973493 0.014802687

convs.0.fc_full.weight f4 [92, 98]
00000000: 395b 7fbe 8648 6abe 2e86 d13d 9070 87be
00000010: 1c22 a03d ed5e e13d 7bb7 77be 0b7c cd39
00000020: e4d9 193d 67a5 92be ca8d ec3e 048f 1ebe
00000030: 3d09 c83d e7e1 613e 9c5b 0f3f 4e4f bf3d
00000040: 9160 ff3d 5de4 84be 3fc7 ecbe 63af 323e
00000050: a146 013f 2d0e 0c3f 2a48 353e a774 d6bc
00000060: 7666 9f3e bb4e afbc 86c5 c63e 7fa4 5cbc
00000070: 5867 483e 1615 8cbe 7590 22be 084c 3cbe
00000080: 015c c7be 4a43 133d 4968 c83d 0e79 c13e
00000090: 92c4 8abd f301 b63c 2b03 443d 4ee3 f8bd
000000a0: 64fc 293d 56a0 923e e2a1 4abe 2a42 85bd
000000b0: 14e4 dabd afa9 473d 3cad 22be 3671 a9bc
000000c0: f146 893e 90f5 d53e fac9 4dbd 6d78 e4bc
000000d0: ec4e 2dbd 648e 0c3e 1f5c 87bd d285 4fbc
000000e0: 0b53 81bd c533 643d b770 06bf 26c5 55bd
000000f0: e5a3 24be 7dd0 f43e 09e5 a93d a4c7 c23d
00000100: e011 d9bd 1fa4 0bbf b01e 95bd f72f e23e
00000110: 2159 9fbd 9ee4 93bc c74f ab3a 2b04 b53b
00000120: 0219 d9bc fe52 86bd a705 c3bc 8051 ed3e
00000130: a0a0 fcbe 8185 8abc 7004 eebe 0fd8 4dbd
00000140: 5d5f c63e eee9 173e d177 37be db84 633d
00000150: 7c53 7cbd 37ea e53c d1aa 8fbe 8015 743b
00000160: 71fb 31be 7b32 0ebd c69d da3d 4994 103f
00000170: e8ed 88be 1eb3 1ebf 4b28 2bbf 4efd 92be
00000180: 1180 403f d35e 433f 1055 7a3c 0e01 19be
00000190: d9f8 673e 82c5 5b3e 8684 91bd 64d5 8e3c
000001a0: abc7 9dbb b800 453e 2958 b3bc f6db 7c3d
000001b0: 8fcc 43be a409 403e 96d8 81be 5c47 fabb
000001c0: 9df6 23be a701 0c3d 4d30 0fbe 3aac 8d3d
000001d0: a714 623c 0d43 c1be 50a4 96bd 362c 81be
000001e0: 8ebc 913b da5f a7be dda1 abbe d607 f6bc
000001f0: 3275 a23d 7ea4 0f3e ad3a 94bd e26a cf3c
00000200: f78d 2bbc 81a6 5b3c 7ae2 42be 47ad 11be
00000210: 860b 5cbe 3c1b a3be 506f 14be 1a9b f7bc
00000220: 471d 613e 37bc 093e 198b acbd 64c7 603d
00000230: 7893 973d e995 86bc 5bdb b53d a1c9 723e
00000240: 962f 8b3e 83fa 923d 5a3a 393e c1bf 6cbf
00000250: b3c9 9bbe 5a59 9cbc 84ba 8abe 7dcf d13d
00000260: 380e 0ebd 2e57 173f 87b0 41bf a9c3 e0be
00000270: a43a 4d3f 0144 d5bd 2503 3f3e 435f 77be
00000280: a152 bebe 31db 083f 18f6 cabc ff26 223e
00000290: 192f 673d 7c85 2d3d 2a88 8abd 94e9 163f
000002a0: 5657 22be 74fc 613e d6f6 023f af9c bd3b
000002b0: e6f7 1ebe 9196 efbd 3559 a73e d62d 33bf
000002c0: ae96 d3bd 168e 3ebd 422c 17be aad6 0ebf
000002d0: 69db dd3e f7c8 b6be ea1b b93e d5fd 4fbe
000002e0: 3d7f 073e 1110 fdbe 9cb0 c63e 6af8 253f
000002f0: b936 793e 3711 0ebf 778b dfbe 8177 b73d
00000300: 8fcd 133e 75ad 19be 8643 2f3e 3f55 5b3e
00000310: 2398 6a3f f293 9a3e 205e e7bd 4942 803e
00000320: 4b98 bf3e 99b1 21be a1b8 b1be 902c 46bf
00000330: c285 dd3d d169 163e c72e 8fbe 32e4 773f
00000340: c7af 40be 4f7b 1bbd a730 1bbe d2ad e5be
00000350: 4d93 0e3d 91ee dc3c 168d 803d 9840 7bbe
00000360: 8590 b3be 9e94 ccbd cc83 4cbe 4637 ecbd
00000370: f0d4 b5bd 385c 733e d471 efbd 9ef2 e73e
00000380: 6515 38be 328f c63e 111d 9d3e 70a9 6f3f
00000390: 0016 403e af5c 9ebe ca24 093f 9e4e c5bc
000003a0: c63b a7be d3dc dcbe b6d5 a63e aa23 7bbd
000003b0: 0110 c03e 5c7c 4a3e be9c 943e 6d46 92bd
000003c0: 1f7d 1dbf 1d20 41bc aafc 013c 166b 0e3d
000003d0: 7682 b5be 1970 bfbb 146d 0abe 1757 133d
000003e0: 661c e83e 7006 953d 2f43 1a3d 3f7a 27bf
000003f0: 04dd ca3d 3023 913e 2d83 193d 38a8 4abe
-0.24937142 -0.22879228 0.10230671 -0.26453066 0.07819006 0.11004434 -0.24191086 0.00039193066
0.037561312 -0.28641817 0.46201926 -0.15484244 0.09767387 0.22058831 0.5599916 0.09341298
0.124695905 -0.25955477 -0.46245763 0.17449717 0.50498396 0.5470913 0.1770331 -0.026178671
0.3113286 -0.021399846 0.38822573 -0.013466953 0.19570673 -0.27359837 -0.15875418 -0.18388379
-0.3893738 0.035952844 0.09785516 0.3778767 -0.06775774 0.022217726 0.047854584 -0.1215273
0.041500464 0.28637952 -0.19788316 -0.065067604 -0.10688034 0.048745807 -0.15886396 -0.020683866
0.26811936 0.41788912 -0.050241448 -0.027889455 -0.042311594 0.13726193 -0.066093676 -0.012666183
-0.06314667 0.055713434 -0.5251574 -0.05218997 -0.16078146 0.47815314 0.08295638 0.09510735
-0.105991125 -0.54547304 -0.07281244 0.4417722 -0.07780672 -0.01805335 0.001307004 0.0055241785
-0.026501182 -0.06558798 -0.023806406 0.46351242 -0.49341297 -0.016909363 -0.4648776 -0.050254878
0.3874463 0.14835331 -0.179168 0.055546623 -0.061603054 0.028065784 -0.2806001 0.003724426
-0.17381074 -0.03471611 0.10674624 0.56476265 -0.26744008 -0.6199206 -0.6685836 -0.2870888
0.75195414 0.76316565 0.01527907 -0.14941809 0.22653522 0.21462062 -0.07105355 0.017435737
-0.004815062 0.19238555 -0.021892624 0.06173321 -0.19121002 0.18753678 -0.25360554 -0.007637901
-0.16012044 0.034181263 -0.13983269 0.06917615 0.013798869 -0.37746468 -0.07355559 -0.25229043
0.0044475263 -0.32690316 -0.3352193 -0.030033033 0.079325095 0.14027593 -0.07237754 0.02531952
-0.010470859 0.013406397 -0.19031706 -0.14226256 -0.21488771 -0.31856716 -0.14495587 -0.030225325
0.21983825 0.13450705 -0.08424968 0.054877654 0.07401174 -0.016428905 0.08879729 0.23709728
0.27184743 0.071766876 0.18088666 -0.92480093 -0.30427322 -0.019085575 -0.27095425 0.102446534
-0.03468153 0.591174 -0.75659984 -0.43899277 0.80167603 -0.10413361 0.18653543 -0.24157433
-0.37172416 0.5345946 -0.02477555 0.15835188 0.0564414 0.04236363 -0.067642525 0.5895016
-0.15853629 0.2206896 0.5115789 0.0057865004 -0.15524253 -0.1169864 0.32685247 -0.69991815
-0.10331474 -0.046522222 -0.14762977 -0.557963 0.4333146 -0.357002 0.3615411 -0.20311673
0.13232131 -0.4942632 0.38806617 0.64832175 0.24337281 -0.5549502 -0.4366109 0.089583404
0.14433883 -0.15007575 0.17115602 0.21419238 0.9163839 0.30190998 -0.1129725 0.25050572
0.37420878 -0.15790404 -0.34711173 -0.77411747 0.10816528 0.14688803 -0.27965376 0.96832573
-0.18817054 -0.037959393 -0.15155278 -0.44859177 0.034808446 0.026969226 0.0627691 -0.2453636
-0.35071197 -0.09989284 -0.19972152 -0.1153398 -0.08878505 0.23765647 -0.11691633 0.4530229
-0.17976911 0.38781124 0.30686238 0.93617916 0.18758392 -0.30930087 0.5357176 -0.02408534
-0.3266279 -0.43137226 0.32584924 -0.06131331 0.3751221 0.19774002 0.29025835 -0.07142339
-0.61519045 -0.011787442 0.007933775 0.034770094 -0.35451096 -0.0058422205 -0.13518173 0.035971727
0.45334166 0.072766185 0.037661728 -0.6542091 0.09905437 0.28347158 0.037478615 -0.19790733

convs.0.fc_full.bias f4 [92]
00000000: ebaa 92bc 0099 943d bbc9 67bd d096 b9bd
00000010: 318f e43d 89a7 343c 0bfb c93d 5e49 6c3d
00000020: f500 9dbd d0d0 ee3c 2033 02bd afff 72bd
00000030: f8c6 b2bd 058f ca3c cd30 b5bd 0fdf 473b
00000040: 6ed1 84bd c439 89bd 4bf5 8ebd 8200 b1bc
00000050: a6be a43d df7c c83c 8906 b0bd b15a 27bc
00000060: 4831 aa3d fd2b 443c 0418 8e3d 7d9c 19bd
00000070: 23db b63d d4f0 9ebd dab6 be3d 7f0a 673d
00000080: 3f38 b0bd 3659 eb3d 879e e2bd b6bb bb3c
00000090: baed 73bc 0641 083c ec95 1dbc 569c b0bb
000000a0: 4538 10bd 5f88 ac3d d877 7b3d 2b1c 0f3d
000000b0: 9671 27bd 91d9 a3bd ee7e c33c 236e c8bb
000000c0: 81f0 1d3d 85cc 38bd 7821 ed3d bc7b 5dbd
000000d0: 19ab 053d a6f2 133e 0c8b 083d 25a8 de3d
000000e0: bdf5 5dbd 2c12 883c ae37 cc3d a5fd 053f
000000f0: 3ead 47bc e0c1 babd a882 513c 8048 a0bd
00000100: a37c 293d 736d 6fbc 9f0e 25bd ff8a 223d
00000110: e103 fd3c 5556 76bd 083d dcbc 3c99 293d
00000120: 918e 81bd c6c8 d73d 9644 dcbc 4ef1 cabd
00000130: 8ad4 2e3d a1a6 92bb a7be 60bd 7c91 ec3d
00000140: d5a8 6fbd 08cd 983d 80cc debc bb49 ef3c
00000150: 740f 773d ff49 9e3c 339c 813d d286 7d3d
00000160: 544c a0bd 823d a93d d54a 0abe d734 813d
-0.017903766 0.07255745 -0.05658887 -0.09061968 0.11160124 0.011026272 0.09862336 0.057687156
-0.07666198 0.029152304 -0.031787038 -0.05932587 -0.087293565 0.0247264 -0.08847199 0.0030497944
-0.06485258 -0.06700471 -0.0698038 -0.021606687 0.08044176 0.024473606 -0.085949965 -0.010214494
0.08310181 0.011973378 0.06938174 -0.037502754 0.08928516 -0.07760778 0.0931222 0.056406494
-0.08604478 0.11491625 -0.11065393 0.022916656 -0.014888221 0.008316284 -0.009618264 -0.0053897304
-0.035209913 0.08424448 0.06139359 0.034938972 -0.04087981 -0.08000482 0.023864236 -0.006116645
0.03855944 -0.04511692 0.11578649 -0.05407308 0.032633875 0.14448032 0.03333573 0.10871915
-0.054189432 0.016610228 0.099715576 0.52340156 -0.0121873 -0.0911901 0.0127874985 -0.07826328
0.04137863 -0.014613497 -0.040297147 0.03968334 0.030885639 -0.060140926 -0.02688457 0.0414059
-0.063260205 0.10536341 -0.026888173 -0.099093065 0.04268316 -0.00447543 -0.05486932 0.115511864
-0.05851062 0.074609816 -0.027197123 0.029209962 0.06031747 0.019322393 0.06328621 0.061896153
-0.078270584 0.08263685 -0.13505109 0.063089065

convs.0.bn1.weight f4 [92]
00000000: 79cc 393f fcad b33f f326 723f 2e50 703c
00000010: 00e8 c43f 986d 283d 259a b13c b168 9f3e
00000020: 5ec0 5b3f bfa8 fc3e 1e6d 903f 4cbd 9a3e
00000030: af8e b33f 3306 6e3f de6a bb3f 9cd3 3c3f
00000040: 15c2 c33e 39ae 0f3f fa9d 493e dc00 b73d
00000050: 57d1 903e 0255 593f 48ec 433f 848c b33d
00000060: 0de5 373f 48ac 243f ba1e 293f 92ff 0240
00000070: 04da 3a3f c092 523f feca 353f dc25 e53e
00000080: 490e a13e 2358 da3f 9261 f63f 3b9b 983e
00000090: 2c2a a63e a6ef e73f 2902 233f 0dc2 44bd
000000a0: be0e e43e 3872 bf3e a182 4e3f 04d1 163f
000000b0: ef99 d43e 9358 383f ead8 5a3f c724 903e
000000c0: bf4b 273f 0483 9d3c bea3 743f 5df7 513e
000000d0: e8a5 293e 3d1d 243f 4328 603f df69 7e3f
000000e0: 7f26 323f 0197 9b3f 3ab8 683f b0e9 d73e
000000f0: 7d37 ac3f 518a 803f e8c1 a13f bad2 893f
00000100: 92a8 eb3f fb7b c83f 67fe 033f 76c3 1a3f
00000110: 30f0 3c3f 7e2e ae3e abf6 d33f e809 3b3f
00000120: 2375 933e 264e 4f3f c0b8 813e 9a5d 163f
00000130: 8038 803d a868 503f 3811 8d3e 33fd 333f
00000140: 86dd 993f 76d0 de3d f8ec 9a3e 9666 be3f
00000150: 2d52 e23e 49eb 4c3f 7854 8b3f 8396 ac3f
00000160: d4c8 113f c271 f23e 739d c63e 0b0b 343f
0.72577626 1.4037471 0.9459068 0.014667554 1.5383301 0.04112014 0.021679947 0.3113456
0.85840404 0.49347493 1.12833 0.30222547 1.4027919 0.9297821 1.4641988 0.7376039
0.3823401 0.5612522 0.1968917 0.08935711 0.28284714 0.84895337 0.7653241 0.087670356
0.7183388 0.6432538 0.6606251 2.0468488 0.72988915 0.8225517 0.71012866 0.44755447
0.3145621 1.7058147 1.9248526 0.2980593 0.3245405 1.812001 0.6367517 -0.048036624
0.44542497 0.3739183 0.80668074 0.5891268 0.41523692 0.72010154 0.85487235 0.2815306
0.65349954 0.019227512 0.9556235 0.20504518 0.16567194 0.64107114 0.87561435 0.99380296
0.6958999 1.2155458 0.9090611 0.42170477 1.3454434 1.0042211 1.26373 1.0767434
1.8410819 1.5662836 0.5156006 0.604545 0.73804 0.34019846 1.6559652 0.7306199
0.28800306 0.8097862 0.25336266 0.58736575 0.062607765 0.8140969 0.275522 0.70308226
1.2020729 0.108796045 0.30258918 1.4875057 0.4420332 0.80046517 1.0885153 1.3483433
0.56947064 0.47352415 0.38792 0.7032935

convs.0.bn1.bias f4 [92]
00000000: 8f2d a4be 60e8 63bd 08d0 99be 5de7 6e3f
00000010: 28cc 133e aad4 e03d 3ea9 983f fcdb 9cbe
00000020: d29b 37be 5260 54be f2c3 06bd db50 47bd
00000030: 5560 f6bd e10d 68bf b0df 473e 4d96 e3be
00000040: 53dd 81be 0119 0bbd 8194 983e 0367 4c3f
00000050: 5be1 d83e 4e59 9ebf 538e d7bd 6c00 af3d
00000060: 489b 02be 3b20 cc3c 4794 bdbf b2f1 48bf
00000070: 50f9 28be 88a7 81be d27e d9bd 05e8 41bf
00000080: 6a4e 003e 3d44 aabe 78f7 293e 73d0 5cbe
00000090: f8e7 cfbe 847c afbc 1afe 90bd c096 a43f
000000a0: d14d 533e 3431 ad3e 2835 dabd e6e9 b7be
000000b0: 5e94 93be 8c29 ddbe 92f4 b3be 5ec0 233e
000000c0: 0de1 55bf 71a5 933d 4558 f0bd c884 df3d
000000d0: 55a6 ce3e 1c60 06bf 6315 0dbe 13b5 58bd
000000e0: 8215 813e f924 8d3e bf6e 60bd 801f 37bf
000000f0: d7c3 a6bd 158a 56be 0eeb 2fbe 42a1 85be
00000100: 2f06 80bc 15a1 65bd 1d70 093f f369 f5be
00000110: 6931 86be e3d4 96be afe4 8fbd db93 bc3e
00000120: 5ec6 14bf d007 a9be 7327 d9be f880 09bf
00000130: 9282 f4be 237a 6abe 1c4b aabd 1199 11be
00000140: ebd3 1d3d 88ef ba3e 00f8 24be 18f6 bfbc
00000150: fa87 01bf a008 213d fb75 943d ba79 82be
00000160: 1565 e9bd 6215 bdbe 7b39 b0be f26e 55bd
-0.32066008 -0.055641532 -0.30041528 0.9332178 0.14433348 0.109780625 1.1926649 -0.30636585
-0.17930534 -0.20739868 -0.03290171 -0.048661094 -0.120300926 -0.9064618 0.19518924 -0.44450608
-0.2536417 -0.033959392 0.298008 0.79844683 0.42359433 -1.2371004 -0.10525193 0.08545002
-0.12754548 0.024917712 -1.4810876 -0.784938 -0.16501355 -0.2532313 -0.10619892 -0.7574466
0.12529913 -0.33255187 0.16598308 -0.21563892 -0.40606666 -0.021421678 -0.07079716 1.2858505
0.20635153 0.33826602 -0.1065467 -0.35920638 -0.28824133 -0.4319576 -0.3514753 0.15991351
-0.83546525 0.0720929 -0.11735586 0.10913998 0.40361276 -0.524904 -0.1377769 -0.05290706
0.25211722 0.2756727 -0.054793116 -0.7153244 -0.08142822 -0.20951112 -0.1717951 -0.26099592
-0.015627949 -0.056061823 0.53686696 -0.47932395 -0.26209572 -0.29459295 -0.0702604 0.36831555
-0.58115184 -0.33013773 -0.4241291 -0.53712416 -0.47755867 -0.22898154 -0.08315107 -0.14218546
0.03853218 0.36510873 -0.1611023 -0.023432776 -0.5059811 0.039314866 0.072490655 -0.25483495
-0.11396233 -0.36930376 -0.34418854 -0.05210776

convs.0.bn1.running_mean f4 [92]
00000000: e67b d93a e556 633f e8b6 eb3f e342 c5bd
00000010: 2c46 4fbf e5ea 4dbe bc5f df3f cff1 82bf
00000020: c1eb 473e 1df8 52bf c73b 25c0 fa13 a1be
00000030: 51cc 0abf 124f cbbf 1b6d 64c0 d0eb 3d40
00000040: 52e4 66bf 99b7 0440 c068 a13f 24a4 4bc0
00000050: 55d8 73bf 9897 c33e efdb 5abf 39e3 4f3f
00000060: 723a 20c0 4c5f f03f 9a8d 343e d942 6340
00000070: 1811 883e 5d89 1540 5c71 0e3f 0508 89c0
00000080: a907 843f 7429 9c3f 993e cbbf fdab 3bc0
00000090: d0d0 c03e 18c8 8cc0 d034 1cbf 7ef9 2040
000000a0: f234 7cbd 51cf 9dc0 d04d e03d 25d0 c4bf
000000b0: a2e3 03c0 db34 f03f d3bc 7f3f fb1a 4abf
000000c0: 9df6 9440 2559 6d3e c1d1 903f 7639 c2bf
000000d0: a28f 773f 4b4f 40bf c03e 40bd aa15 1ebf
000000e0: 8a35 39c0 75e2 1140 9144 0840 c304 61bf
000000f0: 5cda 6cc0 e655 b73f c647 01bf 9a54 3b3f
00000100: 5da2 b63f 5963 93c0 06ff 3bbe 60c7 6a3f
00000110: 4b0f 033c 2f4f e3bd 4c23 c1bf 70a3 783f
00000120: cff1 a7bf 0f20 8c40 ecaa 95be c420 843f
00000130: f3f7 debe 6a11 2a3f fb20 3b3f 7a96 1fc0
00000140: 39b0 6ebf 4d49 4ac0 a7b4 09bf b643 81bb
00000150: 68de a8be 9bc1 8bbf 47e8 a43e 60a7 23c0
00000160: 4188 e73f 5caf 093e 4956 24bf a919 0340
0.0016592711 0.88804466 1.8415194 -0.09631898 -0.8096645 -0.20109136 1.7451091 -1.0230044
0.19523527 -0.8240984 -2.5817735 -0.31460553 -0.5421801 -1.5883505 -3.5691593 2.9675179
-0.9019214 2.073706 1.2610092 -3.1818933 -0.9525197 0.38201594 -0.8549184 0.8120609
-2.5035672 1.8779082 0.17632142 3.550955 0.26575541 2.336509 0.5564172 -4.282229
1.0314838 1.220015 -1.5878478 -2.9323723 0.3765931 -4.3994255 -0.61018085 2.5152278
-0.06157393 -4.931557 0.109523416 -1.5376021 -2.0607686 1.876613 0.998975 -0.7894742
4.655104 0.23178537 1.1314012 -1.5173786 0.9670354 -0.7512099 -0.046934843 -0.61751807
-2.8938928 2.2794468 2.129185 -0.8789789 -3.7008276 1.4323089 -0.5050014 0.73175967
1.4268299 -4.6058774 -0.18359002 0.9171047 0.007999252 -0.110990874 -1.5088897 0.97124386
-1.3120669 4.3789134 -0.29231966 1.0322499 -0.43548545 0.6643282 0.730972 -2.4935594
-0.93237644 -3.160724 -0.5379128 -0.0039448394 -0.32982183 -1.0918459 0.32208464 -2.5570908
1.8088456 0.134458 -0.6419416 2.0484412

convs.0.bn1.running_var f4 [92]
00000000: d57e 5441 a93c 9e41 eb31 d041 e83b 6b41
00000010: 90cf 6f41 ffeb b440 a35d e140 4808 bd41
00000020: afcb d341 b803 e740 3fb1 a541 1d50 a141
00000030: e76e 7941 b0cf e741 44f6 6241 6964 9e41
00000040: 1114 3441 31dd 0941 c004 cd41 e4ab 7e41
00000050: 7166 6f41 d4ca 2c42 c3a8 a741 1a15 1642
00000060: 38a4 8441 c551 7841 69b7 0542 178f 0542
00000070: eb01 2441 f92a b441 fe57 9441 238b 1442
00000080: 95c1 7a41 0223 a441 6cca 1a41 4ada 7641
00000090: 1a06 5341 00b5 d141 df0b c041 a12e 4341
000000a0: daf5 0a41 6730 c341 1bb1 1d41 a4a3 f641
000000b0: ca61 7241 6b5d 4042 0c94 6141 81c7 9541
000000c0: 7174 0642 94cc 4d41 ced9 5d41 2424 8341
000000d0: 48df 2941 e8d3 fa41 6ecc 8441 c321 8d41
000000e0: 2abc 3c41 6cb7 b041 923c 6541 61ea 0741
000000f0: b16a cb41 534a 9a41 1cb0 d141 aed2 f940
00000100: 0c50 d041 45d2 6841 1999 8c41 2855 d541
00000110: e640 ce41 d688 cf41 e169 a441 3488 a541
00000120: 3e68 dd41 430d c941 c624 4d41 7464 da41
00000130: 125c d040 8295 e541 b67f 5d41 e611 2e41
00000140: 64dd 9041 408f 5541 fd0a 2341 fee9 7041
00000150: 5fed b641 53f1 7341 fea1 7141 8060 ad41
00000160: ba7d 6c41 e7a0 b141 ed5a 3f41 eeae b841
13.280965 19.77962 26.024374 14.702126 14.988174 5.653808 7.0426803 23.629044
26.474455 7.219204 20.711546 20.164118 15.589576 28.97641 14.185123 19.799028
11.254899 8.616502 25.62732 15.9169655 14.96251 43.198074 20.957403 37.520607
16.580185 15.519963 33.42911 33.389736 10.250468 22.520983 18.542965 37.135876
15.672261 20.517094 9.674419 15.428293 13.18899 26.213379 24.005796 12.198884
8.685022 24.398634 9.855739 30.829903 15.148874 48.09123 14.098644 18.722414
33.613712 12.862446 13.865675 16.392647 10.617012 31.35347 16.59982 17.641485
11.7959385 22.089561 14.327288 8.494721 25.427095 19.286291 26.21099 7.8069677
26.039085 14.551335 17.574755 26.66658 25.781689 25.941814 20.551699 20.691505
27.6759 25.131475 12.821478 27.29905 6.511239 28.698002 13.843679 10.87937
18.1081 13.347473 10.190183 15.057127 22.865904 15.246417 15.102049 21.67212
14.780695 22.203566 11.959699 23.085415

convs.0.bn2.weight f4 [46]
00000000: 68c4 773f cb21 433f 3327 2c3e 5f27 483f
00000010: 5256 7a3f 449c 093f 7ece fd3e 16c5 3b3f
00000020: c960 143f 3d50 903f ec9d a83e 6d57 3d3f
00000030: af6b d63e 8c28 1f3f 1e42 0f3f f89a d63e
00000040: 2c9c ef3e acda 2e3f 75f7 333f 3a96 a93e
00000050: 6a85 3a3f 8153 e93e f95b 9f3e b264 d8bd
00000060: 80f8 683f 2c23 483f 3658 763f bbb2 313f
00000070: 429c 9dbd 1426 afbe 4f9e 243e 8ce6 903f
00000080: 7c69 963f 9c7c 133f 076b 713f fc50 b73e
00000090: d0ca 7f3e 7124 7a3f 581e 283f 659c ca3e
000000a0: 0990 5c3f 3779 273f 93ec 043f 9fb1 3d3f
000000b0: 6326 0b3f 5d75 083f
0.9678407 0.7622344 0.16811828 0.78185076 0.97787964 0.5375407 0.49571604 0.73347604
0.5796018 1.1274487 0.32932985 0.73961526 0.4187903 0.62171245 0.5596026 0.41915107
0.46798837 0.68302417 0.70299464 0.33122426 0.72859824 0.4557152 0.31124857 -0.10566081
0.9100418 0.7817867 0.9622835 0.69413346 -0.076958194 -0.3420874 0.16076015 1.1320357
1.1750941 0.57612014 0.94303936 0.35803974 0.2497971 0.97711855 0.656713 0.39572445
0.8615728 0.65419334 0.51923484 0.74099153 0.5435545 0.5330408

convs.0.bn2.bias f4 [46]
00000000: 39b7 a9bd ba73 7cbe c1ed 89be 72c1 52be
00000010: b11e 3cbe 544f c1bd 6eda 8abc 0e45 a1be
00000020: 737b 92bd 272c c7bd cc24 10be cb5b a6bd
00000030: b57d 253d aef0 b7be bc0e 7abe 5fca 22bd
00000040: 01b6 d7bd 1f80 5dbd 0d13 14be 1f59 80be
00000050: d2d7 51be ccf6 31be 62e4 33bd 3c5b 0dbd
00000060: cbc1 f0bd 341b 74be f782 40be c922 a2be
00000070: b7df 433d 764e 1ebd 260d 03be 768b 81be
00000080: e1d1 90be bd7b 9cbd 2eea bcbc 029e 07be
00000090: 8adf acbe 74ed 49be d35e 21be 39b7 73be
000000a0: eaf5 5dbe ddac 2dbe c146 45be 36b8 b4be
000000b0: 0d7f 01be e471 7abd
-0.082869 -0.24653521 -0.26939204 -0.20581606 -0.18371083 -0.09438959 -0.016949859 -0.31497997
-0.07152452 -0.09725218 -0.14076537 -0.08122977 0.040403087 -0.35925812 -0.24419683 -0.039743777
-0.10532761 -0.054077264 -0.14460392 -0.25067994 -0.20492485 -0.17379302 -0.043918975 -0.034510836
-0.11755713 -0.23838502 -0.18799959 -0.31667164 0.047820773 -0.038649045 -0.12797984 -0.25301713
-0.28285125 -0.07640789 -0.023060884 -0.13243869 -0.33764297 -0.19719487 -0.15758829 -0.23800363
-0.2167584 -0.16960473 -0.19265272 -0.35296792 -0.12646122 -0.06114377

convs.0.bn2.running_mean f4 [46]
00000000: b11e 9f3f c41e e33f e711 963e 7d24 1f3f
00000010: 6304 1f40 c40f 713f e246 6e40 6922 dc3e
00000020: ea23 ed3f ccde 0d40 6370 5340 8f03 8540
00000030: 57a4 2b40 0190 713b e901 9e40 b764 ec3f
00000040: 2a1f 2140 d68a 0e40 9689 a540 31f3 a340
00000050: 60ed 8f40 fb02 8d3e 542b b33f f47e 773e
00000060: cc48 a140 053a 7540 bdf2 3d3a 49e1 733f
00000070: 6d5e d73d c6ef 143f c42a e5bc 9ac9 873f
00000080: 8699 1e3f b178 6d3f 6bd9 8a40 2643 0340
00000090: e6a5 a73e 9712 8940 ecf3 a23e 7463 4940
000000a0: 6421 7040 fe60 5340 dd0d af3f f397 f63e
000000b0: 1a3c 923e 1bb1 873f
1.2431241 1.7743764 0.29310533 0.6216505 2.4846427 0.9416468 3.7230763 0.42995003
1.8526585 2.2167234 3.3037345 4.1566844 2.6819055 0.0036859515 4.937733 1.8468236
2.517527 2.2272239 5.173045 5.1234365 4.4977264 0.27541336 1.3997598 0.24169523
5.0401363 3.8316662 0.00072459487 0.9526563 0.10516057 0.58178365 -0.027974494 1.0608399
0.6195301 0.92762285 4.3390403 2.0509734 0.32743758 4.2835193 0.31826723 3.1466951
3.752038 3.302795 1.3676106 0.48162803 0.2856148 1.0600923

convs.0.bn2.running_var f4 [46]
00000000: 6f8e 3740 efbe 0940 81d1 5a3f bc9e b43c
00000010: cb6e 8341 bfad 4f3f b253 0040 1ecf df3e
00000020: c306 1341 bc03 8940 62d4 ba41 c12b 4a41
00000030: cd61 4641 a6f3 933c 0f4c 9042 6620 1941
00000040: ed34 0c41 f4db 1a41 a9bd 1342 ea79 4f42
00000050: 3620 1741 5085 893e dfb2 aa40 8598 e03e
00000060: fa42 4f42 adae 5241 bf31 3e3b 8a55 3f40
00000070: 4ba3 153f 3cca f33f 3e45 c638 3095 5740
00000080: 30af d53f 73d2 1840 65a7 0e42 1d28 1c3f
00000090: 00ff a83e 0a8b ea41 4670 283f 05f8 5b41
000000a0: b512 8341 c779 8e41 8c3a 9740 759d 883f
000000b0: ebd5 e63e 7908 f23f
2.8680685 2.1522787 0.8547593 0.022048347 16.429098 0.8112449 2.0051084 0.43712705
9.189151 4.281706 23.353703 12.635682 12.398877 0.018060517 72.14855 9.57041
8.762921 9.6786995 36.935215 51.869057 9.445364 0.26859522 5.334335 0.43866363
51.815407 13.167645 0.002902135 2.989596 0.5845229 1.9046092 9.454273e-05 3.3684807
1.6694088 2.3878448 35.66347 0.6099871 0.3300705 29.31789 0.65796316 13.748052
16.384134 17.809462 4.725897 1.0673052 0.4508508 1.8908836

convs.1.fc_full.weight f4 [92, 98]
00000000: 75d0 8bbe 3d9f 18bd d8fc 55be 35ca 553e
00000010: a6cb d1be b9b4 26be 7e7e 383e 96a6 b1be
00000020: a9d6 ec3d 3dfb 8f3e bc16 77bd 4071 e63d
00000030: c192 2fbe 5c3e afbe d5f6 913e 4d56 513e
00000040: 8816 8abc 9168 b83d f88a b33e 8e83 94be
00000050: 725e 143d 8208 d33e f267 04bd 86ab 5e3c
00000060: ee22 273c a9cd 89be d4fa b9bd d714 c43e
00000070: 2959 56be fba9 c1bd 7770 bebe 3c07 85bd
00000080: 8446 8c3c 758f 88be 01cf febe fd8a 6e3e
00000090: 09ca 42be 05cb 8bbe 482a a93e 6525 edbd
000000a0: 2f2c cd3c 86e1 7f3d 2578 c1bd 9542 72bd
000000b0: eeae c1be 0f39 10be 66ff 42be 7c26 32be
000000c0: 5ea8 c6be 70fe 8abd 5cc6 3ebe e416 2fbe
000000d0: 27a8 3dbe f681 953d 0497 583d 2aab fe3e
000000e0: 6907 493c 50e2 283d c73f 1bbc bf23 1dbe
000000f0: 1c1d 65be e7ad 13bf e85d 523f eb25 03bd
00000100: dc80 2cbe 474c 213e eaab 023f 515c 95be
00000110: 0ef4 19bf 3dc3 7dbe c291 c6be 4162 7bbd
00000120: 0178 363d 3265 61be 5ba2 93be c200 37be
00000130: 83b5 9ebd 2c92 52be 7556 873e 2804 abbe
00000140: c9d7 1dbe bf3f 8abe b40f 813b b18b b7bd
00000150: 72c5 99be d55e cabd c73a 73bc 6948 6dbe
00000160: 90d7 53bd cef9 eebd 109c d4be 0c76 9dbd
00000170: 9b0e 613e dda5 11be e06a e8bc 3561 1d3f
00000180: a31f eabc 0743 e8be 39cf dfbd 7c48 91bd
00000190: 0949 853e c589 78be 30e1 26bd 34e9 82bd
000001a0: 8bdc 163f ad7c d4bc 93da 833e ca0e 35be
000001b0: bd8a a6be 46cc 373f bb9a 733e ade6 523e
000001c0: f7d8 5cbe b714 9f3e c131 2abe 0bbe f9bd
000001d0: c6bd 50bf 1ea0 8bbd a637 cfbe cf61 11be
000001e0: 262f 5cbe 9a69 1c3e faae 63be b644 d73e
000001f0: de7f 993e 02fb f13e 61aa 05bf 474b 0abd
00000200: 9e15 23bf 1df2 9abe fe43 fabe 9104 00bf
00000210: bb81 e1be 34cd d3bd a1c4 13bd d7fe 51be
00000220: dbc1 123e 32d6 3abe ac7e 83be 0f73 63bf
00000230: 5560 023e b54a bebe 496f d43e 51de 923e
00000240: e744 e9be e15b 2abf ba10 21bf f511 cf3e
00000250: 21d9 4f3e a05f e53e 0397 183d b4cb 143f
00000260: d786 1abf 6df1 883d c645 ec3c 2c40 323f
00000270: 78d9 86be c8fa fe3e 5789 3cbf fd59 bdbe
00000280: 16c4 d7be fbb7 6ebe 6746 75bf e3b8 4c3e
00000290: 139b 01bf 29fb ccbe 971b 223f a67c 8dbe
000002a0: b125 3cbe 9929 6abc ad39 333f 9d5e fabe
000002b0: 6e71 963e 8d6a 233e 8277 5bbf e96a 17bd
000002c0: 890f b4be e2fd 0bbf 3d52 0d3e 437e 3cbf
000002d0: 8f4d 15be 8b22 10be b29d 83bf 0f3e 04be
000002e0: 30d7 9e3e 49ba 98bf 8271 a93d b34b 3fbf
000002f0: 7c3e 3c3f 85dc 863c 2bad b93e 252a 2a3f
00000300: e7a7 22bf f2d4 f3bf 8262 febe 2cad a83f
00000310: df7c 253d db58 8cbe 7693 abbe 2b70 5ebd
00000320: 0c4a c4bc 7f76 16bc 1b06 153f f8f3 50bf
00000330: 00b1 e2be 4303 d0bc 0163 cbbe fd33 743e
00000340: 2663 e3bc 7b22 c7bd eded 02bf 331b afbd
00000350: 5c95 833e f992 64be d905 f73e 893e 3dbf
00000360: 60be 57be 30f4 bebe 1a6a c2bd caa9 b2be
00000370: 9c1e c9be 7747 afbe 3f43 c1be 81b1 bb3d
00000380: 38f6 babd df93 9bbe a9f3 ffbe 9a98 6bbd
00000390: 5bcb cabc 8546 04bf 7245 92be a5f6 f6be
000003a0: ab23 6dbe aa31 89be c6e5 5d3e d5b7 483e
000003b0: 5f54 44be 4d80 81be 544a e0be 0853 0abe
000003c0: 7e9e 063e 9351 86be b5b9 f03b 09d7 16bc
000003d0: 3891 11bf 8645 053d dfed 1ebe 7406 b1bd
000003e0: 331f b33e 4460 903c 7605 8c3e dfe0 79bd
000003f0: 127c bb3d c899 8c3e dc42 823d 3dc4 543f
-0.27307478 -0.037261236 -0.20897233 0.20877917 -0.40975684 -0.16279878 0.18017003 -0.34697407
0.11564381 0.28121367 -0.060324416 0.112520695 -0.17145826 -0.34227264 0.2850863 0.20443077
-0.016856447 0.090043195 0.35066962 -0.29006618 0.036222883 0.41217428 -0.032325692 0.013590699
0.010201199 -0.2691472 -0.09081045 0.3829715 -0.2093245 -0.09456249 -0.3719518 -0.064955205
0.017123468 -0.2667195 -0.49767306 0.23295207 -0.19022383 -0.2730333 0.3304007 -0.11579398
0.025045482 0.062470935 -0.09446744 -0.05914553 -0.37828773 -0.14084266 -0.1904274 -0.17397493
-0.3880033 -0.06786811 -0.18630356 -0.17098576 -0.18521176 0.07300179 0.052878395 0.49739963
0.012269833 0.041231453 -0.009475655 -0.15345667 -0.22374386 -0.5768723 0.8217454 -0.032018583
-0.16846031 0.15751754 0.5104357 -0.29171994 -0.6013802 -0.24781509 -0.3878308 -0.061373
0.04454804 -0.22011259 -0.28834805 -0.17871383 -0.07749464 -0.20563573 0.2643315 -0.33401608
-0.15414347 -0.2700176 0.0039386395 -0.08962191 -0.3003345 -0.09881369 -0.014845557 -0.23172154
-0.05171925 -0.1166874 -0.41525316 -0.07688531 0.21978228 -0.14223428 -0.028371274 0.6147645
-0.028579539 -0.45363638 -0.109281965 -0.070939034 0.26032284 -0.24271305 -0.0407421 -0.06392136
0.5893027 -0.025938356 0.25752696 -0.17681423 -0.32527724 0.7179607 0.23789494 0.20595808
-0.2156714 0.31070492 -0.16620542 -0.12194451 -0.8153957 -0.06817649 -0.40472144 -0.14197467
-0.2150236 0.15274659 -0.22234717 0.4204461 0.29980367 0.47261816 -0.522131 -0.033763196
-0.6370486 -0.30262843 -0.4888 -0.5000697 -0.4404429 -0.10341874 -0.03607619 -0.2050737
0.14331762 -0.18245772 -0.2568258 -0.8884744 0.1273206 -0.37166372 0.41491154 0.2868524
-0.4556038 -0.66546446 -0.6291615 0.40443388 0.20297672 0.4479952 0.03725339 0.58123326
-0.60362 0.06686673 0.028841864 0.6962917 -0.2633779 0.49800706 -0.73647064 -0.36982718
-0.4214179 -0.2331237 -0.9581055 0.19992404 -0.5062725 -0.4003537 0.6332335 -0.27634162
-0.18373753 -0.014292144 0.7000988 -0.4890031 0.29383415 0.15958615 -0.8572923 -0.03696719
-0.35168102 -0.5468427 0.13800903 -0.7363016 -0.14580368 -0.14075677 -1.02825 -0.12914298
0.3102355 -1.193185 0.08273603 -0.7472488 0.73532844 0.016462574 0.3626493 0.6647056
-0.6353745 -1.9049361 -0.4968453 1.3177848 0.04040229 -0.2741154 -0.3351094 -0.05430619
-0.02396109 -0.009183525 0.5821244 -0.81622267 -0.44275665 -0.02539218 -0.3972397 0.23847957
-0.027757239 -0.097233735 -0.51144296 -0.0855011 0.2569989 -0.2232169 0.4824665 -0.73923546
-0.21068716 -0.37295675 -0.094928935 -0.34895164 -0.39281166 -0.3423421 -0.37746617 0.091647156
-0.09128994 -0.30386254 -0.49990585 -0.05751858 -0.02475517 -0.51670104 -0.28568608 -0.4823505
-0.23158138 -0.26795703 0.21669683 0.19601376 -0.1917281 -0.25293198 -0.43806708 -0.13508236
0.13146397 -0.2623411 0.0073463568 -0.009206542 -0.5686221 0.032537006 -0.15520428 -0.08643809
0.3498474 0.017624028 0.27347916 -0.06100547 0.09154524 0.27461076 0.06360409 0.83111936

convs.1.fc_full.bias f4 [92]
00000000: c1f7 39bd fec7 ac3d d1f1 b83d bd9c c0bc
00000010: a400 67bd 6bbe 43bb c0c5 56bd 6bc6 a0bc
00000020: 6753 d13d df15 9a3d b734 c2bc 0ed0 8dbd
00000030: 677a f93b 1dcf cc3d ee94 8e3d a7ed c03c
00000040: 32e2 4c3d 694a 88bd f326 ae3d 6371 88bc
00000050: a4e7 0b3c b51d 8dbd 5c60 e9bc e5ff 873d
00000060: 5079 c63d dea0 973d c174 8d3d 793a abbd
00000070: 6549 4f3d a687 1bbd ec9e c2bd 91f0 383d
00000080: 1fc4 bdba 0f5d f83c a42f 9cbd 9e80 2e3c
00000090: ea78 f43c fec4 5d3c 775a 863d c6c0 02bb
000000a0: 557c 713d 9959 5fbd 5f49 523d e866 f3bb
000000b0: bc6c a6bd 7ab3 1ebd 99cc d3bd 4a7f 593c
000000c0: 3ca1 3dbd a721 f53c c8d8 8a3d 3257 89be
000000d0: 6888 79bd 1ac5 7abb a4e6 8d3d 5322 05bd
000000e0: 7523 ae3d d7d2 c43d fa82 08bd c4ac cbbc
000000f0: f23e 3d3d 231c 95bd cd59 84bd b6f9 e43c
00000100: b12a c13d c1d0 933c 1ada 9cbd f77c e1ba
00000110: 1652 d03d 4d55 44bd 0064 063c baa5 9abd
00000120: 3201 653d f546 9abd c841 c0bd 6574 a6bd
00000130: 7ca9 fbbb 65dc 573c fcda b1bc ad7f 1cbd
00000140: b7b3 8abd b521 b9bd d6b3 3b3d a81d 703c
00000150: badb bd3d e44b efbd 0f8f 613d efc2 d23d
00000160: acbd ecbc 1fd2 9cbd b048 abbd 67ba 9c3d
-0.045402292 0.08436583 0.09030498 -0.023512239 -0.056397095 -0.0029868137 -0.052434683 -0.019625863
0.10220986 0.07523703 -0.023706777 -0.06924449 0.0076134684 0.10000441 0.06962 0.023550821
0.050020404 -0.066548176 0.08503523 -0.01665563 0.008539114 -0.06890432 -0.02848833 0.06640605
0.09691107 0.0740373 0.06907035 -0.08360762 0.050607104 -0.03797116 -0.09502968 0.045151297
-0.0014478004 0.030317811 -0.07626274 0.010650782 0.029842813 0.013535736 0.065602235 -0.0019951328
0.058956463 -0.054528806 0.051339503 -0.007428039 -0.08126208 -0.03874538 -0.10341758 0.013274977
-0.046296343 0.029923273 0.06779629 -0.26824337 -0.060921103 -0.0038264454 0.06928757 -0.032503437
0.08502857 0.09610527 -0.033328034 -0.024862655 0.046202607 -0.07280757 -0.06462441 0.027951103
0.09431971 0.018043878 -0.07658787 -0.001720338 0.10171907 -0.04793291 0.008202553 -0.07551141
0.055909343 -0.07533065 -0.09387547 -0.08127669 -0.007680116 0.013175105 -0.021710865 -0.0382077
-0.06772559 -0.09039632 0.0458258 0.014655508 0.09270425 -0.11684397 0.055068072 0.10291087
-0.028899036 -0.07657265 -0.083634734 0.07652741

convs.1.bn1.weight f4 [92]
00000000: c8a1 0c3f c460 113f 514b 8b3f f8f3 343e
00000010: ad1a 293f 2b3d 1840 81cb c83f 330c 003f
00000020: 0b4e d13f 9df7 cb3f 602e 9c3f 920f 323f
00000030: 61de 3b40 638c ce3f 232c 393f 8cdc 653f
00000040: 3cce 613f ed4e 8d3f 20ef 9a3f e4a2 e53f
00000050: c80b b53f d422 9b3e 371d b03f 6bee 913f
00000060: 4f29 fb3f 3496 9a3f 04c4 0540 eb3a d13e
00000070: dee1 033f 9330 843f 1e64 813f 648d ef3f
00000080: 6822 5d3f cc38 083f 51fa 813f 8c78 223f
00000090: 1cb9 a6be b946 793f 0d11 173f a2f5 b83e
000000a0: b484 183d dfcb f53f a194 1c3f b388 653f
000000b0: 30ef 2d40 38ff e33f 8122 783e 0067 453f
000000c0: 05cd 7f3f 5a0d 303f 1ac2 063f ce9e 153f
000000d0: a8b8 7d3f ce1e ae3e b917 553f b394 633f
000000e0: a76f da3f 605a 743f bbf2 073f 0909 a93f
000000f0: e6bb 3c3f 19da 88be 321f 7f3f d299 973f
00000100: 76a2 a03f 7cf8 043f aac2 463f 5653 f63f
00000110: 04ff 773f 921c ef3e efea 933f 8c00 8c3d
00000120: 9725 103f 2fdc d63f d3f8 3a3f fb41 0b3f
00000130: 3521 073f ea1d 513f 4f0b 483f 36cb 993e
00000140: 8ce1 aa3f 0a18 fc3e 7fbc 633f 68aa 1f3f
00000150: 6fcb 273f 9615 3d3f 6373 e13f 3616 033f
00000160: 2233 4c3f f27b 673f 7d07 853f 06a6 873e
0.5493436 0.5678828 1.088236 0.17671192 0.6605633 2.3787334 1.5687104 0.50018615
1.6351942 1.593494 1.2201653 0.6955501 2.935448 1.6136593 0.7233297 0.8978965
0.88205314 1.1039711 1.2104225 1.7940335 1.414422 0.3030001 1.3758916 1.1400884
1.9621981 1.2077088 2.0900888 0.40865263 0.5151652 1.0327324 1.0108678 1.8715024
0.86380625 0.53211665 1.0154516 0.6346519 -0.32563102 0.9737354 0.5901039 0.36124903
0.03723593 1.9202842 0.6116429 0.8966171 2.7177238 1.7812262 0.24231912 0.7711029
0.9992221 0.6877037 0.52639925 0.5844544 0.9910989 0.34007877 0.8323932 0.8889877
1.7065324 0.954504 0.5310475 1.3205882 0.7372421 -0.26728895 0.99656975 1.1843817
1.2549579 0.5194166 0.77640784 1.9244182 0.968735 0.46701485 1.1556071 0.06836042
0.5630736 1.6785945 0.73035926 0.54397553 0.52785045 0.8168627 0.78142256 0.3003785
1.3350081 0.4923709 0.889595 0.62369394 0.6554479 0.7386106 1.7613338 0.51205766
0.7976552 0.904235 1.039291 0.26493853

convs.1.bn1.bias f4 [92]
00000000: 4d84 2f3e 9c14 19bf aab9 d3be ce54 693e
00000010: 87a6 30bf 65c4 bb3d 9bf9 e8bd ccc9 3abe
00000020: 9741 7bbe dd84 1b3e d0d8 033e ea68 2bbe
00000030: 9ec0 3cbe 62f2 7bbe f72e 69bf ce20 9fbf
00000040: 9b64 04bd 7504 afbe a2f7 ae3e 3558 9abe
00000050: 20c9 2abf deb4 183e 7646 1dbe bc73 64bf
00000060: 981d b63e a0f1 6cbf 5fa0 b5be d21a 77be
00000070: a3a5 96be 2aeb ba3e c83b ebbe 10a9 17bf
00000080: b58a 9fbf 0084 89bf f291 13bf 5e59 ddbe
00000090: 20a8 a5be f070 5e3d 4396 cebe eb2f 28be
000000a0: d280 703f 00f4 efbe 43ba bfbe b6a5 32be
000000b0: 9009 9e3d 388d 5cbe 8f88 91bd 5f8e b6be
000000c0: 8692 b6be b1bc 82bd 2432 70be 2cbb d3be
000000d0: bac8 07be af73 713e ed4a 5cbe 2ed0 5cbd
000000e0: d867 22bd 557e c1be 0d86 023e f52e 25be
000000f0: 723b 01bf 2338 4ebe 8e1b b1be b2dc 36be
00000100: 9091 723d 8a90 2ebe 0ca3 e9be 44da 96ba
00000110: 0951 94be c20e 2cbf 4363 2abe 4885 b3be
00000120: 51a0 0abf 952a acbc afd9 ffbe 117c 343e
00000130: 8522 b4be 89a1 cbbe 9064 bebe 539a dabe
00000140: 5a08 93be 2d87 a1bd f5f3 51be 3621 24be
00000150: 4c85 fc3d c298 acbe f924 6cbc a8ed 3abf
00000160: 27ee f8be cd11 d4be 04bd 383d d387 b13d
0.17140312 -0.5979707 -0.41352588 0.22786257 -0.690041 0.09168319 -0.113757335 -0.18241042
-0.2453674 0.15187402 0.12875676 -0.1673924 -0.18432853 -0.2460418 -0.9108729 -1.2431886
-0.032322507 -0.34183088 0.34173304 -0.30145422 -0.6671314 0.14912745 -0.1535891 -0.89239097
0.35569453 -0.9255619 -0.35473916 -0.24131325 -0.29423246 0.3650754 -0.45944047 -0.59242344
-1.2464205 -1.0743408 -0.5764457 -0.43232244 -0.32354832 0.054306924 -0.40349016 -0.16424529
0.93946564 -0.46865845 -0.37446794 -0.17446026 0.07716668 -0.21538246 -0.071061246 -0.35655496
-0.35658664 -0.06383646 -0.23456627 -0.41353738 -0.13260165 0.23579286 -0.21512957 -0.053909473
-0.039649814 -0.37791696 0.12746449 -0.16131194 -0.5048133 -0.20138602 -0.34591335 -0.17857626
0.05922085 -0.17047325 -0.45632207 -0.001150914 -0.28968075 -0.6721002 -0.16639428 -0.35062623
-0.54150873 -0.021016398 -0.49970767 0.17625453 -0.35182586 -0.3977168 -0.37186098 -0.42695865
-0.2871731 -0.07887111 -0.20503218 -0.16028294 0.12330112 -0.33710295 -0.014413112 -0.73018885
-0.48619196 -0.4141983 0.045102134 0.086684845

convs.1.bn1.running_mean f4 [92]
00000000: 3309 aabf dda8 03c0 ac30 acbf 9504 31c0
00000010: cc8a ea3d 2859 aebf 2aa1 b2bf 2d0a 75bf
00000020: 9dea 67bf a99c 41bf 690d a3be 6b78 f1bf
00000030: 434f f5be d8ca 70bf e1f1 d3bd 453c c33d
00000040: db8a 723f 645a a7be 3204 22c0 c744 20bf
00000050: 2986 9ebf 3278 8fbf af39 433f e196 643e
00000060: 0e07 9cbf de15 d73f 71e0 f3bd 2937 91bf
00000070: bbaa 8bbe dd1b 843f 6307 8fbf 5857 c9bf
00000080: ffb0 c63d 3d8b a0bf 6a9c b63f 62c2 75bf
00000090: f91b 243f cf74 cdbf 22c4 2d3d a1f0 23c0
000000a0: 837c 15c0 e297 0b3f a89d 9fbf 3f57 febf
000000b0: 236b 9fbf 2cad 10c0 ad54 aebf fca6 36c0
000000c0: c97b c5bf 89d9 b2bf 7e47 133f 9510 14c0
000000d0: 4c1b 0dbf 56fe 93bf 3f1a 35bf 8dc6 85bf
000000e0: 072e 89bf b464 40bf 0be9 62bf 99c6 1ec0
000000f0: ebc0 85bf 7ba6 5cbf cfd1 44bf 6c6e 0ac0
00000100: fd30 63c0 055b 34c0 fa3d 52be 1685 e6bf
00000110: d4c3 11bf c75b efbe 2f7e aabf 47d4 51bf
00000120: 319c 8ebf 5f00 bbbf 98e3 27bf 029f 503f
00000130: c46c aebf 1e1a 81bf b355 acbe 6baa e6bf
00000140: cbae 00bf 8207 16be fc88 19be 4cbb f6bf
00000150: 0031 dbbf 5461 f0bf aa67 eebf fdfc adbf
00000160: 81f1 12c0 8a7d 15c0 904c bcbf ad93 b8bf
-1.3284057 -2.0571816 -1.3452353 -2.7659047 0.11452255 -1.3620958 -1.3955433 -0.9571865
-0.90592366 -0.7562967 -0.3184617 -1.8864874 -0.47912034 -0.94059515 -0.10348869 0.0953298
0.94743127 -0.3268615 -2.531506 -0.62604946 -1.2384692 -1.1208556 0.76259893 0.2232318
-1.2189653 1.6803548 -0.11908043 -1.1344959 -0.27278695 1.0321003 -1.1174129 -1.572978
0.09701728 -1.2542492 1.4266484 -0.9599973 0.6410518 -1.6051272 0.042423375 -2.5615618
-2.3357246 0.5452863 -1.2469988 -1.9870375 -1.245457 -2.2605696 -1.3619591 -2.853942
-1.5428401 -1.3972636 0.57530963 -2.313512 -0.55119777 -1.1561992 -0.70743173 -1.0451218
-1.0717171 -0.7515366 -0.88636845 -2.4808714 -1.0449499 -0.8619153 -0.7688264 -2.1629896
-3.549865 -2.8180554 -0.20531455 -1.8009365 -0.56939435 -0.46749708 -1.3319758 -0.81964535
-1.1141416 -1.4609488 -0.65581656 0.81492627 -1.3626943 -1.0086095 -0.33659133 -1.8020757
-0.5026671 -0.14651302 -0.14993662 -1.9275908 -1.7124329 -1.8779702 -1.8625386 -1.3592831
-2.2959902 -2.3357873 -1.4710865 -1.4420067

convs.1.bn1.running_var f4 [92]
00000000: 2a58 9540 8a7a 2741 ea3c 8a40 297e 9c40
00000010: 7979 ce40 b302 9a40 9b3b 2e40 b43b 2d40
00000020: c6ca b640 2bc0 3d40 2372 9940 53c1 aa40
00000030: e166 9340 ac34 ec40 e745 1c41 ed74 3641
00000040: 29c1 b040 d276 0541 5138 f040 0f1b b440
00000050: c8b3 b940 22ba 8740 3d71 6540 b599 1c41
00000060: e373 5f40 49aa e940 a848 af40 ab6b a140
00000070: 4853 a440 cd03 3640 75da 9c40 b8d7 da40
00000080: f98d 1f41 f349 ac40 8b5e d840 4edd ca40
00000090: 02e9 9d40 e6b3 9b40 152c fd40 bf0a 9940
000000a0: 3348 1a41 1202 0c41 abd8 f040 02f5 a040
000000b0: 5af2 3f40 87e7 8e40 3ff1 b040 e5fe 2841
000000c0: 203e 9040 e1c5 5f40 1bc3 9440 e6dc ee40
000000d0: 49a3 8540 1555 0040 a220 c640 7118 9840
000000e0: 483f a840 f34a b540 1c3e b840 3734 a640
000000f0: 56cd 0741 7ad1 a140 1ef7 b440 d171 7f40
00000100: 66b7 5041 e755 c640 1075 b940 a8f2 db40
00000110: e34a a240 f371 b440 38cc 5d40 25e5 8940
00000120: d133 bb40 d58e 8340 61d5 b540 4cf8 8540
00000130: 2040 cf40 74cb d940 38ac d040 2901 8940
00000140: 2efb 9e40 777a a140 120b 7b40 7e80 9f40
00000150: 88da c040 97fb 8540 d47b c440 7a16 3141
00000160: 2f36 3541 8bd0 0941 74ed 6b40 1c4d 7a40
4.667012 10.467417 4.319936 4.8904004 6.452328 4.8128295 2.722388 2.706769
5.7122526 2.964854 4.7951827 5.336099 4.6063085 7.3814297 9.767066 11.403546
5.523579 8.341509 7.5068746 5.628303 5.803196 4.2414713 3.5850365 9.787526
3.4914482 7.302037 5.477619 5.044393 5.135166 2.843982 4.901667 6.838833
9.972161 5.384027 6.761541 6.3395147 4.9346933 4.8657103 7.911631 4.782562
9.642627 8.750505 7.5264487 5.029908 2.999167 4.4657626 5.529449 10.56223
4.5075836 3.4964526 4.6488166 7.464465 4.1761823 2.005193 6.1914835 4.7529836
5.257725 5.665399 5.7575817 5.193874 8.487631 5.056821 5.6551657 3.9913218
13.044775 6.197986 5.79554 6.873371 5.0716414 5.63891 3.4655895 4.3092217
5.8500752 4.1111856 5.682297 4.1865597 6.4765778 6.8060856 6.521023 4.2813916
4.9681616 5.0461993 3.9225507 4.984435 6.026676 4.1869617 6.1401157 11.067987
11.325728 8.613414 3.686368 3.9109564

convs.1.bn2.weight f4 [46]
00000000: ec5e 0a3f 2d4e ff3e 6692 7c3f 1797 503e
00000010: f347 2d3f 3715 7b3f ded6 f53e 2b15 9b3c
00000020: b361 173f cf42 bc3e 00d9 123f a35a 163f
00000030: b050 eb3e 7fc2 713f 2c10 1e3f 8f35 19bd
00000040: 464a c73e 931b 6c3f 7d55 9d3e 75cb 743f
00000050: 4de9 213f 0db6 2a3f 1d93 7b3f d1f6 e53e
00000060: 1d59 713f da13 4c3e 51e0 ca3e 5f7e 723f
00000070: d530 4d3f d969 943b 9b4e f83e 785b 843f
00000080: bfb8 1d3f 19b2 2f3f 94ec cd3e cd56 b63e
00000090: 6bba 6a3f c5d6 493f f03c 1e3f beb3 d33e
000000a0: dafb 413f 8287 0a3f 77f4 233f 921e 3d3f
000000b0: 6c00 113f 0db3 af3e
0.5405109 0.4986433 0.98660886 0.20370136 0.6768791 0.98079246 0.48015493 0.018930992
0.5913345 0.3676972 0.57362366 0.5873205 0.45959997 0.944374 0.61743426 -0.037404593
0.38923854 0.92229575 0.30729285 0.9562295 0.63246614 0.6668404 0.9827135 0.44914868
0.942766 0.19929448 0.39624265 0.94724077 0.80152637 0.0045292196 0.4849747 1.0340414
0.61610025 0.6863113 0.40219557 0.356131 0.916907 0.7884334 0.61811733 0.4134807
0.7577492 0.5411302 0.640449 0.7387477 0.5664127 0.34316292

convs.1.bn2.bias f4 [46]
00000000: f79b 6d3d 9e90 46be d921 a8be 5c1a 553d
00000010: a159 72be e238 16bf 3534 cabe a4ca 133d
00000020: d451 abbd ff94 d2bd e38a 9dbe c2fb 6dbe
00000030: 0399 33be 4a4c 21be 79c6 aebe 8825 91bc
00000040: 72d0 febe b719 bcbe e4c3 81be 2b21 c8be
00000050: dcc2 6c3d 8ae8 bdbd cba0 7abf d52f 4ebe
00000060: dafc 13be 6e0f 57bd 967a 8d3e 7d32 31bf
00000070: 1fab 05bf ff93 c8bd 655d bcbe 8975 c23d
00000080: 6d68 25bd 9e06 8c3e 13c8 31be 31aa 0ebe
00000090: 7886 d9be 967a 98bd f0f6 57bd ef2e c9bd
000000a0: ee65 e0bd ae1c 213e 795c 4dbe abc7 9cbe
000000b0: d56d 41be a434 bfbd
0.058010068 -0.19391105 -0.32838324 0.05202709 -0.23667003 -0.58680546 -0.39492956 0.036081925
-0.08365217 -0.10282325 -0.30770025 -0.23240569 -0.17538838 -0.15751758 -0.34135798 -0.017718092
-0.49768406 -0.3673837 -0.25344765 -0.39087805 0.05780302 -0.09272869 -0.979016 -0.20135434
-0.14451924 -0.05250495 0.27632588 -0.69217664 -0.52214235 -0.09793853 -0.36790004 0.09495074
-0.04038279 0.273488 -0.17361479 -0.1393211 -0.42485404 -0.074452564 -0.052725732 -0.09823405
-0.109569415 0.15733597 -0.20054807 -0.30621085 -0.18889554 -0.09336212

convs.1.bn2.running_mean f4 [46]
00000000: d5f8 073f 22cf 523f 9557 d83f 1291 d23f
00000010: 3a77 e43e 92de 2a3f 279f 0840 4dd6 de3f
00000020: 3c20 e83f 7b6c 3b40 b884 8640 35f1 c83f
00000030: 7725 f83f fac8 2540 00ea 0f3f 5ae4 9d3e
00000040: 324a c73f 281b 0840 2560 a140 8055 6b3f
00000050: 627d 443f 2505 b240 8480 0e40 f2b9 ed3d
00000060: 73ec 6540 8b70 70bc 8f89 623e 52c6 8040
00000070: 7f39 343f 83a5 3240 2ad7 e03e 43dd 503f
00000080: 711d 123f f2c4 103d 9fee 1240 55ac 8d3f
00000090: 3918 c43f bd8c c13f 7b44 d23f 21ed 583f
000000a0: 6bcc bc40 0cab 733d 8286 3d3f ca9f 993f
000000b0: 6000 6940 82de 923f
0.5311406 0.8234731 1.6901728 1.6450522 0.44622213 0.66745865 2.134714 1.740915
1.8134837 2.9284961 4.203701 1.569861 1.9386433 2.5903916 0.5621643 0.3083828
1.5569518 2.1266575 5.0429864 0.9192734 0.7675382 5.563128 2.226594 0.11607732
3.5925567 -0.01467527 0.22122787 4.024209 0.7040023 2.791352 0.43914157 0.8158762
0.57076174 0.03534407 2.2958143 1.1068217 1.5319892 1.5121075 1.6427149 0.8473683
5.8999534 0.059489295 0.7403337 1.2001889 3.640648 1.1474154

convs.1.bn2.running_var f4 [46]
00000000: ec15 583f 743e cb3f be1d 0041 0eec aa40
00000010: aa27 903f 147d 3a40 8717 4441 bc4a 0d40
00000020: 16db 9e40 f7d2 8c41 dfe0 0042 0bc7 e340
00000030: c823 a940 3841 6941 e712 c93f 4c04 623f
00000040: 602d 8040 b20a 1141 9313 b841 e082 0140
00000050: 4cf5 0f40 3e83 1442 f4ed 6b41 8c4e 5c3e
00000060: 8287 d141 7c8e bd38 9e0a 073f 8bef c241
00000070: b9f0 a73f 81e1 a141 f038 143f 5420 0d40
00000080: 3342 593f 99ec 9a3c 3e30 b741 5dbc 0340
00000090: c71c 1f41 6bbe a640 1aa4 3540 664e 3640
000000a0: f1aa 2742 c865 bd3d d7a6 803f 23d0 4540
000000b0: 0aec f041 1279 0b40
0.8440845 1.5878434 8.007261 5.3413153 1.1262105 2.9138842 12.255744 2.2076864
4.964244 17.60301 32.2196 7.118047 5.285618 14.578423 1.5708894 0.88287807
4.005539 9.065111 23.009558 2.023613 2.2493467 37.128166 14.745594 0.21514338
26.191166 9.038762e-05 0.52750576 24.366964 1.3120338 20.23511 0.5789938 2.2050982
0.84866637 0.018911647 22.898556 2.0583718 9.944526 5.2107444 2.838141 2.848535
41.916935 0.09247929 1.0050915 3.0908287 30.115253 2.1792645
