CGCNN/valid_best_params.pt (torch_old, 446091 bytes, 91 tensors)

embedding.weight f4 [46, 98]
00000000: e94f 93bd 8372 7c3d 9ce7 063d 2f93 10bf
00000010: f3b7 18bf d185 71be 3874 613e 96bc 643c
00000020: e438 2a3f ddb7 0ebe 68c7 e23c 41a6 06bf
00000030: 5dea 1d3f 1b43 2dbe bed5 18be 8810 ffbd
00000040: 7c67 3c3e 1aa8 97bd b4ba c73d 8b72 0b3f
00000050: 1a07 75be 3a8e d2be 7594 c0be 1162 7d3e
00000060: 1607 7e3e bd32 52bd 3c76 5fbe 2d7e 58be
00000070: 6ddc 3ebf 544f f0bd c2f9 2e3d 300a 7ebe
00000080: 02e1 11bd ba73 39be fa46 813d 60b3 943b
00000090: c0ba 0d3f 066b 923b 30fc 90be 100b 34bf
000000a0: 9471 f33d a3d1 f13d d163 83bd 76ef b0bd
000000b0: 8df0 5bbd dbf5 82be fb94 df3d 944e 6bbd
000000c0: 6fce 44be d5a6 80be e34a b0be c800 a33e
000000d0: 59e1 293e 5d37 263f ee31 04be 0e6d 9c3e
000000e0: d95f 21bf 4da2 423e f6b8 93be cf01 41be
000000f0: 3433 64be 0f2e 7e3d 523e d0bd 4869 56bd
00000100: 470f bebc 89fc 61bd 6897 c73d 0ec5 b43d
00000110: b8c6 483d ecb7 0b3d c13f 61be 4408 56bd
00000120: ab78 f93e f44b 98be bb2d 6dbe d2b4 9bbe
00000130: 80da d6bc fa59 943d 11c6 2a3d b78c a4be
00000140: 4647 e8bd 6208 bf3d 9801 40be 2ae5 38bf
00000150: 07c7 91be 8320 273f eb06 5d3d b44b b13e
00000160: 4d3e a6bd f2c1 22be 6f42 88be 85fe a8bd
00000170: 1003 a4be b2ed 23bd 7e49 603e 63d3 453d
00000180: 22b3 38bf b4e0 4cbe 1a42 b43d 40dd 0dbd
00000190: cdfb f33d cd64 4b3f 7d4b 93bf 84b3 2bbf
000001a0: c6ac 02bb 2182 2a3f 08cd 233e 9092 0e3c
000001b0: 625a 26be a02c dcbd df89 b7be 63c7 4dbe
000001c0: 60ba 68bc 96f5 72bd a00a e53e ec19 b73d
000001d0: 8c78 c43d f382 d33d 2af4 4abe aa44 343e
000001e0: bb6b 6abd fbe3 00bf a4dd 6e3e 581f 8dbc
000001f0: 7ee1 08be 3497 18bd 82dc 4abf 6555 0b3d
00000200: 25ab fe3b d428 8fbe 5ac9 81bd f6ee 813d
00000210: 653c 833e 4060 f53a 1e29 e73d c829 9b3e
00000220: 4812 7bbe 24f9 28be 5de2 f93d 8dce abbe
00000230: 47b5 ac3d 64dd 813d b526 26bd b166 d9bd
00000240: 7e91 d23d 2c83 c63d 0183 7fbd b715 5dbe
00000250: b1c8 52be dfda 9c3e a212 2d3f 7df5 3f3e
00000260: 3fdc 30be aebe 77be 27d9 bcbc bc5e 253d
00000270: 19b1 25be 0f6a 913d 333e 3a3c c1b6 66be
00000280: 650d 0b3e 17ad ec3d 5ce2 543e 523c 65bd
00000290: b03e abbb bc62 123d 8ae6 5bbd 1842 bb3d
000002a0: 5ae8 693d f4e0 233d e065 0c3e d381 12be
000002b0: 95ad 9dbd b03a 39bd 4041 33bc ecba af3d
000002c0: 81a4 823d 6c2a 473d cd8f 6fbe 3c31 8fbd
000002d0: e0ce 46be 1b5a 163d b0ce 3ebe 30f6 923e
000002e0: d4f9 8dbd 8e2b ce3e 782a 32bd 92aa ee3d
000002f0: 52ff afbd fa44 7ebd 3d08 34be 99ed 6d3f
00000300: 0c70 fdbe a88d 60bf c0e8 d33e 62e0 babe
00000310: 3862 093c 64ff 9f3e 768f 2ebe c37c 273f
00000320: c806 9d3d 617b 9dbe 797c 8abf a93c 6c3e
00000330: ebfd 18be acfa 0dbe a74a 74be b956 943e
00000340: e303 2e3f 22d4 4e3e 26b2 793e 5090 98be
00000350: bb6a 5cbe 90d0 91bd fc9d 753d f90e 1b3f
00000360: 022f e1bc 6ec6 903e 5d1a 363e 1f04 48be
00000370: 35d6 f9be ddb0 66bd 22fe 073e f294 50be
00000380: 8255 2d3e f5c3 3abd de80 84be b02c 923e
00000390: 8aba 833d e601 6bbe 191c 2d3e 70a8 15bd
000003a0: cddb 283f cbb8 3e3e aae2 0dbe c353 d03d
000003b0: 7f8c ebbd 7ae7 f7be bdbb 92bd af2e f43d
000003c0: c447 ba3c 0ece 193e 3336 9c3e a77c 33be
000003d0: aa97 3e3e e888 4f3e 60e5 0dbf 92a7 58bf
000003e0: e4fe 6f3e a8c0 68bd e218 65bd cd3c 3cbe
000003f0: aae2 863e 0420 ea3d 87a1 4f3e 454e f4be
-0.07192976 0.061632644 0.032935724 -0.56474584 -0.59655684 -0.23586203 0.2201699 0.013960978
0.6649306 -0.13937326 0.027682975 -0.52597433 0.61685735 -0.1692013 -0.14925286 -0.12454325
0.18398851 -0.0740511 0.09752408 0.54471654 -0.2392849 -0.41124135 -0.37613264 0.2474444
0.2480739 -0.05131792 -0.21822447 -0.21141882 -0.74555093 -0.11733881 0.042718656 -0.24808574
-0.035614975 -0.18110552 0.06312366 0.0045379847 0.5536308 0.0044683246 -0.28317404 -0.7032938
0.11886898 0.11807563 -0.06415523 -0.086394235 -0.053696204 -0.25578198 0.10917088 -0.057447985
-0.19219373 -0.25127283 -0.34432134 0.31836534 0.1658987 0.6492823 -0.12909672 0.30551952
-0.63036877 0.19007225 -0.28852051 -0.18848346 -0.22285157 0.062055644 -0.10168137 -0.052346498
-0.023200644 -0.055172477 0.09745675 0.08826648 0.049017638 0.03411095 -0.21996976 -0.052253976
0.48724875 -0.29745448 -0.23161976 -0.30411392 -0.026227236 0.07243724 0.041692797 -0.32138607
-0.11341719 0.09327771 -0.18750608 -0.72224677 -0.28472158 0.65283984 0.053961676 0.3462807
-0.08117352 -0.15894297 -0.26613185 -0.08251671 -0.32033587 -0.040021606 0.21903035 0.048297297
-0.72148335 -0.20007592 0.0880167 -0.03463483 0.119132616 0.79450685 -1.1507412 -0.67070794
-0.0019939407 0.6660481 0.15996182 0.008701935 -0.16245416 -0.10750699 -0.35847375 -0.20095591
-0.0142045915 -0.05931624 0.4473467 0.08940491 0.09593305 0.10327711 -0.19819704 0.17604318
-0.057231646 -0.5034787 0.23326737 -0.01722686 -0.13367268 -0.037253574 -0.7924272 0.034016985
0.007771867 -0.27960837 -0.06337233 0.06344406 0.25632015 0.0018720701 0.11287139 0.30305314
-0.24518692 -0.1650129 0.122013785 -0.33556023 0.084330134 0.06341055 -0.040564258 -0.1061529
0.10281657 0.09692988 -0.062380794 -0.21590315 -0.2058437 0.30635735 0.67606556 0.1874599
-0.17271517 -0.24193832 -0.023052765 0.04037355 -0.16180839 0.07100307 0.0113673685 -0.22530653
0.13579328 0.11556452 0.20789474 -0.05596573 -0.005225979 0.03573869 -0.053686656 0.09143466
0.057106353 0.040009454 0.13710737 -0.14307337 -0.07699124 -0.045221984 -0.01094085 0.085805744
0.06379033 0.04862444 -0.233947 -0.069918126 -0.19414854 0.036707025 -0.18633533 0.2870345
-0.069324166 0.40267605 -0.043497533 0.116536275 -0.0859362 -0.0620775 -0.17581268 0.9294067
-0.49499547 -0.8771615 0.41388512 -0.36499316 0.008385234 0.31249535 -0.17046914 0.65424746
0.07667309 -0.30758193 -1.0819236 0.23070015 -0.14940612 -0.13865155 -0.23856603 0.28972414
0.6797468 0.2019811 0.24384364 -0.29797602 -0.2152509 -0.07119858 0.05996512 0.6056972
-0.027488235 0.2827639 0.17783494 -0.19532822 -0.4879624 -0.056321014 0.13280538 -0.20369318
0.1692715 -0.045597035 -0.25879568 0.2854972 0.06432064 -0.22949943 0.1690525 -0.036537588
0.6596039 0.1862518 -0.13855997 0.10172226 -0.11501407 -0.4841879 -0.071647145 0.11922967
0.022739299 0.1502001 0.305101 -0.1752802 0.18612543 0.2026707 -0.55428123 -0.8463069
0.23437077 -0.056824356 -0.055931933 -0.18382569 0.26344806 0.11431888 0.20276462 -0.47715965

embedding.bias f4 [46]
00000000: 18b2 bfbe 824e 1fbf 6740 a6be 6a56 aabe
00000010: 0279 5bbf c72a e7be 456e aebe aaee 05bf
00000020: d177 97be 6428 00bf 42f1 dfbe cbe6 b6be
00000030: 5469 b1be f4d4 61bf 3407 72be 0f11 adbe
00000040: 22ec 98be 2fa3 86be 06ac c7be 776f a3be
00000050: fa48 1dbf f080 efbe 7e3e 2fbf 6c1f babe
00000060: 14e0 ffbe 26e5 0ebf 4787 5bbe d34f 9cbe
00000070: 5849 2bbe 4884 d1be 80b9 24bf 22e9 36bf
00000080: 6793 55bf f329 91be 9be4 833d 19f1 8abe
00000090: 25b3 f3be 5912 acbd 85e8 1dbe ebbd 97be
000000a0: 92ff 14bf eb49 ecbe 92a3 3dbe c75d 22bf
000000b0: 9f8d b8be 9bf6 01bf
-0.37440562 -0.6222917 -0.3247101 -0.33269054 -0.8573152 -0.45149824 -0.34068504 -0.523173
-0.295836 -0.5006163 -0.43738753 -0.35722956 -0.3465067 -0.88215566 -0.2363556 -0.33802077
-0.29867655 -0.26296374 -0.3899843 -0.31920978 -0.6143948 -0.4677806 -0.6845473 -0.36352098
-0.49975646 -0.558184 -0.21438323 -0.3052965 -0.16727197 -0.40921235 -0.6434555 -0.7144948
-0.83428043 -0.28352317 0.064400874 -0.27137068 -0.47597614 -0.08401937 -0.1542073 -0.29637083
-0.5820247 -0.46150145 -0.18519428 -0.6342434 -0.36045548 -0.50766915

convs.0.fc_full.weight f4 [92, 98]
00000000: 58b2 b53d 33bf dd3d 8592 d0be f284 d5bd
00000010: cc42 c43c a8dc 03bf 249c 44be db47 013e
00000020: d963 c73d f7de 46be e195 9abe f09c 283e
00000030: 4f1c abbc 4cbb 07be 27a3 133e 5771 2a3d
00000040: 65dc 82bc 608e af3e 49bd cc3d 55b7 04bd
00000050: e34b aa3d fd86 51be e246 013e bac0 a63e
00000060: f95a d3bd 6acf 8e3e 30db 783c 7382 573e
00000070: 5c24 2b3e 4b16 a3bd b021 b5bc cc4e 843c
00000080: 2121 34be c06f 88bd ae1d 9ebd 4aeb 6c3e
00000090: fa75 87be 0140 0ebe 4308 ef3d 2a8b 393d
000000a0: 56bc 3dbe 40ff 14bf 0648 0e3e ea24 9bbe
000000b0: fc8f 93be 2cb3 48be f022 cdbe ebed 1fbe
000000c0: ab4f b33d 310c febc 6341 69bc 1e06 d13e
000000d0: a983 0bbe 0698 3fbe 9f5e cdbd 1826 c83e
000000e0: ffc7 573f 35fc f43e ef4a a6be fa49 963e
000000f0: 6d38 7fbf 9b27 9f3e d4f3 49bc 4fc7 93be
00000100: dbbb 46be ce78 9e3d 3867 7ebe 6f5a 70be
00000110: 6cb5 7a3e 2568 ac3e 6de1 093f b146 8cbe
00000120: 3e68 c6be 6a56 2fbf 0b75 f3be 5944 0bbf
00000130: 1f2a dfbe b0aa a53e c8a1 883e 749c af3d
00000140: 72f8 8dbe c9fc d9bc f04c 133f b061 05be
00000150: 040a 183e bf6f 0ebe 5387 95bd 3ce3 f0bd
00000160: df4f 7b3d f7b6 08be f767 bbbe b5d4 133f
00000170: 066a 01bd 46a8 8abf d2a6 bdbf e88c 86bf
00000180: 7b3c 283f eac7 b43f 5f60 0a3d 823d cfbe
00000190: 7978 acbe b506 16bd f0ef 293e 2fa8 04be
000001a0: a121 2ebe 2304 673e d139 31bc e9b0 3e3f
000001b0: 2a1e 2fbb db55 423d fd8e 0f3e d7a0 f93e
000001c0: c1b5 c03d cd9d 99be ff3c 9f3c d56d bb3e
000001d0: 28dc 0d3f 82f5 b23e e7e7 d2be 4492 4fbe
000001e0: 20f0 1b3e a73f 98bd 58a9 fabe 283a 74be
000001f0: ebdf 54be 910f 103e 3a21 70bd 3631 b0bc
00000200: c579 823e 1661 ae3b 6c1d 403e 481f 393f
00000210: d79f 9fbe 802f 7dbe 8a23 8cbe 9232 ac3d
00000220: 61e9 6e3d 75f2 3e3e 9b57 e2bd ddc9 3a3d
00000230: 361f 7c3c dbb8 5fbe 6701 8dbe 6e37 53bf
00000240: 6907 bcbe 0f07 53be 6b0d 1a3f b59e edb6
00000250: 757f 4bbe 09ef c33e 6c12 bebd 1530 35be
00000260: 7e65 f2be d938 f43d 754e d5bc 189f fdbe
00000270: c70d 3e3e b4cb 273d 4920 903d e6cb 0cbf
00000280: cb33 24bf 5bf6 a73d 02c2 4abf 01c3 fdbe
00000290: 2189 60bd 7b33 253f ef08 10bf 9a2c e5be
000002a0: f778 f03d 4581 33bf fd18 4c3d c31e e4be
000002b0: c8fa fdbd 98d4 c3be 4ba2 283e b16f 01bf
000002c0: 21c9 9b3d cbd3 11bf 3582 a63d 84cd 32bc
000002d0: 706d 973d aad0 013f 9609 5abd ec15 2a3f
000002e0: 80d6 9a3e 6329 7f3e d4c0 54bf 79ec 843f
000002f0: 3331 49be 2a77 6abe 476d 57bf 58aa 053e
00000300: a855 0abf 2c61 1dbf 70d3 013f 0709 f43f
00000310: 280f 61bd 15af 853d 4fdb 843e 9d2f 123d
00000320: ab18 003e 9d24 cdbd 4752 553d 4e61 17be
00000330: 8dac 80bd 2f1c 343e c157 35be 8ea8 08be
00000340: 63f4 8a3d c204 05bc 77fe 8ebd 14bd 8c3e
00000350: d89b 6f3d 2e68 27bd 69c8 1a3e 0619 a63e
00000360: 5987 89be b3f2 6e3e ffdb 7cbe e17e 98bd
00000370: 9df0 c6bd 669e 3a3c 9156 223e db09 7d3d
00000380: c282 8cbe 1f2a fdbd 1d62 d3bd e9ed cbbc
00000390: 3ec7 c7bd 2673 e7be f233 3d3d dd5c 58be
000003a0: 8bf0 593d 68d7 22be 2622 8b3b dd62 123e
000003b0: a4d2 473b 486b d2be ad86 c3bd d11a adbe
000003c0: de15 83bd 2bcb 043e f309 14bd 8469 943e
000003d0: 0e85 81be 8f9d d3be 5796 803d 6f00 4e3e
000003e0: b0a8 dc3e 4ec8 bf3e 7aa9 013f 01c1 0fbf
000003f0: 0daf 373e 6b28 143f 54d5 4dbf c858 e1be
0.08871907 0.10827484 -0.40736786 -0.10425748 0.023957632 -0.5150857 -0.19200188 0.12625067
0.09735841 -0.19420992 -0.30192474 0.16466117 -0.020887522 -0.13255042 0.14417706 0.041611996
-0.015974233 0.3428831 0.09997041 -0.0324014 0.083152555 -0.2046165 0.12624696 0.32568914
-0.10320086 0.2789262 0.015188977 0.21045856 0.16713089 -0.079632364 -0.02211079 0.016150855
-0.17590763 -0.066619396 -0.07720505 0.2313663 -0.26457196 -0.13891603 0.11671498 0.045298733
-0.18528876 -0.5820198 0.13894662 -0.303016 -0.2882079 -0.19599599 -0.40065718 -0.15618102
0.0875543 -0.031011673 -0.014236781 0.4082498 -0.13624443 -0.18710336 -0.10027813 0.39091563
0.84289545 0.4784867 -0.32479045 0.29353315 -0.99695474 0.31084904 -0.0123262 -0.28862998
-0.19407599 0.077378854 -0.24844062 -0.23471998 0.2448327 0.33673206 0.538596 -0.27397683
-0.38751405 -0.6849123 -0.47550234 -0.54401165 -0.43586823 0.32356787 0.2668593 0.08574763
-0.2772861 -0.026609795 0.5753927 -0.13025546 0.1484757 -0.13909815 -0.07301202 -0.117620915
0.061355468 -0.13351046 -0.36602756 0.5774644 -0.031595252 -1.0832603 -1.4816535 -1.0511751
0.65717286 1.4123509 0.033783313 -0.40476614 -0.33685663 -0.03662749 0.16595435 -0.12954782
-0.17005016 0.22560172 -0.010817007 0.74488693 -0.002672086 0.04744516 0.1401939 0.48755524
0.09409667 -0.30003205 0.019438265 0.36607233 0.55414057 0.34952933 -0.41192552 -0.2027064
0.15228319 -0.07434016 -0.48957324 -0.2385031 -0.20788543 0.14068438 -0.058625437 -0.02150784
0.25483528 0.005321632 0.18761224 0.72313356 -0.31176636 -0.24725151 -0.27370864 0.08408083
0.058328036 0.18647178 -0.11051866 0.045602668 0.015388301 -0.2184786 -0.27540132 -0.82506454
-0.36724404 -0.20608161 0.60176724 -7.0816263e-06 -0.1987284 0.38268307 -0.092808574 -0.17694123
-0.47343057 0.11924905 -0.026038388 -0.4953544 0.18559943 0.04096575 0.07037408 -0.54998624
-0.6414153 0.082012855 -0.7920228 -0.4956284 -0.054818276 0.6453168 -0.5626363 -0.4476059
0.11741822 -0.70119125 0.04982852 -0.4455472 -0.12401348 -0.38248134 0.1646816 -0.5056105
0.07606722 -0.56963795 0.08130304 -0.010913257 0.073939204 0.5070902 -0.053231798 0.664397
0.30241776 0.24918132 -0.8310673 1.0384666 -0.19647674 -0.2289702 -0.8415112 0.13053262
-0.5403695 -0.614764 0.50713253 1.9065255 -0.054946095 0.06527535 0.2594857 0.03568994
0.1250941 -0.10016749 0.05208042 -0.14783213 -0.062829114 0.17588876 -0.17709257 -0.13345549
0.06784894 -0.00811881 -0.06982129 0.27488005 0.058498234 -0.040870838 0.15115513 0.32440966
-0.26861075 0.2333477 -0.24693297 -0.07446075 -0.09713862 0.011390304 0.15853335 0.061776977
-0.2744351 -0.123615496 -0.10321448 -0.024893718 -0.09754799 -0.4520504 0.046192117 -0.21129175
0.053207915 -0.15902483 0.004246014 0.14295526 0.0030490542 -0.41097474 -0.09547172 -0.33809522
-0.06400655 0.12968127 -0.0361423 0.28986752 -0.25296825 -0.41331145 0.06278675 0.20117353
0.43097448 0.37457508 0.50649226 -0.56153876 0.1793787 0.5787417 -0.8040364 -0.44013047

convs.0.fc_full.bias f4 [92]
00000000: b312 79bb 78bf 723d 4b1e 533c ea41 4ebd
00000010: b35e 8c3d 21b9 c2bd 5395 4d3d 587b 343d
00000020: eebe 493d 8492 c43d d577 c13d 5d65 ae3d
00000030: 4dd2 9ebb e7e6 863d f391 c3bc f826 14be
00000040: 0a5e b73d fad5 a63d 7290 373d c14d d4bc
00000050: 74c9 cabd 859a 813c 413e abbd 0acf 55bd
00000060: 719f 713b b68e 583d b986 a5bd 84e7 3ebd
00000070: 40e7 57bd fe29 8cbd 17c9 27bd ea47 923d
00000080: e5de 09bd 6c8b aabd 4617 babd 1a8d 7bbd
00000090: f944 d2ba a0c0 50bd 396e 8abc 9f55 5c3b
000000a0: cee2 98bd c9bd 8c3d 98c8 e53d beaf 25bd
000000b0: 4255 ccbd 0eff 9a3d d154 f23d a5ad bcbd
000000c0: 86ff 0bbe df43 f1bc fdc0 373d d3d6 1bbe
000000d0: fd54 c4bb 4d3f d23d 5f79 8cbd a17f a13d
000000e0: 70bb 6b3b f6f5 833d 3b6a 143d 66e2 2bbc
000000f0: 6d3a 2dbb c005 7e3c b243 103e 6ea6 443d
00000100: 0a47 ef3c 14fb 1c3d f448 e3bc 8b35 b63d
00000110: f8c5 bcbd e2bb a2bd 1252 31bd 9e8c fb3b
00000120: 6986 f03d 0d00 d7bc fe31 5d3c fca4 bd3d
00000130: f696 ba3d c6db 043d 25bb 7dbd e13f 3bbc
00000140: 7fde e6bd 69e8 543c b67d b03d 72fc ed3c
00000150: 22cc b8bd 39fd 16bc 4363 5abc 5fb6 b1bc
00000160: dc51 dfbd aca7 003c e261 c0bc f054 06be
-0.003800553 0.05926463 0.01288564 -0.05035583 0.06854 -0.09507967 0.050191235 0.044062942
0.04925435 0.09598258 0.09446684 0.08515427 -0.004846847 0.0658701 -0.023873305 -0.1446799
0.089534834 0.081462815 0.04481549 -0.025915982 -0.099017054 0.015820751 -0.08361483 -0.0521994
0.0036868716 0.052870475 -0.08082337 -0.04660751 -0.05271077 -0.06843947 -0.04096326 0.07142623
-0.033659834 -0.08327374 -0.0908647 -0.06141386 -0.0016042284 -0.05096495 -0.016898261 0.003362037
-0.074651346 0.06872136 0.11219901 -0.040450804 -0.09977199 0.07568179 0.11832584 -0.092128076
-0.13671693 -0.029451309 0.044861782 -0.15218668 -0.0059915767 0.1026598 -0.06859087 0.078856714
0.0035969876 0.06443398 0.03623412 -0.010490989 -0.002643253 0.015504301 0.14088324 0.048010282
0.029208679 0.038325384 -0.027744748 0.08896931 -0.09217447 -0.07945992 -0.04329116 0.007676675
0.11744387 -0.026245141 0.013500689 0.09259984 0.09110825 0.032436155 -0.061946053 -0.011428804
-0.112729065 0.012994864 0.086177275 0.02905104 -0.0902331 -0.009215646 -0.01332933 -0.021693407
-0.10904285 0.007852476 -0.023484174 -0.13118339

convs.0.bn1.weight f4 [92]
00000000: b43b d13f 0004 23bf aaee b03f 23f7 433f
00000010: 3f2f 473f b735 103f 8c88 513f 9173 513f
00000020: 5a2a 323f 883f 383f 69d6 f83f b9bb c53f
00000030: fbe6 1e40 830f 953f 0231 3a3d e93b 0fbf
00000040: 7ffc a140 b302 a23f 3902 c93e f7bc 1840
00000050: ca7e 103f 8ed0 cd3f 4ff5 a43f b030 453f
00000060: 0bd3 0740 d618 363f 09c4 cb3f 6b29 bf3f
00000070: 6f48 a73e cdff b63f 217b 1d40 5331 aa3f
00000080: 4dcc 3e3f 6564 0240 dede 993f db26 6c40
00000090: 54b2 5840 f070 3640 3eee 7040 8c36 3440
000000a0: c100 e13e ebbc 323f b131 0040 5b95 d33e
000000b0: 5df4 593f 9d9c 703f cc3e 873f e9a5 a23f
000000c0: bd29 663f 3c5f f33f 03a0 ba3f 1e32 ad3f
000000d0: 53be 093f ddd3 883d ff69 663f 9314 e53f
000000e0: b0f3 223f d0cd af3f 27e9 af3f a7d0 a23f
000000f0: a61d 723e ec1d 0340 f2d2 f53e 94ab 2d3f
00000100: 864f af3e 6c88 d83e d3fc 6d3e 5146 f43f
00000110: b294 3440 7283 f83f e115 ac3f 3184 363f
00000120: 7ff6 433f 2f2e 133e ec03 84bd 77df 143e
00000130: a1b3 933f 70ff 8f3f 58f4 a93f d9b0 0140
00000140: ac1b 973f 434d a8be 2115 8f3f 1dab b43e
00000150: e767 5a3f b767 e13f ccbd 92be 61a7 b73f
00000160: 5469 d73f f75a 2c3f c308 5d3f 3f60 eb3f
1.6346345 -0.6367798 1.3822834 0.76548976 0.77806467 0.5633196 0.8184898 0.81816965
0.69595873 0.7197194 1.9440433 1.5447913 2.482848 1.1645359 0.045456894 -0.5595079
5.0620723 1.2657074 0.39259508 2.3865335 0.56443465 1.6079271 1.2887362 0.77027416
2.122256 0.71131647 1.59192 1.4934515 0.3267245 1.4296814 2.4606402 1.3296303
0.7453049 2.0373776 1.2021139 3.6898715 3.3858843 2.8506432 3.7645411 2.8158293
0.43945888 0.69819516 2.003033 0.41324887 0.85138494 0.9398897 1.0566039 1.2706882
0.8990744 1.9013438 1.4580082 1.353092 0.53806037 0.06681035 0.9000549 1.7896904
0.6365309 1.3734684 1.3743027 1.2719926 0.23644122 2.0487013 0.480125 0.6783993
0.3424036 0.42291582 0.23240976 1.9083959 2.8215756 1.9415114 1.3444177 0.7129546
0.76548 0.14373086 -0.064460605 0.1453837 1.1539193 1.1249828 1.3277693 2.026419
1.180532 -0.32871446 1.1178323 0.352868 0.8531479 1.7609776 -0.2866043 1.4347955
1.6829019 0.673263 0.86341494 1.8388747

convs.0.bn1.bias f4 [92]
00000000: 106b a8bf a2b9 c5be 048a 83be 6a2f abbf
00000010: a1ff 19bf af55 33bf 917f 2d3d e4b4 0abf
00000020: 9b76 04bf fa75 87bf 07bc 3cbe 07d5 1bbf
00000030: c589 26bf 73d6 87be 4b57 f33e bbc4 98bf
00000040: e628 fbbc 5e84 d9be dbbc 45be f176 82bd
00000050: 68c4 d13c 26bb a6bf 9e51 17bf a8db 5abf
00000060: dde0 82bd 52b9 77be 9f8a c93d 8e50 3a3f
00000070: 0c6a 89bb 0ee6 19bd e32e c2bd de93 25bf
00000080: c787 adbf 24c8 bbbe 3501 c3be 2508 8dbe
00000090: 814c 6bbf 3bc3 633e 9041 2cbf 17b4 3dbf
000000a0: 9b59 82bc 192b 15bf 21d6 f0be 58c9 323d
000000b0: f36b d43d 7c24 17c0 0caf 9abf db08 80be
000000c0: 22c8 6dbe 3583 04c0 71c7 0cbf 020a 3dbf
000000d0: 2e68 34be fb0b d13f d3bb 0dbf 8059 8fbf
000000e0: 0cb1 6fbf 005c 90bf c538 2dbf 4977 bbbe
000000f0: d958 973e c708 9cbf 44c9 283e 074a 55be
00000100: e1d5 b53c 3d0c 313d b8f9 42be 51e6 cfbf
00000110: 3f86 37bf a53b acbf e67a ad3e 3dbd eebe
00000120: fc4c 9cbd c1c0 9a3e 5441 7c3e 9a66 993e
00000130: 51d5 a2be 07b0 8abf e8c4 bcbf 044f 2cbf
00000140: 028c 05bf b050 9d3f 898a 39bf 3044 753e
00000150: 91f6 adbe 4492 8cbf e8e0 dd3c 99ea 39bf
00000160: 45c7 83bf a6d0 11bf 112b 9dbd d1f5 09c0
-1.3157673 -0.3861819 -0.25691235 -1.3373845 -0.60155684 -0.7005262 0.042357985 -0.5418227
-0.5174348 -1.0582879 -0.18431102 -0.6087193 -0.6505397 -0.265308 0.47527537 -1.1935037
-0.03065915 -0.424838 -0.19310324 -0.063703425 0.02560635 -1.3025863 -0.5910891 -0.8549142
-0.063905455 -0.24191788 0.09840893 0.72779167 -0.00419355 -0.037572913 -0.09481599 -0.6467875
-1.3557061 -0.36676133 -0.38086858 -0.27545276 -0.9191361 0.22242443 -0.6728754 -0.7410292
-0.015911868 -0.58268887 -0.47038367 0.043649048 0.10372152 -2.3616018 -1.208467 -0.25006756
-0.23220876 -2.0705082 -0.54991823 -0.73843396 -0.17617866 1.6331781 -0.5536472 -1.1199188
-0.9362953 -1.1278076 -0.6766475 -0.36614445 0.29559973 -1.2190179 0.16483027 -0.2082902
0.022196712 0.043224562 -0.19040573 -1.6242162 -0.7168922 -1.3455702 0.33882827 -0.46628752
-0.07631871 0.30225185 0.24634296 0.2996109 -0.31803373 -1.0834969 -1.4747591 -0.6730807
-0.5216676 1.2290249 -0.7247701 0.23951793 -0.33977178 -1.0982137 0.027084783 -0.7262359
-1.0295187 -0.56959 -0.0767423 -2.1556284

convs.0.bn1.running_mean f4 [92]
00000000: 9c6d 0140 60d9 b440 2e78 03bf c11f 9540
00000010: c733 a6bf 9e27 1dc0 0889 5a3e 0066 503f
00000020: e4a6 0bbf 6b2a 7540 b20d 733f 5293 d8bf
00000030: 1e5d 89c0 8def c73f b5b1 bd3f 4e93 6f40
00000040: 8687 a040 49d4 103f 58c2 403f d813 993e
00000050: 9700 d6be 31ec cd3f 6a32 63bf 9a28 94be
00000060: e4cd f63f dda5 2d3f 0a66 b43f a543 0140
00000070: a92d 3d3f dc70 31bf 15aa 30bf a849 0b40
00000080: b77a 653e a9a5 d43f 30ca 3dbd 7b88 d5bd
00000090: c281 e03e 42c8 14bf 8657 e63d 5c96 61be
000000a0: 87c3 a0bf fb10 3cbe ff16 bf3d 551e ee3f
000000b0: f782 5bbe f3d2 94c0 2a56 483f 0964 20c0
000000c0: d1b4 763f 83a8 3640 6a72 c5bf b45e 2dc0
000000d0: bb62 043f 6da4 a03e d407 7dbe edb9 0d40
000000e0: 7226 04c0 5484 c1bf 4a7c afc0 ca9f 5840
000000f0: 1867 c03f 5454 0dc0 b525 aac0 7466 473f
00000100: 97db 923f aef5 65c0 7b41 aabf 92ba 9640
00000110: a4cb ed3f 368c 893e b90b f63f 466f 4d40
00000120: f9b8 1d40 4f30 c63d 1095 ddbe 98b0 d5be
00000130: f1b3 1340 a7bb e43f 4763 9abf b472 8b3d
00000140: c48d b2bf 5988 003f 911e 58c0 0e45 1a40
00000150: d9a0 cf3f e43b 9b3f 1f03 cf3e ddfc 21bf
00000160: e555 52c0 a65b b73f da5c 88bf a436 8fc0
2.022315 5.651535 -0.51355255 4.660126 -1.2984551 -2.455543 0.21341336 0.8140564
-0.5455153 3.830714 0.9494277 -1.6919959 -4.292617 1.561998 1.4819857 3.7433658
5.0165434 0.5657392 0.75296545 0.29897952 -0.41797325 1.6087705 -0.887488 -0.28937227
1.9281583 0.6783121 1.409364 2.0197537 0.73897797 -0.69312835 -0.69009525 2.1763706
0.22410093 1.6613055 -0.0463354 -0.10426422 0.43848997 -0.5811807 0.112471625 -0.22030014
-1.255967 -0.18365853 0.09330558 1.8603007 -0.21436678 -4.6507506 0.78256476 -2.5061057
0.96369654 2.8540351 -1.5425541 -2.7089052 0.5171315 0.31375447 -0.24710017 2.214473
-2.0648465 -1.5118508 -5.483922 3.3847528 1.5031462 -2.208272 -5.317103 0.77890706
1.1473264 -3.59312 -1.3301233 4.7102747 1.8577771 0.26864785 1.9222327 3.2099166
2.4644148 0.09677183 -0.43277788 -0.41736293 2.3078578 1.7869767 -1.2061547 0.06808987
-1.3949513 0.5020805 -3.3768656 2.4104648 1.6220962 1.2127652 0.4043207 -0.63276464
-3.2864926 1.4324844 -1.0653336 -4.47542

convs.0.bn1.running_var f4 [92]
00000000: 4e46 b241 cb0e e541 057d 0642 6a5b 2c42
00000010: 5486 8541 e327 e841 b297 d041 07f4 b541
00000020: b9ab c341 1f25 9f41 3a76 e841 7b9c 2042
00000030: ffa5 f141 7b26 b841 1064 3e41 b881 be41
00000040: 23ab 5c42 f95f 5641 e2cf a441 7328 6842
00000050: 6ac5 1e41 0fbf 4f42 e66b 1842 fe2c 6c42
00000060: 2642 da41 c9c0 5741 13b1 bb41 21f0 1541
00000070: d221 3d41 a82f 4e41 8636 4142 feab 0c42
00000080: 55cc d641 c16b 0a42 e2e2 a441 bcd7 f741
00000090: 7bc9 7042 34ae 2d42 fda3 0342 f9f8 1741
000000a0: 197b bd41 0e78 c041 f114 3842 4e2d 1d41
000000b0: 00c6 8741 6313 2542 18bf af41 9eb3 8e41
000000c0: d785 1842 92b9 ff41 3641 5a41 ba1a 0642
000000d0: b4b4 ac41 fa76 ac41 c65d 9641 adfd 9241
000000e0: d523 9441 b615 cd41 be0f ae41 e644 df41
000000f0: 35f8 8441 0b0d 0242 d20b 2142 1933 1e41
00000100: 71dd 9641 0fde 2f42 5584 5541 0267 3042
00000110: ffb0 0f42 8674 2d42 4393 f341 8ff3 8f41
00000120: 36df cb41 f9bf 0b41 9269 3e40 8b51 f640
00000130: 192b 0142 af1b 9f41 5988 a241 94cd cb41
00000140: 066c 9641 b6ee 4142 18bc e741 a28f 7e41
00000150: 68cc 2542 211b 9641 799b b441 0577 a841
00000160: 4448 c041 fc7c 4241 dddd 5b41 6c87 2442
22.284328 28.632223 33.62209 43.08927 16.69059 29.019476 26.07407 22.744154
24.458849 19.893126 29.057728 40.152813 30.206053 23.01879 11.899429 23.81334
55.167126 13.398431 20.601505 58.0395 9.923197 51.93658 38.10537 59.043938
27.282299 13.484567 23.461462 9.371125 11.820757 12.886635 48.303246 35.16796
26.849771 34.60523 20.610783 30.98034 60.19676 43.42012 32.910145 9.498284
23.685106 24.05862 46.02045 9.823561 16.97168 41.268932 21.968307 17.837704
38.130703 31.96561 13.640921 33.5261 21.588234 21.558094 18.795788 18.373865
18.517496 25.635601 21.757687 27.908642 16.621195 32.512737 40.261543 9.887475
18.858126 43.966854 13.344808 44.100594 35.922848 43.363792 30.446905 17.993925
25.48399 8.734368 2.9751935 7.697454 32.292088 19.888517 20.316576 25.47538
18.802746 48.483116 28.966843 15.910067 41.449615 18.763247 22.575914 21.058115
24.035286 12.155514 13.741666 41.132248

convs.0.bn2.weight f4 [46]
00000000: edb5 633f 4504 183f 259a 943f 7f5e 233f
00000010: cc6b f53c 7f25 7a3f f57d c23e 471c af3e
00000020: 1c96 7e3f aadb 4d3f 0630 863f c3c1 523f
00000030: 6e04 c43e 1881 523f 6fe2 0a3c d04c 823f
00000040: 6388 823f b8e3 9bba d6bf b43e 4af7 d73e
00000050: 8478 b93d 0f0e 1c3f f50c 643f 39ea 313f
00000060: 24a9 a43e 22fd f23e cdc7 0c3f ab53 743d
00000070: 0725 ae3b 2eec f33e 4faf 153f 4667 833f
00000080: 44f8 113f fad5 6e3f 84ad fa3e 530a 083f
00000090: 2154 903f 63ac 393f 6098 923f 4755 9e3f
000000a0: 602d 073f 23bd 673f aa8a 573f 9913 c63d
000000b0: 2a7e f03e e2c1 4f3f
0.8894947 0.59381515 1.1609541 0.63816065 0.029958628 0.97713464 0.37986723 0.3420126
0.994478 0.80413306 1.0483406 0.82326907 0.3828463 0.8222823 0.008476838 1.0179691
1.0197872 -0.0011893427 0.3530261 0.42180854 0.0905619 0.6095895 0.8908227 0.6949802
0.32160294 0.4745875 0.5499237 0.059650104 0.0053144726 0.47641128 0.58470625 1.0265892
0.5701945 0.9329525 0.48960507 0.53140754 1.1275674 0.72528666 1.1452751 1.2369775
0.5280361 0.90522975 0.8419596 0.09671707 0.46971256 0.81155217

convs.0.bn2.bias f4 [46]
00000000: 8d90 efbe 4aa0 36bf 81d3 afbe 6f94 b4be
00000010: 2bcb 4dbf fa7f c1be efaa 76be 3fd3 00bf
00000020: 695e babe e88e 19bf 0374 f3be bbe8 b3be
00000030: 7eec 95be ed14 4cbf 2af6 65be a217 cbbe
00000040: 5d0c 9bbe b263 b7be 0832 d6be eafd 92be
00000050: 6ac7 2dbf ed79 c0be 058e 42bf e0a2 e2be
00000060: cd91 06bf d520 21bf 97c4 93be 8227 b5be
00000070: fecd 64be a208 bfbe 936f 37bf 925b 48bf
00000080: 6079 43bf 1c02 54be efad ebbb 3669 82be
00000090: 3d1d d2be f10d 2dbe 98c0 49be e66b 63be
000000a0: 8464 2dbf 4a35 fbbe d0d4 dcbd d127 33bf
000000b0: 7ff6 b5be fc6d ddbe
-0.4678997 -0.7133833 -0.34341052 -0.35269496 -0.80388135 -0.3779295 -0.24088643 -0.50322336
-0.36400154 -0.5998368 -0.47549447 -0.35138497 -0.29281992 -0.7971943 -0.22457185 -0.39666468
-0.3028287 -0.3581825 -0.41835046 -0.28709346 -0.67882407 -0.37593022 -0.75997955 -0.4426489
-0.52566224 -0.6294072 -0.28860924 -0.35381705 -0.22344205 -0.37311274 -0.71654624 -0.78264725
-0.7635708 -0.2070393 -0.0071923654 -0.25470895 -0.41037932 -0.1689985 -0.19702375 -0.22209129
-0.677315 -0.49064094 -0.10782778 -0.6998263 -0.35539624 -0.43247974

convs.0.bn2.running_mean f4 [46]
00000000: d24f d63f e2a8 9040 6b5a 9a40 ecf2 d33f
00000010: baa1 8840 3a3f 4540 23b3 8b40 da70 0741
00000020: 4672 4540 2ba0 2a40 d137 1a40 fa12 2940
00000030: f741 6640 52ef a440 6ac6 cb40 5972 3040
00000040: 4f1c 9840 c3df 8340 0a72 8340 1208 a140
00000050: 6c2d 7640 ad2c 3240 74fc ee40 efb7 4640
00000060: 7b0e 0841 6c48 5d40 7851 a540 ebf1 d540
00000070: caeb 9d40 4fdd ac40 c9bb 9540 4861 1a40
00000080: a182 b33f fc2c 5c40 a968 7c40 79b3 0541
00000090: 4ecb 2540 cb7e a640 3ce9 7e40 df49 2240
000000a0: b21f 8e40 bf38 6640 6f1f 4d40 b443 5340
000000b0: cc80 a640 33a6 593f
1.6743109 4.5206156 4.8235373 1.6558509 4.269742 3.081984 4.3656173 8.465052
3.0850997 2.6660259 2.4096568 2.6417832 3.5977762 5.154214 6.3679705 2.7569792
4.7534556 4.1210647 4.107671 5.032235 3.8465223 2.7839768 7.468317 3.1049764
8.503535 3.4575453 5.166195 6.685781 4.935033 5.402015 4.679173 2.4121876
1.402424 3.4402456 3.943888 8.356317 2.5905337 5.2029777 3.9829855 2.5357587
4.441369 3.5972135 3.2050436 3.3010073 5.2032223 0.85019225

convs.0.bn2.running_var f4 [46]
00000000: 0ba2 4f40 66e5 8941 7937 0941 f8f4 1b41
00000010: 070d 5142 b0f0 4141 db62 9440 9e74 0341
00000020: cbc4 e940 a3d3 8e41 01fb 1b40 1863 ee40
00000030: a2e7 8f41 edbb 8f41 9ef5 853f 0469 ea40
00000040: aae0 6741 1f34 4f41 b718 3240 f05a 3641
00000050: 2f41 2340 8fa7 6f41 8190 d242 4c43 bf41
00000060: f02d 4442 88cd d440 26ac 2441 7ebf db40
00000070: 61fd 163f 2a03 e740 3b10 7641 10d1 1a41
00000080: 8a4c 7040 d25c 7841 0f48 5741 2e4f 0942
00000090: dbb5 bb40 7db4 0b41 cec4 3941 1418 0241
000000a0: 8df3 c83f 2170 4041 e99c 9641 3d48 7440
000000b0: 11ad 8f41 dd55 3140
3.2442653 17.237011 8.576043 9.747307 52.262722 12.121262 4.6370673 8.215971
7.3052726 17.853338 2.437195 7.4495964 17.988102 17.96676 1.0465581 7.3253193
14.49235 12.950225 2.7827585 11.397202 2.5508535 14.978408 105.282234 23.90786
49.04486 6.6500893 10.292028 6.8671255 0.58980376 7.219136 15.3789625 9.676041
3.7546716 15.522661 13.455092 34.327324 5.865949 8.7315645 11.610548 8.130878
1.5699326 12.027375 18.826616 3.816909 17.959505 2.7708657

convs.1.fc_full.weight f4 [92, 98]
00000000: 85b0 1bbe f800 d33b 6ddf 253e 6ed1 783e
00000010: 4766 d13e b916 50bf 1c21 55be 2188 a83c
00000020: ed2c 04be 7177 48bf 5b18 fbbe abd8 9fbf
00000030: 49cf ce3e 8307 39be b869 e03e 122a 05bf
00000040: 65ec 583e 6a4b bc3e 1961 4a3e 49de 073e
00000050: ceeb cabe 3af0 f73d ef64 f63e b050 163f
00000060: da13 2cbe 66d5 8a3e 2d6c a43e ee7c 243e
00000070: 0098 313e 6b19 3f3d c86e 1e3f df38 febe
00000080: 959d aabd b173 97bd e9c7 c2bc c970 af3e
00000090: 61d8 9cbe 5381 c63e 8414 bc3e 4785 043e
000000a0: c38b 583e a2f3 e93d f53a 943d 4a7f 97be
000000b0: e528 b2be 8ffd 24bf 4aec debc 7ab2 03be
000000c0: 7208 0abf 2c37 39be e6b8 d53e 6835 d6be
000000d0: b90d 90be d29a d5be ff6f 06bf 25a7 003f
000000e0: 27f5 51be e8dd 5dbf ceb7 74bb b94b 423d
000000f0: 5c49 e93d 5a3b cebd f484 423e 4554 b0be
00000100: a734 9d3d 66d0 b53e 497a b43d 5e98 dfbe
00000110: d685 e9bd 3d2a b9be 35d9 c33e 9b2b 87bd
00000120: 64bc 11bf f8e2 af3e 1ba4 abbd b287 cf3d
00000130: bd0f ccbe 4f25 213f 9a8a 423e 7c4d a8be
00000140: 1691 803e 6ae8 1ebf ddc8 19be 82a3 59bd
00000150: 3ddd 1d3f 26ed bc3e 3d62 31be a9cf 453e
00000160: 1355 a7be 3b81 05be fe6d 1abd ae65 0fbf
00000170: 6af9 433e 2154 a3be 5ada a33e 9fcf 503e
00000180: 0a5b 43bf 8c95 6ebe e2f9 c7bd 609f 06bd
00000190: 3a41 edbd 2fe3 55be e3f1 5ebd 6b32 31bf
000001a0: 1d3d be3d 21dc ab3e c4cf f03d 588b f6be
000001b0: 98bc ecbe 5b33 1bbf b84c 493e d9f9 0abf
000001c0: f0df 1c3f 6514 7fbf 8d04 693e 7a79 dd3e
000001d0: 783d 0b3f 1c4b a6bd 4dbb 8e3d 5cd5 c43e
000001e0: 094b 073f f7a5 0e3f 3673 1cbf 91ff 2f3e
000001f0: 12f2 973c e2bf 273d 4139 5a3e cb49 7cbe
00000200: e47a 1f3f 6fcd f6be 98b7 e13d 0070 b0be
00000210: 559e 403d 6b11 bf3e be28 96be ecac 553f
00000220: 4c75 febd fdf2 66bd a158 2abe b22b 17be
00000230: b460 cebd b93e febe 73cd 9dbd 6908 9d3e
00000240: 9b1f 8a3e 7719 04bf c7cd 1dbf 9e20 fcbc
00000250: e5d9 30be 46df 31bf fdff 0cbf 8e29 bf3c
00000260: 161c 7ebe 0f4d 923e f4a0 a4be dabe 8e3d
00000270: 8263 87be 10cc a4ba ed8f b93e 3395 45bf
00000280: 8aed 31bf a60d 173f 7ec8 3d3e 438a 91be
00000290: 71e7 9f3d 5cc5 a43e 6844 1e3e c953 99bd
000002a0: c96c 17be 36e1 b6bd 9fec f7be cfaf c33e
000002b0: 58e3 563e c0ef 4f3d 0667 2fbc 70d1 29be
000002c0: 5965 1b3d 442c 4ebe 6945 383d 1e99 cabe
000002d0: 3ac6 33bf d033 aebd 9f52 e93c dbe6 c3be
000002e0: acbd a9bd fb7f adbe 5c56 1abe cc63 1d3e
000002f0: be88 8cbe d93f 80bf 5119 113e 4167 b7bd
00000300: 0248 0ebe ba01 d43e 3e16 083f bac2 02bf
00000310: ef2d cebe 1cd1 b13d 1477 a43e d486 b3bf
00000320: b66a 6cbe 10d5 a8be d271 213d b222 423e
00000330: 7b13 c13d caee acbe 5fb7 6cbe bdd0 eebe
00000340: 2c6e 0ebf ebfb cdbe 9f67 5dbe 90fc e7bd
00000350: 35bc 82bd 5e9c cabe 60e3 363c 30b8 8a3d
00000360: 7e9c ea3e 7818 73be b727 7f3e 274a 29bf
00000370: 8686 efbe 6810 0bbf a14b 53be 7933 6f3e
00000380: 9251 e23d 7e4e 1e3e 633b a2be 7134 7d3d
00000390: 77e9 69bf 297f 033f 48e8 f53e 0127 1b3e
000003a0: cf41 73bd 4016 c5bc 30ec 16bf 2511 903d
000003b0: 6310 443c 18a1 39be 3e6e 3bbe d83d 14bd
000003c0: d991 2b3f 9e8e 4cbd 1214 ab3e c6d5 1d3e
000003d0: 425d 55bf 7817 9b3e 4a3e 35bd fdeb 943e
000003e0: fbf9 54be 65f4 bf3e ac4c fd3e c186 f9be
000003f0: 4c50 e73d 27c6 2e3e 4f72 78bf 4f34 febe
-0.15204056 0.0064393245 0.16198511 0.24298641 0.40898344 -0.8128467 -0.20813411 0.020572724
-0.12907763 -0.78307253 -0.4904202 -1.2487997 0.4039252 -0.18069272 0.43830657 -0.5201732
0.21183927 0.36776286 0.19763602 0.13268389 -0.3963303 0.121063665 0.4812388 0.5871687
-0.16804448 0.27115935 0.32113782 0.16063282 0.1734314 0.0466551 0.6188779 -0.49652764
-0.08330838 -0.07395113 -0.023776965 0.34265736 -0.30633834 0.38770542 0.36734402 0.12941466
0.21147065 0.114234224 0.07237808 -0.295893 -0.34796825 -0.644494 -0.02721228 -0.12861052
-0.53919137 -0.18087453 0.4174263 -0.4183762 -0.2813547 -0.4171968 -0.5251464 0.5025504
-0.20503674 -0.8666673 -0.0037341001 0.047435496 0.11390945 -0.10069914 0.1899603 -0.34439293
0.07676058 0.35510558 0.088123865 -0.43670934 -0.1140248 -0.36165038 0.38251653 -0.06600114
-0.56928086 0.3435285 -0.0838091 0.10133304 -0.39855757 0.62947553 0.18998185 -0.32871616
0.25110692 -0.62073386 -0.1501803 -0.05313445 0.6166571 0.3689968 -0.17322631 0.19317497
-0.32682094 -0.13037579 -0.037702553 -0.56014526 0.19138113 -0.31900123 0.32002527 0.20391701
-0.7631079 -0.23299235 -0.09764458 -0.032866836 -0.115847066 -0.20887445 -0.0544299 -0.69217557
0.09289 0.33566383 0.11758378 -0.48153186 -0.46237636 -0.6062524 0.19658172 -0.5428749
0.612792 -0.99640495 0.22755642 0.43256742 0.5439067 -0.08119795 0.069693185 0.3844403
0.5284887 0.5572199 -0.611133 0.17187335 0.018548045 0.040954478 0.21310903 -0.24637525
0.6229689 -0.48203608 0.11021346 -0.3446045 0.047025997 0.37317976 -0.2932796 0.8346698
-0.12424716 -0.056384075 -0.16635372 -0.14762762 -0.100770384 -0.4965723 -0.07705202 0.3067048
0.26977238 -0.51601356 -0.61642116 -0.030777272 -0.1727062 -0.69481313 -0.5507811 0.023335245
-0.24815401 0.28574416 -0.32154047 0.06969996 -0.26443106 -0.0012573022 0.3624262 -0.77180785
-0.6950308 0.590052 0.18533513 -0.28425798 0.07807816 0.32181823 0.15455782 -0.07486684
-0.14787592 -0.08929674 -0.48422715 0.3822007 0.20985162 0.050765753 -0.010705715 -0.165838
0.03793845 -0.20134073 0.04498807 -0.39569944 -0.70224345 -0.08505976 0.02848178 -0.38262066
-0.0828813 -0.33886704 -0.15072006 0.153701 -0.27448076 -1.0019485 0.14169814 -0.08955241
-0.13894656 0.41407567 0.5315894 -0.5107838 -0.4026942 0.086824626 0.321221 -1.4025521
-0.23087582 -0.32975054 0.039415188 0.18958548 0.09427544 -0.33775932 -0.23116826 -0.4664363
-0.5563686 -0.4023126 -0.2162156 -0.11327469 -0.06383554 -0.39572424 0.011162609 0.06773412
0.4582252 -0.23739803 0.24917494 -0.6612877 -0.4678232 -0.5432191 -0.20634319 0.23359479
0.110507146 0.1545963 -0.31685933 0.06181759 -0.91371864 0.51365906 0.4802878 0.15151598
-0.05938893 -0.024058461 -0.58954144 0.0703452 0.0119667975 -0.18127859 -0.18303773 -0.03619179
0.6701942 -0.049940698 0.3341375 0.1541358 -0.83345425 0.30291343 -0.044248857 0.29086295
-0.20798485 0.37491146 0.49472558 -0.48735622 0.11294612 0.17067777 -0.9704942 -0.49649283

convs.1.fc_full.bias f4 [92]
00000000: d720 cebd 60ba 1a3d a0af ad3d 0938 1cbd
00000010: f306 473d ca2b b53c 8c05 043d 3725 603d
00000020: c158 02bd af2f e4bc c3db 98bd 824f f4bc
00000030: ce1d 84bc c115 59bd 942f cd3d ab51 7bbe
00000040: aae2 2d3e 83ba a6bc 8039 c93d f0ca 9d3d
00000050: d744 023e 4c4a c53d 6e7a d6bc 0230 17be
00000060: ac2f 333e fcf3 593d b5aa 1abc 619d 713d
00000070: c379 35bd 305b dcbc 34a0 ca3c aef2 ee3c
00000080: ba84 bbbc eaf5 3dbd ca2d fe3d 71c9 463d
00000090: 1532 39bd 6ac1 9e3d 03da 5bbd a106 663c
000000a0: 02fb aebd b0e9 97bd 22b6 ee3c 6f9c 373d
000000b0: 29cf 013e ee75 a1bd af96 8ebd 5a98 88be
000000c0: 3ff9 893d ac6a 0f3d c7c7 8a3c 7110 01be
000000d0: 5cf8 893d bc63 c43d 61a5 c23d ae13 d5bd
000000e0: caa9 603c b75a b6bd f9e0 053d 9857 9f3d
000000f0: 1ee5 29bd 1e17 403e cc37 393c 7952 da3d
00000100: 757a 9f3d 6825 183d 4f3c 353d 7cbf 45bd
00000110: 4d07 4b3d 2697 95bd f4ea 663d 620c 76bd
00000120: 1824 19bd 78d3 113d 4f65 86bd 949c c0bd
00000130: 4ad9 9abd 44b6 cdbd f6fa 04be 37fb 35be
00000140: 2630 dbbc f192 873d 1c1f 5cbc c824 9e3b
00000150: e8f5 94bd 1a70 0b3d e27d f93c a0d9 00be
00000160: 457b 3abe 7637 a7bc 3525 86bd ed91 b43d
-0.100648575 0.037775397 0.084807634 -0.038139377 0.04859061 0.022115607 0.032231852 0.05472299
-0.031822924 -0.027854769 -0.07463791 -0.029823069 -0.016127493 -0.05299926 0.100188404 -0.24542873
0.16980997 -0.020352608 0.098254204 0.07704723 0.12721573 0.09633312 -0.026181426 -0.14764407
0.17498654 0.053211197 -0.009440114 0.05898798 -0.044305574 -0.02689895 0.024734594 0.029168453
-0.022890437 -0.0463771 0.12411077 0.048531953 -0.045213778 0.077517346 -0.05367471 0.014039666
-0.0854397 -0.07417619 0.029139582 0.04482692 0.12676682 -0.078838214 -0.06962334 -0.26678735
0.06736993 0.03501384 0.016940964 -0.12603928 0.06736824 0.09589335 0.095042 -0.10404144
0.013712356 -0.08904021 0.032685254 0.07780379 -0.04147827 0.18758819 0.011304807 0.10660262
0.07787029 0.03714505 0.044246968 -0.048278317 0.04956751 -0.0730422 0.056376413 -0.060070403
-0.037387937 0.035602063 -0.06562292 -0.09404865 -0.07560976 -0.1004453 -0.12986359 -0.17771612
-0.026756357 0.06619824 -0.013435151 0.004826162 -0.072734654 0.034042455 0.030455533 -0.12583017
-0.18211086 -0.020412188 -0.065500654 0.08816896

convs.1.bn1.weight f4 [92]
00000000: df69 cf3f 3452 bc3f 156d 0440 1207 d33f
00000010: 03b0 c33e 18aa d93f 4989 863f 81ad 923f
00000020: 25f8 bc3f 8441 8e3f e122 6d40 fd23 fb3e
00000030: e24e 3240 0a3c ae3f c3e6 eb3f b2b2 7540
00000040: 788b fc3f 3e5d 653f e631 d53e c696 2c3f
00000050: 4a0f 933f eabe a33f 7110 793f 7796 0640
00000060: 6119 a33f bb4a 953f 03ff b93f f8a4 973f
00000070: 6717 c53f 9d66 91be f1f0 3d3f 56b9 0340
00000080: e5c8 953f d5fc 283f 9dba ab3f cc6a a03f
00000090: 720f 9240 d05a ba3f cfe4 a83f c1c8 fb3f
000000a0: 8317 e03f e40a 273f b773 943f 74a1 f23e
000000b0: aae5 d23f 470c 273f 469e c03f b506 a73f
000000c0: b12a 0240 2692 6d3f 8f41 e73e 1f17 b33f
000000d0: 302c f23f 4a94 b93f d94d 4740 43dc 833e
000000e0: 4d5a 313f 00b8 943f c103 f73b 117a 903e
000000f0: e0dd fa3f 09e4 d13f 8198 d63f 33c9 613f
00000100: 9cf5 573e b09d c23f 2b74 1b40 1538 ef3f
00000110: a3c3 c33f 05c8 ff3f f255 003f 5127 d43f
00000120: f1b7 f73f 3451 743f b0d1 853c eefd 613f
00000130: 87a0 973e 1c69 f53f 4671 a93f 26f1 b23f
00000140: 5d45 e2be 2770 d23f 72d3 f73d 0623 e83f
00000150: ae52 0d3e 7a59 c63f 2de2 813f 40e9 fe3f
00000160: 0835 803f d5d3 963f c0e7 793f 895d 53bd
1.6204184 1.4712586 2.0691578 1.6486533 0.38220224 1.7005033 1.0510646 1.1459199
1.4763228 1.1113744 3.7052538 0.49050894 2.7860646 1.3612072 1.8429798 3.8390317
1.9730062 0.895954 0.41639632 0.6741756 1.1489041 1.2792637 0.9729071 2.1029336
1.274212 1.1663431 1.4530948 1.184722 1.5397767 -0.283986 0.7419577 2.058187
1.1701933 0.6601079 1.3416325 1.2532592 4.5643854 1.4558964 1.3194827 1.967064
1.7507175 0.6525099 1.1597813 0.47388804 1.6476338 0.6525311 1.5048301 1.3048922
2.0338557 0.9280113 0.45167205 1.3991431 1.8919735 1.4498379 3.1141264 0.25753984
0.69278413 1.1618652 0.0075382893 0.2821813 1.9598961 1.6397716 1.676529 0.8819763
0.21089786 1.5204372 2.4289653 1.868899 1.5294079 1.9982916 0.5013114 1.6574498
1.935301 0.95436406 0.016335338 0.8827809 0.2961466 1.9172702 1.3237693 1.3979843
-0.44193545 1.6440476 0.12100877 1.8135688 0.13801071 1.5496056 1.0147148 1.9914932
1.0016184 1.1783396 0.9761925 -0.051602874

convs.1.bn1.bias f4 [92]
00000000: 0e9f 38bf 28e7 b9bd 62fc d4be 5759 8fbf
00000010: 0128 33be 61ae 21bf f862 2fbf d6ba 11bf
00000020: ed3d 31bf df72 03bf 1bed 1fbf 92e7 f6bc
00000030: 0121 ff3d e75d 22be 7387 5abf 0549 2cbe
00000040: 8030 4bbf 4d09 f3bd f341 ce3d 2989 6bbe
00000050: 5e0c 49bf a0b4 a5bf ec86 70bf d792 45bf
00000060: 24dc e53b 6907 e7bf 8482 9abf e74b 5fbc
00000070: 0a9d 183e ae25 5cbf ea48 edbe 96af 99be
00000080: 2c3e 1bbf 33e5 6bbf 0c6e bbbe 720e 96bf
00000090: 12a6 073f 089a a2bf 8e5c a9bc 6565 7c3d
000000a0: bb89 53bf ff43 1dbf 0926 26be 4ff1 17be
000000b0: a100 dc3d 6846 bfbe 0cee 8dbf 0d93 a8be
000000c0: 5eca febe 03ef 53bf 4575 a9bd a98c cdbe
000000d0: 40c4 98bf d8ae 67bf 0bd5 96bf 4245 fb3e
000000e0: 349c 66be 1677 7cbd 6b66 d03f 0798 e33d
000000f0: 657f 8cbf d1dd 3cbf 782e c6bf beee dabe
00000100: 89f1 4b3d ee8d 43bf e457 8abf d2a6 b9bf
00000110: 0929 94bf 3c95 47bf 0185 a9be 4f33 f1bf
00000120: 8466 9fbf dfca b7be 9210 b03f 3a6e bdbe
00000130: 2c1b b9bd cde8 f4be 6066 ffbe 60f2 59bf
00000140: 2bd8 b53d f880 afbf e322 0940 fc5c 04c0
00000150: 6965 e33e ffc3 9abe c2dc 12bf 48bb 5dbf
00000160: d156 43bf 1873 91be 20e7 e6be 2848 873f
-0.721177 -0.09077293 -0.41598803 -1.1199139 -0.17495729 -0.63156706 -0.6851039 -0.56925714
-0.69235116 -0.51347154 -0.6247117 -0.030139718 0.12457467 -0.15856133 -0.8536293 -0.1682473
-0.7937088 -0.11867008 0.100711726 -0.23001541 -0.78534496 -1.2945747 -0.93955874 -0.77177185
0.007014768 -1.8049136 -1.207108 -0.013628936 0.14903656 -0.85994995 -0.46344692 -0.30016774
-0.6064174 -0.92146605 -0.36607397 -1.1723158 0.5298778 -1.2703257 -0.020674016 0.061620135
-0.82632035 -0.6143188 -0.16225447 -0.14838146 0.107423075 -0.37358403 -1.1088271 -0.3292469
-0.4976377 -0.8278658 -0.082743205 -0.40146378 -1.1934891 -0.90501165 -1.1783766 0.49076277
-0.22520524 -0.061637007 1.6281255 0.11112981 -1.0976378 -0.73775965 -1.5482931 -0.4276027
0.049790893 -0.7638844 -1.0808072 -1.4504035 -1.1575023 -0.7796209 -0.33109286 -1.8843783
-1.245316 -0.35896966 1.3755057 -0.3699816 -0.09038386 -0.47833863 -0.49882793 -0.8513546
0.088791214 -1.3711233 2.1427543 -2.0681753 0.44413307 -0.30227658 -0.573681 -0.86613894
-0.76304346 -0.28408122 -0.4509821 1.0568895

convs.1.bn1.running_mean f4 [92]
00000000: 2983 c4bf 6b33 47c0 d0f1 68c0 073b 163f
00000010: e41b 5fc0 1aa3 d6bf 12cf bebd 4bf2 8ebf
00000020: f042 5f3f 3d6b f9bf a5e7 03bf e6b6 3dc0
00000030: ce4d e63e c39a bebf 4665 973f ab5f 66c0
00000040: faca e4bf bce8 1ac0 4cf6 87bf 4cb6 6ac0
00000050: 9841 afbf 8db7 993c 26d8 a5c0 0ff7 2a3e
00000060: 1a6f 55c0 a618 ba3e 698e 97bf 0ba4 6d3e
00000070: 2565 4cc0 54e6 e13f ffc0 933e e944 d6bf
00000080: d68c dfbf 51bd 5fc0 1c67 b7c0 d1f0 fabf
00000090: 88e4 c4bf fe2b bac0 564e 18c0 d562 55c0
000000a0: 6f97 533f c7f2 8bc0 1b95 fb3e 32dc b1c0
000000b0: c545 f63e a675 3bc0 15ea a5bf 3cd1 8bc0
000000c0: 501a 56c0 bd1c 34c0 0e5b c8c0 6b31 3ec0
000000d0: 8890 44c0 6b40 0ec0 2076 8bc0 22c7 83c0
000000e0: d566 8dc0 2446 47c0 9b21 46bf eeab cebf
000000f0: 20d6 3fbd 785a f2bf 4b09 40c0 d088 2ec0
00000100: add9 a8bf a327 0ac0 77d3 5cbf 9f3f 62c0
00000110: c039 2dc0 d5f1 f9bf 8810 38c0 725d 9fbe
00000120: aaea a6bf 20ce 18bf 1dae 8cc0 e843 d0bf
00000130: aed6 52be dcb6 41c0 2933 e0bf 8618 7fc0
00000140: 5729 8d40 0301 27c0 9d7a 7940 85b4 25c0
00000150: 42ae 5ac0 46d8 f0bd 36a9 323f 7a68 8bc0
00000160: 2db7 d3bf 83d0 b4c0 ff83 ccbf 5bf2 1a40
-1.5352527 -3.1125133 -3.639759 0.5868382 -3.4860773 -1.6768525 -0.09316839 -1.1167692
0.87211514 -1.9485852 -0.51525337 -2.9642882 0.44981235 -1.489098 1.1827781 -3.599589
-1.7874444 -2.420455 -1.0622039 -3.6673765 -1.3691893 0.018764282 -5.1826353 0.16695808
-3.334906 0.3634693 -1.1840335 0.23207109 -3.1936734 1.7648416 0.28858182 -1.673978
-1.7464855 -3.49593 -5.7313366 -1.9604741 -1.5382242 -5.81787 -2.3797812 -3.3341572
0.82652944 -4.373386 0.49137196 -5.5581293 0.48100105 -2.9290557 -1.2962061 -4.3692913
-3.345356 -2.814254 -6.261115 -2.9717662 -3.0713215 -2.2226818 -4.3581696 -4.118058
-4.4188027 -3.113656 -0.7739503 -1.6146219 -0.046835065 -1.8933859 -3.0005672 -2.7271004
-1.3191429 -2.1586692 -0.8626017 -3.5351331 -2.7066498 -1.9526926 -2.876009 -0.3112598
-1.3040364 -0.5968952 -4.396254 -1.6270723 -0.20589706 -3.0267859 -1.7515613 -3.9858718
4.4112964 -2.6094368 3.8981087 -2.589143 -3.4168859 -0.11760001 0.69789445 -4.3565035
-1.6540276 -5.650453 -1.5977782 2.4210422

convs.1.bn1.running_var f4 [92]
00000000: b0b0 ed40 6675 d640 b85e 9f40 36f5 e040
00000010: fc27 9540 107a 3840 cb35 c640 5ada 8640
00000020: 5003 7540 8795 2f40 f9d6 a740 2e89 b740
00000030: 392f 1841 0422 8740 9583 9040 5f5c c140
00000040: 71aa ae40 e643 2740 4585 7640 d223 b840
00000050: 77d2 9240 bfad d740 6e7f 9d40 b091 6840
00000060: 142b 8540 410b f740 116c a740 75f9 d040
00000070: 5ae5 3440 68ad bc40 c661 3940 3268 8a40
00000080: 4c06 6440 ba51 9d40 f0af c140 428a b140
00000090: 0f87 fa40 1251 2641 9f40 5a40 74ec 9840
000000a0: 9440 8f40 a447 ff40 1505 8d40 97e9 b440
000000b0: d284 bd40 60d4 0b41 4340 8e40 99a4 bb40
000000c0: f917 aa40 c7fa c840 1823 0741 c63d 1940
000000d0: d230 c940 d887 a040 aaa9 0041 308b 8c40
000000e0: 7e1b 0841 dd0d bd40 c374 ce40 9072 7240
000000f0: e4ed 9140 f5e3 c540 08b8 e540 11c4 2f40
00000100: a505 6c40 2ca8 a240 0dad b740 72b1 d540
00000110: 8b6b 8040 7346 b940 d3fa 8540 6809 9440
00000120: 5be7 9d40 b8fa ef40 5a6c 4340 2a6e 2e40
00000130: 77ba 7940 f6bf b540 0789 5e40 e40c 9540
00000140: 25aa ba40 1348 6640 3ec4 4041 4c3b f440
00000150: d32f 6840 d645 ac40 416b 9940 9fca e540
00000160: 2ab2 3140 ede9 8640 2a2c 3f40 52f1 9d40
7.4278183 6.701831 4.9803123 7.029933 4.661131 2.88245 6.1940665 4.2141542
3.8283272 2.7435014 5.244992 5.7354956 9.511529 4.2229023 4.5160623 6.042526
5.458306 2.6135192 3.8518841 5.7543726 4.5881915 6.7399592 4.9218054 3.633892
4.1615086 7.720124 5.2319417 6.5304513 2.8264985 5.8961678 2.8965926 4.325219
3.5628843 4.9162264 6.0527267 5.548127 7.8289866 10.394793 3.4101942 4.778864
4.476633 7.977495 4.4068704 5.6535144 5.9224634 8.739349 4.4453444 5.8638425
5.3154263 6.2806125 8.446068 2.3943954 6.2872095 5.0165825 8.041422 4.3919907
8.506712 5.9079423 6.451753 3.7882423 4.5602894 6.184077 7.1787148 2.746342
3.6878445 5.083029 5.7398744 6.677911 4.013128 5.7898498 4.186868 4.626148
4.9344916 7.4993553 3.0534883 2.7254739 3.902006 5.6796827 3.4771135 4.6578236
5.8332696 3.598149 12.047911 7.6322384 3.627919 5.383525 4.7943425 7.180984
2.7764993 4.2160554 2.9870706 4.935708

convs.1.bn2.weight f4 [46]
00000000: 8238 643d 22d5 a13f 72e0 9f3f 3914 863f
00000010: 3a2f 143f 818f 9b3e 06d9 a93f 4c6c 2e3f
00000020: 5120 ac3f df98 473f 3a01 b33f 3b57 c5bc
00000030: 46c3 613f 1f0b d53e f9bd 8b3e 642e 973f
00000040: a111 843f caba d43e 5443 893e 8047 193f
00000050: 0e0a ac3f 4baf 773f 98f2 8d3f bb33 a73f
00000060: 0fbd 393f 1757 013f 10b2 9b3f 457a 783e
00000070: b62e 8d3e cea0 bd3b 7566 133d 58c7 923f
00000080: ce30 813f b2fe 7f3f 0a1f ea3e fed1 403f
00000090: 9e18 c73e 6fd9 3a3f 22d1 eb3e 5d38 643f
000000a0: 4059 7f3f c6a0 8c3f dac2 7f3f 77e3 253f
000000b0: 3445 5c3f e80b 863e
0.055717953 1.2643168 1.249037 1.0474921 0.5788456 0.30382922 1.3269355 0.68134
1.3447362 0.7796764 1.3984749 -0.024089446 0.8818859 0.41610047 0.27293375 1.1811032
1.031788 0.4154876 0.2680918 0.59874725 1.3440568 0.9675185 1.1089659 1.3062662
0.72554106 0.50523514 1.2163715 0.24265392 0.275747 0.0057869917 0.035986383 1.1467085
1.0093019 0.9999801 0.45726806 0.7532042 0.3888597 0.7298803 0.46057993 0.89148504
0.9974556 1.0986564 0.99906695 0.6480021 0.86043096 0.2618096

convs.1.bn2.bias f4 [46]
00000000: 502a 53bc 8915 0dbf 3577 a8be c13e 05bf
00000010: bcf0 22bf fff7 11be 6e69 93be 710c 8ebd
00000020: 4350 44bf 0e8d abbe 39b6 32bc 0da8 9cbd
00000030: 30b0 60be e705 c6be f249 9ebe 5e01 a0bc
00000040: 764c 27bf 4a7d 90be 6998 23be c78f 8abd
00000050: 45d1 ecbe 05f9 3ebf f883 82be c65d 0cbe
00000060: e726 ccbe 4cd2 93be a1f8 9dbe d6e2 f1be
00000070: b7e6 42bd a406 47be b85f c1be e880 61bf
00000080: 9fd9 4ebf 6953 5cbf 2d29 debe 7837 bcbd
00000090: 4f5f e8be 494e 9dbe 663a 57be 4d7a b7be
000000a0: ba3d c9be 8a37 02bf e965 8ebe 7d0c c3be
000000b0: 07b3 3ebf 5223 abbc
-0.012888506 -0.55110985 -0.32903448 -0.5204888 -0.6364858 -0.14254759 -0.28791374 -0.06935967
-0.7668497 -0.33506054 -0.010907703 -0.07649241 -0.2194221 -0.38676378 -0.3091579 -0.019531902
-0.65351045 -0.28220588 -0.15976109 -0.067657046 -0.4625341 -0.74598724 -0.2549131 -0.13707647
-0.3987343 -0.2887138 -0.3085375 -0.47243375 -0.047583308 -0.19436127 -0.3776834 -0.8808732
-0.80800813 -0.86064774 -0.4339079 -0.09190267 -0.45385215 -0.3072379 -0.21018371 -0.35835496
-0.39304906 -0.50865996 -0.27812126 -0.38095465 -0.74491924 -0.020890865

convs.1.bn2.running_mean f4 [46]
00000000: 31ce e93f 10eb 8440 2c1f ad40 ed9b c43f
00000010: d078 7c40 59e3 8c40 09e0 4040 43b7 5440
00000020: a1fe 9040 b422 a040 ff1f 8040 b3e4 b040
00000030: 715b 3941 02cb 9840 cc14 8140 239d 6040
00000040: 7a2f 2540 ab58 7f40 6e83 9540 eb59 7e40
00000050: 6c69 7140 c7b0 b63f a48e 2240 1587 8040
00000060: f43b 7740 e598 853f 1f4a 5940 dbd5 8d40
00000070: 0fd3 1d41 3561 1d40 bee6 5a40 3ec6 c740
00000080: 79a9 8540 fcbe 1040 1ba4 8940 f0b7 1440
00000090: 5e36 7441 c3ad d53f 650c b940 0a4a 9a40
000000a0: ee62 4340 dc63 7a40 c153 5040 9d66 8f40
000000b0: 1d9a 7040 4eec db40
1.826605 4.153694 5.410055 1.5360085 3.9448738 4.4027524 3.013674 3.3236854
4.5310826 5.004236 4.003906 5.5279174 11.584825 4.774781 4.0337887 3.5095909
2.5810227 3.9897869 4.6722937 3.9742382 3.7720594 1.4272698 2.539956 4.0164895
3.8630342 1.0437285 3.395149 4.4323554 9.864028 2.459058 3.4203334 6.2429495
4.1769376 2.2616568 4.3012824 2.3237267 15.263273 1.6693653 5.782763 4.821538
3.0529132 3.912345 3.255112 4.481276 3.7594063 6.872596

convs.1.bn2.running_var f4 [46]
00000000: 22bf 0841 6c1d 4341 3d9d 1e42 01fb 5f40
00000010: 3b88 f23f 3461 f541 d6fb c340 9cd1 9241
00000020: 6d65 3b42 9857 b340 2dd5 4641 fd36 0042
00000030: 63b1 2342 8918 d540 439a 2e42 f236 5e41
00000040: 6bf3 1d41 6b0c 0941 f88f b13f 2cf5 d041
00000050: 93f6 3041 e94f 2c40 a1c0 8441 809a 9b41
00000060: 0f98 8440 d276 2a40 f4d6 c641 23a6 2b41
00000070: edb3 8341 a99a fd40 b53d 6640 05a6 9342
00000080: bc3a 2241 0901 7f40 4156 ac40 a121 dd40
00000090: 9fa4 3a42 784b 9d40 697f b440 5ffe ea41
000000a0: fdf0 1c41 647a 9c41 df7a 0e41 7519 0441
000000b0: 634e 1741 d74e 9740
8.546663 12.194683 39.653553 3.499695 1.8947824 30.672462 6.1244917 18.352348
46.84905 5.6044426 12.427045 32.0537 40.92323 6.659245 43.650646 13.888414
9.871928 8.565532 1.3872061 26.119713 11.060199 2.6923773 16.594057 19.45044
4.143562 2.6635022 24.854958 10.728061 16.462854 7.9251294 3.5975163 73.82426
10.139339 3.9844382 5.385529 6.910355 46.660763 4.9154625 5.640553 29.374205
9.808835 19.559761 8.904998 8.256215 9.456637 4.728374
