CGCNN_ensemble/histories/1_valid_best_params.pt (torch_old, 446091 bytes, 91 tensors)

embedding.weight f4 [46, 98]
0	0x3c667f40	0.014068425
1	0x3e87102f	0.26379535
2	0x3e017b39	0.12644662
3	0x3ee3f167	0.44520113
4	0x3ea81a68	0.32832646
5	0xbe048137	-0.12939917
6	0xbdf6dd29	-0.12053902
7	0x3db0af6d	0.0862721
8	0xbe013bd9	-0.12620486
9	0x3e0bc99d	0.13651128
10	0xbea27811	-0.31732228
11	0xbe0d5daa	-0.13805261
12	0xbdee3c0e	-0.11632548
13	0x3dc6aa69	0.09700472
14	0x3d454fa6	0.04817166
15	0xbe86d4ee	-0.26334327
16	0x3dec353b	0.115335904
17	0xbc733f78	-0.014846675
18	0x3d568ad4	0.05237849
19	0x3f33d533	0.7024719
20	0xbd901f74	-0.07037249
21	0x3e0bee3c	0.13665098
22	0x3cdb23e2	0.026750509
23	0x3d98cfff	0.07461547
24	0xbe3207a2	-0.17385724
25	0x3db97a7a	0.09056564
26	0x3d9f5595	0.07779995
27	0xbdb1142a	-0.08646424
28	0x3e8188d4	0.25299704
29	0xbcda67cd	-0.026660824
30	0xbaf8712f	-0.001895463
31	0xbe814559	-0.2524822
32	0x3c1675f8	0.009183399
33	0xbdeb8c85	-0.11501411
34	0x3ebf00f6	0.3730542
35	0x3da6aef6	0.0813884
36	0x3f422a9c	0.75846267
37	0x3ebc1c1e	0.36740202
38	0xbe5adde4	-0.21373707
39	0xbddb4f86	-0.10708527
40	0xbd0f2acf	-0.034952935
41	0xbe248939	-0.16067971
42	0x3dd5b39c	0.104346484
43	0x3e5dd059	0.2166151
44	0x3d3085fc	0.043096527
45	0x3e0a0414	0.13478118
46	0x3e408bb5	0.18803294
47	0x3db692cd	0.08914719
48	0x3e32531c	0.17414516
49	0x3e2483ab	0.16065852
50	0xbe880552	-0.2656656
51	0xbd634f7e	-0.05549573
52	0x3d477aac	0.048700973
53	0xbdcff208	-0.10153586
54	0x3e85611f	0.2605066
55	0xbe83bb6d	-0.25728932
56	0xbe075ea6	-0.132197
57	0xbeab752e	-0.33487839
58	0x3e0828e7	0.13296853
59	0xbe9d6d27	-0.3074734
60	0x3e6b2661	0.22963859
61	0xbdca3f7a	-0.098753884
62	0xbe703925	-0.23459299
63	0x3d1e1c35	0.03860112
64	0x3e822bcb	0.25424036
65	0x3be6e490	0.0070462897
66	0x3b464040	0.0030250698
67	0x3c0d5a80	0.008627534
68	0x3ca48528	0.020083025
69	0xbd67ca5b	-0.056589466
70	0xbe4c0b84	-0.19926268
71	0x3cff9b38	0.031201944
72	0xbd40c443	-0.04706217
73	0xbe510bf1	-0.20414712
74	0x3e1e6905	0.1546975
75	0x3daa3a0b	0.08311852
76	0xbdb56f18	-0.0885908
77	0xbce76b48	-0.028249398
78	0x3e20f45b	0.15718214
79	0x3d95a96c	0.07307705
80	0xbe9c5e05	-0.3054048
81	0x3d2498f8	0.040184945
82	0xbd920995	-0.07130734
83	0xbe9c0fff	-0.30480954
84	0xbcef4158	-0.029205963
85	0x3dc79460	0.09745097
86	0x3d96fafa	0.07372089
87	0xbe50f27b	-0.20404999
88	0xbd209c7c	-0.039211735
89	0x3db18e99	0.086697765
90	0xbdb1499f	-0.0865662
91	0x3e8a7c75	0.27048078
92	0x3aa7400b	0.0012760175
93	0x3f9d681c	1.2297397
94	0xbf4e8959	-0.80678326
95	0x3d4e4fa4	0.05036892
96	0x3e4aa863	0.19790797
97	0xbed941c5	-0.4243299
98	0xbbcafe00	-0.00619483
99	0xbd5346d6	-0.051581226
100	0x3dd51e41	0.10406161
101	0xbe25183c	-0.16122526
102	0xbe363b4f	-0.17796062
103	0xbeaa6256	-0.3327815
104	0xbdf2ccff	-0.11855506
105	0x3e3803f6	0.17970261
106	0xbe14692a	-0.14493242
107	0xbd60d735	-0.054892737
108	0x3c38960f	0.0112662455
109	0xbd58b93a	-0.05291102
110	0x3cb00084	0.02148462
111	0xbcf16c89	-0.029470699
112	0xbddf8556	-0.10914104
113	0x3e6e6284	0.23279768
114	0x3e046930	0.12930751
115	0xbd324687	-0.04352429
116	0x3da2a612	0.07941832
117	0xbc79eb2b	-0.015253822
118	0xbe8f6710	-0.28008318
119	0x3da88753	0.08228936
120	0x3d5bdb10	0.05367571
121	0xbe42231b	-0.18958704
122	0x3c142b09	0.0090434635
123	0xbcd870e8	-0.026421025
124	0x3dac39ec	0.08409485
125	0x3e1102cd	0.14161225
126	0xbe501e48	-0.20324051
127	0xbe3ce31d	-0.18446012
128	0x3c7bf793	0.0153788505
129	0xbe0d3f7d	-0.1379375
130	0xbdc894c3	-0.09793999
131	0x3dbd4fad	0.092437126
132	0xbe3d4684	-0.18483931
133	0x3c721388	0.014775164
134	0x3d7215d2	0.05910284
135	0xbd918015	-0.07104508
136	0xbdaeccc6	-0.08535151
137	0x3e53aee5	0.20672186
138	0xbd966e8b	-0.07345303
139	0xbd5b54eb	-0.05354778
140	0x3e1ad55f	0.15120457
141	0xbeb3abca	-0.35092002
142	0xbb140920	-0.0022588447
143	0x3dfbe439	0.122993894
144	0xbc921445	-0.01783193
145	0xbb81dc11	-0.0039630015
146	0xbe042f1a	-0.12908593
147	0xbe003c98	-0.12523115
148	0x3daf3bb7	0.085563116
149	0x3ce9aa6c	0.028523646
150	0x3e3ce148	0.18445313
151	0xbd8348e1	-0.06410385
152	0xbe60d123	-0.2195478
153	0xbe5ef3ac	-0.21772641
154	0xbd49709a	-0.04917965
155	0x3dade391	0.084906705
156	0x3beeb5d8	0.007284861
157	0xbd2520ad	-0.040314365
158	0xbe18023b	-0.14844601
159	0xbdd5bb53	-0.1043612
160	0xbdb5fd7c	-0.08886239
161	0xbd1be3e2	-0.038059123
162	0x3d253ba3	0.040340077
163	0x3c9db5b8	0.01925169
164	0x3d7a6380	0.061130047
165	0x3d1987c0	0.037482977
166	0x3d0f2190	0.034944117
167	0xbb47d960	-0.0030494556
168	0x3dc2e978	0.09517187
169	0xbd101e8c	-0.03518538
170	0x3ebced31	0.36899713
171	0xbd5c12e9	-0.05372897
172	0xbcbdc66a	-0.0231659
173	0xbdb8c240	-0.09021425
174	0xbdb72692	-0.089429036
175	0x3d77e270	0.060518682
176	0x3d0db012	0.03459174
177	0xbccaf8fa	-0.024776924
178	0xbea66c7c	-0.32504642
179	0xbcfba154	-0.030716576
180	0xbea50710	-0.3223195
181	0xbd184285	-0.037172813
182	0xbdc6144c	-0.0967184
183	0xbe651377	-0.22370706
184	0xbc569f94	-0.01309957
185	0x3e73d243	0.23810677
186	0x3e1de632	0.15419844
187	0xbe7fa431	-0.24964978
188	0xbe858001	-0.26074222
189	0x3d63b4b3	0.05559225
190	0xbe646075	-0.2230242
191	0x3f2e710c	0.68141246
192	0x3f1a6884	0.6031573
193	0xbee53df5	-0.44773832
194	0xbf1604c4	-0.5860102
195	0xbeb8e670	-0.3611331
196	0xbdc4a082	-0.09600927
197	0xbe0bd57f	-0.13655661
198	0x3e932dc6	0.2874586
199	0x3db5c586	0.08875565
200	0x3e97e5be	0.29667467
201	0xbe8170c2	-0.2528134
202	0xbe9669f0	-0.293777
203	0xbd8ff9a2	-0.070300356
204	0xbcfe7ee1	-0.03106636
205	0xbea651b4	-0.3248421
206	0x3cdaea56	0.026723068
207	0x3eaa5407	0.33267233
208	0x3ddb5703	0.107099555
209	0xbe1db899	-0.1540245
210	0xbda35ce8	-0.07976705
211	0xbbcc2cd9	-0.006230932
212	0xbd57d793	-0.052695822
213	0x3d90e552	0.070749894
214	0x3d89c010	0.06726086
215	0xbde06e0f	-0.10958492
216	0xbd0bbbde	-0.03411471
217	0x3da5e576	0.08100407
218	0x3c63a93c	0.013895329
219	0x3d32ef1f	0.043685075
220	0xbeae571b	-0.3405083
221	0x3dc5ab1e	0.09651779
222	0x3e679d86	0.22618684
223	0x3e941731	0.28923944
224	0x3ea09aa5	0.31367984
225	0xbdc8e1ce	-0.09808694
226	0xbe26bb7c	-0.16282457
227	0x3e193e02	0.1496506
228	0x3c2dfac8	0.010618873
229	0xbe84872f	-0.25884387
230	0xbdfd5f76	-0.12371723
231	0x3cad82b0	0.02118048
232	0xbe8a156b	-0.26969466
233	0xbe4ec875	-0.20193656
234	0xbd802582	-0.06257154
235	0xbdca7323	-0.09885242
236	0xbdea1345	-0.114294566
237	0xbe0a6829	-0.13516296
238	0x3e7ae232	0.24500349
239	0x3ecd56e3	0.40105352
240	0x3dc7648e	0.09735976
241	0x3ecb324a	0.39686805
242	0xbe2fefe3	-0.17181353
243	0x3e483b37	0.19553839
244	0xbe5dd0d3	-0.21661691
245	0x3d8b2a47	0.06795173
246	0xbe026c1c	-0.12736553
247	0xbe1be645	-0.1522456
248	0xbe455f5a	-0.19274655
249	0xbe44f9ea	-0.1923596
250	0xbe332c57	-0.17497383
251	0xbe03b078	-0.12860286
252	0x3e8e4988	0.27790475
253	0x3e6c7b59	0.23093928
254	0x3e8b23c7	0.27175733
255	0x3c6bacac	0.01438443

embedding.bias f4 [46]
0	0xbeef01ff	-0.4668121
1	0xbf4c1e02	-0.7973329
2	0xbe954ad8	-0.29158664
3	0xbf047226	-0.51736677
4	0xbe5b8060	-0.2143569
5	0xbf2b39b1	-0.66884905
6	0xbf07c276	-0.530311
7	0xbec3cb7e	-0.3824119
8	0xbdb10b28	-0.08644706
9	0xbb28594f	-0.0025687998
10	0xbf566d60	-0.83760643
11	0xbe750b98	-0.23930204
12	0xbd7d2fd3	-0.061813187
13	0xbe647ca7	-0.22313176
14	0xbe60238b	-0.21888559
15	0xbf095b8c	-0.53655314
16	0xbf43a514	-0.76423764
17	0xbf4cdff8	-0.8002925
18	0xbe09f8cb	-0.13473813
19	0xbf296ee1	-0.6618481
20	0xbf373587	-0.7156605
21	0xbf5a4b30	-0.8527098
22	0xbeab411d	-0.33448115
23	0xbeb73e8e	-0.35789913
24	0xbe81bd94	-0.2533995
25	0xbec45068	-0.38342595
26	0xbea0bd66	-0.313945
27	0xbddef046	-0.10885672
28	0xbe40763a	-0.187951
29	0xbee45c27	-0.44601557
30	0xbe1d3e04	-0.15355688
31	0xbe6a485a	-0.22879162
32	0xbe9e0e2c	-0.30870187
33	0xbf53086d	-0.8243473
34	0xbe839d3a	-0.25705892
35	0xbed98705	-0.42485824
36	0xbea3e527	-0.32010767
37	0x3e8f35d5	0.27970758
38	0xbef58c85	-0.4795877
39	0xbee02089	-0.43774822
40	0xbeac40ff	-0.33643338
41	0xbf024b0e	-0.50895774
42	0xbea2dc2b	-0.318086
43	0xbecac04e	-0.39599842
44	0xbe75b558	-0.23994958
45	0xbedf11ac	-0.4356817

convs.0.fc_full.weight f4 [92, 98]
0	0x3de42ab1	0.11140955
1	0xbe41b70a	-0.1891748
2	0x3d9e7fca	0.077392176
3	0xbdc13659	-0.09434194
4	0xbe7a6a84	-0.24454695
5	0x3d374cf4	0.044751123
6	0xbe473629	-0.19454254
7	0xbd5ecac9	-0.05439261
8	0x3d4ded01	0.050274853
9	0xbdb5d018	-0.08877581
10	0xbcdd451a	-0.02701049
11	0x3ec24828	0.37945676
12	0xbd3ef219	-0.0466176
13	0xbdc608d4	-0.096696526
14	0x3b2da2e6	0.00264948
15	0xbd8d6ca3	-0.069054864
16	0x3d2e93f4	0.042621568
17	0x3dded8b5	0.10881177
18	0x3e420f1f	0.1895108
19	0xbee97382	-0.45595938
20	0x3e1f0ec1	0.15532972
21	0xbd97680d	-0.07392893
22	0xbdd62fb3	-0.10458317
23	0xbd0ee8c2	-0.034889944
24	0xbcdc7c3a	-0.026914705
25	0x3e7318be	0.23739907
26	0xbe88f5bb	-0.26749977
27	0x3e9fb4ad	0.31192532
28	0x3e0a6b35	0.13517459
29	0xbc827215	-0.01592354
30	0x3e6d35c4	0.23165041
31	0x3e45c8b1	0.19314839
32	0xbd8e8e63	-0.06960752
33	0xbe23f8d6	-0.16012892
34	0xbeca55c2	-0.39518553
35	0xbcdd0055	-0.026977697
36	0xbe4ec53e	-0.2019243
37	0xbd63f645	-0.055654783
38	0xbde763d6	-0.11298339
39	0xbe0f7dff	-0.14012907
40	0xbba3babc	-0.0049966257
41	0x3e8efed4	0.27928793
42	0xbd6fc296	-0.05853518
43	0xbde669d9	-0.112506576
44	0xbe3d0ff3	-0.18463115
45	0x3e240e3e	0.16021058
46	0xbf1214b3	-0.57062835
47	0xbd392226	-0.045198582
48	0x3d4e97d4	0.050437763
49	0x3e2c7c30	0.16844249
50	0x3d5a9360	0.053363204
51	0xbe3382d2	-0.17530373
52	0x3e01e031	0.12683178
53	0x3b3f8961	0.0029226171
54	0x3dd3269e	0.103101
55	0x3e8043c9	0.25051716
56	0xbe80bb8b	-0.25143084
57	0x3d20f455	0.039295513
58	0x3eb71abf	0.35762593
59	0xbe2845ee	-0.16432926
60	0xbe91d9c0	-0.28486443
61	0xbdaf325a	-0.08554526
62	0x3d1ab9d3	0.037774872
63	0xbd53ccbb	-0.051708918
64	0xbbccf880	-0.0062552094
65	0x3ee22cbb	0.44174752
66	0xbdd98be9	-0.10622389
67	0xbd162a41	-0.03666139
68	0x3ec4f2d7	0.38466522
69	0xbe2ca2d1	-0.16858985
70	0xbb8c4db4	-0.004281724
71	0x3c1ef4e3	0.00970194
72	0x3cf0c656	0.029391449
73	0xbecda233	-0.4016281
74	0xbd194911	-0.037423197
75	0x3e2e0095	0.1699241
76	0xbdfeb742	-0.124372974
77	0xbe874e25	-0.26426807
78	0x3f096d74	0.5368264
79	0x3e6a26cc	0.22866362
80	0x3e166b21	0.14689304
81	0xbe27fc3b	-0.16404812
82	0xbdc0e658	-0.094189346
83	0x3da0996c	0.07841763
84	0x3e3d7c64	0.18504483
85	0xbe91878d	-0.2842373
86	0x3eb4f590	0.353436
87	0xbf062932	-0.5240661
88	0x3d5f3c1d	0.054500688
89	0x3e437a49	0.19089617
90	0x3e39ae96	0.18133005
91	0xbec38e6c	-0.38194597
92	0xbe3e4daa	-0.18584314
93	0xbe774739	-0.24148263
94	0x3e815bd4	0.25265372
95	0xbd94a63a	-0.07258268
96	0xbea8bdca	-0.32957298
97	0x3eacd125	0.33753315
98	0xbde34d0d	-0.11098681
99	0xbd06a8b8	-0.032875746
100	0xbdc737c3	-0.097274326
101	0xbd45b3b2	-0.048267074
102	0xbcf377b1	-0.02972016
103	0x3d96e8b7	0.073686056
104	0xbd7234d0	-0.059132397
105	0xbd704025	-0.058654923
106	0x3d76a4a5	0.06021561
107	0x3e248265	0.16065367
108	0x3d93b14d	0.07211552
109	0xbe3f024e	-0.18653223
110	0xbe5c0914	-0.21487838
111	0x3d9befcb	0.07614096
112	0x3bf0e7a8	0.0073518343
113	0x3da2dd80	0.07952404
114	0x3df5a3ea	0.11994155
115	0xbdf2f7a2	-0.118636385
116	0x3e0309e5	0.12796743
117	0x3e0909d0	0.1338265
118	0xbc9394e3	-0.01801533
119	0x3d0e8fe0	0.03480518
120	0xbd447092	-0.047958918
121	0x3d90dec9	0.07073743
122	0xbe5f4249	-0.2180263
123	0xbe8429f2	-0.25813252
124	0x3e43c60b	0.19118516
125	0xbe3d2337	-0.18470465
126	0xbe1b6c2b	-0.15177982
127	0x3e5538b4	0.20822412
128	0xbe44b358	-0.19209039
129	0xbe8b9eb2	-0.27269512
130	0x3ce56450	0.028001934
131	0x3d76bf1c	0.06024085
132	0x3e30dbe2	0.17271379
133	0xbca581ad	-0.020203436
134	0x3d19b397	0.037524786
135	0xbd8695b4	-0.06571522
136	0xbe2c1e04	-0.16808325
137	0xbd9974bd	-0.07492969
138	0xbe14e574	-0.14540654
139	0xbd1bd619	-0.038045976
140	0xbcc1c399	-0.023652839
141	0x3b2235fd	0.0024751418
142	0x3e5e74d9	0.21724261
143	0xbd5b9bae	-0.053615265
144	0xbb02d0e6	-0.001996094
145	0x3c91857c	0.017763846
146	0xbe34a5a2	-0.17641309
147	0xbe0a4678	-0.13503444
148	0xbce7d245	-0.028298507
149	0xbdfa4012	-0.12219252
150	0x3dce6604	0.10078052
151	0x3dd54600	0.10413742
152	0xbe65f556	-0.2245687
153	0x3e87f3e0	0.2655325
154	0xbdb25c26	-0.08708982
155	0xbd3fafc8	-0.046798497
156	0xbe9a127e	-0.30092233
157	0x3e99728f	0.29970214
158	0x3df44fbd	0.11929271
159	0xbcd6b032	-0.026207063
160	0x3e01a140	0.12659168
161	0xbcfe3150	-0.031029373
162	0x3e5f57c4	0.21810824
163	0x3e473ad9	0.19456042
164	0xbe698916	-0.228062
165	0xbc1021e0	-0.008797139
166	0xbd1ab432	-0.037769504
167	0xbd57b8c8	-0.052666456
168	0xbefae69b	-0.49004063
169	0x3cde344e	0.02712455
170	0x3def2844	0.11677602
171	0xbd91690f	-0.071001165
172	0xbf1ae42c	-0.6050441
173	0x3c9208df	0.017826496
174	0xbebb7e23	-0.36619672
175	0xbedcf43f	-0.43155095
176	0x3eaf6c0c	0.3426212
177	0x3e8cb971	0.2748523
178	0x3df8d5f9	0.12150187
179	0x3de91b68	0.113821805
180	0xbd438639	-0.047735427
181	0xb9a71a01	-0.00031872097
182	0x3c09c08e	0.008407725
183	0x3eaf44b7	0.34232113
184	0x3df9a818	0.121902645
185	0xbe5c8761	-0.21536018
186	0x3cd40365	0.025880525
187	0x3d7e251b	0.062047105
188	0xbe53d774	-0.20687658
189	0x3e1064c8	0.14100945
190	0x3e03c47a	0.12867919
191	0x3eb55ad4	0.3542086
192	0x3e8ed5e9	0.27897575
193	0xbe759bbc	-0.23985189
194	0xbe82942a	-0.25503665
195	0xbe379490	-0.17927766
196	0xbe23b5a9	-0.15987267
197	0xbe660852	-0.22464111
198	0x3e88b271	0.2669864
199	0x3e44c45d	0.19215532
200	0xbc7bd887	-0.015371448
201	0xbe10ea00	-0.14151764
202	0xbbfe32fc	-0.0077575427
203	0x3e21fa1b	0.15818064
204	0x3dcd6af8	0.10030168
205	0xbedb80c0	-0.42871666
206	0xbe9fd47c	-0.312168
207	0x3e4db7a2	0.20089582
208	0x3e7f9f00	0.24962997
209	0xbf2007c7	-0.6251187
210	0xbe0783d0	-0.13233876
211	0xbe1e7ef0	-0.1547811
212	0x3d96bafe	0.07359885
213	0x3e72fa72	0.2372835
214	0xbe4b718b	-0.19867532
215	0xbea1a0ad	-0.31567898
216	0x3ec0bd44	0.37644398
217	0x3e229c58	0.15879953
218	0x3ed0010c	0.406258
219	0xbe11c8fb	-0.14236824
220	0x3e1f44fa	0.15553656
221	0xbd66acb5	-0.05631705
222	0xbeec74c1	-0.46182826
223	0xbe4b5a09	-0.19858564
224	0x3ddd19be	0.107959256
225	0xbda56139	-0.080751844
226	0x3dfb43cf	0.12268793
227	0x3e121c11	0.14268519
228	0xbed8643c	-0.42263973
229	0x3c48b62e	0.012250466
230	0xbe31456d	-0.1731164
231	0x3ce2086d	0.027591908
232	0xbe93eed4	-0.2889315
233	0x3e17ea13	0.14835386
234	0x3d6cf349	0.057849202
235	0xbdd37658	-0.10325307
236	0x3d82b9de	0.063831076
237	0x3ebd8cb3	0.37021407
238	0xbe69f3f6	-0.2284697
239	0xbd417aae	-0.047236137
240	0x3d5d53a3	0.05403484
241	0xbdb72e45	-0.08944372
242	0x3e1247b3	0.14285164
243	0x3d7359e1	0.059411887
244	0x3e2a24ad	0.16615553
245	0xbe527e9d	-0.20556112
246	0xbe8d78fc	-0.27631366
247	0x3b6472d9	0.0034858494
248	0xbc785745	-0.015157525
249	0x3d1715b8	0.036885947
250	0x3d13b0de	0.036057346
251	0x3c0e086e	0.008669002
252	0x3e379cd2	0.17930916
253	0xbcfee7b5	-0.031116346
254	0xbd46f8d2	-0.048577137
255	0x3e78bad6	0.24290022

convs.0.fc_full.bias f4 [92]
0	0xbdb759bf	-0.089526646
1	0xbd795f48	-0.060881883
2	0xbdc680a9	-0.09692509
3	0xbd59e95f	-0.053201076
4	0x3d76bbbc	0.06023763
5	0x3e1174a7	0.14204656
6	0xbd5f40b5	-0.05450507
7	0x3dc2bf08	0.095090926
8	0xbc793aa6	-0.015211737
9	0xbca19734	-0.01972542
10	0xbdcac97d	-0.09901712
11	0x3da76020	0.08172631
12	0xbda9c652	-0.0828978
13	0x3d931e1b	0.071834765
14	0x3bb94a72	0.0056546265
15	0xbcf7cef4	-0.03025005
16	0xbda2cff7	-0.079498224
17	0x3da15ac8	0.07878643
18	0x3dbd5e55	0.09246508
19	0x3d0421df	0.032258864
20	0x3d14cdca	0.03632907
21	0xbdc8c712	-0.09803595
22	0xbd122174	-0.035676435
23	0xbd7a43c8	-0.061099797
24	0xbd1e82ca	-0.03869895
25	0x3d9bc9d4	0.07606855
26	0xbc94be41	-0.018157126
27	0x3afbc7e4	0.0019209352
28	0x3dc32fc7	0.09530597
29	0xbd82998b	-0.06376942
30	0x3b67d35b	0.003537378
31	0xbd9d2a82	-0.07674123
32	0xbd423329	-0.04741207
33	0x3dacf444	0.084450275
34	0x3d850220	0.06494546
35	0x3d575330	0.05256957
36	0xbdfebc2c	-0.12438235
37	0x3d6c6f8e	0.057723574
38	0xbc6a2a70	-0.014292344
39	0xbd2569e4	-0.04038419
40	0x3daf960c	0.08573541
41	0x3de927e9	0.113845654
42	0x3c3bdc26	0.011466062
43	0xbd666e5e	-0.056257598
44	0x3ccb6a37	0.02483092
45	0xbd614cfb	-0.055005055
46	0xbddfc45e	-0.10926126
47	0xbdc1d6a2	-0.09464766
48	0xbd48bd06	-0.04900839
49	0x3b0a2cce	0.0021083835
50	0x3c835ebe	0.016036388
51	0x3dd26a45	0.102741756
52	0x3ac4b2da	0.0015006915
53	0xbd0e51c8	-0.03474596
54	0xbde7cc91	-0.11318315
55	0x3dc90a81	0.098164566
56	0xbd891b1a	-0.06694622
57	0x3c780fa3	0.015140447
58	0xbc4beb74	-0.012446273
59	0x3c67e74b	0.014154266
60	0xbda6eab0	-0.08150232
61	0x3cf01de6	0.029311132
62	0x3c3ba3e6	0.011452651
63	0x3da9f633	0.08298912
64	0xbd07ea0e	-0.033182196
65	0x3c69e30c	0.014275324
66	0xbcb3441e	-0.021883067
67	0x3cb75fe1	0.022384586
68	0x3e536732	0.20644835
69	0x3d904f4e	0.07046376
70	0x3d08030e	0.03320604
71	0x3c5bc1ab	0.013412873
72	0x3ccb96df	0.024852214
73	0x3dbfb6cb	0.09361037
74	0xbb873e76	-0.004127319
75	0xbd922851	-0.07136596
76	0xbd92b271	-0.07162941
77	0xbdebc9c3	-0.11513092
78	0xbdc1165c	-0.09428093
79	0x3d60cfcd	0.054885674
80	0xbbceab37	-0.0063070315
81	0xbdba0ea2	-0.09084822
82	0xbd0ce167	-0.034394648
83	0x3d75ef5e	0.06004273
84	0x3d9d704a	0.07687433
85	0x3da7f251	0.08200515
86	0xbdce6f5e	-0.10079835
87	0xbc30a715	-0.010782023
88	0x3d3ab395	0.04558142
89	0x3d607cc5	0.05480649
90	0x3bce5b82	0.0062975297
91	0xbdaca40b	-0.08429726

convs.0.bn1.weight f4 [92]
0	0x3f65f8e1	0.89832884
1	0x3f43d9fa	0.7650448
2	0xbe0031ac	-0.12518948
3	0x3eaa84ea	0.3330453
4	0x3f264416	0.6494764
5	0x3f17d119	0.5930343
6	0x3fd53b5b	1.6658739
7	0x3f564669	0.8370119
8	0x3f70c07a	0.94043696
9	0x4012f9ce	2.2964969
10	0x3f602988	0.8756337
11	0x3fe16f5e	1.7612112
12	0x3f7cbf49	0.9872938
13	0x3fbd72b1	1.4800626
14	0x3f3a2ca0	0.7272434
15	0x3f3bbb2a	0.73332465
16	0x3fa71b9c	1.3055301
17	0x3f2fe0af	0.68702215
18	0x3f1205bc	0.5704
19	0x3edbc420	0.4292307
20	0x3d189d70	0.03725952
21	0x3fe20b09	1.7659618
22	0x3f886a4e	1.0657442
23	0x3eac37a7	0.3363621
24	0x3ed26137	0.41089794
25	0x4010de8a	2.2635827
26	0x3fd086cf	1.629114
27	0x3f8f6ab6	1.120444
28	0x3efed317	0.49770424
29	0x3fbffe04	1.4999394
30	0x3e92717a	0.286022
31	0x3fb2ffdc	1.3984332
32	0x3fcf1857	1.6179303
33	0x3f4dfeda	0.80467
34	0x3f06bf5d	0.5263575
35	0x3f88b64b	1.0680631
36	0x4005279d	2.0805428
37	0x401ad9ae	2.419536
38	0x3f211977	0.6292948
39	0x3fa89b62	1.3172419
40	0x3fb61480	1.4225006
41	0x3fa12e63	1.2592281
42	0x3e9efe7a	0.31053525
43	0x3f36d970	0.71425533
44	0x3f510a8c	0.8165672
45	0x3e65cce7	0.22441445
46	0x3f478ea0	0.77952003
47	0x3f594aff	0.8488006
48	0x3f444fa4	0.7668402
49	0x3f85044c	1.0391936
50	0x3fa76ac7	1.3079461
51	0x3f8bcecc	1.0922484
52	0x3f99ae25	1.200627
53	0x3f80e8a0	1.0070992
54	0x3f1fc034	0.62402654
55	0x3fe354bd	1.7760235
56	0x3fa4e9a2	1.2883799
57	0x3f8f41ab	1.1191915
58	0x3fa9afdf	1.3256797
59	0x3f7856b4	0.970073
60	0x3f17c9d8	0.59292364
61	0x3f996fbf	1.1987227
62	0x3fcfa9a0	1.622364
63	0x3f8387e3	1.0275844
64	0x3f81d062	1.0141718
65	0x3efe62d8	0.49684787
66	0x3eb1e9f3	0.34748802
67	0x3fbfd561	1.4986993
68	0x3fc602c2	1.5469592
69	0x3f1469b0	0.57973766
70	0x3df9cc44	0.12197164
71	0x3f9bbbae	1.216665
72	0x3c948a3b	0.01813232
73	0x3fb0aca0	1.3802681
74	0x3fb52107	1.4150704
75	0x3e6dc949	0.23221315
76	0x3f732181	0.94973
77	0x3f0c284b	0.5474898
78	0x3e90ef20	0.28307438
79	0x3f1fd6ae	0.6243695
80	0x3f8499fd	1.0359493
81	0x3fa0cd3d	1.2562634
82	0x3fa75c50	1.3075047
83	0x3f78e63c	0.9722631
84	0x3f1a2124	0.6020682
85	0x3f64c41c	0.8936174
86	0x3fb295f0	1.3952007
87	0x3fb2b0e1	1.3960229
88	0x3ee7922a	0.45228702
89	0x3d5db653	0.054128956
90	0x3f8575fb	1.042663
91	0x3ed0fd35	0.40818182

convs.0.bn1.bias f4 [92]
0	0xbe867663	-0.26262197
1	0xbf0cc85b	-0.5499322
2	0x3b9b7adb	0.00474487
3	0xbd2cb1b5	-0.042161662
4	0xbfbab105	-1.4585272
5	0xbfab4c2e	-1.3382623
6	0xbea4e6a0	-0.32207203
7	0xbf2ae050	-0.66748524
8	0xbe8a2d00	-0.26987457
9	0xbf0701b6	-0.52736986
10	0xbfb346d1	-1.4005986
11	0xbeebd075	-0.46057478
12	0xbf94648e	-1.1593187
13	0xbea7d00f	-0.32775924
14	0x3e017574	0.12642461
15	0xbfae13ef	-1.3599833
16	0xbf74d325	-0.9563468
17	0xbea29474	-0.31753886
18	0xbf59c8f4	-0.85072255
19	0xbebfbea1	-0.37450126
20	0x3f463aa1	0.7743321
21	0xbef549b3	-0.4790779
22	0xbf40befc	-0.7529142
23	0xbcf378fd	-0.029720778
24	0x3e5e565b	0.2171263
25	0xbe8738fe	-0.2641067
26	0x3e1d29c8	0.1534797
27	0xbedc789e	-0.43060774
28	0xbe874390	-0.26418734
29	0x3c94c531	0.018160434
30	0xbc09bcb0	-0.008406803
31	0xbeb5e0e1	-0.3552313
32	0xbda2d6bd	-0.07951114
33	0xbd688ec6	-0.056776784
34	0xbf74839b	-0.95513314
35	0xbf56f9d3	-0.8397495
36	0xbe6d7a99	-0.23191299
37	0xbf060d2a	-0.52363837
38	0x3e71d752	0.23617294
39	0x3dd837d3	0.105575226
40	0xbf84fd71	-1.0389844
41	0xbe4192e5	-0.18903692
42	0xbebb49b1	-0.3657966
43	0xbd2c3b32	-0.04204864
44	0xbf2a27b1	-0.66466814
45	0x3db85a65	0.090016164
46	0xbecbfe7b	-0.3984259
47	0xbf54c699	-0.83115536
48	0xbed6cda5	-0.4195377
49	0xbe368b75	-0.17826636
50	0xbfecaf56	-1.8491008
51	0xbfa22630	-1.2667904
52	0xbe3d4303	-0.18482594
53	0xbfa5999d	-1.2937504
54	0xbf2172a7	-0.6306557
55	0xbf2c6b49	-0.67351204
56	0xbfae2779	-1.3605796
57	0xbe661441	-0.22468664
58	0xbfc61d9c	-1.5477786
59	0xbed817b2	-0.42205578
60	0xbc69086c	-0.014223199
61	0xbf907dfe	-1.128845
62	0xbfa69022	-1.3012736
63	0xbf297a5d	-0.66202337
64	0xbf897759	-1.0739547
65	0xbf0cff35	-0.55076915
66	0x3f047141	0.5173531
67	0xbf5336f8	-0.8250575
68	0xbf8116d6	-1.0085094
69	0xbf067c4e	-0.52533424
70	0x3f23672a	0.6382929
71	0xbe2dbd7d	-0.16966815
72	0x3f73e0fd	0.9526518
73	0xbed792dc	-0.42104232
74	0xbf03ff6c	-0.5156162
75	0x3dbd6afc	0.09248921
76	0xbf2431e7	-0.64138645
77	0xbe8836a7	-0.26604196
78	0xbe0e02ad	-0.13868208
79	0xbe8c9cd7	-0.2746341
80	0xbf2f929a	-0.6858307
81	0xbf6fd83d	-0.9368933
82	0xbe06c754	-0.13161975
83	0xbe5c27cd	-0.21499558
84	0x3dfd22d1	0.12360156
85	0xbd6d4d0a	-0.0579348
86	0xbfbeabb7	-1.4896153
87	0xbf3ddd9c	-0.74166274
88	0xbdf002bb	-0.11719271
89	0x3e0615e3	0.13094287
90	0xbed621af	-0.41822574
91	0x3b8e8663	0.0043495162

convs.0.bn1.running_mean f4 [92]
0	0x3ffbafc6	1.9663017
1	0xbf7891a0	-0.97097206
2	0x40210d4d	2.5164368
3	0x4020d429	2.5129492
4	0xc01b9660	-2.4310532
5	0xbfa86dce	-1.315851
6	0xbf82c76d	-1.021711
7	0x4035535c	2.8332129
8	0x3ff2b474	1.896132
9	0xbff2c163	-1.8965267
10	0xc0559ee3	-3.3378227
11	0x40a9104e	5.2832403
12	0xbfcde0f3	-1.6084274
13	0xbf3ae388	-0.73003435
14	0x3f288f30	0.65843487
15	0xc0942260	-4.629196
16	0xbf98ae40	-1.1928177
17	0x3f1bd576	0.6087259
18	0x404f7595	3.2415516
19	0xc0501fc7	-3.2519395
20	0xc087fdb4	-4.2497196
21	0x3f67d911	0.9056559
22	0xbf4ca914	-0.7994549
23	0x3f92b447	1.1461266
24	0x401fc5b4	2.4964418
25	0x3f9c7c62	1.2225459
26	0xc017e1fa	-2.3731675
27	0x4009f5d9	2.1556304
28	0xbfc524a1	-1.5401803
29	0xc0032be6	-2.0495543
30	0x3f6c610b	0.92335576
31	0x408048ea	4.0089006
32	0xc0057a0f	-2.0855749
33	0x3fccbad0	1.5994511
34	0x3f27e52e	0.65584075
35	0x403dbd47	2.9646776
36	0xc0b17a7a	-5.5462008
37	0x404c2263	3.1895988
38	0xbf0305b0	-0.51180553
39	0xc08dd681	-4.4324346
40	0x3fb2fa5c	1.3982654
41	0x40a908f2	5.282342
42	0x409eb6aa	4.959798
43	0x3fa4fa83	1.288895
44	0x403263e3	2.7873466
45	0x3e71b831	0.2360542
46	0x3f7503f7	0.95709175
47	0xc009e996	-2.154882
48	0xbfb16743	-1.3859638
49	0x4040bfa0	3.0116959
50	0xc0129361	-2.2902453
51	0xc0948d1e	-4.642226
52	0x3fa1aaaf	1.2630213
53	0xc08ee863	-4.4658675
54	0xc0205d96	-2.505712
55	0x40b388c6	5.610446
56	0xc0cac16c	-6.336111
57	0x40d7b674	6.741022
58	0xbfabf25c	-1.3433337
59	0xc0bff53f	-5.9986873
60	0xbf06e010	-0.5268564
61	0xc0b67ff2	-5.7031183
62	0x3f13beb1	0.57712847
63	0xbf8188cd	-1.0119873
64	0x401668f2	2.3501554
65	0xc0aff6eb	-5.4988914
66	0x40ced5aa	6.463582
67	0xc0ff5c9a	-7.980054
68	0x40004f68	2.0048466
69	0x3ff04d7b	1.8773645
70	0x40813bdc	4.038557
71	0xbef45ad2	-0.4772554
72	0xbf875012	-1.057131
73	0x3feae6c5	1.8351675
74	0xbfcb293f	-1.5871962
75	0x3ecd19bc	0.40058696
76	0x3f655f8f	0.89598936
77	0x409706b0	4.7195663
78	0xbee24168	-0.44190526
79	0x3e06b3e7	0.13154565
80	0x3f6ba124	0.92042756
81	0x40a7f21c	5.2483044
82	0xc0d34682	-6.602357
83	0xbfbebe6c	-1.4901862
84	0xbf813c13	-1.0096458
85	0xc0a4b602	-5.1472178
86	0xc02f95d9	-2.743521
87	0xbd2c4926	-0.042061947
88	0x4087cd55	4.243815
89	0x3f98ac1d	1.1927525
90	0x402803bc	2.625228
91	0x400024fa	2.0022569

convs.0.bn1.running_var f4 [92]
0	0x40b10823	5.5322433
1	0x41541c7f	13.256957
2	0x4147e72d	12.493939
3	0x413c8a19	11.783715
4	0x416e211c	14.883083
5	0x41b20f4b	22.257467
6	0x41b950c1	23.16443
7	0x41316602	11.087404
8	0x412f65fe	10.9624
9	0x4192c51f	18.34625
10	0x419e188b	19.761984
11	0x418eb753	17.839514
12	0x41bd80de	23.687923
13	0x416b8df4	14.722157
14	0x41353426	11.325232
15	0x41a31013	20.382849
16	0x41eb6f85	29.429453
17	0x4124025b	10.250575
18	0x41015275	8.082631
19	0x4126b7fd	10.419919
20	0x41e5194c	28.637352
21	0x415251c0	13.1449585
22	0x40ec4e9e	7.384597
23	0x411bc67d	9.735959
24	0x42231b77	40.77682
25	0x418a682b	17.300863
26	0x410877c1	8.529237
27	0x40b8dccc	5.7769527
28	0x40c313da	6.0961733
29	0x41852e70	16.647675
30	0x40b7bd6e	5.7418737
31	0x41b2994a	22.324848
32	0x41924607	18.284193
33	0x41647483	14.278445
34	0x410e3348	8.88752
35	0x41a0af27	20.085524
36	0x4152881f	13.158233
37	0x41d930c2	27.148808
38	0x415e7e65	13.905858
39	0x4171df66	15.117041
40	0x41a10bec	20.130821
41	0x41c03400	24.02539
42	0x40ec2d1a	7.3805056
43	0x410daa9d	8.854154
44	0x415caf5b	13.792811
45	0x401fd067	2.4970949
46	0x40dac0dc	6.8360424
47	0x41907769	18.058306
48	0x40a991ad	5.2990327
49	0x416ef7fa	14.935541
50	0x41737c04	15.217777
51	0x41609254	14.035725
52	0x41a025cc	20.018456
53	0x41308c5d	11.034268
54	0x416dcae0	14.86203
55	0x41bcee59	23.61638
56	0x4199c2db	19.220144
57	0x4199928e	19.19656
58	0x41c9f6e2	25.245548
59	0x417c4754	15.767414
60	0x41064a66	8.393164
61	0x4191de0f	18.233427
62	0x41c9c66e	25.22189
63	0x41020670	8.126572
64	0x40ed8052	7.421914
65	0x416cf1b3	14.809009
66	0x4194f55f	18.61981
67	0x41890d03	17.131353
68	0x4098ea42	4.778596
69	0x418cb210	17.586945
70	0x420ef122	35.73548
71	0x41928510	18.314972
72	0x410701cc	8.437939
73	0x409a68df	4.8253016
74	0x40e3f0bd	7.123137
75	0x414eace5	12.917211
76	0x4121c4ec	10.110577
77	0x4203ada2	32.919563
78	0x419319f6	18.387676
79	0x4181b97d	16.21557
80	0x411054a4	9.020664
81	0x418d733b	17.681265
82	0x40fc4e62	7.884568
83	0x419d2e1f	19.64752
84	0x41148fc6	9.285101
85	0x417f1042	15.941469
86	0x41885017	17.039106
87	0x41878fc7	16.945204
88	0x40c50633	6.1570067
89	0x4105ff09	8.374764
90	0x4143e2b2	12.242846
91	0x4041aa07	3.0260026

convs.0.bn2.weight f4 [46]
0	0x3f23aebd	0.63938504
1	0x3ef14795	0.47124925
2	0x3b9515fa	0.004549739
3	0x3ee83c2a	0.45358402
4	0x3f3e3ea4	0.7431433
5	0x3f7ddabb	0.9916188
6	0x3f2e2762	0.68028843
7	0x3ee1db94	0.44112837
8	0x3f2cd201	0.6750794
9	0x3f851ff9	1.0400382
10	0x3f1054c1	0.56379324
11	0x3f1fc082	0.6240312
12	0x3ba95469	0.005167533
13	0x3de47d4c	0.11156711
14	0x3f5bd4c2	0.8587152
15	0x3f53212e	0.82472503
16	0x3f53ad86	0.8268665
17	0x3f43543b	0.763004
18	0x3f60e0dc	0.8784311
19	0x3f0b762c	0.5447719
20	0x3ea88bb3	0.32919082
21	0x3f718eed	0.9435871
22	0x3f86be7e	1.0526884
23	0x3f1e421c	0.61819625
24	0x3dac30f3	0.08407774
25	0x3f7cb798	0.9871764
26	0x3e3e83ee	0.18605015
27	0xbd17570a	-0.03694824
28	0x3c8075c3	0.015681153
29	0x3ef0b152	0.47010285
30	0x3e1a5931	0.15073086
31	0x3f5ea36e	0.86968124
32	0x3f71a64e	0.94394386
33	0x3e42b513	0.19014387
34	0x3f91c37c	1.1387782
35	0x3f9fdd85	1.2489477
36	0x3f6820e4	0.9067519
37	0x3f240a79	0.6407848
38	0x3e997d08	0.29978204
39	0x3e5470c4	0.20746142
40	0x3f6f04dc	0.9336679
41	0x3f2eca9e	0.6827792
42	0x3f0387a2	0.51378834
43	0x3ee0c5d8	0.43900943
44	0x3e460453	0.19337587
45	0x3e0a5909	0.13510527

convs.0.bn2.bias f4 [46]
0	0xbed99a61	-0.42500594
1	0xbf534146	-0.82521474
2	0xbe8f5bc9	-0.27999714
3	0xbf18fb7c	-0.59758735
4	0xbe533ef0	-0.20629478
5	0xbf22064d	-0.63290864
6	0xbf0e1470	-0.55499935
7	0xbeb6c742	-0.35698897
8	0xbe3646b1	-0.17800404
9	0xbdb12bf2	-0.0865096
10	0xbf45d9f7	-0.7728571
11	0xbe44bb55	-0.19212086
12	0xbe18928e	-0.14899656
13	0xbe921576	-0.28531998
14	0xbe95b1e7	-0.2923729
15	0xbf21078f	-0.6290216
16	0xbf300a2a	-0.6876551
17	0xbf34297c	-0.703758
18	0xbe2662d3	-0.16248636
19	0xbf329733	-0.6976196
20	0xbf474100	-0.7783356
21	0xbf488049	-0.7832075
22	0xbeb31cb2	-0.3498283
23	0xbe9f651a	-0.31131822
24	0xbe9f555a	-0.31119806
25	0xbed0cb2e	-0.40780014
26	0xbeb1db90	-0.34737825
27	0xbdc1984b	-0.09452876
28	0xbe49e8fc	-0.19717783
29	0xbecebe05	-0.40379348
30	0xbe36fd19	-0.17869987
31	0xbe2aa5c1	-0.16664793
32	0xbe57eff0	-0.21087623
33	0xbf3d84ea	-0.74030936
34	0xbe51836f	-0.20460294
35	0xbee5c0d2	-0.44873673
36	0xbec817f4	-0.39080775
37	0x3e914aaa	0.28377277
38	0xbed765cb	-0.4206985
39	0xbedb7364	-0.42861474
40	0xbecfc626	-0.40580863
41	0xbefd8152	-0.49512726
42	0xbed4414f	-0.41456077
43	0xbeafd896	-0.3434493
44	0xbe9a9ae1	-0.30196288
45	0xbef0cd23	-0.47031507

convs.0.bn2.running_mean f4 [46]
0	0x40639ff9	3.556639
1	0x40235f64	2.5526972
2	0x4063c331	3.5587885
3	0x4095f249	4.685826
4	0x3f6be6ee	0.92149246
5	0x3fa32007	1.2744149
6	0x40a784d5	5.234965
7	0x3fd59075	1.668471
8	0x403aba5c	2.9176245
9	0x4086e5dc	4.215559
10	0x3fba3140	1.454628
11	0x409270d6	4.576274
12	0x3ff000e9	1.8750278
13	0x40890610	4.28199
14	0x40a494e5	5.1431756
15	0x3fdeb50e	1.7399004
16	0x3fdec32b	1.740331
17	0x403d0626	2.9535003
18	0x3fec691a	1.8469574
19	0x40277eea	2.6171212
20	0x4102f8a9	8.185708
21	0x4057f9f8	3.374632
22	0x403ec517	2.9807794
23	0x404c7798	3.1947994
24	0x40e4c7b8	7.1493797
25	0x40911117	4.533336
26	0x4103446d	8.2042055
27	0x409e8120	4.9532623
28	0x408b582a	4.354512
29	0x409dc49f	4.9302516
30	0x40573535	3.3626225
31	0x40769d4f	3.8533514
32	0x40822b2a	4.067769
33	0x40842ad2	4.130227
34	0x401360d4	2.302785
35	0x403ab618	2.9173641
36	0x40c0d0b1	6.025475
37	0x40a059a1	5.010941
38	0x40ba113d	5.8146043
39	0x40bbba2f	5.8664775
40	0x400ecc0d	2.2312043
41	0x403bcf53	2.934529
42	0x405c72a9	3.4444983
43	0x4090fb88	4.5307045
44	0x4069cf08	3.6532612
45	0x4092e3f7	4.5903277

convs.0.bn2.running_var f4 [46]
0	0x409e402f	4.945335
1	0x40c09fef	6.019523
2	0x40b43340	5.631256
3	0x4139923f	11.598205
4	0x3fe2401d	1.7675816
5	0x400c9b8b	2.1969936
6	0x4195b523	18.713446
7	0x408fbbd1	4.491677
8	0x409d7a2b	4.921163
9	0x41a02320	20.01715
10	0x40a0cdb8	5.025112
11	0x418b71ca	17.430561
12	0x413dc711	11.8611
13	0x41b4e7a2	22.613102
14	0x40fd5db1	7.917687
15	0x40d2909d	6.580153
16	0x40af6780	5.4813843
17	0x40dd62db	6.9183173
18	0x402c94b8	2.696577
19	0x400362d7	2.0529077
20	0x3fbc77c5	1.4724051
21	0x418ddf5b	17.73406
22	0x40ec12bb	7.3772864
23	0x40520d6e	3.2820697
24	0x403010fa	2.7510362
25	0x4179cd7e	15.612669
26	0x417c1d6c	15.757183
27	0x42057184	33.360855
28	0x41bb3caa	23.404621
29	0x40f3c548	7.617832
30	0x40de25f9	6.9421353
31	0x411a3dc7	9.640082
32	0x40d109d8	6.5324516
33	0x410dd09b	8.863429
34	0x40a6d36c	5.2133083
35	0x410d6e0a	8.839365
36	0x421111eb	36.267498
37	0x4185d17f	16.727293
38	0x418603c3	16.751837
39	0x41a1d7b5	20.230326
40	0x40b5cf57	5.68156
41	0x40b3e888	5.622135
42	0x401f9c4f	2.4939153
43	0x400a9f51	2.165974
44	0x410d716f	8.840194
45	0x40042c56	2.065206

convs.1.fc_full.weight f4 [92, 98]
0	0x3ea86059	0.32886007
1	0xbda8aeef	-0.08236491
2	0x3e1f5b03	0.15562062
3	0x3d2a428c	0.04156737
4	0x3cb59938	0.022167787
5	0xbe532a23	-0.20621543
6	0x3e2512dd	0.16120477
7	0xbded0c37	-0.115745954
8	0xbcbbdd02	-0.022932533
9	0xbe2b3423	-0.16719107
10	0xbdbe1465	-0.09281234
11	0x3e28a2a2	0.1646829
12	0xbe1f64c2	-0.1556578
13	0xbebc3eed	-0.3676676
14	0x3c00ffc6	0.007873481
15	0xbc4c810c	-0.012481939
16	0x3d0a213f	0.033723112
17	0xbdfc5dce	-0.12322579
18	0xbca22489	-0.019792812
19	0xbdd5c2c5	-0.1043754
20	0x3d5cd219	0.053911302
21	0x3e0affe6	0.1357418
22	0x3e974fbc	0.2955302
23	0x3e6a4346	0.22877225
24	0x3e877391	0.26455358
25	0x3e866578	0.2624929
26	0xbe8fe392	-0.2810331
27	0x3e27afaa	0.16375604
28	0x3e636790	0.22207475
29	0xbe84c268	-0.2592957
30	0x3eda9845	0.42694297
31	0x3e888e3c	0.26671016
32	0xbe2ee8c1	-0.17080976
33	0xbc86f6cf	-0.01647511
34	0xbe0962ed	-0.13416643
35	0xbc84b09a	-0.016197491
36	0xbd175f52	-0.03695614
37	0x3e3e9f62	0.18615487
38	0xbdc24b01	-0.09486962
39	0xbe723460	-0.23652792
40	0xbe8c9823	-0.2745982
41	0xbcb58724	-0.022159167
42	0x3e55eee1	0.20891906
43	0x3df63038	0.12020916
44	0x3e77f093	0.24212866
45	0x3d4f72eb	0.050646704
46	0xbcf8188a	-0.030285139
47	0xbe469f44	-0.19396693
48	0xbbf419d0	-0.007449366
49	0x3d351ea1	0.044218663
50	0x3b1e2ea3	0.0024136684
51	0xbe84dd11	-0.2594991
52	0x3e9002dd	0.28127185
53	0xbdbad469	-0.09122545
54	0xbdd48233	-0.10376396
55	0x3d089a37	0.033350196
56	0xbcc87790	-0.024471074
57	0xbcc304c1	-0.023805978
58	0xbded6234	-0.115909964
59	0xbe88265a	-0.2659176
60	0x3e233a70	0.15940261
61	0xbe116870	-0.14199996
62	0xbe2617ad	-0.16219969
63	0xbce88809	-0.02838518
64	0xbd858959	-0.065203376
65	0xbd563a29	-0.05230156
66	0x3e053eaf	0.13012193
67	0x3eae6203	0.34059152
68	0x3e231d3c	0.15929121
69	0x3d41ec69	0.0473446
70	0x3dc5eda6	0.096644685
71	0x3df093c8	0.11746937
72	0xbe8c88e7	-0.27448198
73	0xbd2aa71b	-0.04166327
74	0xbd7b537b	-0.06135891
75	0xbe23cd4c	-0.15996283
76	0x3de34a34	0.110981375
77	0xbd511b83	-0.051051628
78	0xbe2b45dc	-0.16725868
79	0x3cd8d66b	0.02646943
80	0x3ce49a30	0.027905554
81	0xbe5f3b48	-0.21799958
82	0xbdc27438	-0.09494823
83	0xbe7fcbcb	-0.24980085
84	0x3dbe2713	0.092847966
85	0xbe144a2a	-0.14481416
86	0x3e5a098d	0.21292706
87	0xbe962f5f	-0.29333016
88	0x3eb970ff	0.36219022
89	0x3e139e73	0.14415912
90	0x3d9d4e97	0.076810054
91	0x3c232890	0.009958401
92	0x3d2d84cd	0.042362977
93	0xbe8c0e67	-0.27354738
94	0x3cf667fc	0.03007888
95	0x3de51094	0.11184803
96	0xbe9eb137	-0.3099458
97	0x3e510b3b	0.2041444
98	0x3dc66693	0.09687533
99	0x3e2cf19e	0.16889045
100	0x3e743633	0.238488
101	0xbd02b1b4	-0.031907752
102	0x3d7f81e3	0.06237973
103	0xbed32dae	-0.41245788
104	0x3e36d22a	0.17853609
105	0xbeec2af9	-0.46126536
106	0xbd63528c	-0.055498645
107	0x3f21d521	0.63215834
108	0xbeaad06a	-0.33362132
109	0x3d89800e	0.067138776
110	0xbe848efa	-0.25890332
111	0x3da572c7	0.08078533
112	0x3ce93775	0.028468827
113	0x3ea52eb6	0.322622
114	0xbeeb179c	-0.4591645
115	0xbe2faf63	-0.17156748
116	0xbe152ca4	-0.1456781
117	0x3e4343b2	0.19068792
118	0xbdec431c	-0.115362376
119	0x3dc18db0	0.09450853
120	0x3e9ca12e	0.3059172
121	0x3ead5d70	0.3386035
122	0xbe95cfd3	-0.2926012
123	0x3ed265a0	0.4109316
124	0x3d616e42	0.05503679
125	0x3e9daa3c	0.3079394
126	0x3cb2d1ee	0.021828618
127	0x3be05274	0.0068457667
128	0xbe49444f	-0.19654964
129	0xbdeef1e7	-0.11667233
130	0x3e9ff5bc	0.31242168
131	0x3ef70698	0.48247218
132	0x3e56994b	0.20956914
133	0xbd8c570f	-0.068525426
134	0xbe26ecb3	-0.16301231
135	0x3e2e3b49	0.17014803
136	0xbe07dbce	-0.13267443
137	0xbe1ea068	-0.15490878
138	0x3c10d96f	0.008840903
139	0x3dd1b7d3	0.1024014
140	0xbe4110d4	-0.18854076
141	0xbd5bac6f	-0.053631242
142	0x3e94c277	0.29054615
143	0x3e439334	0.19099122
144	0x3c521bf3	0.012824046
145	0xbebe1d97	-0.3713195
146	0x3d608e9d	0.054823507
147	0x3e2131f9	0.1574172
148	0xbf46ba05	-0.77627593
149	0xbd9cb8d9	-0.076524444
150	0xba12444b	-0.00055796345
151	0xbec1a6b3	-0.37822494
152	0x3e915ff0	0.28393507
153	0xbf4d344e	-0.80157936
154	0x3d4c5552	0.049886055
155	0x3c0d3c81	0.008620382
156	0x3cc45712	0.0239673
157	0x3f182b2f	0.5944089
158	0x3d328920	0.043587804
159	0xbea518dd	-0.32245532
160	0xbeb8eb32	-0.3611694
161	0x3d39deef	0.04537862
162	0x3db082d0	0.086187005
163	0x3d8be9a9	0.068316765
164	0x3e463702	0.19356921
165	0xbe25c939	-0.16190042
166	0xbd5fa934	-0.054604724
167	0xbe959a74	-0.292194
168	0xbe4f9e90	-0.2027533
169	0x3bfa0644	0.0076301415
170	0x3e7f1fa5	0.24914415
171	0xbe385290	-0.18000245
172	0x3daa56aa	0.08317311
173	0x3f095819	0.5365005
174	0xbe89735c	-0.26845825
175	0xbe66194d	-0.22470589
176	0x3e1fbd66	0.15599594
177	0x3e265e45	0.16246898
178	0xbe61d71c	-0.22054714
179	0x3efa9e17	0.48948738
180	0xbed7f593	-0.42179546
181	0x3ea2996f	0.31757686
182	0x3dcb2409	0.099189825
183	0xbea91090	-0.3302045
184	0x3dff19e2	0.12456109
185	0x3e096490	0.13417268
186	0xbd7a4d5a	-0.061108924
187	0xbe0c02c1	-0.13672926
188	0xbdb12f5a	-0.0865161
189	0x3c61acd7	0.013774118
190	0x3f19ed3c	0.60127616
191	0xbe1bfd71	-0.15233399
192	0xbe71818a	-0.23584571
193	0xbd72c2c5	-0.059267778
194	0xbefd04ad	-0.4941763
195	0xbd9c70cb	-0.07638701
196	0xbeaf2c11	-0.34213307
197	0xbd152f04	-0.03642179
198	0x3e90f6a9	0.28313187
199	0x3e8a0c61	0.2696257
200	0xbd3efcf4	-0.046627954
201	0x3dad8280	0.084721565
202	0xbe2e9172	-0.1704767
203	0xbccdb44c	-0.025110386
204	0xbd9d1791	-0.076705106
205	0xbeb429d9	-0.35188177
206	0xbeb5e1d2	-0.3552385
207	0xbee5f7a8	-0.4491551
208	0xbe62651f	-0.22108887
209	0xbede4553	-0.43412265
210	0xbe1c9e2b	-0.15294711
211	0xbf18d570	-0.5970068
212	0x3e9fada9	0.3118718
213	0x3e63f5c0	0.22261715
214	0xbe15d938	-0.14633644
215	0xbe87300c	-0.26403844
216	0xbd1a9251	-0.037737194
217	0xbeac5ff3	-0.33666953
218	0x3e8f5c67	0.28000185
219	0x3ea4ae60	0.32164288
220	0x3f1d5cea	0.614699
221	0x3dacd144	0.08438352
222	0xbdb5ee16	-0.08883302
223	0xbe065e7c	-0.1312198
224	0x3f05555d	0.5208338
225	0xbec9528a	-0.39320785
226	0x3e9fb5f8	0.3119352
227	0xbb2766dc	-0.0025543487
228	0xbe43f81d	-0.19137616
229	0xbd739b9b	-0.05947457
230	0x3e865dc1	0.26243404
231	0x3ee2272d	0.44170514
232	0xbb8a5e15	-0.0042226412
233	0x3e63cb6e	0.22245571
234	0x3ead19de	0.33808798
235	0xbed03d3f	-0.40671727
236	0xbd7480d6	-0.05969318
237	0xbef292a4	-0.47377503
238	0xbe5f44d4	-0.218036
239	0xbe1184d0	-0.1421082
240	0x3e4543a0	0.19264078
241	0xbe262e29	-0.16228546
242	0xbe319adf	-0.17344235
243	0xbe28ef5c	-0.16497558
244	0x3e37f817	0.17965733
245	0x3c413cd8	0.011794291
246	0xbf02a3c5	-0.5103114
247	0xbe1b0980	-0.15140343
248	0x3f087d6b	0.5331637
249	0xbe9179f1	-0.28413346
250	0x3d09e081	0.03366137
251	0xbeb0febd	-0.3456935
252	0xbe9c4576	-0.30521744
253	0xbcdd0f0c	-0.026984714
254	0x3ec5f75e	0.3866529
255	0x3e406dc3	0.18791871

convs.1.fc_full.bias f4 [92]
0	0xbda3a683	-0.07990744
1	0x3d932e9a	0.07186623
2	0x3d06944d	0.032856274
3	0xbd9489c5	-0.0725284
4	0xbdb16c24	-0.08663204
5	0xbd94b356	-0.07260768
6	0x3d84e48b	0.064889036
7	0x3da7dd43	0.08196499
8	0x3d627c18	0.055294126
9	0x3dd2825a	0.10278769
10	0x3d20939e	0.03920328
11	0xbd2972db	-0.0413693
12	0x3d49e4c1	0.049290422
13	0x3d51ca75	0.05121847
14	0x3db9e037	0.09075969
15	0x3bfd3bc6	0.007728073
16	0xbda61f9d	-0.081114985
17	0xbc811f62	-0.015762035
18	0xbb814075	-0.0039444515
19	0x3da3cbbe	0.07997845
20	0x3be8abf1	0.007100575
21	0xbd41fe11	-0.047361437
22	0xbce8e59a	-0.028429795
23	0xbdac3071	-0.08407677
24	0x3c928ace	0.017888453
25	0xbd6f0740	-0.058356524
26	0x3cfd55be	0.030924674
27	0xbdaf6c6a	-0.085656
28	0xbbd37a29	-0.0064537716
29	0xbdac5e5f	-0.08416437
30	0xbd1ee9c2	-0.038797148
31	0xbd9cc1db	-0.076541625
32	0x3dc7c1ba	0.09753747
33	0xbc933ef9	-0.017974364
34	0x3d4fbb1c	0.05071555
35	0x3db7e8a6	0.08979921
36	0xbda09b42	-0.07842113
37	0xbe454a79	-0.1926669
38	0xbc43f483	-0.011960152
39	0x3d78be01	0.060728077
40	0xbcc8293f	-0.02443373
41	0xbb1c3d83	-0.0023840375
42	0x3c7fc946	0.015611952
43	0xbe308d71	-0.17241456
44	0x3b45a2eb	0.003015692
45	0x3d032dd0	0.032026112
46	0x3ddb15bc	0.10697505
47	0x3ca76a0e	0.020436313
48	0x3dcd2f9b	0.10018846
49	0x3d4b3018	0.049606413
50	0xbb3a192f	-0.0028396358
51	0x3c971fdf	0.018447815
52	0xbad29d85	-0.0016068673
53	0x3d0aba33	0.03386898
54	0xbd046dd6	-0.03233131
55	0xbdb110b7	-0.08645766
56	0x3d87d184	0.06631759
57	0x3d350c26	0.04420104
58	0xbd984c4a	-0.07436426
59	0xbd463b53	-0.04839642
60	0xbdbc2a31	-0.09187735
61	0xbdbb548b	-0.09146985
62	0x3cc82315	0.02443079
63	0x3c87c499	0.016573237
64	0x3dc054ca	0.09391172
65	0x3d8004b1	0.06250895
66	0xbd5d46be	-0.054022543
67	0x3ca99b6d	0.020703996
68	0x3d7147bd	0.058906306
69	0x3c3002b3	0.010742831
70	0x3dbe38a7	0.09288149
71	0xbd2bdcfe	-0.0419588
72	0x3cb7160d	0.022349382
73	0xbce703a5	-0.02819998
74	0x3adbe663	0.0016777035
75	0x3da25b21	0.07927538
76	0x3c40ba5e	0.011763183
77	0x3c666a61	0.014063449
78	0x3ca52ea8	0.020163849
79	0x3d4aee4c	0.049543664
80	0x3cccba54	0.024991192
81	0xbd4b96a2	-0.0497042
82	0x3bd204c7	0.006409261
83	0x3cbdd43d	0.023172492
84	0x3c5a55e8	0.013326146
85	0x3df0a17c	0.11749551
86	0x3da3283a	0.07966657
87	0x3eef41a5	0.4672977
88	0x3c1832db	0.009289469
89	0x3d237f0c	0.039916083
90	0xbd64c5a9	-0.055852566
91	0xbd7081a4	-0.058717385

convs.1.bn1.weight f4 [92]
0	0x3fc557c4	1.5417409
1	0x3faff17a	1.3745568
2	0x3f47326d	0.7781132
3	0x3f167080	0.5876541
4	0x3f795db2	0.9740859
5	0x400778f5	2.1167576
6	0x3fd678bd	1.6755596
7	0x3ff78297	1.9336728
8	0x3f999990	1.1999989
9	0x3f995f20	1.1982155
10	0x3fa2b36e	1.2711008
11	0x400b3968	2.1753788
12	0x3f19003d	0.5976599
13	0x401b2258	2.4239712
14	0x3ea573a1	0.3231478
15	0x400fe56e	2.2483783
16	0x3edc913f	0.43079564
17	0x3f5e5f43	0.8686411
18	0x40392d19	2.8933775
19	0x3e08af8f	0.1334822
20	0x3ead82f8	0.33888984
21	0x40105c1b	2.2556217
22	0x3eec79fd	0.4618682
23	0x3f632185	0.8872302
24	0x3ed127a1	0.40850547
25	0x3fa73f14	1.3066125
26	0x3e95473a	0.29155904
27	0x3fb431d6	1.4077709
28	0x3f846a3e	1.0344923
29	0x3faafd2a	1.335851
30	0x3cc26cd2	0.02373353
31	0x3f860398	1.0469847
32	0x3f2114b3	0.6292221
33	0x3ef3cd5a	0.47617608
34	0x3f1cedb8	0.6130023
35	0x3fca9899	1.5827819
36	0x40184ca3	2.3796775
37	0x3f4e8427	0.806704
38	0x3effff3d	0.4999942
39	0x3f8c59f6	1.0964954
40	0x3f9d8f08	1.2309275
41	0x4024d6a5	2.5756009
42	0x3f93c624	1.1544843
43	0x3fb504aa	1.4142048
44	0x3e86bcf4	0.26316035
45	0x3ea513ec	0.32241762
46	0x3e8c6edf	0.27428338
47	0x3fae8ce4	1.3636746
48	0x3fb37652	1.4020483
49	0x3f9cdd88	1.2255106
50	0x3ff17ae3	1.8865627
51	0x3f68e9bd	0.90981656
52	0x3f38dd84	0.72213006
53	0x3ea07e32	0.3134628
54	0x3f19032c	0.59770465
55	0x3fcbff24	1.5937238
56	0x3ecc5e94	0.39915907
57	0x3f9798c8	1.18435
58	0x3ecbf779	0.39837244
59	0xbe181472	-0.1485155
60	0x3f8516f4	1.039763
61	0x3f49ea4d	0.7887314
62	0x3f9448a2	1.1584666
63	0x3f6ffd56	0.93745935
64	0x3f24952e	0.6429013
65	0x3f04bde8	0.51852274
66	0x3f53e7ec	0.8277576
67	0x3fcec13d	1.6152722
68	0x3eacc5ef	0.3374476
69	0x3fb7c75f	1.4357718
70	0x3f888f20	1.0668678
71	0x3e7978b7	0.24362455
72	0x3f0ee932	0.5582458
73	0x3ead8fc6	0.33898753
74	0x3fbeccec	1.4906287
75	0x3e604888	0.21902668
76	0x3f1b9994	0.60781217
77	0x3ec38e58	0.38194537
78	0x3f86ce58	1.0531721
79	0x3ea44154	0.3208109
80	0x3f92aa5d	1.1458241
81	0x3f509dd1	0.8149081
82	0x3f281a61	0.6566525
83	0x3fc493aa	1.5357563
84	0x3fb3a1cd	1.4033753
85	0x3ebe4b26	0.3716671
86	0x3f2f3c0f	0.6845102
87	0x3fa48ec0	1.2856064
88	0x3fb4b267	1.4116944
89	0x3f862d9f	1.0482672
90	0xbddae768	-0.106886685
91	0x3f2a9ef0	0.6664877

convs.1.bn1.bias f4 [92]
0	0xbe267b07	-0.16257869
1	0xbf213eb8	-0.62986326
2	0xbf2ec0c9	-0.68262917
3	0xbed3e925	-0.41388813
4	0xbf402634	-0.75058293
5	0xbf32ee59	-0.6989494
6	0xbe7ae8cf	-0.24502872
7	0xbeb9041a	-0.36135942
8	0xbea6fde4	-0.32615578
9	0xbe844710	-0.25835466
10	0x3c756c50	0.014979437
11	0xbef779b6	-0.48335046
12	0x3d8a2e04	0.06747058
13	0x3ef960ca	0.48706657
14	0xbc9ab33d	-0.018884296
15	0xbf5514fc	-0.83235145
16	0x3e8f705f	0.2801542
17	0xbf4bace4	-0.79560685
18	0xbd971441	-0.0737691
19	0xbd259f3d	-0.040435065
20	0xbe5a4e5e	-0.21318957
21	0xbf012195	-0.5044187
22	0xbdef59cf	-0.116870515
23	0xbf95b135	-1.1694704
24	0xbe3d7748	-0.18502533
25	0x3d2872c5	0.041125078
26	0xbd4229b7	-0.047403064
27	0xbda20962	-0.07911946
28	0xbe854c5c	-0.2603482
29	0xbe45f870	-0.19333053
30	0x3eea71da	0.45789987
31	0xbf0c2e3d	-0.54758054
32	0xbf0ba49c	-0.5454805
33	0xbe9e1499	-0.3087509
34	0xbeb21026	-0.34777945
35	0xbe9b8dbe	-0.30381578
36	0x3d819e32	0.063290015
37	0xbf851a37	-1.0398625
38	0xbf81f3f3	-1.0152572
39	0xbd17c0fa	-0.03704927
40	0xbd025cf1	-0.031826917
41	0xbe09fe55	-0.13475926
42	0xbf39f06b	-0.72632474
43	0xbf17ef6c	-0.59349704
44	0xbda6ebb1	-0.08150423
45	0xbed16add	-0.40901843
46	0xbe20b9cf	-0.1569588
47	0xbf1f83d4	-0.6231053
48	0xbf733763	-0.9500639
49	0xbe95a9e8	-0.2923119
50	0xbf446db2	-0.7672988
51	0xbf8052eb	-1.0025305
52	0xbec10767	-0.3770096
53	0x3dd80cab	0.10549291
54	0xbebf389d	-0.3734788
55	0xbe9d8063	-0.30762014
56	0x3e673478	0.22578609
57	0xbf657d4d	-0.8964432
58	0x3dfc9c17	0.12334459
59	0x3f90d03b	1.1313547
60	0xbcf7128e	-0.030160215
61	0xbf0b899d	-0.54506856
62	0x3d52fe29	0.051511917
63	0xbf4d0445	-0.8008464
64	0xbd04dc1f	-0.032436486
65	0xbe0ad83f	-0.13559054
66	0xbf177227	-0.5915856
67	0xbfa2e803	-1.2727054
68	0xbd9a8849	-0.075455256
69	0xbf8d4df2	-1.1039412
70	0xbde81912	-0.11332907
71	0x3e81098b	0.25202593
72	0xbe6d3e8e	-0.23168394
73	0xbcbbe888	-0.022938028
74	0xbf3c0bb6	-0.7345537
75	0x3e505d76	0.20348153
76	0xbdf2e8ba	-0.11860795
77	0xbddbd99f	-0.10734867
78	0xbf019cfa	-0.5063015
79	0xbdbc31b2	-0.09189166
80	0xbec46883	-0.38360986
81	0xbec53dc2	-0.3852368
82	0xbe46e069	-0.19421543
83	0xbf9b0ed2	-1.2113898
84	0xbf8c5a0f	-1.0964984
85	0x3d8eb221	0.06967569
86	0x3eabaf9c	0.33532417
87	0xbf4539e9	-0.7704149
88	0xbf31293c	-0.69203544
89	0xbf6f4721	-0.9346791
90	0x3d6a3559	0.057179783
91	0xbee3a4dc	-0.44461715

convs.1.bn1.running_mean f4 [92]
0	0x3db1a9eb	0.086749874
1	0x3f541fcf	0.82861036
2	0x3ec6265f	0.3870115
3	0xc079daae	-3.9039721
4	0x3f65bf6f	0.8974523
5	0x400d7df4	2.2108126
6	0xbfbe89d3	-1.4885811
7	0x3edad2e5	0.42739025
8	0x3f01e1f1	0.50735384
9	0x3f5c1906	0.8597568
10	0x3e9279fe	0.28608698
11	0xbfe1732a	-1.761327
12	0xbf9474f5	-1.1598192
13	0xbd3ed893	-0.04659326
14	0xbfa24af1	-1.267912
15	0xbf98ad28	-1.1927843
16	0xbfbae13b	-1.4599985
17	0xbfb51629	-1.4147388
18	0xbfcdca19	-1.60773
19	0x3f192a0d	0.5982979
20	0xc01a5cfa	-2.4119248
21	0xbfcd4b03	-1.6038517
22	0xbf42089f	-0.75794405
23	0xbed8595d	-0.4225568
24	0xc04936d0	-3.1439705
25	0x3ea64de4	0.324813
26	0xbf10243f	-0.5630531
27	0xbf216982	-0.6305162
28	0x3ee44289	0.44582012
29	0x3f961a2e	1.172674
30	0xbfab776d	-1.3395821
31	0xbeaaf792	-0.33392006
32	0xbf344018	-0.704103
33	0xbfb586bd	-1.4181744
34	0xbfc7e7a2	-1.5617564
35	0xbf419584	-0.7561877
36	0x3e6c79d0	0.23093343
37	0xbfef34ec	-1.8688025
38	0x3fd7eed4	1.686976
39	0xc009728a	-2.147616
40	0xc06bdb16	-3.685247
41	0xbecf858a	-0.4053157
42	0xbdb55699	-0.08854408
43	0xc01196af	-2.274822
44	0x3f6c3c15	0.9227918
45	0xbf939899	-1.1530944
46	0xbee13681	-0.43986896
47	0x3f67efab	0.9060008
48	0x3f0a6f81	0.5407639
49	0xc0237e19	-2.5545714
50	0xbfe3a438	-1.778449
51	0xbf7d44cf	-0.9893312
52	0xbfd3c653	-1.6544899
53	0xbf60fac9	-0.8788267
54	0x3ec31176	0.3809926
55	0xc011ae4b	-2.276263
56	0xbf9f62a8	-1.2451982
57	0xbf820e96	-1.0160701
58	0xbd4108b2	-0.047127433
59	0xc0823625	-4.0691094
60	0xbfa35a16	-1.2761867
61	0xc00219c5	-2.0328228
62	0xbfa299d2	-1.2703192
63	0xbfef477b	-1.8693689
64	0xbfa6a86b	-1.3020147
65	0x3f103526	0.563311
66	0xc05c2019	-3.439459
67	0xc097bd5c	-4.741865
68	0xbf7f078f	-0.9962091
69	0x3f1de387	0.61675304
70	0xbfe697f3	-1.8015121
71	0xbe1f3794	-0.15548545
72	0xbe9e6048	-0.30932832
73	0xbec9bab5	-0.3940026
74	0xbf390da7	-0.72286457
75	0xbfb5d87c	-1.4206691
76	0xbfa0c07d	-1.2558743
77	0xbdbb2a4d	-0.091389276
78	0xbdb9ff72	-0.090819255
79	0xbff04b4a	-1.8772976
80	0xbff42e2a	-1.9076588
81	0xbeb291d8	-0.34876895
82	0xbe6cb8a4	-0.2311731
83	0xbf8d57e6	-1.104245
84	0x3fa7a47e	1.3097074
85	0xc0416c3b	-3.0222309
86	0xc08783df	-4.2348475
87	0xc0792444	-3.8928385
88	0x3f644eb7	0.8918261
89	0xbec2e917	-0.38068458
90	0xbf3c4a08	-0.7355046
91	0xbf8f05bc	-1.1173625

convs.1.bn1.running_var f4 [92]
0	0x3fe28c2e	1.769903
1	0x4057f40a	3.37427
2	0x4035bd73	2.839688
3	0x40892536	4.2857924
4	0x400847b2	2.129376
5	0x40943c84	4.632387
6	0x4052d565	3.2942746
7	0x4055900e	3.3369174
8	0x401de1ba	2.4669023
9	0x4051e726	3.2797332
10	0x40b5b68e	5.6785345
11	0x40ae8348	5.4535255
12	0x3fd4de2b	1.66303
13	0x4022bc19	2.5427306
14	0x3fca54bf	1.5807112
15	0x40de71aa	6.951375
16	0x4016769e	2.3509898
17	0x3fefbe61	1.8729974
18	0x40415541	3.0208285
19	0x3f6036cc	0.87583613
20	0x4053fe55	3.3123982
21	0x402cd1cd	2.7003052
22	0x40047112	2.0694013
23	0x405c8f65	3.446252
24	0x4088929b	4.267896
25	0x40f95866	7.792041
26	0x408c49a1	4.383988
27	0x403c8120	2.9453812
28	0x40280045	2.6250165
29	0x40154bab	2.3327434
30	0x3f7a3cb6	0.9774889
31	0x4067154f	3.6106756
32	0x4088433c	4.2582073
33	0x400d0311	2.2033122
34	0x40518964	3.2740107
35	0x4014ae4c	2.3231382
36	0x405ddc1d	3.4665596
37	0x3fca4872	1.5803359
38	0x4096ec0c	4.7163143
39	0x403ce53c	2.9514914
40	0x4022260a	2.5335717
41	0x406d27dd	3.705558
42	0x402d3330	2.7062492
43	0x40691c6e	3.6423602
44	0x40844411	4.133309
45	0x3faca261	1.3487054
46	0x3f6aec75	0.91767055
47	0x4025cade	2.590507
48	0x4017da88	2.372713
49	0x404bfd20	3.1873245
50	0x404fb8a2	3.245644
51	0x4080f99b	4.0304694
52	0x402c1440	2.688736
53	0x4018d404	2.3879404
54	0x4040caca	3.0123773
55	0x4039a165	2.9004757
56	0x40cc6a22	6.3879557
57	0x40824703	4.0711684
58	0x3fd00e54	1.6254373
59	0x40d397d3	6.612283
60	0x3fde86e2	1.7384913
61	0x402fc428	2.7463474
62	0x4029375f	2.6440046
63	0x40148f22	2.3212361
64	0x402c40cd	2.6914551
65	0x3f475ee4	0.77879167
66	0x4099eabb	4.8099036
67	0x4099c19a	4.804883
68	0x3ff5cfa2	1.920399
69	0x408387ec	4.110342
70	0x40609acc	3.509448
71	0x410cd81a	8.802759
72	0x4068a9ad	3.6353562
73	0x3fd6438a	1.6739361
74	0x4055a7ed	3.3383744
75	0x40643017	3.5654352
76	0x3febb21f	1.8413733
77	0x4049a694	3.1507921
78	0x406179d4	3.5230608
79	0x3ffa6592	1.9562247
80	0x401cef54	2.4521074
81	0x402c6eb3	2.6942565
82	0x40309a05	2.7594006
83	0x3ffe3506	1.9859931
84	0x404a9746	3.165483
85	0x4040d926	3.0132537
86	0x40233d33	2.5506103
87	0x404ffa4e	3.2496524
88	0x400cfe3c	2.2030172
89	0x408cf2e9	4.404652
90	0x40b81e31	5.7536855
91	0x3fbc8902	1.4729311

convs.1.bn2.weight f4 [46]
0	0x3e0e5425	0.13899286
1	0xbdb5bf3e	-0.08874367
2	0x3f67a3df	0.9048442
3	0x3f8971d7	1.0737866
4	0x3eb61e01	0.35569766
5	0x3f6e2434	0.9302399
6	0x3f7a0ef2	0.97679055
7	0x3e8c49d9	0.2740009
8	0x3f674b9b	0.9034974
9	0x3f73037b	0.94927186
10	0x3e9e4849	0.30914524
11	0x3f217af6	0.6307825
12	0xbb087955	-0.0020824273
13	0x3f5fd757	0.8743796
14	0x3e6c3f12	0.23070934
15	0x3f014d22	0.5050832
16	0x3da52571	0.08063782
17	0x3f5d98a1	0.8656102
18	0x3e9f2fae	0.31091064
19	0xbd011ba7	-0.031520512
20	0x3f57ab9a	0.8424622
21	0x3f8221be	1.0166547
22	0x3ec0d221	0.37660316
23	0x3e896a65	0.26838985
24	0x3ec08a3c	0.37605464
25	0x3eb88329	0.36037567
26	0x3e6f401c	0.233643
27	0x3ee9a1fd	0.456314
28	0x3f7a49b9	0.9776874
29	0x3eb30e5b	0.3497189
30	0x3e30e077	0.17273127
31	0x3f078487	0.52936596
32	0x3e53bddb	0.20677893
33	0x3f401d2a	0.750445
34	0x3eeb3821	0.4594126
35	0x3f24c299	0.6435943
36	0x3f85b69b	1.0446352
37	0x3f73843f	0.95123667
38	0x3f4f0682	0.80869305
39	0x3f7661a0	0.96242714
40	0x3e5b3d1c	0.2141003
41	0x3fbfbdcd	1.4979798
42	0x3ef5095e	0.4785871
43	0x3f01d4bf	0.5071525
44	0x3caca424	0.021074362
45	0x3d83d5b1	0.06437243
