CGCNN_ensemble/histories/3_valid_best_params.pt (torch_old, 446091 bytes, 91 tensors)

embedding.weight f4 [46, 98]
0	0xbd68a0d3	-0.056794
1	0xbc7bf722	-0.015378745
2	0xbde3f138	-0.11129993
3	0xbea804b4	-0.32816088
4	0xbf073e38	-0.52829313
5	0xbf981561	-1.1881524
6	0xbf487ed0	-0.783185
7	0xbf23f809	-0.64050347
8	0xbe32c84a	-0.17459217
9	0xbe83947d	-0.25699225
10	0x3dd0beb8	0.10192627
11	0x3e3427c4	0.17593294
12	0x3f0a4921	0.54017836
13	0x3d7d15dd	0.06178843
14	0x3e1531b4	0.14569741
15	0x3de08b79	0.10964102
16	0x3dc07dc8	0.09398991
17	0xbd886296	-0.06659429
18	0xbbfb4ea0	-0.007669285
19	0xbe87a2d7	-0.26491424
20	0xbd186038	-0.037201136
21	0xbe8eead4	-0.27913535
22	0x3d38686d	0.045021463
23	0x3e2dc2fd	0.16968913
24	0xbd8c9abb	-0.0686545
25	0x3d5852e8	0.05281344
26	0x3ce18fff	0.027534483
27	0x3d1ba7b0	0.038001716
28	0xbf1d0938	-0.6134219
29	0xbebfa685	-0.37431732
30	0x3e198c1d	0.14994855
31	0x3e36ee2e	0.17864296
32	0x3acf9d00	0.0015839636
33	0x3b978282	0.004623712
34	0xbd72091d	-0.059090722
35	0xbdb22781	-0.08698941
36	0xbe1c1a50	-0.15244412
37	0xbe04ea59	-0.12980022
38	0x3e107c5f	0.14109944
39	0xbe4eaedd	-0.20183893
40	0x3e5d2132	0.21594694
41	0xbe3b0a1f	-0.1826558
42	0xbe5955f7	-0.21224199
43	0x3cf03081	0.029320003
44	0xbd796044	-0.06088282
45	0x3dd66d89	0.10470111
46	0x3dbee692	0.093213215
47	0xbd843c76	-0.064568445
48	0x3deb70cd	0.114961244
49	0xbd52db61	-0.051478747
50	0xbea7a508	-0.32743096
51	0x3d81a2d6	0.063298866
52	0xbf12ad8c	-0.5729606
53	0xbe25ad69	-0.16179432
54	0xbdbd1514	-0.09232536
55	0x3d4dcb53	0.050242733
56	0x3e8af01a	0.27136308
57	0x3e8efe7f	0.2792854
58	0xbdbb1e08	-0.091365874
59	0x3e1fa758	0.1559118
60	0xbdc26da3	-0.09493568
61	0xbcf377e1	-0.029720249
62	0xbe12f9e7	-0.14353143
63	0x3dfb5e1a	0.12273808
64	0x3caa0bcc	0.020757578
65	0xb94ece00	-0.00019722432
66	0xbcd62de4	-0.02614493
67	0x3d0e30c4	0.034714475
68	0xbd4707d8	-0.048591465
69	0xbc52ad80	-0.012858748
70	0xbd279477	-0.04091307
71	0xbdc3f7e8	-0.09568769
72	0x3de656e4	0.11247042
73	0xbd051075	-0.032486398
74	0xbdba29e0	-0.09090018
75	0xbda9e91e	-0.08296417
76	0x3d494cfc	0.049145684
77	0xbd0fb1fe	-0.035081856
78	0xbd2dd52a	-0.042439617
79	0x3e82f4aa	0.2557729
80	0xbe4e862b	-0.20168369
81	0x3c9e7764	0.01934404
82	0x3d810a48	0.06300789
83	0xbdf96508	-0.12177473
84	0xbe84dad8	-0.25948215
85	0x3e48b292	0.19599369
86	0x3d30af6a	0.043136038
87	0xbc93c871	-0.018039914
88	0xbd8a70db	-0.06759807
89	0xbc1ff0d6	-0.00976201
90	0x3d806429	0.06269104
91	0xbd59458f	-0.053044852
92	0x3d9a611b	0.07538053
93	0x3eedb289	0.46425274
94	0x3ef17e18	0.47166514
95	0xbf1db000	-0.6159668
96	0x3d883636	0.06650965
97	0xbe5ceb32	-0.21574095
98	0xbdccce28	-0.10000259
99	0xbd39c881	-0.04535723
100	0x3e31b4cc	0.17354125
101	0x3e8e95e8	0.27848744
102	0xbd0efe29	-0.034910355
103	0xbd13a5f9	-0.036046956
104	0x3f122b9c	0.5709779
105	0x3e9febec	0.31234682
106	0x3edea440	0.43484688
107	0x3e309db2	0.17247656
108	0x3e24aaf5	0.1608084
109	0xbe65e8b7	-0.22452055
110	0xbf44d5fa	-0.76889
111	0xbdfd2f33	-0.12362518
112	0x3cb8d676	0.0225632
113	0xbd830824	-0.06398037
114	0xbe065431	-0.13118054
115	0x3cbe685c	0.023243122
116	0xbdc2a9ae	-0.0950502
117	0x3db0dc6c	0.08635792
118	0x39124bab	0.00013951834
119	0xbdae0428	-0.084968865
120	0xbd398a73	-0.04529805
121	0x3cecb550	0.02889505
122	0x3dd7094e	0.104998216
123	0x3db8b34e	0.09018575
124	0xbdb34eeb	-0.08755287
125	0xbc10efc5	-0.008846228
126	0xbdd17b7a	-0.102286294
127	0x3e1aa62c	0.15102452
128	0xbda08905	-0.078386344
129	0xbe8fc7f1	-0.2808223
130	0xbdcd85ef	-0.100353114
131	0x3e831e54	0.25609076
132	0xbeb8e976	-0.36115617
133	0xbc11c580	-0.008897185
134	0xbd2e3adb	-0.042536598
135	0xbec06e3e	-0.37584108
136	0xbd7b8717	-0.06140813
137	0x3e38fff3	0.18066387
138	0xbe30a394	-0.172499
139	0x3cbd5287	0.023110641
140	0x3e13a55b	0.14418547
141	0xbe8ab7b2	-0.27093273
142	0x3dadb080	0.0848093
143	0xbd495a30	-0.049158275
144	0xbe2aadba	-0.16667834
145	0x3e258c76	0.16166863
146	0xbe0cb4c5	-0.13740833
147	0xbde60187	-0.1123076
148	0xbe240f68	-0.16021502
149	0x3daa4d8a	0.08315571
150	0x3e91c12a	0.28467685
151	0x3edcc3ca	0.43118125
152	0x3e2f1c82	0.17100719
153	0x3e45f454	0.19331485
154	0xbe0ff65b	-0.14058821
155	0xbe3f3ff6	-0.18676743
156	0xbde8bb5d	-0.11363862
157	0xbd9c16ea	-0.07621558
158	0xbd6a1231	-0.057146255
159	0x3d927460	0.07151103
160	0x3c8b5482	0.01700807
161	0xbe91cd06	-0.28476733
162	0xbd0f2c46	-0.03495433
163	0x3c859360	0.016305625
164	0x3dbf71a8	0.0934785
165	0x3dbecb66	0.09316139
166	0xbd985085	-0.07437233
167	0x3d48ea2c	0.04905145
168	0x3e8bf8fc	0.27338398
169	0xbc9a0ec8	-0.018805876
170	0x3d2578f9	0.04039857
171	0x3c903822	0.017604891
172	0xbc07e341	-0.008293928
173	0x3d1bda7a	0.038050152
174	0x3d2ae1bc	0.041719183
175	0xb953e400	-0.00020207465
176	0xbd81616c	-0.0631741
177	0xbe873c21	-0.26413062
178	0x3e813815	0.252381
179	0x3d8a3aa2	0.067494646
180	0xbddf3b20	-0.10899949
181	0x3ed11fb2	0.40844494
182	0x3d1f61fd	0.03891181
183	0xbe178eaa	-0.14800516
184	0xbe37f14f	-0.17963146
185	0xbe84cc4d	-0.2593712
186	0x3d8a6526	0.06757574
187	0xbe0b4ad4	-0.13602763
188	0x3c279b32	0.010229873
189	0xbd110036	-0.03540059
190	0xbe17ab11	-0.1481135
191	0x3f037bb7	0.5136065
192	0xbf1bed88	-0.6090932
193	0x3d33a4e8	0.04385844
194	0x3ea426f2	0.32060963
195	0xbdde9f29	-0.10870201
196	0xbd159d60	-0.036527038
197	0x3e18f828	0.14938414
198	0xbd5b5a89	-0.053553138
199	0xbedc2af0	-0.4300151
200	0xbe24913f	-0.16071032
201	0xbd0c3ad5	-0.034235794
202	0x3d605a72	0.054773755
203	0xbee58c6d	-0.448337
204	0xbeb97f22	-0.36229807
205	0xbe044b3a	-0.12919322
206	0xbeef49ca	-0.46735984
207	0x3e290947	0.16507445
208	0x3f260911	0.64857584
209	0x3d03aa14	0.03214462
210	0x3dc50db4	0.09621754
211	0xbd89333e	-0.06699227
212	0x3e8c9e51	0.27464536
213	0x3cb6abec	0.022298776
214	0xbb82ca80	-0.003991425
215	0x3e63c386	0.22242555
216	0xbe13c052	-0.14428833
217	0xbe638c38	-0.22221458
218	0x3e18c050	0.14917111
219	0x3e88be2e	0.26707596
220	0xbe7c797e	-0.2465572
221	0x3d9e5ac2	0.077321544
222	0x3d5b787b	0.053581696
223	0x3d4e450c	0.050358817
224	0xbdc21442	-0.0947652
225	0xbd6c408e	-0.05767875
226	0x3e53dfec	0.20690888
227	0x3c884fc7	0.016639603
228	0xbcc2c6d8	-0.023776457
229	0xbe17b828	-0.14816344
230	0x3db7e3b6	0.08978979
231	0x3d0adac4	0.033900037
232	0x3e7a7de9	0.24462093
233	0x3da29482	0.07938482
234	0xbd9f2830	-0.07771337
235	0xbe4e9e92	-0.20177677
236	0x3e088ce4	0.13334996
237	0x3e4d4164	0.20044476
238	0xbdcd78cc	-0.10032806
239	0x3e515aa7	0.20444737
240	0xbc8e5070	-0.01737234
241	0x3df6c9e5	0.12050227
242	0x3e34d8a7	0.17660771
243	0x3c7f641b	0.015587832
244	0xbd2d17a8	-0.04225889
245	0x3daf3e48	0.08556801
246	0x3daf8e84	0.085721046
247	0x3e71a729	0.23598923
248	0xbee55e12	-0.44798332
249	0xbe949ec5	-0.29027382
250	0xbd56ff34	-0.052489474
251	0xbe3cfa4e	-0.18454859
252	0x3e6bee54	0.23040134
253	0x3ddc7ccb	0.1076599
254	0x3d3c414e	0.045960717
255	0xbbcd8102	-0.0062714824

embedding.bias f4 [46]
0	0xbeaab24a	-0.3333915
1	0xbe0cb09f	-0.1373925
2	0xbe5d6d57	-0.21623741
3	0xbeae5679	-0.34050348
4	0xbe91c2e6	-0.28469008
5	0xbe08aff5	-0.13348372
6	0xbeba6580	-0.36405563
7	0xbede0c9e	-0.43369
8	0xbeb89a6b	-0.36055312
9	0xbec7ff0d	-0.39061776
10	0xbe666a63	-0.22501521
11	0xbecb5495	-0.39712968
12	0xbed6af87	-0.41930792
13	0xbe78935b	-0.24274962
14	0xbeba922c	-0.36439645
15	0xbe812ddf	-0.2523031
16	0xbef7d0ad	-0.48401394
17	0xbf09ed56	-0.5387777
18	0xbe89ad4a	-0.26890022
19	0xbf0fe8a6	-0.5621437
20	0xbea5d17c	-0.32386386
21	0xbea08beb	-0.3135675
22	0xbf2450a0	-0.64185524
23	0xbe6b3038	-0.22967613
24	0xbef2fe7e	-0.47459787
25	0xbe3496ed	-0.17635699
26	0x3e4aedb2	0.19817236
27	0xbe9f4740	-0.31109047
28	0xbef918a3	-0.4865161
29	0xbeacfa92	-0.3378492
30	0xbeab977d	-0.33514014
31	0xbec84b63	-0.39120016
32	0xbe1ebf09	-0.15502562
33	0xbed908e9	-0.4238961
34	0xbe9c06e3	-0.30474004
35	0xbf1c4c56	-0.6105398
36	0xbf16407b	-0.5869214
37	0xbf1a878c	-0.6036308
38	0xbef64a83	-0.48103723
39	0xbf4a10ed	-0.78932077
40	0xbe7910e5	-0.24322851
41	0xbed2b35b	-0.41152462
42	0xbe2c0651	-0.16799285
43	0xbe8009b7	-0.25007412
44	0xbf04b2be	-0.5183524
45	0xbe98330b	-0.29726443

convs.0.fc_full.weight f4 [92, 98]
0	0x3e3c692e	0.18399498
1	0x3ca3c578	0.019991621
2	0xbcad2ce3	-0.021139568
3	0x3d96a5ac	0.07355818
4	0xbe5f8c93	-0.21830969
5	0x3ecb91a2	0.39759547
6	0x3e731468	0.23738253
7	0xbed0ff37	-0.40819713
8	0xbc7a23bf	-0.015267312
9	0xbc0783ce	-0.008271171
10	0x3ec78a19	0.38972548
11	0x3e58874a	0.21145359
12	0xbd32bad1	-0.043635193
13	0x3e02fe29	0.12792267
14	0x3d106d6a	0.035260595
15	0x3e7b315c	0.24530548
16	0xbd88768f	-0.06663238
17	0x3e8a211f	0.26978394
18	0xbe977204	-0.29579175
19	0xbf03e272	-0.51517403
20	0xbe7f846e	-0.24952862
21	0x3d02722a	0.031847157
22	0xbe1ff6eb	-0.15621535
23	0x3ea1485d	0.3150052
24	0xbe82d391	-0.25552037
25	0x3e88667c	0.2664069
26	0x3e0a7063	0.13519435
27	0xbdc3b4c9	-0.095559664
28	0x3cd6fc9e	0.026243504
29	0x3e91b72f	0.2846007
30	0xbe5f2956	-0.21793112
31	0x3d302d76	0.043012105
32	0x3d448bd5	0.047984917
33	0xbcfc1cf9	-0.030775534
34	0xbeecbea8	-0.4623921
35	0x3e5680b9	0.20947541
36	0xbe83e4fc	-0.2576064
37	0xbe04f9cf	-0.1298592
38	0xbbc47831	-0.0059957732
39	0x3d64dde8	0.05587569
40	0xbe552e11	-0.20818354
41	0xbb7de153	-0.003873904
42	0xbe584440	-0.21119785
43	0xbb3be391	-0.0028669576
44	0x3e3ee0c7	0.18640433
45	0xbcbcee62	-0.023062889
46	0x3d938a5f	0.072041266
47	0x3f070a0d	0.5274971
48	0xbf334d87	-0.7004017
49	0xbe590819	-0.21194495
50	0x3ee190c3	0.44055757
51	0x3dbebc2e	0.09313236
52	0xbec44460	-0.38333416
53	0x3d80187e	0.062546715
54	0x3cbf93eb	0.023385962
55	0x3e849cb7	0.25900814
56	0x3e1ed707	0.15511714
57	0x3ef9584a	0.48700172
58	0x3e53e3d9	0.20692386
59	0xbe4c437b	-0.19947617
60	0xbe71008f	-0.2353537
61	0x3e8935a4	0.26798737
62	0xbe11442d	-0.14186163
63	0x3ebfff8f	0.37499663
64	0x3e3215c9	0.17391123
65	0x3dd60183	0.10449507
66	0xbe27f1ff	-0.16400908
67	0xbeaaba14	-0.3334509
68	0xbe9c36cd	-0.3051056
69	0xbbaf453e	-0.0053488305
70	0xbe1ebd15	-0.15501817
71	0x3cccf75f	0.0250203
72	0x3e56c0f3	0.20972042
73	0x3e81c87b	0.25348267
74	0x3ee17ec9	0.44042042
75	0x3f093bac	0.5360668
76	0x3ea46dac	0.32114923
77	0x3eb74e99	0.35802153
78	0xbed8c3c2	-0.4233685
79	0xbe7f3046	-0.24920759
80	0x3e6d6419	0.23182715
81	0x3dcdf891	0.10057176
82	0xbf575daa	-0.84127295
83	0x3f0553f9	0.5208126
84	0x3e153429	0.14570679
85	0xbd54b934	-0.051934436
86	0xbe193daf	-0.14964937
87	0xbe7dcfc0	-0.24786282
88	0xbe64db2a	-0.2234923
89	0xbf04960c	-0.51791453
90	0x3d4f0ed5	0.050551254
91	0xbd801edf	-0.06255888
92	0x3e060838	0.13089073
93	0x3e731a55	0.23740514
94	0xbea2b44e	-0.31778187
95	0x3d55e9e1	0.052224997
96	0x3dcdc4a4	0.10047272
97	0xbe7c9910	-0.24667764
98	0xbe7739dd	-0.24143167
99	0x3e9c30d2	0.30505997
100	0xbe9c4ab5	-0.30525747
101	0x3e37d7ce	0.17953417
102	0xbc193059	-0.009349906
103	0xbdfcf070	-0.12350547
104	0xbd24592a	-0.040124096
105	0x3d2d9fc9	0.04238871
106	0xbdc85814	-0.097824246
107	0x3e650789	0.22366156
108	0x3bccec18	0.0062537305
109	0x3e8dd97f	0.27705
110	0x3d4a64fd	0.049412716
111	0xbd0804ed	-0.033207823
112	0xbe6d4728	-0.23171675
113	0x3e38c409	0.18043531
114	0x3e5d558b	0.21614663
115	0x3dd3950e	0.10331164
116	0xbe3d533d	-0.18488784
117	0x3dd80093	0.105469845
118	0xbe878e12	-0.2647558
119	0xbe0e9275	-0.13923056
120	0xbe4bdc93	-0.19908361
121	0xbd4e6b22	-0.05039514
122	0xbdc13374	-0.09433642
123	0x3d8ead07	0.06966596
124	0x3ce11f26	0.027480673
125	0x3e23ec1d	0.16008039
126	0x3d9350ab	0.071931206
127	0x3e29068c	0.16506404
128	0x3cdcf0b6	0.026970249
129	0xbca96625	-0.02067859
130	0xbe86c14d	-0.26319352
131	0x3dcde1ec	0.10052857
132	0x3cf473c0	0.02984035
133	0xbde95352	-0.11392845
134	0xbecd3436	-0.40078896
135	0x3e796119	0.24353446
136	0x3e7a2dac	0.24431485
137	0x3e1a7ab0	0.15085864
138	0xbe0a04f8	-0.13478458
139	0x3d8ae06b	0.067810856
140	0x3c503f43	0.012710395
141	0xbc0a32eb	-0.008434991
142	0xbdc63bbd	-0.09679363
143	0x3e177b41	0.14793111
144	0xbdb03461	-0.086037405
145	0x3dbbe540	0.09174585
146	0xbb816a7f	-0.003949463
147	0x3da111e4	0.078647405
148	0xbc8d75bc	-0.017268054
149	0xbe283100	-0.16424942
150	0x3e174500	0.14772415
151	0xbdde0e6f	-0.10842597
152	0x3c9b67bc	0.018970363
153	0x3e116698	0.14199293
154	0x3e8087b3	0.2510353
155	0x3d07f23a	0.03318999
156	0xbd114d02	-0.03547383
157	0xbcf01206	-0.02930547
158	0xbc060d2d	-0.008181852
159	0x3d9506a6	0.07276659
160	0x3d3ebd36	0.046567164
161	0xbdb7db51	-0.08977378
162	0xbe3564f9	-0.177143
163	0xbb9376ba	-0.0045002373
164	0xbe178d5a	-0.14800015
165	0xbd489d0f	-0.048977908
166	0x3d930147	0.07177978
167	0xbdf68fde	-0.12039159
168	0xbc91ece4	-0.017813154
169	0x3d947232	0.072483435
170	0xbce88a09	-0.028386133
171	0xbdc2642e	-0.09491764
172	0x3d72ccda	0.059277393
173	0xbda7f58c	-0.08201131
174	0x3c10593b	0.008810337
175	0x3d9786c2	0.0739875
176	0xbd4b0329	-0.04956356
177	0xbbc6bcd3	-0.00606499
178	0x3e634ecf	0.22198032
179	0x3d407c57	0.04699358
180	0xbe762ff6	-0.24041733
181	0x3df6f5e8	0.12058622
182	0x3a3ee85e	0.000728255
183	0x3dd13c64	0.10216597
184	0xbd345000	-0.044021606
185	0x3daaa0e8	0.08331472
186	0xbc81f183	-0.015862232
187	0x3e161ccf	0.14659427
188	0xbdaa3787	-0.08311372
189	0x3e71938b	0.2359144
190	0xbe27642d	-0.16346808
191	0xbe245e41	-0.1605158
192	0x3b3b2fde	0.0028562467
193	0xbb0b480c	-0.002125266
194	0x3d61226f	0.05496448
195	0x3d55efc9	0.05223063
196	0x3e86811f	0.26270387
197	0x3e47f7b7	0.1952809
198	0x3ea0905c	0.31360137
199	0xbdf434ed	-0.11924157
200	0xbe28b644	-0.16475779
201	0x3f2327c0	0.6373253
202	0xbd0fc564	-0.035100356
203	0xbd7c89ba	-0.061654784
204	0x3ec9e675	0.39433637
205	0xbe7aa54b	-0.24477117
206	0x3efeaaf1	0.49739793
207	0x3ccb4292	0.024812017
208	0xbe968deb	-0.2940515
209	0x3df024d1	0.11725772
210	0xbe3f668e	-0.18691465
211	0x3ef31f72	0.47484928
212	0xbf2cef68	-0.67552805
213	0xbe3afbc8	-0.1826011
214	0x3f057b6d	0.5214146
215	0xbe04aa86	-0.12955675
216	0x3e4e9c9e	0.20176932
217	0x3eae9640	0.34099007
218	0x3e5de263	0.21668391
219	0x3d3a55e2	0.04549206
220	0xbe65f2ec	-0.22455949
221	0xbe81735b	-0.25283322
222	0x3e5c5b37	0.2151917
223	0x3f026e86	0.50949895
224	0x3bcc3dcd	0.006232953
225	0x3e5dab6f	0.21647428
226	0xbd35f224	-0.044420376
227	0x3d2472e9	0.04014865
228	0xbd25b70b	-0.040457767
229	0xbda23397	-0.07919996
230	0x3de08040	0.10961962
231	0xbe614601	-0.2199936
232	0x3ce2cc05	0.027685175
233	0x3e8f4294	0.27980483
234	0x3dc4c354	0.096075684
235	0x3d0f0cc2	0.034924276
236	0xbf165c2d	-0.587344
237	0xbd9f4c21	-0.07778192
238	0x3ed6f78f	0.41985747
239	0x3e1162cf	0.14197849
240	0xbe80220c	-0.25025976
241	0xbe0dd7cc	-0.13851851
242	0x3dab2770	0.083571315
243	0xbea9028b	-0.33009753
244	0xbebade85	-0.36497894
245	0x3ec23e3e	0.37938112
246	0xbdafd58a	-0.08585651
247	0x3dd98ec4	0.106229335
248	0x3e8fede9	0.281112
249	0xbe1da052	-0.15393189
250	0x3d0b4904	0.03400518
251	0xbefe2aac	-0.4964193
252	0xbf45b851	-0.7723437
253	0xbead84bc	-0.3389033
254	0x3c889677	0.01667331
255	0xbcb569b7	-0.022145135

convs.0.fc_full.bias f4 [92]
0	0xbca8790b	-0.02056553
1	0xbdbc9942	-0.09208919
2	0xbbd60d36	-0.0065323366
3	0x3d7af694	0.06127031
4	0xbd3311b9	-0.043718074
5	0xbcf95c7b	-0.030439606
6	0xbd1f6cdc	-0.038922176
7	0xbc6d1946	-0.014471358
8	0x3d27192f	0.0407955
9	0xbdeffd65	-0.11718253
10	0x3c5f0d62	0.013614031
11	0xbb9547f2	-0.0045556957
12	0x3db5db28	0.08879691
13	0x3c1fc1b9	0.009750777
14	0x3cccb971	0.02499077
15	0xbd6d8e24	-0.057996884
16	0xbdbd2647	-0.092358164
17	0x3cb7aa24	0.022419997
18	0x3d9fa02d	0.07794223
19	0xbd8eb301	-0.06967736
20	0xbd4ef431	-0.050525848
21	0x3dc11d7a	0.0942945
22	0xbd98734f	-0.07443868
23	0x3c4d5061	0.012531371
24	0x3c798151	0.015228585
25	0x3cb94d09	0.022619741
26	0xbd99aa69	-0.07503206
27	0xbd91455f	-0.070933096
28	0x3da08868	0.078385174
29	0xbc8433fd	-0.016138071
30	0xbd85646a	-0.06513293
31	0xbad3752f	-0.0016132946
32	0x3da59f2c	0.08087
33	0x3d508132	0.05090446
34	0x3cfa32fd	0.030541891
35	0xbd2718b4	-0.040795043
36	0x3c3cdb6c	0.011526924
37	0xbc7c39c5	-0.015394633
38	0x3dbeb02b	0.09310945
39	0x3d85dafd	0.06535909
40	0xbcde529f	-0.027139006
41	0xbbc124b2	-0.005894267
42	0x3caaa411	0.020830186
43	0xbca5412c	-0.020172678
44	0x3d99b04b	0.07504328
45	0xbcf485f1	-0.029849024
46	0xbdaeec75	-0.08541194
47	0x3d02b8ee	0.031914644
48	0xbe05b7cb	-0.13058393
49	0xbd39f8cd	-0.04540329
50	0xbdaefb86	-0.08544068
51	0x3d2d1ff3	0.042266797
52	0x3ccb3208	0.02480413
53	0x3d0351d9	0.032060478
54	0x3d841538	0.0644936
55	0x3d95c056	0.07312076
56	0xbb2d7439	-0.002646698
57	0xbda30bec	-0.07961258
58	0xbdb2de60	-0.08733821
59	0x3c95e402	0.0182972
60	0x3d2f9330	0.04286498
61	0xbd85dfe3	-0.06536844
62	0x3d419ba3	0.047267567
63	0xbd21042d	-0.039310623
64	0x3d91145a	0.0708396
65	0x3db2fd1e	0.087396845
66	0x3b9f3f7d	0.0048598633
67	0x3d9259f6	0.07146065
68	0xbc10fb39	-0.008848959
69	0xbd9a97b6	-0.07548468
70	0xbcd0bb6b	-0.025479993
71	0xbd8dee1f	-0.069301836
72	0x3d8b5660	0.06803584
73	0xbd015adc	-0.03158079
74	0xbda068e9	-0.0783251
75	0x3c288a5b	0.010286893
76	0x3da5c26d	0.080937244
77	0x3ccb8c85	0.024847278
78	0x3c4fb6c7	0.012677855
79	0x3d6e1eb6	0.058134757
80	0xbbe6cc8c	-0.007043427
81	0x3d5e1e28	0.054227978
82	0x3d71996f	0.058984216
83	0x3dc1fc55	0.09471957
84	0xbcc25dcc	-0.023726366
85	0x3d614b3f	0.0550034
86	0xbdb326c2	-0.08747627
87	0x3e0777c6	0.13229284
88	0xbb2448cc	-0.0025067804
89	0xbd834b9e	-0.06410907
90	0xbdb2736f	-0.087134235
91	0x3d2e35d1	0.042531792

convs.0.bn1.weight f4 [92]
0	0x3f847bdc	1.0350299
1	0x3d29afe5	0.04142751
2	0x3f959305	1.1685492
3	0x3f2e746c	0.68146396
4	0x3f87fcc1	1.0624009
5	0x3fde0272	1.7344496
6	0x3e6fc64c	0.23415488
7	0x3fb7c2e5	1.4356352
8	0x3e7f9c50	0.24961972
9	0x3f286475	0.65778285
10	0x3f6b08ef	0.91810507
11	0x3e63fd66	0.22264633
12	0x3f559691	0.8343287
13	0x3fe0127b	1.750564
14	0x4003a4e6	2.0569396
15	0x4018ab29	2.3854468
16	0x3ef659f3	0.481155
17	0x3f853b2c	1.0408683
18	0x3f4be12d	0.79640466
19	0x3ee40762	0.44536883
20	0x3ed17229	0.4090741
21	0x3f0fadf7	0.56124824
22	0x3f67bbdd	0.9052103
23	0x3f587ba3	0.84563655
24	0x40231717	2.5482843
25	0x3fa6e136	1.3037479
26	0x3f51e85e	0.8199519
27	0x3f9405f1	1.1564313
28	0x3e12966c	0.14315194
29	0x3f93c19f	1.1543463
30	0x3f5f59f9	0.8724666
31	0x3f6c1442	0.9221841
32	0x3ed0e8a0	0.4080248
33	0x3ff0dc0a	1.881715
34	0x4015b131	2.33894
35	0x3f5c0069	0.85938126
36	0x3f80e4ee	1.0069864
37	0x3e88fc44	0.26754963
38	0x3ff28192	1.8945792
39	0x3ed62322	0.4182368
40	0x3df1b18b	0.11801442
41	0x3fb54ef2	1.4164717
42	0x3f7b68dc	0.9820688
43	0x3d4fad28	0.050702244
44	0x3f944bb2	1.15856
45	0x3f1abace	0.6044129
46	0x3f8e1e35	1.1102968
47	0x3e17906d	0.14801188
48	0x3f3d4af3	0.7394249
49	0x3f831dfb	1.0243524
50	0x3fa2df14	1.2724328
51	0x3fb4678f	1.4094104
52	0x3f9e5d04	1.2372136
53	0x3f74c637	0.9561495
54	0x3f332a44	0.6998637
55	0x3fcf4cd9	1.6195327
56	0x3ed32e58	0.41246295
57	0x3f8600c1	1.046898
58	0x3feb37c7	1.8376397
59	0x3f12df94	0.57372403
60	0x3e902034	0.2814957
61	0xbbd86b19	-0.006604564
62	0x3e27c4db	0.16383688
63	0x3fe3a5b0	1.7784939
64	0x3f073954	0.5282185
65	0x3fe0afc8	1.7553644
66	0x3e94ebd1	0.29086164
67	0x3f65cac4	0.8976252
68	0x3f983eb9	1.1894141
69	0x3ea81232	0.32826382
70	0x3e856261	0.2605162
71	0x3f3a55c0	0.72787094
72	0x3fc822f1	1.5635663
73	0x3cfdb4a7	0.03096993
74	0x3f13fd30	0.5780821
75	0x3f7cd872	0.9876777
76	0x3fb64fbf	1.4243087
77	0x3fda9c6e	1.7078989
78	0x3f21aba5	0.63152534
79	0x3fb48dd1	1.4105779
80	0xbd27bceb	-0.04095165
81	0x3f8e10c4	1.1098866
82	0x3ea26e98	0.31725
83	0x3f8d751b	1.1051363
84	0x3fd18b48	1.637063
85	0x3fa1ab51	1.2630407
86	0x3e0ced85	0.13762482
87	0x3f52ba46	0.8231548
88	0x3f4933e7	0.7859482
89	0x3fb8216f	1.4385203
90	0x3f830bc5	1.0237967
91	0x3e1b14c4	0.1514464

convs.0.bn1.bias f4 [92]
0	0xbf360fb4	-0.7111771
1	0x3de84ccc	0.11342773
2	0x3e300a2c	0.1719138
3	0xbe0bd2a2	-0.13654569
4	0xbe96a63e	-0.29423708
5	0xbf25e730	-0.6480589
6	0x3d2441ef	0.04010194
7	0xbe8dac37	-0.27670452
8	0xbe9b61a5	-0.30347934
9	0xbf5b3d08	-0.8564
10	0xbca11cbb	-0.01966702
11	0x3c69cbfc	0.014269825
12	0xbf4bbd7a	-0.79585993
13	0xbd11e256	-0.03561624
14	0xbdd2f086	-0.102997825
15	0x3e4c41ab	0.19946925
16	0xbc5b3138	-0.013378434
17	0xbf942652	-1.1574194
18	0xbf421271	-0.7580939
19	0xbee02fa9	-0.43786362
20	0xbd51bc6b	-0.05120508
21	0xbecbf674	-0.39836466
22	0xbf2565f8	-0.64608717
23	0xbea71945	-0.32636467
24	0xbe78b704	-0.24288565
25	0xbe3b04e1	-0.1826358
26	0xbf25ef1a	-0.64817965
27	0xbde63573	-0.112406634
28	0x3e041e59	0.12902202
29	0x3e5ec94c	0.21756476
30	0xbe454407	-0.19264232
31	0xbfd2dc1d	-1.6473423
32	0x3d26df55	0.04074033
33	0xbee8826f	-0.45412013
34	0x3d5f15a3	0.054463994
35	0xbfc9370b	-1.5719923
36	0x3e8d4e73	0.27598915
37	0x3e11c53b	0.14235394
38	0xbf82b518	-1.0211515
39	0xbf1bf912	-0.60926926
40	0x3dd4c842	0.10389759
41	0xbf0fb4b6	-0.5613512
42	0x3d23e0be	0.040009253
43	0x3f0c1963	0.5472624
44	0xbefb3943	-0.49067125
45	0xbee8fb7a	-0.4550436
46	0xbf3f0e6f	-0.746314
47	0x3e0238c8	0.12716973
48	0xbe7b41a8	-0.24536765
49	0xbe698184	-0.22803313
50	0xbf0968f9	-0.536758
51	0xbf89e9ba	-1.0774453
52	0xbe78c953	-0.24295549
53	0xbda9565d	-0.082684256
54	0xbf419cd2	-0.75629914
55	0xbf4dba1a	-0.80362093
56	0xbe44e7b2	-0.1922901
57	0xbe408427	-0.18800412
58	0xbfad0e2f	-1.3519953
59	0xbc9bbbc1	-0.019010426
60	0xbe82ade4	-0.25523293
61	0x3fa6315b	1.2983812
62	0x3d59743b	0.05308936
63	0xbf9ae992	-1.210253
64	0xbeaf8645	-0.34282127
65	0xbf826ba8	-1.0189104
66	0x3e18b5f2	0.14913157
67	0xbe9bbf7b	-0.30419526
68	0xbf1f7f5e	-0.6230372
69	0xbe58748b	-0.21138208
70	0x3ea5f796	0.32415456
71	0xbe1b4d9a	-0.15166321
72	0xbf07f8b9	-0.53113896
73	0x3ec57c0f	0.38571212
74	0x3d46888f	0.048470076
75	0x3d96bcfe	0.07360266
76	0xbed3953d	-0.41324797
77	0xbfae4ce3	-1.3617214
78	0x3dcb67cb	0.09931906
79	0xbf6e621e	-0.93118465
80	0x3fb9885e	1.4494741
81	0xbfa010b2	-1.2505095
82	0x3d537bef	0.051631864
83	0xbee986d8	-0.4561069
84	0xbf8cf296	-1.1011531
85	0xbeef0265	-0.46681514
86	0x3d206612	0.03915984
87	0xbf1ffbcf	-0.62493604
88	0xbf3b607c	-0.731941
89	0xbed5b766	-0.41741484
90	0xbf3c2fe2	-0.73510563
91	0x3e28c540	0.16481495

convs.0.bn1.running_mean f4 [92]
0	0x3ddff68a	0.109356955
1	0x3b991e95	0.004672835
2	0xbee99f70	-0.45629454
3	0x40144a9a	2.3170533
4	0xbf42c4c4	-0.7608149
5	0x3df12bdb	0.11775943
6	0x3f0feba6	0.56218946
7	0xbeb36f24	-0.3504573
8	0x3dd81874	0.10551539
9	0x3e030923	0.12796454
10	0x3f518fe7	0.818602
11	0x40076069	2.1152594
12	0x3fdf59e7	1.7449311
13	0xbf95bcee	-1.1698282
14	0xbeb467e7	-0.3523552
15	0xbfccc481	-1.5997468
16	0x3e81a554	0.25321448
17	0xbfe27271	-1.7691175
18	0xbf414704	-0.75498986
19	0xbe2f575d	-0.1712317
20	0xc00d26cf	-2.2054937
21	0xbf17bcbb	-0.59272355
22	0x3fa41393	1.2818474
23	0xc018c57b	-2.3870533
24	0xbf58453c	-0.84480643
25	0x3f710233	0.9414398
26	0xbe0f5657	-0.1399778
27	0xbee35460	-0.4440031
28	0x3ed1eee8	0.41002584
29	0x3fb94b50	1.4476109
30	0xbe4f852a	-0.20265642
31	0x3f7cd089	0.987557
32	0xbf785c6b	-0.9701602
33	0x3f52ced2	0.8234683
34	0x4069dda1	3.6541522
35	0xbd9e656c	-0.077341884
36	0x3ffe51ca	1.986871
37	0xbf5da88d	-0.86585313
38	0xbdb39e82	-0.08770467
39	0xbfcd865c	-1.6056628
40	0xbf688bd9	-0.9083839
41	0xbfc6eb15	-1.5540491
42	0x3f8096c3	1.0046009
43	0x3e602c63	0.21891932
44	0x4008dfef	2.1386678
45	0x3fb25129	1.3931018
46	0xbde21331	-0.11038817
47	0x3f7b4f87	0.98168224
48	0xbf466d13	-0.77510184
49	0x3f421fc3	0.75829715
50	0xbf99c7cc	-1.2014098
51	0x3eac184a	0.3361228
52	0x3f8ed9be	1.11602
53	0x3eff854e	0.4990639
54	0x3d0679f4	0.032831147
55	0xbd9ec964	-0.07753256
56	0xbe79b461	-0.24385215
57	0x3ff79e09	1.9345104
58	0x3f94efeb	1.1635717
59	0xbf03a0f8	-0.51417494
60	0x3e444cf3	0.19169979
61	0xc01cb870	-2.4487572
62	0x3f813884	1.0095372
63	0xbff9d0c4	-1.9516835
64	0xbf2b53a9	-0.6692453
65	0x3f1faa41	0.6236916
66	0xbf97bd50	-1.1854649
67	0xbf842d32	-1.0326293
68	0x3f452352	0.7700702
69	0xc029fb2a	-2.6559548
70	0x3f9f0ced	1.242582
71	0x3ed7ade6	0.4212486
72	0xbf14af54	-0.5808003
73	0xbe4db84e	-0.20089838
74	0xbf05ee9f	-0.5231723
75	0xbf289190	-0.6584711
76	0x3e6b330e	0.22968695
77	0x40000671	2.0003932
78	0xbf1543ba	-0.5830647
79	0x3fc073ee	1.5035379
80	0xbf406b0d	-0.75163347
81	0xbe7f28a8	-0.24917853
82	0x3fc4ef7c	1.5385585
83	0xbf65563a	-0.89584696
84	0x4032f9e4	2.796502
85	0xbf951200	-1.1646118
86	0xbf8fbf80	-1.1230316
87	0xc0161038	-2.34474
88	0x401c77b2	2.4448056
89	0xbea5705b	-0.32312283
90	0x3f84537a	1.0337975
91	0x3f630bae	0.88689697

convs.0.bn1.running_var f4 [92]
0	0x4197099e	18.879696
1	0x4112fe47	9.187079
2	0x41cb0282	25.376225
3	0x41236bdf	10.213836
4	0x3fc34df5	1.5258166
5	0x41127241	9.152894
6	0x41207d43	10.030581
7	0x40e5acab	7.1773276
8	0x40bd38d6	5.913188
9	0x414b7784	12.716679
10	0x4067b823	3.6206138
11	0x4114414c	9.265942
12	0x40e1d8bd	7.0577073
13	0x40e34119	7.1016965
14	0x411532c5	9.324895
15	0x41380e56	11.5035
16	0x41326692	11.150042
17	0x4175483b	15.330134
18	0x417aef9d	15.683499
19	0x410b0183	8.687869
20	0x415424ca	13.258982
21	0x4146f0d4	12.433796
22	0x418ccd89	17.600359
23	0x40e1aab8	7.0520897
24	0x417e7a5f	15.904876
25	0x40f7c3c8	7.742649
26	0x4070429b	3.7540653
27	0x41016e12	8.089373
28	0x40a91804	5.2841816
29	0x40843a9f	4.132156
30	0x4131f327	11.121863
31	0x420c207c	35.031723
32	0x40f8f18c	7.7794857
33	0x41c38843	24.441534
34	0x4172dfe9	15.179666
35	0x41a33f91	20.406038
36	0x410cde43	8.804263
37	0x413bdf71	11.742051
38	0x41e84d7c	29.037834
39	0x409bfc65	4.87456
40	0x415dce82	13.862917
41	0x4123a69a	10.228174
42	0x4125d72a	10.36503
43	0x40da2c49	6.817906
44	0x417f8134	15.969044
45	0x41642cc4	14.260929
46	0x418336d3	16.40177
47	0x40a30cb3	5.0953
48	0x41a472c7	20.556044
49	0x413d8604	11.845219
50	0x4090d807	4.5263705
51	0x408a4005	4.320315
52	0x4175640b	15.336925
53	0x40b53c34	5.663599
54	0x40a4eb7d	5.153746
55	0x4111df6d	9.117047
56	0x4094c867	4.649463
57	0x40e40484	7.125551
58	0x40fecf60	7.9628143
59	0x408d5c5b	4.417524
60	0x40c158fe	6.0421133
61	0x4136adef	11.417464
62	0x416a39f1	14.639146
63	0x414b71d5	12.715291
64	0x4159273f	13.572082
65	0x418478d4	16.558998
66	0x414e6453	12.899493
67	0x411a473d	9.642392
68	0x416323e2	14.19626
69	0x413b4cee	11.706282
70	0x40e79db1	7.2379994
71	0x4114ef9a	9.308496
72	0x406015ab	3.5013225
73	0x40c5b742	6.1786203
74	0x40f6a8ba	7.7080965
75	0x408d92c6	4.4241667
76	0x412dd21a	10.863794
77	0x41a70092	20.875278
78	0x40f4339d	7.6313004
79	0x4132330f	11.1374655
80	0x41af2ab6	21.895855
81	0x41613fbd	14.078061
82	0x410204b3	8.126147
83	0x41094e76	8.5816555
84	0x4171e113	15.11745
85	0x404e5339	3.2238295
86	0x416b8831	14.72075
87	0x418966cb	17.175192
88	0x4135724a	11.340403
89	0x4103cb7a	8.237177
90	0x413f22b2	11.945971
91	0x4154c2a6	13.297522

convs.0.bn2.weight f4 [46]
0	0x3e820154	0.25391638
1	0xbd1e8fdc	-0.038711414
2	0x3ebbc735	0.3667542
3	0x3f033cb2	0.5126449
4	0x3c10de02	0.008841993
5	0x3f3759ea	0.7162157
6	0x3f4288bb	0.75989884
7	0x3f1fe635	0.62460643
8	0x3f34c1de	0.7060832
9	0x3f769e6e	0.96335495
10	0x3d785e66	0.0606369
11	0x3ee584cf	0.44827887
12	0x3f4f2533	0.80916137
13	0x3f110307	0.56645244
14	0x3f76e91f	0.96449465
15	0x3f16c98e	0.589013
16	0x3e97e5c6	0.2966749
17	0x3ef0c744	0.47027028
18	0x3f3b52cb	0.7317321
19	0x3f638432	0.8887359
20	0x3f4a774d	0.7908829
21	0x3daa5e57	0.08318775
22	0x3f43444d	0.76276094
23	0x3f35da61	0.71036345
24	0x3eb401ac	0.35157526
25	0x3f257e5c	0.64645934
26	0x3f342b07	0.70378155
27	0x3f4ca073	0.79932326
28	0x3e6ee01f	0.23327683
29	0xbbaa8b24	-0.005204575
30	0x3e88ebd5	0.26742426
31	0x3ee5c31e	0.44875425
32	0x3c24e17c	0.010063525
33	0x3ef1d6ae	0.472341
34	0x3f36581c	0.71228194
35	0x3f21ff8d	0.63280565
36	0x3f1e9f44	0.6196177
37	0x3f606ac5	0.8766292
38	0x3ef20bfe	0.47274774
39	0x3e463421	0.19355823
40	0x3ed6cabd	0.41951552
41	0x3f9a2a97	1.2044247
42	0x3f86ceb0	1.0531826
43	0x3f777f2a	0.9667841
44	0x3f8b975d	1.0905567
45	0x3eab1f9d	0.33422557

convs.0.bn2.bias f4 [46]
0	0xbe838a42	-0.2569142
1	0xbe387d79	-0.18016614
2	0xbe788a4f	-0.2427151
3	0xbe8615e2	-0.2618857
4	0xbe99d577	-0.30045673
5	0xbe502892	-0.20327976
6	0xbe955527	-0.2916653
7	0xbee7cec2	-0.4527493
8	0xbebdf015	-0.3709723
9	0xbed88336	-0.42287606
10	0xbe3f6d96	-0.18694147
11	0xbea521e0	-0.32252407
12	0xbef86d9b	-0.48521122
13	0xbe966091	-0.2937055
14	0xbeeb32d0	-0.45937204
15	0xbe38cda6	-0.18047199
16	0xbee73bf2	-0.45162922
17	0xbee08f85	-0.43859497
18	0xbeab062b	-0.33403143
19	0xbef1ecdf	-0.4725103
20	0xbe9e4213	-0.30909786
21	0xbea44e51	-0.32091
22	0xbf0d0dbc	-0.5509908
23	0xbe9a2b45	-0.30111137
24	0xbee1fac0	-0.4413662
25	0xbe06ed16	-0.13176379
26	0x3dc7f1d2	0.097629204
27	0xbeaa9f59	-0.33324698
28	0xbee13999	-0.43989256
29	0xbecdb6b2	-0.40178448
30	0xbea04ffa	-0.31311017
31	0xbebea57a	-0.37235624
32	0xbe2bb03e	-0.1676645
33	0xbedb8e26	-0.42881888
34	0xbecd6bbe	-0.40121263
35	0xbf140c52	-0.578313
36	0xbf2592bf	-0.6467704
37	0xbf01a0ba	-0.50635874
38	0xbf0bdc21	-0.54632765
39	0xbf455e2b	-0.77096814
40	0xbe465dbe	-0.19371697
41	0xbebbabfe	-0.36654657
42	0xbe496781	-0.1966839
43	0xbe292457	-0.16517769
44	0xbee3ec82	-0.4451638
45	0xbea81298	-0.32826686

convs.0.bn2.running_mean f4 [46]
0	0x4056c933	3.3560302
1	0x409adc47	4.8393893
2	0x408166b6	4.043788
3	0x40989137	4.7677264
4	0x408f9881	4.487366
5	0x40037605	2.0540783
6	0x409d8b35	4.923243
7	0x40aa93c5	5.3305383
8	0x4019af7e	2.4013362
9	0x40378956	2.8677573
10	0x40828c2e	4.079612
11	0x409642bf	4.6956477
12	0x4039ee10	2.9051552
13	0x4096a4de	4.7076254
14	0x4061ea1b	3.5299137
15	0x411a657b	9.6497755
16	0x408db49a	4.428296
17	0x404022a7	3.002115
18	0x402d49bb	2.7076252
19	0x403ce808	2.951662
20	0x40985adb	4.7610908
21	0x40714a32	3.7701535
22	0x406bf0dd	3.6865761
23	0x40599b8e	3.4001193
24	0x40a4ebd2	5.1537867
25	0x4093c2e7	4.617542
26	0x40885e2d	4.261496
27	0x40a89d65	5.269213
28	0x409ee5c6	4.9655485
29	0x40d6f2ac	6.717123
30	0x40a7aa52	5.239541
31	0x400263b9	2.0373366
32	0x40a65e3e	5.199004
33	0x403dced7	2.9657495
34	0x4119ef10	9.620865
35	0x3f9fc2e1	1.2481347
36	0x40a81efd	5.2537827
37	0x40871eb7	4.2224994
38	0x40341467	2.8137453
39	0x405c6a74	3.4439974
40	0x40913297	4.5374255
41	0x402e2dce	2.7215457
42	0x404deb22	3.2174764
43	0x40b21f63	5.5663314
44	0x404c14f1	3.1887782
45	0x4074b2eb	3.8234203

convs.0.bn2.running_var f4 [46]
0	0x415494c9	13.2863245
1	0x3ea63eb2	0.32469708
2	0x40591cdb	3.3923862
3	0x414a2ca2	12.635897
4	0x4224fd34	41.24727
5	0x40820c99	4.064038
6	0x418c03f3	17.501928
7	0x4195ae5b	18.710135
8	0x40104ca1	2.254677
9	0x4139acef	11.60472
10	0x40f1e444	7.5591145
11	0x4119e087	9.617316
12	0x40d614fc	6.6900616
13	0x412c901f	10.785186
14	0x40454041	3.0820467
15	0x41b1591b	22.168509
16	0x3fff71f0	1.9956646
17	0x41aaa60b	21.331076
18	0x401ce764	2.451623
19	0x41602e9b	14.011378
20	0x3fc7f00e	1.5620134
21	0x4136d82e	11.427778
22	0x41685e3f	14.523009
23	0x4033ffd9	2.8124907
24	0x4142f3ac	12.18449
25	0x413c5aec	11.772198
26	0x41c24b9e	24.286922
27	0x4067535a	3.6144624
28	0x40ad4b50	5.4154434
29	0x42147fc5	37.124775
30	0x4212c2ad	36.690113
31	0x4147d943	12.490542
32	0x40f65427	7.6977725
33	0x41398f1e	11.597441
34	0x41c6f187	24.867933
35	0x40259746	2.587358
36	0x40b5c564	5.6803455
37	0x410441b1	8.266038
38	0x414ad808	12.677742
39	0x41a43dce	20.530178
40	0x3ed974ef	0.42472026
41	0x4083e1e3	4.121324
42	0x40304fc7	2.7548692
43	0x41d5b587	26.713636
44	0x40a64f7e	5.1972036
45	0x3fe11c0f	1.7586688

convs.1.fc_full.weight f4 [92, 98]
0	0x3ebb7768	0.36614537
1	0x3dc2e5ea	0.09516509
2	0xbd5567c7	-0.052100923
3	0x3e2c768b	0.16842096
4	0x3d249911	0.040185038
5	0xbf09f0a8	-0.5388284
6	0x3ded97ca	0.11601217
7	0xbde938da	-0.11387797
8	0x3df976ed	0.121808864
9	0xbf0f8e82	-0.56076825
10	0x3e2d58ea	0.1692845
11	0x3e141cd4	0.14464122
12	0x3dc82de2	0.097743765
13	0xbe8a1dd6	-0.26975888
14	0x3d179415	0.037006456
15	0xbe91da5c	-0.28486907
16	0x3cda9069	0.026680188
17	0xbe8df91e	-0.27729124
18	0xbe109be2	-0.14121965
19	0xbe26fadf	-0.16306637
20	0x3e0e0e15	0.1387256
21	0x3d54e558	0.05197653
22	0xbedba2a7	-0.4289753
23	0xbd719c5e	-0.058987014
24	0xbe47582c	-0.19467229
25	0xbe995aa4	-0.29951966
26	0x3db73475	0.08945552
27	0xbcf6d6a8	-0.030131653
28	0xbd829f4c	-0.0637804
29	0xbe90f454	-0.28311408
30	0x3d4bf930	0.04979819
31	0x3d66e928	0.0563747
32	0xbdfea7a9	-0.124343224
33	0xbda51762	-0.080611005
34	0xbe895164	-0.2681991
35	0xbd8de130	-0.06927717
36	0x3e04cb4d	0.12968178
37	0x3e5ceb7b	0.21574204
38	0xbdcc65b4	-0.09980336
39	0x3e837226	0.25673026
40	0xbe951c5e	-0.29123205
41	0x3ebe0d01	0.37119296
42	0xbd1d39a9	-0.038385067
43	0xbe8849c8	-0.2661879
44	0xbe716d66	-0.23576888
45	0x3e48016b	0.19531791
46	0x3e488349	0.19581331
47	0xbc61d90e	-0.01378466
48	0x3e5935cc	0.21211928
49	0xbde8f810	-0.11375439
50	0x3e02b964	0.12766033
51	0xbdc63910	-0.096788526
52	0x3e395b8d	0.1810133
53	0xbeb493d6	-0.3526904
54	0x3d7353c4	0.059406057
55	0xbe9dd8eb	-0.30829558
56	0xbe8cbcf5	-0.27487913
57	0x3e2488f5	0.1606787
58	0x3eb0fcab	0.3456777
59	0xbdf4c121	-0.11950899
60	0xbcfe044b	-0.031007906
61	0xbdce4d89	-0.100733824
62	0x3e01f350	0.12690473
63	0x3e797aea	0.24363294
64	0x3e14c9f9	0.14530171
65	0x3d6db0ec	0.058030054
66	0xbe826f85	-0.25475708
67	0xbdbfa49f	-0.09357571
68	0xbe6b0100	-0.229496
69	0x3e5cc9e3	0.21561389
70	0xbe483815	-0.19552644
71	0xbea151be	-0.31507677
72	0xbe6c85c9	-0.2309791
73	0x3e651d8b	0.22374551
74	0x3e8379d9	0.256789
75	0x3e502d65	0.20329817
76	0x3da25372	0.07926072
77	0x3edcc77a	0.4312094
78	0xbec226e2	-0.3792029
79	0xbdacae35	-0.08431665
80	0x3c60f741	0.013730825
81	0x3cf4c42e	0.029878702
82	0x3d0ef304	0.034899727
83	0x3e2f3c1b	0.17112772
84	0x3d970623	0.07374217
85	0x3e38d63c	0.18050474
86	0xbe5da730	-0.21645808
87	0x3db75d42	0.089533344
88	0x3e3ea09d	0.18615957
89	0x3e2d4a47	0.16922866
90	0xbe0dccd2	-0.13847664
91	0xbe7ea558	-0.24867761
92	0xbe7b52c6	-0.24543294
93	0xbe876b5d	-0.264491
94	0x3cc908e8	0.02454038
95	0x3e7c59d9	0.24643649
96	0x3e9b07fc	0.3027953
97	0x3d11940c	0.03554158
98	0x3e4a1441	0.19734289
99	0xbe07e272	-0.13269976
100	0xb9dc1cde	-0.00041983178
101	0x3d94e92d	0.07271037
102	0xbe4e127a	-0.20124236
103	0xbeee7eb5	-0.46581045
104	0x3d1b3d77	0.037900414
105	0xbda4fab3	-0.080556296
106	0x3e9dd657	0.3082759
107	0x3ec9c3ce	0.394072
108	0x3e379d29	0.17931046
109	0xbe5f2655	-0.21791966
110	0xbdd50d3e	-0.10402916
111	0xbe94b560	-0.29044628
112	0x3d600a03	0.054697048
113	0xbea33e57	-0.318835
114	0x3ce3bf7c	0.027801268
115	0x3f2f14c4	0.6839106
116	0xbe90ee44	-0.28306782
117	0xbdd4d1c1	-0.1039157
118	0x3d3ebea2	0.04656852
119	0xbe72f819	-0.23727454
120	0x3c1d066c	0.009584051
121	0x3e78165b	0.24227278
122	0x3f3a9d58	0.7289634
123	0xbcab25f9	-0.02089213
124	0x3e12d144	0.14337641
125	0xbd4cf4b0	-0.05003804
126	0x3caa8612	0.020815883
127	0x3e5d26e1	0.21596862
128	0x3d61f810	0.05516821
129	0xbea58ae3	-0.32332525
130	0xbc0eb226	-0.008709466
131	0xbf13d6da	-0.5774971
132	0xbf32372c	-0.69615436
133	0x3dcda832	0.10041846
134	0xbd7b5e1a	-0.06136904
135	0xbc8cdca8	-0.01719506
136	0xbcd63911	-0.026150258
137	0x3e3a954c	0.18221015
138	0xbe6e81c0	-0.23291683
139	0x3e9d868f	0.30766723
140	0x3d3eeebb	0.04661439
141	0x3be96fff	0.0071239467
142	0xbeb16e61	-0.34654525
143	0xbe1d47e4	-0.15359455
144	0x3e4c2ce1	0.19938995
145	0xbf179cee	-0.5922383
146	0xbe756d35	-0.2396744
147	0xbed5a962	-0.4173079
148	0xbe0503db	-0.12989752
149	0xbe833c20	-0.2563181
150	0x3c66eefe	0.014095066
151	0xbd32b8a6	-0.043633126
152	0x3e729183	0.23688321
153	0x3d8773a4	0.066138536
154	0xbeb9eb52	-0.36312348
155	0xbe641711	-0.22274424
156	0xbef28109	-0.4736407
157	0xbe41430d	-0.18873234
158	0x3ea4f93c	0.322214
159	0xbe332665	-0.17495115
160	0x3e1327de	0.14370677
161	0x3f735be7	0.95062107
162	0xbeb43eb1	-0.3520408
163	0xbeb4a85e	-0.35284704
164	0x3cacafa7	0.021079851
165	0xbe668037	-0.22509848
166	0xbd3e70a5	-0.046494145
167	0xbea84ece	-0.32872623
168	0x3d4ae9fd	0.049539555
169	0xbcaef235	-0.021355728
170	0x3d587b07	0.052851703
171	0x3d6796a5	0.05654015
172	0x3df2db3d	0.11858223
173	0xbe0f6948	-0.14005005
174	0x3e0f0d0e	0.13969824
175	0x3f11fa56	0.5702261
176	0x3e038080	0.12841988
177	0xbe71d1ce	-0.2361519
178	0xbe0b76d2	-0.13619545
179	0x3e7cdd26	0.24693736
180	0xbd4a93b1	-0.049457256
181	0xbe9bb1d3	-0.30409107
182	0x3e59e24c	0.21277732
183	0x3e3a76d3	0.1820939
184	0x3d77fb89	0.060542617
185	0x3e75ad5d	0.23991914
186	0xbdf0411e	-0.1173117
187	0xba6e9345	-0.00091009244
188	0xbea05389	-0.31313732
189	0xbf3bc9c2	-0.73354733
190	0xbac09ffa	-0.0014696114
191	0xbea2c5aa	-0.3179143
192	0xbe3c30a5	-0.18377931
193	0x3e12544d	0.1428997
194	0xbca854e3	-0.02054829
195	0x3e9e5017	0.3092048
196	0xbe95d2cf	-0.29262397
197	0x3ecc9587	0.3995783
198	0x3df9d631	0.12199057
199	0x3d952e40	0.07284212
200	0x3dca9763	0.09892156
201	0x3efbafee	0.4915766
202	0x3e058531	0.1303909
203	0x3d02a5e3	0.031896483
204	0xbdb8fef7	-0.09033006
205	0xbecd0858	-0.40045428
206	0xbcc56929	-0.024097996
207	0x3dcd1f25	0.10015706
208	0xbe355104	-0.17706686
209	0xbd2b4571	-0.04181427
210	0xbdb8e988	-0.090289176
211	0x3edaefe6	0.42761153
212	0xbcdb9f6a	-0.026809413
213	0xbe57f062	-0.21087793
214	0x3d686261	0.056734446
215	0x3d32970e	0.04360109
216	0x3e4d6289	0.2005712
217	0x3dd4fdd9	0.1039998
218	0xbd1e62ef	-0.03866857
219	0x3ea258b0	0.31708288
220	0xbe855843	-0.260439
221	0xbdbf3c9c	-0.09337732
222	0x3cb77151	0.0223929
223	0x3ee11558	0.43961596
224	0x3e1e7ae1	0.15476562
225	0x3e73f379	0.23823346
226	0x3e590ede	0.21197078
227	0xbed214ed	-0.4103159
228	0xbeb66150	-0.3562112
229	0x3d37fb4b	0.044917386
230	0x3e89e214	0.26930296
231	0xbf08ea48	-0.53482485
232	0x3e04ecb4	0.1298092
233	0x3e87427e	0.26417917
234	0x3da4d354	0.0804812
235	0x3e89bf0b	0.26903567
236	0xbecc7828	-0.39935422
237	0x3d6a9db5	0.057279307
238	0x3db9377a	0.090437844
239	0x3edcc247	0.43116972
240	0x3dc5555e	0.09635423
241	0xbe186552	-0.148824
242	0x3daf4b1d	0.085592486
243	0xbdcbc377	-0.09949391
244	0xbd9da0d0	-0.07696688
245	0xbc5cd43b	-0.013478334
246	0x3e421016	0.18951449
247	0x3cef4add	0.029210502
248	0x3e13ad46	0.14421567
249	0xbd922156	-0.071352646
250	0x3cbf03d3	0.023317253
251	0xbecfd031	-0.40588525
252	0xbe786a88	-0.24259388
253	0xbd2e5c6d	-0.042568613
254	0x3de671fc	0.112522095
255	0xbc23cdcd	-0.009997797

convs.1.fc_full.bias f4 [92]
0	0x3dd996d0	0.10624468
1	0xbccd1f80	-0.025039434
2	0xbd421ebc	-0.04739259
3	0xbd12087d	-0.035652626
4	0x3d6aa1a0	0.057283044
5	0x3dbbcadd	0.091695525
6	0xbd6f548a	-0.058430232
7	0xbdd40ce4	-0.10354021
8	0x3d9ef7f0	0.07762134
9	0x3d299abc	0.04140733
10	0x3d92dc67	0.07170945
11	0xbe02962c	-0.12752599
12	0x3d3346b5	0.043768603
13	0x3cf844aa	0.03030618
14	0xbd8a99ac	-0.06767592
15	0xbd7ff8c0	-0.062493086
16	0x3d27a279	0.04092643
17	0xbd633361	-0.05546892
18	0x3d9ccb4f	0.076559655
19	0xbd0af150	-0.03392154
20	0xbd177276	-0.036974393
21	0xbdae2ec4	-0.085050136
22	0xbd932e06	-0.07186513
23	0x3c15fec3	0.009154978
24	0x3b160e03	0.0022896535
25	0x3d63559d	0.05550157
26	0x3d2bf57c	0.04198216
27	0x3d5fb1b3	0.054612827
28	0xbc2936c2	-0.010327997
29	0x3de35a10	0.111011624
30	0xbc213e1a	-0.009841466
31	0x3e141815	0.14462312
32	0x3d7751d6	0.06038078
33	0x3d6b5aef	0.057459768
34	0x3d311e10	0.04324156
35	0xbc977f39	-0.018493282
36	0xbcef17f3	-0.029186225
37	0x3dbbe30b	0.091741644
38	0x3d791b06	0.060816787
39	0xbdf02997	-0.11726683
40	0x3c6bc418	0.014390014
41	0xbd76c729	-0.060248528
42	0xbcfaea88	-0.030629411
43	0x3efd26e0	0.49443722
44	0x3dc42af6	0.09578507
45	0x3cf4c1d2	0.029877577
46	0x3dc4e24a	0.09613474
47	0x3d8f3bd8	0.06993836
48	0x3da72db8	0.08163017
49	0x3b8c4fe6	0.0042819856
50	0xbd87a7cf	-0.06623804
51	0xbcb59858	-0.02216737
52	0xbd8169f8	-0.0631904
53	0x3bd63002	0.0065364847
54	0xbc6ef02b	-0.014583628
55	0x3d9d436b	0.076788746
56	0x3c7cf5e0	0.015439481
57	0xbe10690a	-0.14102569
58	0x3c8818c2	0.016613368
59	0xbd533cb0	-0.051571548
60	0xbd8ce385	-0.068793334
61	0x3d532d77	0.05155703
62	0x3d251484	0.04030277
63	0x3d1301ae	0.035890274
64	0x3d0b23d5	0.03396972
65	0xbdb36740	-0.08759928
66	0x3cc3871c	0.023868136
67	0x3da04981	0.0782652
68	0xbd358025	-0.04431166
69	0xbd0b3d15	-0.0339938
70	0xbdc672c9	-0.09689862
71	0x3e0dd542	0.13850883
72	0x3d51dd13	0.051236223
73	0x3b182a6d	0.0023218647
74	0xbc37fa9f	-0.011229186
75	0xbd66d658	-0.056356758
76	0x3e27894d	0.1636097
77	0x3cdc1a76	0.026868086
78	0x3d9255a6	0.071452424
79	0xbc443b1a	-0.011976982
80	0x3dc65a4e	0.09685193
81	0xbd00575c	-0.031333312
82	0xbda79f5f	-0.081846945
83	0xbdd403be	-0.10352276
84	0x3d70bb32	0.058772273
85	0xbda1a80e	-0.07893382
86	0xbc107463	-0.008816811
87	0xbce9d602	-0.02854443
88	0xbd133781	-0.035941605
89	0xbd7c0c12	-0.06153495
90	0xbdc95757	-0.09831112
91	0xbe34a23f	-0.17640017

convs.1.bn1.weight f4 [92]
0	0x3f87741a	1.0582306
1	0x3fa4b7fd	1.2868649
2	0x3ebb6d42	0.36606795
3	0x3f68e377	0.90972084
4	0xbcc9c634	-0.024630643
5	0x3f191c46	0.59808767
6	0x3f923ae2	1.142422
7	0x3f349302	0.70536816
8	0x3ed414c6	0.414221
9	0x3ec7b843	0.39007768
10	0x4011dfb5	2.279279
11	0x3f42f3ee	0.7615346
12	0x3fdb6b14	1.7142053
13	0x3f01136c	0.5042026
14	0x3bf0d688	0.007349793
15	0x3f8f28dc	1.1184344
16	0x3f2cafc4	0.674557
17	0x3e741896	0.23837504
18	0x3f83f616	1.0309474
19	0x40015861	2.0210192
20	0x4038eeb1	2.8895686
21	0x3fbe34a4	1.4859815
22	0x3fa73975	1.306441
23	0x3f05645d	0.5210627
24	0x3ea568d1	0.3230653
25	0x3f8ebf1a	1.115207
26	0x3f9fe29f	1.2491034
27	0x3f2c67c3	0.6734583
28	0x3f21b604	0.6316836
29	0x3ed51ebb	0.41625008
30	0x4002b95b	2.0425632
31	0x3f9d62da	1.2295792
32	0x3e4e51f0	0.20148444
33	0x3f2f29d7	0.6842322
34	0x3e857a30	0.26069784
35	0x3ee6fe12	0.45115715
36	0x3fa40f4c	1.2817168
37	0x3fda4e53	1.7055153
38	0x3f5fd3a1	0.87432295
39	0x3f8bcf6c	1.0922675
40	0x3fdf5d0a	1.7450268
41	0x3ebf8f3c	0.37413967
42	0x3ebe5dd7	0.3718097
43	0x3f84d553	1.0377601
44	0x3f7f7559	0.99788433
45	0x3e9f2a01	0.31086734
46	0x3f87f005	1.0620123
47	0x3fb07550	1.3785801
48	0x3e03aa84	0.12858015
49	0xbe655b39	-0.2239808
50	0x3e4a15a7	0.19734822
51	0x3f7ae6d4	0.98008466
52	0x3fbeabb3	1.4896148
53	0x3f8cfb81	1.1014253
54	0x3f00bc5f	0.5028743
55	0x3f75c2d5	0.96000415
56	0x3f8e775b	1.1130174
57	0x3f62045a	0.8828789
58	0x3fa13b3d	1.2596203
59	0x3ee9d9c9	0.4567397
60	0x3dc086d7	0.09400719
61	0x3ff8d1ac	1.9438987
62	0x3fb296ae	1.3952234
63	0x3f427836	0.7596468
64	0x3f994837	1.1975163
65	0x3fc011d0	1.5005436
66	0x3f84dba6	1.0379531
67	0x3d1dabab	0.038493793
68	0x3f8cf0cf	1.1010989
69	0x3f3af48b	0.7302939
70	0x3ef35265	0.475238
71	0x3f8d447d	1.1036526
72	0x3ebc1253	0.3673273
73	0x3fbca2d6	1.4737194
74	0x3f66994a	0.9007765
75	0xbc1c4de1	-0.009540052
76	0x3f9986ef	1.1994303
77	0x3fcdcd10	1.6078205
78	0x3f36c71e	0.7139758
79	0x3f288cb6	0.6583971
80	0x3f0ea08d	0.5571373
81	0x3ea4f728	0.32219815
82	0x3fb5967c	1.4186549
83	0x3c7d8788	0.015474208
84	0x3fa72c8d	1.3060471
85	0x3f7801e6	0.96877897
86	0x3f9f1ff4	1.2431626
87	0x3f1f53c0	0.6223717
88	0x3fb15885	1.3855139
89	0x3fd7b4fd	1.6852108
90	0x3fb3bec2	1.404259
91	0x3f8195a7	1.0123795

convs.1.bn1.bias f4 [92]
0	0xbeb3948e	-0.35074276
1	0xbf49dd3f	-0.7885322
2	0xbe91c9d3	-0.28474292
3	0xbed594bd	-0.4171504
4	0x3fb2d0bd	1.3969952
5	0x3b9b4c34	0.0047393087
6	0xbf0f5fb1	-0.5600539
7	0xbf0e0137	-0.55470604
8	0x3e54e749	0.20791353
9	0xbf8ea6f0	-1.1144695
10	0xbf3e02dc	-0.74223113
11	0xbead34b5	-0.33829275
12	0xbfa26694	-1.2687554
13	0x3db2b7f9	0.08726496
14	0x3e5dc613	0.2165759
15	0xbf5079f8	-0.8143611
16	0xbf8aa2b6	-1.0830905
17	0xbd809dfb	-0.062801324
18	0xbf83ec30	-1.0306454
19	0xbf1a0bfc	-0.60174537
20	0xbf0a7def	-0.5409841
21	0x3eb3d448	0.35122895
22	0xbfb12004	-1.3837895
23	0xbe11bdee	-0.14232609
24	0xbe95be43	-0.2924672
25	0xbe47a732	-0.19497374
26	0xbf5c3561	-0.8601895
27	0xbf8b7796	-1.089587
28	0xbe870200	-0.26368713
29	0xbf93faf3	-1.1560959
30	0xbf1aac2e	-0.60418975
31	0xc058b242	-3.38588
32	0x3e18c791	0.14919879
33	0xbe20fe85	-0.15722091
34	0x3e54ca46	0.20780286
35	0xbd02d161	-0.03193796
36	0xbf3388fe	-0.7013091
37	0xbe12802e	-0.14306709
38	0xbf81a5cb	-1.0128721
39	0xbf124d4c	-0.57149196
40	0xbeb1821b	-0.34669575
41	0x3e543511	0.20723368
42	0x3b1c4457	0.0023844445
43	0xbeb36793	-0.35039958
44	0xbfb27478	-1.3941793
45	0xbe411a41	-0.18857671
46	0xbed55fb5	-0.4167458
47	0xbf8e9cf7	-1.1141652
48	0x3f3599e1	0.70937926
49	0xbd1d5d37	-0.038418975
50	0x3eadcd0d	0.33945504
51	0x3e760782	0.24026302
52	0xbf7d59b6	-0.98965013
53	0xbf627a6a	-0.8846804
54	0x3e1ad047	0.15118514
55	0xbfb0ac96	-1.3802669
56	0xbf5ebeda	-0.87009966
57	0xbf46f9a5	-0.7772468
58	0xbf5647e5	-0.8370345
59	0xbde5e9f1	-0.112262614
60	0x3dcd4a73	0.10023966
61	0xbf4f080a	-0.8087164
62	0xbf9ea552	-1.2394202
63	0xbea37bb3	-0.31930313
64	0xbf667f4f	-0.9003801
65	0xbf500b75	-0.8126748
66	0xbf1a98a3	-0.60389155
67	0x3f06b8c5	0.52625686
68	0xbfd1b9dd	-1.6384846
69	0xbe321fad	-0.17394896
70	0xbe8503e6	-0.25979537
71	0xbf03aef1	-0.51438814
72	0xbe5b8fa5	-0.21441515
73	0xbf85c053	-1.0449318
74	0xbef3e0ee	-0.47632545
75	0x3f22fc5f	0.6366634
76	0xbf5d563c	-0.8645971
77	0xc03eb4ac	-2.9797773
78	0xbef92319	-0.4865959
79	0xbdb3d44a	-0.08780725
80	0x3e9ab784	0.30218136
81	0xbe0975b6	-0.1342381
82	0xbf8e0d8a	-1.1097882
83	0x3f31d429	0.69464356
84	0xbf840c1d	-1.0316197
85	0xbf10ca9a	-0.56559145
86	0xbecb484b	-0.39703593
87	0x3da72be5	0.08162669
88	0xbe4544fc	-0.19264597
89	0xbf548d0b	-0.83027714
90	0xbf85136f	-1.0396556
91	0xbed09223	-0.40736493

convs.1.bn1.running_mean f4 [92]
0	0xbf86c088	-1.0527506
1	0xbfb145e8	-1.3849459
2	0x3ed1c083	0.40967187
3	0x3f02e8ad	0.51136285
4	0xbe88a7b7	-0.26690456
5	0xbddd958e	-0.10819541
6	0x3f870df6	1.0551136
7	0xbed575ea	-0.41691524
8	0xbf296904	-0.66175866
9	0xbf24925a	-0.64285815
10	0xbe94c12d	-0.2905363
11	0xbfd43dcc	-1.6581359
12	0xc024ff16	-2.5780692
13	0xbf1b4867	-0.6065735
14	0xbfbbffda	-1.4687455
15	0x3dee0056	0.11621158
16	0x3fd9748a	1.698869
17	0xbf60680e	-0.87658775
18	0xbd8bca16	-0.06825654
19	0x407806dd	3.875419
20	0xbf839d19	-1.0282317
21	0x3f245831	0.6419707
22	0x3f4abd82	0.79195416
23	0xbf1431a7	-0.57888263
24	0x3e0eb82b	0.13937442
25	0xc008dab0	-2.1383476
26	0x3fa510b9	1.2895728
27	0xbdfab685	-0.12241844
28	0x3eccc1d4	0.3999163
29	0xbfdd524b	-1.7290739
30	0x3c3d636a	0.011559347
31	0xc03a29a9	-2.9087927
32	0xbf55446d	-0.83307534
33	0x3c931a58	0.017956898
34	0xc05c75d3	-3.4446914
35	0xbef6f168	-0.48231053
36	0xc00f24ae	-2.2366138
37	0xbed70bc1	-0.42001155
38	0xbfb8886f	-1.4416636
39	0xbff741ca	-1.9316952
40	0xc05deb31	-3.46748
41	0xbebc2952	-0.36750275
42	0xbddcac63	-0.10775068
43	0xc00f7636	-2.24159
44	0x3f8cf2ba	1.1011574
45	0x3efe6e8c	0.49693716
46	0xbfb871ea	-1.4409764
47	0x3f68c249	0.90921456
48	0x3e1a4d3b	0.15068524
49	0xbf35b9b0	-0.7098646
50	0x3d828456	0.06372897
51	0xc00b8d40	-2.1804962
52	0x4024b676	2.5736365
53	0x3e2285b1	0.15871312
54	0xbecbc529	-0.3979886
55	0xbf57e4c8	-0.8433347
56	0xbf0ef434	-0.55841374
57	0xbf389869	-0.7210756
58	0xc018b64a	-2.386126
59	0xbd194efa	-0.037428834
60	0xc01187f3	-2.2739227
61	0xbd3a043d	-0.0454142
62	0x3fd56902	1.6672671
63	0xbf2c954f	-0.67415327
64	0xbf97a865	-1.1848265
65	0xbd5cc7d4	-0.05390151
66	0x3f3b057b	0.7305524
67	0xbebd9bca	-0.3703292
68	0x3e8d09d2	0.27546555
69	0x3e854418	0.26028514
70	0xbcc1125d	-0.023568327
71	0xbf6a4ebe	-0.915264
72	0x3fb04220	1.377018
73	0xbfcb8418	-1.5899687
74	0x3cdbdb27	0.026837898
75	0x3f0e0890	0.55481815
76	0xbfac3a73	-1.3455337
77	0xbfe7f6bf	-1.8122176
78	0xbf198f14	-0.59983945
79	0xbcc2b4ad	-0.023767794
80	0xc08a0de5	-4.314196
81	0xbeb32d5f	-0.34995553
82	0x3f843b8b	1.0330671
83	0xc07c87be	-3.945785
84	0x3eba8c1f	0.3643503
85	0xbebea86a	-0.37237865
86	0xc046591d	-3.099189
87	0xbf08b67f	-0.53403467
88	0x3f1a8e1b	0.60373086
89	0xbfbadb43	-1.4598163
90	0xbf38fc31	-0.72259814
91	0x3f2d96b8	0.67808104

convs.1.bn1.running_var f4 [92]
0	0x400eea74	2.23306
1	0x4007057e	2.1097102
2	0x3ff362fd	1.9014584
3	0x40092351	2.1427805
4	0x3fc0bb1c	1.5057101
5	0x3fb6e820	1.4289589
6	0x3fcd93e2	1.6060755
7	0x3fa98372	1.3243239
8	0x4011cc24	2.2780848
9	0x403d1150	2.9541817
10	0x405366ce	3.3031497
11	0x3faf7535	1.3707644
12	0x4091f61b	4.561292
13	0x3fe755b9	1.8073035
14	0x3f3b0486	0.7305378
15	0x3fd3414c	1.6504302
16	0x40776a75	3.8658726
17	0x401e79c1	2.4761813
18	0x4047e14c	3.123126
19	0x402a2d04	2.6589975
20	0x401b1d24	2.4236536
21	0x3fce5485	1.6119543
22	0x40649e96	3.5721793
23	0x40223b11	2.5348551
24	0x401694ce	2.3528323
25	0x3fd43190	1.6577625
26	0x400f459b	2.2386234
27	0x3f99bfd6	1.2011669
28	0x3fbba3d5	1.4659373
29	0x3f93ce77	1.1547383
30	0x407305f3	3.797238
31	0x4099f227	4.8108096
32	0x402ba4fa	2.6819444
33	0x3f5c8878	0.86145735
34	0x40667d3d	3.601394
35	0x3f99cbae	1.2015283
36	0x4027537a	2.61447
37	0x401254ed	2.2864335
38	0x400f95e9	2.2435248
39	0x3fbba8fe	1.4660947
40	0x3fd5d3cd	1.6705261
41	0x401c6823	2.443856
42	0x401c43e2	2.4416432
43	0x3f60038a	0.875054
44	0x402c16f9	2.6889021
45	0x3f85c07d	1.0449368
46	0x4007ed4f	2.1238592
47	0x3fdefb9d	1.7420536
48	0x408ce51a	4.4029665
49	0x400473ca	2.0695672
50	0x3f8d0f35	1.1020266
51	0x401f494b	2.4888484
52	0x3f8f3a45	1.1189657
53	0x3f7bdca9	0.98383576
54	0x4001273d	2.01802
55	0x3ff383c3	1.9024585
56	0x4019e238	2.4044323
57	0x3fd536d4	1.6657357
58	0x40421849	3.0327322
59	0x3f9f0887	1.2424477
60	0x3f760683	0.96103686
61	0x3ff20a16	1.8909328
62	0x401a1093	2.4072616
63	0x4011fc19	2.2810118
64	0x408b83a9	4.359822
65	0x402ccab3	2.6998718
66	0x3ff0526f	1.8775157
67	0x3ffa4813	1.9553245
68	0x4058c94b	3.387286
69	0x3fe87dda	1.8163407
70	0x401284a1	2.289345
71	0x3f934043	1.1503986
72	0x40090bb9	2.1413405
73	0x3fc5cb2c	1.5452628
74	0x3fd8f461	1.6949579
75	0x3eb38dff	0.35069272
76	0x3fedf1c9	1.8589412
77	0x40641e36	3.564344
78	0x404be494	3.1858263
79	0x3f537a0e	0.82608116
80	0x4025a543	2.5882118
81	0x3fb2af4d	1.3959748
82	0x3fea60d3	1.8310798
83	0x401e5d5e	2.4744487
84	0x40342061	2.8144763
85	0x3fb2af7e	1.3959806
86	0x3f99fa3e	1.2029493
87	0x403b764e	2.9290957
88	0x4012b1a7	2.292093
89	0x3f90bd08	1.1307688
90	0x4028f46e	2.6399188
91	0x3f6a7d63	0.91597575

convs.1.bn2.weight f4 [46]
0	0x3ebcc66a	0.36870128
1	0x3e9cacdc	0.3060063
2	0x3f0b0b0a	0.5431372
3	0x3df71bc5	0.120658435
4	0x3ee70cab	0.45126852
5	0x3e35c0b8	0.17749298
6	0x3f01ca1d	0.50699025
7	0x3ef1893a	0.47175008
8	0x3efa7d71	0.4892383
9	0x3f49cefa	0.78831446
10	0x3f23ecf1	0.6403342
11	0x3f023ec7	0.5087704
12	0x3f3b513c	0.7317083
13	0x3dc90eab	0.09817251
14	0x38e59cbb	0.00010948764
15	0x3f9c7663	1.2223629
16	0x3f2371f7	0.6384577
17	0x3df47164	0.1193569
18	0x3f4c21c5	0.7973903
19	0x3ee88ebd	0.454214
20	0x3ea4150d	0.3204731
21	0x3f25b2de	0.64726055
22	0x3f1ea884	0.61975884
23	0x3edd8cf9	0.43271616
24	0xbbf06a86	-0.0073369173
25	0x3f8480d8	1.035182
26	0xbe1985da	-0.14992467
27	0x3fa74516	1.3067958
28	0x3e864df1	0.2623134
29	0x3f341f0c	0.70359874
30	0x3f566e36	0.8376192
31	0x3f6eba12	0.9325267
32	0x3ed17069	0.40906075
33	0x3bba7465	0.005690145
34	0x3da1fa55	0.07909075
35	0x3e430293	0.1904395
36	0x3ef27b43	0.47359666
37	0x3f766665	0.9624999
38	0x3f0c4119	0.5478683
39	0x3ee8a9ab	0.45441946
40	0x3f02d361	0.5110379
41	0x3f7661b3	0.9624283
42	0x3f0b98f7	0.5453028
43	0x3f8059ea	1.002744
44	0x3f6fa417	0.93609756
45	0x3f3ff952	0.7498981
