CGCNN_delta/err_best_params.pt (torch_old, 446091 bytes, 91 tensors)

embedding.weight f4 [46, 98]
0	0xbcadc518	-0.021212146
1	0xbdcdfcac	-0.10057959
2	0xbd990903	-0.07472422
3	0x3d0cc618	0.034368604
4	0xbd81a302	-0.063299194
5	0x3d96dede	0.07366727
6	0xbdd09263	-0.10184171
7	0x3d6f5b98	0.05843696
8	0x3db40eae	0.087918624
9	0xbc16166f	-0.009160622
10	0x3ddbe578	0.10737127
11	0xbd397383	-0.045276176
12	0x3d18c1d7	0.037294235
13	0xbd3eabd0	-0.046550572
14	0xbe103f25	-0.14086588
15	0x3cdc129c	0.026864342
16	0x3bae5c0c	0.0053210314
17	0x3dc2f2c6	0.095189616
18	0x3d2e18a8	0.042503983
19	0xbd46e349	-0.0485566
20	0xbd57b2d1	-0.052660767
21	0xbd08db82	-0.033412464
22	0xbe111596	-0.1416839
23	0xbdb9f211	-0.09079374
24	0x3e94f36c	0.29091966
25	0xbcb338b4	-0.021877624
26	0x3c01b867	0.0079175
27	0xbe478133	-0.1948288
28	0x3d69851f	0.05701172
29	0x3e028039	0.12744226
30	0xbe5b2a43	-0.2140284
31	0x3d88e69b	0.066846095
32	0xbc3ec280	-0.011643052
33	0xbcc59630	-0.024119467
34	0x3b8d5a70	0.0043137595
35	0xbc06ccb8	-0.00822752
36	0x3cfcb22a	0.030846674
37	0x3ac8777c	0.0015294398
38	0x3da09d3a	0.078424886
39	0xbdea4443	-0.11438801
40	0x3cef9d86	0.029249918
41	0x3e1b0b75	0.1514109
42	0xbe629047	-0.2212535
43	0x3edc07f4	0.42974818
44	0xbd328d26	-0.04359164
45	0xbd48d835	-0.049034316
46	0xbd0f89f1	-0.03504366
47	0xbe00eefd	-0.12591167
48	0x3dd400bd	0.10351703
49	0xbd345858	-0.044029564
50	0x3ccd7bcd	0.025083447
51	0xbdfc6cd1	-0.123254426
52	0x3db269f3	0.087116145
53	0x3b826a6e	0.0039799726
54	0x3b190048	0.0023346115
55	0xbe6f8b8b	-0.23393075
56	0x3c3acba4	0.011401091
57	0x3e1f7144	0.15570551
58	0xbd584771	-0.052802507
59	0xbd5275a5	-0.051381726
60	0x3cd45627	0.025919987
61	0xbd84cf5c	-0.06484863
62	0xbd712fa2	-0.058883317
63	0x3ea25577	0.3170583
64	0xbd39afe8	-0.045333773
65	0xbdc784dc	-0.09742138
66	0xbceebb04	-0.02914191
67	0xbccfb9dc	-0.02535718
68	0xbca37168	-0.019951537
69	0xbcd3bb94	-0.02584628
70	0xbd4c256e	-0.049840383
71	0x3d0adf28	0.033904225
72	0x3d947bd8	0.07250184
73	0x3d5279a4	0.051385537
74	0xbe17bba4	-0.14817673
75	0xbd4ecf3b	-0.0504906
76	0xbd67b06c	-0.056564733
77	0xbdb08992	-0.086199895
78	0xbe31cd13	-0.17363386
79	0x3c7fd9b3	0.015615868
80	0x3d860a76	0.06544964
81	0xbcdd4654	-0.027011074
82	0x3e0a76b3	0.13521843
83	0xbc853609	-0.016261118
84	0xbd026b54	-0.031840637
85	0xbe25a56d	-0.16176386
86	0x3dc81cf4	0.09771147
87	0x3df9316f	0.12167632
88	0xbe156fa3	-0.14593367
89	0x3f08681f	0.53283876
90	0x3e02233b	0.12708752
91	0xbe205112	-0.15655926
92	0x3ead7b1d	0.3388299
93	0xbe800c0d	-0.25009194
94	0xbeaccdd1	-0.33750775
95	0xbdf91a37	-0.12163203
96	0x3e34067b	0.17580597
97	0xbe477025	-0.19476373
98	0x3c49fe78	0.0123287365
99	0x3d5df01d	0.054184068
100	0x3dda6ec8	0.10665661
101	0x3ec61a3d	0.38691893
102	0x3c72b224	0.01481298
103	0x3e56125d	0.20905443
104	0x3d441623	0.047872674
105	0xbe030e9a	-0.12798539
106	0x3e37fa9b	0.17966692
107	0x3bd74ef1	0.00657069
108	0x3cb48bad	0.022039259
109	0x3e2ac240	0.16675663
110	0xbda832f3	-0.08212843
111	0xbc837c0b	-0.01605036
112	0xbd801b62	-0.06255223
113	0xbc99638e	-0.01872423
114	0x3cdfff1f	0.02734333
115	0x3dae7adc	0.08519527
116	0xbcb8de88	-0.022567049
117	0xbda67e65	-0.081295766
118	0x3d8ea4ae	0.06965004
119	0x3d9e0e9b	0.077176295
120	0xbc286726	-0.010278499
121	0xbd68f04e	-0.056869797
122	0xbdf54843	-0.119766735
123	0x3d55c5b4	0.052190498
124	0xbc0f2eb9	-0.008739167
125	0x3d104171	0.03521866
126	0x3d18430a	0.03717331
127	0xbc84a325	-0.016191075
128	0xbc9d3a34	-0.019192792
129	0xbdb2a907	-0.08723646
130	0x3dc93078	0.09823698
131	0x3ea0a6d2	0.31377274
132	0xbd8470b1	-0.06466807
133	0xbdc068c8	-0.093949854
134	0xbcd8aff6	-0.026451092
135	0x3bd77ef4	0.0065764133
136	0x3d9fe900	0.07808113
137	0xbd3f8023	-0.04675306
138	0x3e03fa76	0.12888512
139	0xbe3025c1	-0.17201902
140	0x3d1a8f06	0.037734054
141	0xbdcf7ef7	-0.101316385
142	0xbcb9572c	-0.022624575
143	0x3c36fc54	0.011168558
144	0x3d1a52df	0.03767669
145	0x3db87532	0.09006728
146	0xbdae2427	-0.08502989
147	0xbc845b71	-0.016156884
148	0x3d9f75d6	0.07786147
149	0x3cfbb865	0.030727575
150	0xbe23dfc1	-0.16003324
151	0x3dbea482	0.09308721
152	0x3de91808	0.11381537
153	0xbd3c09fb	-0.045907956
154	0x3e285246	0.16437635
155	0xbe6b93d1	-0.23005606
156	0x3bfc1159	0.0076924977
157	0xbc652752	-0.0139864255
158	0xbdf9e804	-0.122024566
159	0x3d8d2b20	0.06892991
160	0xbd074a37	-0.03302976
161	0xbd236a28	-0.03989616
162	0x3ea2b3a9	0.31777695
163	0xbd488951	-0.04895908
164	0x3d4bf36c	0.049792692
165	0xbc262c80	-0.010142446
166	0x3d4dd5c4	0.05025269
167	0xbd535f0b	-0.051604312
168	0x3ec17632	0.37785488
169	0x3d5b502c	0.053543255
170	0xbe447b29	-0.19187607
171	0x3d8e69c1	0.06953765
172	0x3e3f95a2	0.18709424
173	0xbd71b58c	-0.059011027
174	0x3da48a12	0.08034147
175	0x3cca0920	0.024662554
176	0xbd37a920	-0.044839025
177	0xbc0c1410	-0.008549705
178	0xbcd78c56	-0.026312035
179	0x3b49e500	0.003080666
180	0xbd8cda67	-0.068775944
181	0x3ddb4317	0.10706156
182	0x3df1cbc6	0.11806445
183	0x3d9d56d0	0.07682574
184	0xbd4e8f57	-0.05042967
185	0xbd451bfe	-0.0481224
186	0x3ddcd3c0	0.107825756
187	0xbb3d06d7	-0.0028843188
188	0xbe2bfc95	-0.16795571
189	0x3e04c74b	0.12966649
190	0xbdd3bef6	-0.10339157
191	0x3ed440c6	0.41455668
192	0xbd6d6172	-0.05795426
193	0xbe3abcdf	-0.18236111
194	0xbe87d433	-0.26529083
195	0x3c95b433	0.018274402
196	0xbda74f2d	-0.081693985
197	0xbe2af0ac	-0.16693372
198	0x3de25e75	0.110531725
199	0xbd7374e3	-0.059437644
200	0x3db0b741	0.08628703
201	0xbe3de5c8	-0.18544686
202	0xbdfe929f	-0.124303095
203	0x3df281c8	0.1184116
204	0xbdca27f2	-0.098709
205	0x3d163800	0.0366745
206	0x3dbc745f	0.092018835
207	0xbde61e3e	-0.11236237
208	0x3da64a9c	0.08119699
209	0x3d7214cb	0.05910186
210	0x3d24141c	0.04005824
211	0x3d4e3465	0.050342936
212	0xbd453c4a	-0.0481532
213	0xbd4b5046	-0.0496371
214	0x3d0386c8	0.03211096
215	0x3da509b6	0.08058493
216	0xbe85a261	-0.26100448
217	0xbd3a070a	-0.04541687
218	0x3e57867b	0.21047394
219	0xbd516dd2	-0.051130123
220	0xbd52d210	-0.051469862
221	0xbc5e2e50	-0.013560846
222	0xbd966ea1	-0.073453195
223	0xbd1b7d32	-0.037961192
224	0xbd0b4a02	-0.034006126
225	0x3c271fc9	0.010200449
226	0x3b8fd1c3	0.004389019
227	0xbdc03806	-0.093856856
228	0xbc5857f0	-0.01320456
229	0xbdcbc5c6	-0.09949832
230	0xbcee3c8f	-0.029081611
231	0x3c2f6f78	0.010707729
232	0xbdd25438	-0.1026997
233	0xbdb8249e	-0.08991359
234	0xbe915d6d	-0.2839159
235	0x3c6d3c16	0.014479658
236	0x3bb77156	0.0055982275
237	0x3e0188a1	0.12649776
238	0x3e1c09b8	0.15238082
239	0x3db71f52	0.08941521
240	0x3d36aa18	0.044595808
241	0xbcea1b55	-0.028577486
242	0xbdd0e8fd	-0.10200689
243	0x3dca9b54	0.09892908
244	0xbe0a7510	-0.13521218
245	0x3dd9bc83	0.10631659
246	0xbd810e55	-0.06301562
247	0xbe510f6a	-0.20416036
248	0x3e33ffbd	0.17578025
249	0xbe80d41f	-0.25161836
250	0x3cb02e05	0.021506319
251	0x3e7c3690	0.24630189
252	0xbc327c2f	-0.0108938655
253	0xbcf0f370	-0.029412955
254	0xba8909c7	-0.0010455184
255	0xbdf421d9	-0.119205184

embedding.bias f4 [46]
0	0xbdb99774	-0.090620905
1	0xbddd7455	-0.10813204
2	0xbe4971cb	-0.19672315
3	0xbcb1ef2a	-0.021720488
4	0xbe2fe3e8	-0.17176783
5	0x3dbfc9a6	0.09364633
6	0xbd5aea47	-0.05344608
7	0x3e0fee64	0.14055783
8	0xbe0944cf	-0.13405155
9	0xbea38fae	-0.31945556
10	0x3e0cfff8	0.1376952
11	0xbd3b52cc	-0.045733258
12	0x3dfac10e	0.122438535
13	0x3d2594ff	0.040425297
14	0xbd59e0fe	-0.053193085
15	0xbdc87329	-0.0978759
16	0x3c237c7f	0.009978413
17	0x3d338a3c	0.043833002
18	0xbd6c43c3	-0.05768181
19	0xbe072048	-0.13195908
20	0xbdcc5c7d	-0.09978578
21	0xbe040b1a	-0.1289486
22	0xbe200eff	-0.1563072
23	0xbd9afef1	-0.075681575
24	0xbd6154cf	-0.05501252
25	0xbe0fdb8c	-0.14048594
26	0xbdc70bf0	-0.09719074
27	0xbdbba8d8	-0.09163064
28	0x3c9235f5	0.017847994
29	0xbe77fdd0	-0.24217916
30	0xbe0b2e82	-0.1359196
31	0xbd570e3b	-0.052503806
32	0x3c366fe2	0.011135073
33	0xbd963916	-0.07335107
34	0xbd52fb1d	-0.05150901
35	0xbe2c3462	-0.16816857
36	0xbd31ba20	-0.043390393
37	0x3b15a057	0.0022831166
38	0xbd8a232f	-0.06744992
39	0xbc1e96c4	-0.0096795
40	0xbe160655	-0.14650853
41	0xbe1adada	-0.15122548
42	0xbc8d76d3	-0.017268574
43	0xbdb873de	-0.09006475
44	0xbd9a93b3	-0.07547703
45	0x3df869d5	0.12129561

convs.0.fc_full.weight f4 [92, 98]
0	0xbe271fc4	-0.16320711
1	0xbcb24f26	-0.021766257
2	0x3e3995b9	0.18123521
3	0x3de909f9	0.11378855
4	0xbd58c4eb	-0.05292217
5	0xbc9cc734	-0.019137956
6	0x3e11a703	0.14223866
7	0x3dc7c5b5	0.097545065
8	0x3d084f27	0.03327861
9	0xbd5afaee	-0.05346196
10	0x3d7568c8	0.05991438
11	0x3d6df291	0.058092657
12	0xbd4a93ed	-0.04945748
13	0xbe2de6eb	-0.1698262
14	0x3cc0ce44	0.023535855
15	0x3da964b3	0.0827116
16	0xbd65e9e9	-0.056131277
17	0x3dd0c191	0.1019317
18	0xbd3fc6c5	-0.04682042
19	0x3db9bd36	0.09069292
20	0xbdf63801	-0.12022401
21	0xbe2095bc	-0.15682119
22	0xbd4516a8	-0.04811731
23	0x3dfab676	0.12241833
24	0x3e00dce2	0.1258426
25	0xbdc0bb96	-0.09410779
26	0xbe104417	-0.14088474
27	0x3dace958	0.08442944
28	0xbe89dd80	-0.26926804
29	0xbe305cd9	-0.17222919
30	0x3c98d562	0.018656436
31	0xbce1e1b9	-0.027573453
32	0x3dbcc124	0.09216526
33	0xbd94b964	-0.07261923
34	0xbd5a5f9e	-0.053313844
35	0x3df06bd4	0.117393166
36	0xbdb07efe	-0.08617972
37	0xbde74a08	-0.11293417
38	0x3cf0ad52	0.02937952
39	0xbdd3c42a	-0.1034015
40	0xbd9886bb	-0.07447573
41	0x3d818173	0.063235186
42	0xbd9c0920	-0.07618928
43	0x3e2529ab	0.16129176
44	0xbd877ebd	-0.0661597
45	0x3df718d2	0.12065281
46	0xbd73cf00	-0.059523582
47	0x3d205625	0.039144654
48	0x3d72a1b8	0.05923626
49	0x3df3431d	0.11878035
50	0xbd9a92bb	-0.07547518
51	0x3d6bc1d1	0.057557885
52	0x3e0376e9	0.1283833
53	0x3e208c7b	0.15678589
54	0xbccb1895	-0.024791995
55	0xbe130466	-0.14357147
56	0xbe055574	-0.13020879
57	0xbc4fac61	-0.012675376
58	0xbe019bc8	-0.12657082
59	0xbdef446f	-0.116829745
60	0xbdf07cfb	-0.11742588
61	0xbd7f5ff4	-0.062347367
62	0xbcf7613e	-0.030197736
63	0x3d61f139	0.05516169
64	0xbd39babe	-0.045344107
65	0x3e101f17	0.1407436
66	0xbd7389fc	-0.059457764
67	0xbd93abf8	-0.07210535
68	0xbd2bda25	-0.041956086
69	0x3d4faf8b	0.05070452
70	0xbdb7a4d9	-0.08966989
71	0xbdb1875d	-0.086683966
72	0xbe1e2778	-0.15444744
73	0x3d982fd0	0.074309945
74	0xbe035d66	-0.12828597
75	0xbe7ca820	-0.2467351
76	0x3de7e609	0.113231726
77	0xbe1a4073	-0.15063648
78	0xbc74d379	-0.014942997
79	0xbd5991b4	-0.05311747
80	0xbda0e3c1	-0.078559406
81	0xbd9626d4	-0.073316246
82	0xbdad8637	-0.08472865
83	0xbd40a804	-0.047035232
84	0x3d7625dd	0.060094703
85	0xbddb1587	-0.106974654
86	0xbae7251f	-0.0017634964
87	0xbb7ccd06	-0.0038574352
88	0xbe603e1e	-0.21898696
89	0x3d03c238	0.032167643
90	0xbc781dc3	-0.0151438145
91	0xbbab1650	-0.0052211657
92	0xbcaffa66	-0.021481704
93	0xbcaa95fc	-0.020823471
94	0xbe31315f	-0.1730399
95	0x3da6e14f	0.08148443
96	0x3e271036	0.16314778
97	0x3d46f958	0.048577636
98	0x3d67caf8	0.05659005
99	0x3cf282d8	0.029603407
100	0xbc699b38	-0.014258198
101	0xbdb0bbc4	-0.086295635
102	0x3db962cd	0.09052048
103	0xbcc6334d	-0.024194384
104	0x3e41c1fe	0.18921658
105	0xbe01b091	-0.12665011
106	0xbd398c7c	-0.045299992
107	0xbd0ec20f	-0.034853037
108	0x3cdee704	0.027209766
109	0x3dc73fc7	0.097289614
110	0x3d557095	0.05210932
111	0xbe0d0930	-0.13773036
112	0xbd17ce48	-0.03706196
113	0x3d60f0ee	0.05491727
114	0xbe251e25	-0.1612478
115	0xbd16c9cc	-0.036813542
116	0xbd0537e8	-0.03252402
117	0x3e14f77d	0.14547534
118	0x3d841fdb	0.064513884
119	0x3d82a6cc	0.0637947
120	0x3d4a86bd	0.049444903
121	0xbc128cba	-0.008944685
122	0x3d86733d	0.06564949
123	0xbc4dde5a	-0.01256522
124	0xbde8f354	-0.11374536
125	0x3d9dc2ab	0.077031456
126	0x3cb71368	0.02234812
127	0xbe5a2dcb	-0.21306531
128	0xbcc76284	-0.024338968
129	0x3d3fb568	0.04680386
130	0x3e26420a	0.1623613
131	0xbe114a49	-0.14188494
132	0xbd990f95	-0.07473675
133	0xbd1ac636	-0.037786685
134	0xbd0fcbcf	-0.035106476
135	0xbe0e13b5	-0.13874705
136	0x3cf1de03	0.029524809
137	0xbe0a415d	-0.13501497
138	0xbd590352	-0.052981682
139	0xbd61e6c5	-0.05515172
140	0xbd3ebc19	-0.046566103
141	0x3dbb07de	0.0913236
142	0xbd73fbe6	-0.0595664
143	0xbc6113bd	-0.013737616
144	0xbde10aca	-0.10988386
145	0xbd67bb6d	-0.056575228
146	0xbd7be1d1	-0.061494652
147	0xbdc96b47	-0.09834915
148	0xbc7d6db2	-0.015468048
149	0x3dc5657d	0.09638498
150	0x3db7d9af	0.08977067
151	0xbdfa741c	-0.12229177
152	0xbc15a12e	-0.0091326665
153	0xbe0a5749	-0.13509859
154	0x3dfb7e58	0.122799575
155	0xbd85756e	-0.065165386
156	0x3dfdfa0d	0.12401209
157	0xbdc3ee16	-0.09566896
158	0x3d25db6a	0.040492453
159	0x3d2d4e7e	0.042311184
160	0xbd4475ec	-0.04796402
161	0x3da2c6e2	0.0794809
162	0x3ba766ef	0.005108706
163	0xbcc55ca7	-0.024092032
164	0x3d94473e	0.07240151
165	0x3dee7a82	0.1164446
166	0x3bfa4b94	0.007638404
167	0x3e23f83d	0.16012664
168	0x3d89d177	0.067294054
169	0xbd664507	-0.056218173
170	0xbe2c1d17	-0.16807972
171	0x3d579a77	0.052637544
172	0x3d1a66a0	0.037695527
173	0xbeab2a4b	-0.33430704
174	0x3c4e4928	0.012590684
175	0xbd8e8080	-0.06958103
176	0x3e54a40b	0.20765702
177	0xbc150059	-0.009094321
178	0xbdf23485	-0.118264236
179	0x3d512e4b	0.05106954
180	0x3be1c505	0.0068899416
181	0xbdd44a19	-0.103656955
182	0xbd47358f	-0.04863506
183	0xbc6a8ae2	-0.014315339
184	0xbe085e44	-0.1331721
185	0x3db41d87	0.087946944
186	0xbddb7fa0	-0.10717702
187	0x3b64ed7d	0.0034931593
188	0xbe452b84	-0.19254881
189	0x3c66d17c	0.014088031
190	0x3da3579d	0.07975695
191	0x3cdf4841	0.027256133
192	0xbe01a4de	-0.12660548
193	0xbd46633b	-0.048434477
194	0x3c015b79	0.007895344
195	0xbd6352a6	-0.05549874
196	0x3d8fe92b	0.07026895
197	0x3c4c0759	0.012452924
198	0xbe2bdfff	-0.16784666
199	0xbd83b6fc	-0.06431386
200	0xbd2f4e25	-0.042799134
201	0x3e0c1e77	0.13683496
202	0xbbb8e48e	-0.00564248
203	0xbdb6dd08	-0.08928877
204	0x3db03b5e	0.086050734
205	0xbdc7ef21	-0.09762407
206	0x3e472276	0.1944674
207	0xbdfe3fee	-0.12414537
208	0x3db9721b	0.09054967
209	0xbd956ab4	-0.07295743
210	0xbd79261d	-0.060827363
211	0x3dc7b222	0.09750773
212	0xbe1eac04	-0.15495306
213	0xbd66079d	-0.056159604
214	0x3db1d485	0.08683113
215	0xbd399578	-0.04530856
216	0x3e2e466e	0.17019054
217	0x3de044f1	0.109506495
218	0xbdae7741	-0.0851884
219	0xbda30289	-0.07959468
220	0xbc995a25	-0.018719742
221	0xbe4187e4	-0.18899494
222	0x3d488378	0.048953503
223	0xbd1b847d	-0.037968148
224	0xbe0963b5	-0.13416941
225	0xbc643e40	-0.013930857
226	0xbd843496	-0.064553425
227	0x3d51da95	0.051233847
228	0x3ccfa410	0.025346786
229	0xbe308120	-0.17236757
230	0xbe0546a3	-0.13015227
231	0xbd29641b	-0.041355234
232	0x3ddbf662	0.10740353
233	0xbc2fc404	-0.010727886
234	0xbcafc5fb	-0.02145671
235	0xbe2557a6	-0.16146716
236	0x3d16e38f	0.03683811
237	0x3dd1db6b	0.10246929
238	0xbd73bdc5	-0.05950715
239	0xbe3f7ede	-0.1870074
240	0xbda07007	-0.078338675
241	0x3d792399	0.060824964
242	0x3e275763	0.16341929
243	0xbe4ed9e1	-0.20200302
244	0xbd54f814	-0.0519944
245	0x3c494cdb	0.01228639
246	0x3d49dbbf	0.04928183
247	0xbe0b9f4c	-0.13634986
248	0xbddcd034	-0.10781899
249	0xbd8b3278	-0.067967355
250	0x3da0ab7f	0.0784521
251	0x3e1575b8	0.14595687
252	0xbdc93b97	-0.09825819
253	0xbe01b763	-0.12667613
254	0x3d89787c	0.06712434
255	0x3e1a079d	0.15041967

convs.0.fc_full.bias f4 [92]
0	0xbb9171f7	-0.0044386345
1	0xbda5681c	-0.08076498
2	0x3d9b4dff	0.07583236
3	0xbda7fbfd	-0.0820236
4	0x3d0249ed	0.031808782
5	0xbda6d7ab	-0.08146604
6	0x3d1a7acd	0.03771477
7	0xbd86ab9a	-0.06575699
8	0xbd5540de	-0.052063815
9	0x3c543de3	0.012954208
10	0xbd6c8e4c	-0.057752892
11	0xbd4a11f1	-0.049333517
12	0x3b68b161	0.0035506117
13	0x3d4557f8	0.048179597
14	0xbd95adb6	-0.07308523
15	0xbd72a51b	-0.059239488
16	0x3d31c6ca	0.04340247
17	0x3d50693f	0.05088162
18	0x3da191c9	0.078891344
19	0xbda3090b	-0.07960709
20	0x3db3756d	0.087626316
21	0xbb8a50c7	-0.004221055
22	0x3d929f50	0.07159293
23	0xbd390fc6	-0.04518106
24	0xbd666946	-0.05625274
25	0xbc20c31f	-0.0098121455
26	0xbcad3ccf	-0.02114716
27	0xbcc8579e	-0.024455842
28	0xbda3a99a	-0.07991333
29	0xbdc9ee79	-0.09859938
30	0x3c9c3c37	0.019071681
31	0xbcb64bf7	-0.02225302
32	0xbd13a1e4	-0.036043063
33	0xbcd5234a	-0.026017804
34	0x3d338ca1	0.043835286
35	0xbdcb2a3d	-0.09920166
36	0x3d54d1ec	0.05195801
37	0x3d68e64f	0.056860264
38	0xbdbefe7e	-0.09325884
39	0xbadadd71	-0.0016698075
40	0x3bd1bcb7	0.0064006704
41	0x3b9806b4	0.004639471
42	0x3ca11868	0.019664958
43	0xbd158c6b	-0.036510866
44	0x3d7902d9	0.06079373
45	0xbbe9e422	-0.0071377913
46	0xbd3ed83b	-0.046592932
47	0x3dc7bcaa	0.09752782
48	0xbdad6b20	-0.08467698
49	0xbda3e295	-0.080022015
50	0xbd7cab5e	-0.061686866
51	0xbd44f421	-0.048084382
52	0x3d852c4c	0.065025896
53	0xbc8546e8	-0.016269162
54	0xbd8508a8	-0.06495792
55	0x3d1dbbbd	0.03850912
56	0x3d03783f	0.032097097
57	0xbbb5e4bd	-0.0055509494
58	0x3d1de2bd	0.038546313
59	0xbda0a18e	-0.07843314
60	0xbdc4fc6a	-0.09618457
61	0x3cf801e7	0.030274345
62	0x3d68e697	0.056860533
63	0x3d5e341f	0.054248925
64	0xbccd95b2	-0.025095794
65	0x3d112a5f	0.0354408
66	0x3cafe247	0.021470202
67	0x3d287b29	0.04113308
68	0xbda6009b	-0.08105584
69	0xbda3e8e4	-0.08003405
70	0x3dcaf5a1	0.09910131
71	0x3d8c5bf7	0.068534784
72	0x3d3afee9	0.045653258
73	0x3d9a1149	0.07522828
74	0x3d54e828	0.051979214
75	0x3db93ee2	0.09045197
76	0x3d6e5459	0.05818591
77	0x3d0f9500	0.035054207
78	0xbdb4c6e8	-0.08827001
79	0x3d552e52	0.052046128
80	0xbc83cde0	-0.01608938
81	0x3d46b11f	0.04850876
82	0xbd036bfc	-0.032085404
83	0x3d8b5791	0.06803811
84	0xbdc52dd4	-0.09627882
85	0x3c2a578d	0.01039685
86	0x3c9d3154	0.01918856
87	0x3d0b7bf7	0.03405377
88	0x3c2ebf62	0.010665746
89	0x3cb4a327	0.022050453
90	0x3c5ef131	0.013607309
91	0xbd7a4945	-0.06110503

convs.0.bn1.weight f4 [92]
0	0x3f6bf63e	0.9217261
1	0x3f8e5121	1.1118509
2	0x3f558432	0.8340484
3	0x3f934909	1.1506664
4	0x3f75d695	0.9603055
5	0x3f89dbe9	1.0770236
6	0x3f95ac99	1.1693298
7	0x3f9d998c	1.2312484
8	0x3f9ade53	1.2099098
9	0x3f8d78a9	1.1052448
10	0x3f9fafbc	1.2475505
11	0x3f802eb0	1.0014248
12	0x3f846917	1.0344571
13	0x3f98a8f4	1.192656
14	0x3f720f16	0.9455427
15	0x3f80b918	1.0056486
16	0x3f731ea7	0.94968647
17	0x3f91fb31	1.1404783
18	0x3f81d32e	1.0142572
19	0x3f8030ff	1.0014952
20	0x3f947bbc	1.1600261
21	0x3f840c05	1.0316168
22	0x3f837dd6	1.0272777
23	0x3f7c4728	0.98546076
24	0x3f895994	1.0730462
25	0x3f839f1d	1.0282933
26	0x3f6153d2	0.88018525
27	0x3f9bd2d5	1.2173716
28	0x3f626686	0.8843769
29	0x3f670462	0.9024106
30	0x3f4a0f1f	0.7892932
31	0x3f89894d	1.0745026
32	0x3f79fe93	0.97654074
33	0x3f6ef157	0.93337005
34	0x3f84f8bd	1.0388409
35	0x3f943de2	1.1581385
36	0x3f7ca517	0.9868941
37	0x3fa3886b	1.2776006
38	0x3f88fdcc	1.0702453
39	0x3f8ebecf	1.115198
40	0x3f904e38	1.127387
41	0x3f8a6f1e	1.081516
42	0x3f843b6e	1.0330637
43	0x3f954cfc	1.1664119
44	0x3f8d4a55	1.1038309
45	0x3f7d7272	0.99002755
46	0x3f8d16c8	1.1022577
47	0x3f594800	0.8487549
48	0x3f806304	1.0030217
49	0x3f7a3152	0.97731507
50	0x3f8f5876	1.1198871
51	0x3f6cc889	0.9249349
52	0x3f52721c	0.8220537
53	0x3f6264b3	0.88434905
54	0x3f790ba5	0.97283393
55	0x3f6dd0fd	0.92897016
56	0x3f590670	0.8477545
57	0x3f86ff4b	1.0546659
58	0x3f931e59	1.1493636
59	0x3f30661a	0.68905795
60	0x3f861fe2	1.047848
61	0x3f814bf1	1.01013
62	0x3f979dbd	1.1845013
63	0x3f74a71f	0.95567507
64	0x3f8cb293	1.0991997
65	0x3f84429d	1.0332829
66	0x3f8e990a	1.1140454
67	0x3f8b89f2	1.0901473
68	0x3f5dfa61	0.8671017
69	0x3f8bb2c1	1.0913926
70	0x3f5b82dd	0.85746557
71	0x3f871ae0	1.0555077
72	0x3f978eed	1.1840492
73	0x3f56b2c8	0.8386655
74	0x3f9c8d3c	1.2230601
75	0x3f75ff5c	0.9609277
76	0x3fa76a7d	1.3079373
77	0x3f790dc5	0.97286636
78	0x3f821834	1.0163636
79	0x3f8020c5	1.001
80	0x3f8e899c	1.1135745
81	0x3f808367	1.0040101
82	0x3f743e36	0.95407426
83	0x3f53b60e	0.8269967
84	0x3f7f226a	0.99661887
85	0x3f8d2d80	1.102951
86	0x3f5ef44f	0.87091535
87	0x3f8a5f0a	1.0810254
88	0x3f8a9129	1.0825549
89	0x3f5e0cfa	0.8673855
90	0x3f6f8cf3	0.93574446
91	0x3f8c8dad	1.0980736

convs.0.bn1.bias f4 [92]
0	0x3cb4ecca	0.022085566
1	0x3dcd77b4	0.10032597
2	0xbd42b628	-0.047537
3	0x3bc9bbd7	0.0061564255
4	0xbc3c50bd	-0.011493859
5	0x3e4eba1d	0.20188184
6	0x3e3ef741	0.18649007
7	0x3dff0483	0.124520324
8	0x3d93224a	0.071842745
9	0xbd8da4f3	-0.06916227
10	0xbe35c585	-0.17751129
11	0xbe1f1638	-0.1553582
12	0xbe0a367e	-0.1349735
13	0x3e9b6176	0.30347794
14	0x3ce8d0be	0.028419849
15	0x3d44c3ce	0.048038296
16	0xbd471115	-0.048600275
17	0x3d5a0c4c	0.053234383
18	0xbd0b7d00	-0.034054756
19	0xbc2a20da	-0.010383809
20	0xbeb7e545	-0.35917106
21	0x3d0e3b2f	0.03472441
22	0x3d8f7c36	0.07006113
23	0xbbbf1cc2	-0.0058322856
24	0x3dee0ed4	0.11623922
25	0x3e08f017	0.13372837
26	0x3e2373b9	0.15962113
27	0x3e07b4e9	0.13252605
28	0xbd9eb68d	-0.077496625
29	0x3d329c90	0.04360634
30	0x3a97275a	0.0011532113
31	0x3d872f38	0.06600803
32	0x3941fc78	0.00018499966
33	0x3df147e9	0.11781294
34	0xbdf446df	-0.1192758
35	0xbd1f81b3	-0.03894205
36	0x3e4295a3	0.19002394
37	0x3d719952	0.05898411
38	0x3b6dce09	0.0036286137
39	0xbd040ea1	-0.032240514
40	0xbe0d0f26	-0.1377531
41	0xbddc76ed	-0.10764871
42	0xbd982b10	-0.074300885
43	0x3e0b5ccc	0.13609618
44	0xbcf05399	-0.029336737
45	0xbe9c689c	-0.3054856
46	0xbe1d58e2	-0.15365937
47	0x3e690ec9	0.22759546
48	0xbd7bef2a	-0.06150738
49	0x3d1751cb	0.03694324
50	0xbdc6ccc9	-0.097070284
51	0x3d5aa1e2	0.05337704
52	0x3e65acfe	0.22429273
53	0x3e0c4f64	0.1370216
54	0x3d64e0aa	0.05587832
55	0x3d6f33d8	0.05839905
56	0x3d6ed452	0.058307953
57	0xbdc9d065	-0.09854201
58	0xbe4370d2	-0.19086006
59	0x3ea4b7e7	0.32171556
60	0xbd72026c	-0.05908434
61	0x3d1e392c	0.038628742
62	0xbe2b5c73	-0.16734485
63	0x3d9c251c	0.076242656
64	0xbddae3ea	-0.106880024
65	0xbda93eb9	-0.082639165
66	0xbebed852	-0.37274414
67	0xbd117086	-0.0355077
68	0x3e5e6405	0.21717842
69	0xbd3b4de7	-0.04572859
70	0x3e10011c	0.14062923
71	0xbd3b9aaf	-0.045801815
72	0xbe359cb3	-0.17735557
73	0x3e50b53f	0.2038164
74	0xbeaa942f	-0.3331618
75	0x3d886fc1	0.0666194
76	0xbe729838	-0.2369088
77	0x3d7e1ab5	0.06203719
78	0xbc87679b	-0.016528895
79	0x3df22c50	0.11824858
80	0xbe249fcc	-0.16076583
81	0x3c5edae4	0.013601992
82	0x3e335332	0.17512205
83	0x3e4ae8b9	0.19815339
84	0xbc90de25	-0.017684052
85	0xbd895ff8	-0.06707758
86	0x3b33bc00	0.002742529
87	0xbdd4dd68	-0.103937924
88	0xbc5c10bb	-0.013431723
89	0x3e10547c	0.14094728
90	0x3ccffcfe	0.02538919
91	0xbe7559c1	-0.2396002

convs.0.bn1.running_mean f4 [92]
0	0x3f12d6ee	0.57359207
1	0x3ea0f436	0.31436318
2	0x3dde1d17	0.10845392
3	0xbe1301ac	-0.14356107
4	0x3f05c5bc	0.52254844
5	0x3e573cc2	0.21019271
6	0x3e9d7ec3	0.30760774
7	0xbdf2515f	-0.118319266
8	0xbda2cdb5	-0.07949392
9	0x3dda72d7	0.10666435
10	0xbf312e98	-0.6921172
11	0x3f2e6f2a	0.6813837
12	0xbf4d275b	-0.80138177
13	0x3f08d47e	0.5344924
14	0x3ea65258	0.32484698
15	0x3ee909a0	0.45515156
16	0x3f24345e	0.64142406
17	0x3dacaf3e	0.08431862
18	0x3ec6e361	0.3884535
19	0x3d885172	0.066561595
20	0xbef04dac	-0.4693426
21	0xbe0b40b7	-0.13598906
22	0xbdf77e41	-0.12084628
23	0x3e9e6bbc	0.3094157
24	0x3e6e4706	0.23269281
25	0xbf29b5ff	-0.6629333
26	0xbe356f65	-0.17718275
27	0xbe3c3c7a	-0.18382445
28	0x3eca491e	0.3950891
29	0x3eed0cc0	0.4629879
30	0x3f3c739e	0.7361392
31	0x3e60d87f	0.21957587
32	0x3eab8824	0.33502305
33	0xbe03f73a	-0.12887278
34	0xbce1abc3	-0.027547723
35	0xbd9eb932	-0.07750167
36	0x3e63816a	0.22217336
37	0xbf15c950	-0.58510303
38	0x3f0d240e	0.5513314
39	0x3e357f98	0.17724454
40	0xbebb0ebf	-0.36534688
41	0xbf451452	-0.7698413
42	0xbf4f2b86	-0.80925786
43	0xbccbb92e	-0.024868574
44	0xbc90c361	-0.017671289
45	0x3e1e492e	0.15457603
46	0x3f07bce6	0.5302261
47	0x3e93e7d6	0.28887814
48	0xbe9a3cd5	-0.30124536
49	0x3e908a6e	0.28230613
50	0xbddbef3a	-0.10738988
51	0x3e988a82	0.29793173
52	0x3e5066f9	0.20351781
53	0x3f057805	0.5213626
54	0x3e39fd2c	0.18162984
55	0x3f11de82	0.56980145
56	0xbed7f400	-0.42178345
57	0x3f1c11d2	0.6096469
58	0xbf5a3ce6	-0.85249174
59	0x3eb3b75b	0.35100827
60	0x3e2becc3	0.16789536
61	0x3d85828c	0.065190405
62	0x3f2e3d2e	0.680621
63	0x3e91dc86	0.2848856
64	0x3e605507	0.21907435
65	0x3e89e976	0.2693593
66	0xbef948b0	-0.4868827
67	0xbeb310fe	-0.34973902
68	0xbf0cf789	-0.5506521
69	0x3ee861e8	0.45387197
70	0x3ec29972	0.38007694
71	0xbf555586	-0.83333623
72	0x3e0c6d71	0.13713624
73	0x3d24e7fc	0.0402603
74	0x3e862ac8	0.26204515
75	0x3f153fc3	0.5830042
76	0x3ee8d20f	0.45472762
77	0xbe6e01b6	-0.2324284
78	0x3e61f2a2	0.22065213
79	0xbd8718b0	-0.06596506
80	0xbe4d3e33	-0.20043258
81	0x3e9cd9f2	0.3063503
82	0x3eaa9fe8	0.33325124
83	0xbea86950	-0.32892847
84	0x3e8f0613	0.27934322
85	0x3efd4ef0	0.49474287
86	0xbe180689	-0.14846243
87	0xbec4db37	-0.38448498
88	0xbf0f39c6	-0.5594753
89	0x3cf2df55	0.029647509
90	0xbcd32c56	-0.025777977
91	0xbc90792d	-0.017635906

convs.0.bn1.running_var f4 [92]
0	0x40009d7a	2.0096116
1	0x402dce09	2.7157004
2	0x3f7a38e4	0.9774306
3	0x406f0078	3.7344036
4	0x408aa311	4.3324056
5	0x3fccc0a4	1.5996289
6	0x4034e0fd	2.8262322
7	0x400303b2	2.0471005
8	0x40055d6b	2.0838268
9	0x3ffc7159	1.9722091
10	0x3ffba173	1.9658645
11	0x408d1c3d	4.409697
12	0x406acdb3	3.668805
13	0x3feee60c	1.8663955
14	0x400920d1	2.142628
15	0x3f548699	0.8301788
16	0x4012143e	2.2824855
17	0x40261159	2.5948088
18	0x409e77c3	4.9521194
19	0x3fe7edaf	1.811941
20	0x4003059b	2.0472171
21	0x3f8f88fd	1.121368
22	0x3fd5c75c	1.6701465
23	0x3fe97d75	1.8241411
24	0x3ff27521	1.8941995
25	0x3fecd289	1.850175
26	0x3f105131	0.5637389
27	0x3f1656d1	0.5872622
28	0x400bf25c	2.1866674
29	0x3f4c9df6	0.7992853
30	0x4059071d	3.3910592
31	0x3f260088	0.6484456
32	0x3f23ee1e	0.64035213
33	0x3f99a435	1.2003237
34	0x40995bfb	4.792478
35	0x4095a520	4.676407
36	0x3f7497d0	0.9554415
37	0x3fcc5d59	1.5965987
38	0x40161e16	2.3455863
39	0x40c5a126	6.1759214
40	0x4039d7f0	2.9038048
41	0x40937966	4.608569
42	0x402f5fb6	2.7402167
43	0x4089f7ff	4.311523
44	0x3f8d725c	1.1050525
45	0x3fb143c7	1.3848809
46	0x409e4842	4.9463205
47	0x400e9862	2.2280507
48	0x3fa2ee60	1.2728996
49	0x40501d59	3.2517912
50	0x40e2b38c	7.0844173
51	0x3f90da24	1.1316571
52	0x402725aa	2.6116738
53	0x3fc733a8	1.5562639
54	0x3f8cec7c	1.1009669
55	0x4035b8ba	2.8393998
56	0x3feceb2d	1.850927
57	0x40b016b5	5.502772
58	0x407d7208	3.960085
59	0x3fc5e2b0	1.5459805
60	0x403b93ee	2.930904
61	0x3fdeb5aa	1.739919
62	0x403ad42a	2.9191995
63	0x3fbdf80a	1.484132
64	0x40d9ec82	6.8101206
65	0x3fbae5b8	1.4601355
66	0x3ff235e8	1.8922701
67	0x3f6ccf38	0.9250369
68	0x3f9a55f6	1.2057483
69	0x40503353	3.2531326
70	0x401bd5d1	2.4349253
71	0x4019a2b3	2.4005554
72	0x3f453761	0.77037627
73	0x3f76bc26	0.9638084
74	0x3f26b9eb	0.6512744
75	0x3f4e1d54	0.805135
76	0x408e1fe6	4.441394
77	0x3f0ec170	0.5576391
78	0x3f6c4ea0	0.9230747
79	0x400cf420	2.2024002
80	0x3ffc5e45	1.9716269
81	0x409f2980	4.973816
82	0x3f8e7a5e	1.1131094
83	0x3fa81bd7	1.3133496
84	0x3ff1207e	1.8838041
85	0x40b2b5c5	5.5846887
86	0x3fbddafb	1.4832453
87	0x403f281e	2.9868236
88	0x4066195b	3.5952976
89	0x40a50f54	5.158121
90	0x3ef91ee8	0.48656392
91	0x3fa099c2	1.2546923

convs.0.bn2.weight f4 [46]
0	0x3f8439df	1.0330161
1	0x3f6cb47a	0.92462885
2	0x3f752d1e	0.9577197
3	0x3f706a00	0.93911743
4	0x3f8424b6	1.0323703
5	0x3f97c94c	1.1858306
6	0x3f34c07d	0.70606214
7	0x3f7c2f72	0.98509896
8	0x3f5880e1	0.84571654
9	0x3f4d52fa	0.8020474
10	0x3f7b453a	0.98152506
11	0x3f91fc51	1.1405126
12	0x3f9cbb46	1.2244651
13	0x3f6d175a	0.92613757
14	0x3f64a62d	0.89316064
15	0x3f4ffc05	0.81243926
16	0x3f935835	1.1511294
17	0x3f81ae4f	1.013132
18	0x3f83824d	1.027414
19	0x3f7e4f44	0.993397
20	0x3f97a0c9	1.1845943
21	0x3f62959d	0.8850954
22	0x3f812e0d	1.0092179
23	0x3f85096d	1.0393502
24	0x3f617c00	0.88079834
25	0x3f67c52a	0.90535223
26	0x3f78e531	0.9722472
27	0x3f68ccb6	0.90937364
28	0x3f8dc66d	1.107618
29	0x3f682382	0.9067918
30	0x3f8b2531	1.0870725
31	0x3f77feef	0.9687337
32	0x3f51337b	0.8171918
33	0x3f65c0fb	0.8974759
34	0x3f89cb39	1.0765144
35	0x3f7f7d7b	0.99800843
36	0x3f727480	0.94709015
37	0x3f64b994	0.8934567
38	0x3f6a3997	0.91494125
39	0x3f8d4860	1.1037712
40	0x3f571853	0.8402149
41	0x3f8645f3	1.0490097
42	0x3f81dd35	1.0145632
43	0x3f60b118	0.87770224
44	0x3f68bbbe	0.9091147
45	0x3f911b17	1.1336392

convs.0.bn2.bias f4 [46]
0	0xbc677f1c	-0.014129426
1	0xbcbfe018	-0.023422286
2	0xbdfcaece	-0.12338029
3	0xbd690d5c	-0.056897506
4	0xbda26a33	-0.07930412
5	0x3dbb7d64	0.09154776
6	0xbd8ce8ae	-0.06880318
7	0x3d8c1d9f	0.06841587
8	0xbde5c33a	-0.11218877
9	0xbe6e8f88	-0.2329694
10	0x3d6f93ea	0.05849067
11	0x3cd9808c	0.026550554
12	0x3dde0c59	0.10842199
13	0x3ba7db7a	0.005122599
14	0xbe151032	-0.1455696
15	0xbd8ce4e2	-0.068795934
16	0xbcbf50a7	-0.023353888
17	0x3dea596b	0.114428364
18	0xbd8e1995	-0.06938473
19	0xbdbdd79d	-0.092696406
20	0xbdfc5eaf	-0.12322747
21	0xbe1d77bd	-0.15377708
22	0xbda69070	-0.08133018
23	0x3aa65ef6	0.0012693095
24	0xbdebad36	-0.11507647
25	0xbdc8d40b	-0.09806069
26	0xbe2e0dc9	-0.16997446
27	0x3b8023b7	0.0039105075
28	0xbd2f8300	-0.04284954
29	0xbe71e1ac	-0.23621243
30	0xbd5ab0a3	-0.05339111
31	0xbdf18091	-0.117921
32	0xbd4c019d	-0.049806226
33	0xbda9781f	-0.082748644
34	0x39cc652e	0.00038985297
35	0xbdc342ee	-0.0953425
36	0xbd2241cb	-0.039613526
37	0xbce062b2	-0.027390812
38	0xbdd70a82	-0.10500051
39	0xbcb5f35f	-0.022210775
40	0xbdfc5610	-0.123211026
41	0xbe032967	-0.12808762
42	0xbcfc2cc0	-0.030783057
43	0xbd8a96fa	-0.06767078
44	0xbdae82ad	-0.08521018
45	0x3d2ddeaf	0.042448696

convs.0.bn2.running_mean f4 [46]
0	0x40b5164c	5.658972
1	0x40dacb75	6.837336
2	0x40b37b42	5.608796
3	0x40c5d56d	6.182303
4	0x40bcb2c0	5.89682
5	0x40c9a5cc	6.301489
6	0x40de10bb	6.9395423
7	0x40c4c889	6.1494794
8	0x40c9c266	6.3049803
9	0x40be1180	5.939636
10	0x40b496df	5.643417
11	0x40b22269	5.5667005
12	0x40ae42fa	5.445676
13	0x40e8e516	7.2779646
14	0x40c075c5	6.014376
15	0x40c4135e	6.127364
16	0x40b3a2e1	5.6136327
17	0x40c68931	6.204247
18	0x40bff921	5.9991612
19	0x40bada34	5.839136
20	0x4091e4ae	4.559165
21	0x40bc42e8	5.8831673
22	0x40ce37e1	6.444321
23	0x40c3aaf2	6.1146173
24	0x40cf0695	6.4695535
25	0x40c77810	6.233406
26	0x40a9b171	5.3029103
27	0x40d6a644	6.707796
28	0x408b7705	4.3582788
29	0x40c54205	6.164309
30	0x40bd380d	5.913092
31	0x40be7bff	5.9526362
32	0x40afe991	5.4972615
33	0x40d3f5db	6.6237617
34	0x40a2318e	5.068549
35	0x40c6a89a	6.2080812
36	0x40dcfe39	6.906033
37	0x40c47729	6.139546
38	0x40c42743	6.1297927
39	0x40c52313	6.1605315
40	0x40a48b2b	5.1419883
41	0x40ae0991	5.438668
42	0x40c276be	6.076995
43	0x40d09a83	6.5188613
44	0x40a01188	5.00214
45	0x409e9ded	4.956778

convs.0.bn2.running_var f4 [46]
0	0x41b90990	23.12967
1	0x41c492e6	24.571728
2	0x41b6b25b	22.837088
3	0x422f6621	43.849735
4	0x423410e7	45.016506
5	0x41a650be	20.789425
6	0x41b64015	22.78129
7	0x41bd6eeb	23.67916
8	0x4226ec4b	41.730755
9	0x42261cd4	41.528152
10	0x41afa728	21.95662
11	0x42319abd	44.40111
12	0x4242d4a8	48.707672
13	0x41afd835	21.98057
14	0x41c9dbda	25.23235
15	0x41f0b469	30.08809
16	0x41cc4101	25.53174
17	0x41d67799	26.808397
18	0x422c306b	43.047283
19	0x41bc651a	23.549366
20	0x42002670	32.037537
21	0x41f328e0	30.394958
22	0x41d4a381	26.579836
23	0x4244e7d5	49.2264
24	0x41b0f79b	22.120901
25	0x422edfba	43.718483
26	0x41cad4f8	25.353989
27	0x41b36155	22.422525
28	0x41c35612	24.417027
29	0x41c23890	24.277618
30	0x427938c7	62.305447
31	0x41b8670a	23.050312
32	0x41bae5d9	23.36223
33	0x42246741	41.100834
34	0x41a0604f	20.047026
35	0x4241e3d3	48.472485
36	0x41f9f31f	31.243711
37	0x41adfd7e	21.748775
38	0x41e914af	29.1351
39	0x42523fe7	52.562405
40	0x41f15b6f	30.169645
41	0x4256bba0	53.683228
42	0x424c03a9	51.003574
43	0x421dd823	39.46107
44	0x415093a4	13.036045
45	0x41abdda8	21.48323

convs.1.fc_full.weight f4 [92, 98]
0	0x3cf6d327	0.030129982
1	0x3dbe840d	0.093025304
2	0xbd6d32d9	-0.05790982
3	0xbe190361	-0.14942695
4	0x3d7e5135	0.062089164
5	0x3dd4a031	0.103821166
6	0x3dd289c5	0.10280184
7	0x3e2324d0	0.15932012
8	0xbd38e377	-0.045138802
9	0xbaf18edf	-0.001842942
10	0xbe28fe60	-0.16503286
11	0xbd4ee147	-0.05050781
12	0xbd7b6b0b	-0.06138138
13	0x3cad6706	0.02116729
14	0x3da6752e	0.08127819
15	0xbcb2140d	-0.021738077
16	0x3d2addfd	0.04171561
17	0xbc1b955a	-0.009496057
18	0xbe982321	-0.297143
19	0x3e2bd305	0.16779716
20	0xbd6b9cf6	-0.057522736
21	0xbde223e0	-0.11041999
22	0x3d9bccf1	0.07607449
23	0x3c7a4168	0.015274383
24	0x3dc82a66	0.09773712
25	0x3df94b26	0.121725366
26	0xbde2239b	-0.110419475
27	0x3a898b04	0.00104937
28	0xbdd5cf9d	-0.1043999
29	0xbd50bb1a	-0.050959684
30	0xbda8b1ce	-0.082370386
31	0xbb0e867f	-0.0021747646
32	0xbdb08252	-0.086186066
33	0xbd1de6a0	-0.03855002
34	0xbd47893a	-0.048714854
35	0xbd629ac9	-0.055323396
36	0x3e0d5a5f	0.13804005
37	0x3d8042be	0.0626273
38	0x3821ec36	3.860538e-05
39	0xbd876648	-0.066113055
40	0xbc001eb3	-0.007819819
41	0xbd01c9fc	-0.031686768
42	0xbcc94998	-0.024571225
43	0xbddb3113	-0.107027195
44	0x3d9f200f	0.077697866
45	0x3c7f2a6c	0.015574079
46	0xbd44790a	-0.047966994
47	0x3dfa4d0b	0.12221726
48	0xbd312670	-0.043249547
49	0xbc15cb84	-0.00914276
50	0x3affcc4d	0.0019515842
51	0x3e4eb161	0.20184852
52	0x3dc312fd	0.09525106
53	0x3d3db970	0.046319425
54	0xbe203690	-0.15645814
55	0xbd283328	-0.04106441
56	0xbe04717b	-0.12933914
57	0xbe135a1b	-0.14389841
58	0x3c8b3bad	0.016996229
59	0xbd263f57	-0.04058775
60	0x3cd41611	0.025889428
61	0xbe039ec8	-0.12853539
62	0x3d9744b2	0.073861495
63	0x3d26cc56	0.040722214
64	0xbdd49e33	-0.103817366
65	0x3ea01797	0.31267998
66	0xbd80025a	-0.062504485
67	0xbddeef76	-0.10885517
68	0xbdafb12f	-0.08578717
69	0xbd231f7a	-0.03982494
70	0x3d079db4	0.03310938
71	0xbd2f9991	-0.04287106
72	0xbe88cf48	-0.26720643
73	0x3daad148	0.083406985
74	0xbb72c548	-0.0037043858
75	0x3cdc4ac4	0.02689112
76	0xbcb337cf	-0.021877198
77	0xbd3760da	-0.0447701
78	0xbd65e9ff	-0.05613136
79	0x3d31e590	0.04343182
80	0x3dce5615	0.100750126
81	0xbcfa3aba	-0.030545581
82	0x3d97688b	0.07392987
83	0x3d3d3119	0.0461894
84	0x3ca0fad4	0.019650854
85	0xbdd962cc	-0.10614547
86	0x3dcaf30c	0.09909639
87	0x3da5ad74	0.08089724
88	0xbd2f2361	-0.04275835
89	0xbd09a039	-0.033600066
90	0xbd46d0cd	-0.04853897
91	0x3e263bc1	0.16233732
92	0x3d9ea782	0.07746793
93	0xbdf95f98	-0.12176436
94	0xbe0dfd29	-0.13866104
95	0x3d383cc9	0.044979844
96	0x3e3d24f4	0.18471128
97	0xbdcb098c	-0.0991393
98	0xbd97b20f	-0.07407009
99	0xbd6f9b2d	-0.058497597
100	0xbdda8a86	-0.106709525
101	0xbe7c95c5	-0.24666508
102	0x3cf71f69	0.030166345
103	0xbdb0f90a	-0.086412504
104	0x3d9a482e	0.075332984
105	0x3d28ea41	0.041239027
106	0x3db9f448	0.09079796
107	0xbd20bd06	-0.039242767
108	0xbbe12c6e	-0.0068717515
109	0xbe089576	-0.13338265
110	0xbdc58a5f	-0.09645533
111	0x3d5bd0ed	0.053666044
112	0xbde19188	-0.11014086
113	0xbd96a5f0	-0.07355869
114	0xbe618b11	-0.22025706
115	0xbd817644	-0.063213855
116	0xbd17911c	-0.03700362
117	0x3b0d9492	0.0021603447
118	0xbd8b0f01	-0.06789971
119	0x3da1c24d	0.07898388
120	0x3c630236	0.013855508
121	0xbdef7e01	-0.11693955
122	0xbd231811	-0.039817873
123	0xba98c773	-0.001165612
124	0xbe0687cb	-0.13137738
125	0x3bd6ab8e	0.0065512126
126	0xbd3c1cf4	-0.04592605
127	0x3c5b0c18	0.013369583
128	0x3c52d57b	0.0128682805
129	0xbc8f263f	-0.017474292
130	0x3d8133c8	0.063087046
131	0xbd258735	-0.040412147
132	0xbe06509d	-0.13116689
133	0x3dd73c54	0.105095536
134	0xbc636fed	-0.013881666
135	0x3d02f188	0.031968623
136	0xbc428651	-0.011872844
137	0xbe3f77ea	-0.18698087
138	0xbe2f9dcb	-0.17150037
139	0xbd351b69	-0.044215593
140	0xbe34639f	-0.17616127
141	0x3b998fc8	0.0046863295
142	0x3d9ab603	0.07554247
143	0xbd6c8cf3	-0.057751607
144	0xbe00db12	-0.12583569
145	0x3d2134b5	0.039356906
146	0xbcc86b5b	-0.024465254
147	0xbe8a6e2a	-0.27037174
148	0xbdd44dcf	-0.10366403
149	0x3da10d06	0.07863812
150	0x3e1159ec	0.14194459
151	0x3df6fede	0.12060331
152	0xbd9c6b82	-0.07637693
153	0x3d25be8a	0.040464915
154	0xbe6c9a76	-0.23105797
155	0xbca10cf9	-0.019659506
156	0xbd5479ed	-0.05187409
157	0x3d9713e1	0.073768385
158	0xbd1d528e	-0.03840881
159	0xbcc0ec08	-0.023550048
160	0xbe2e3f8d	-0.1701643
161	0x3b8b0f1c	0.0042437445
162	0xbc3e4857	-0.011613927
163	0x3a576c31	0.0008217721
164	0x3c28313b	0.010265644
165	0x3caaab6e	0.020833697
166	0x3b106aaf	0.0022036245
167	0x3d0cfe86	0.03442242
168	0x3dba07ae	0.09083496
169	0x3c777d78	0.015105598
170	0x3e0a2f56	0.1349462
171	0x3d3e611f	0.04647934
172	0xbe2b84d3	-0.16749887
173	0x3cad93ca	0.021188635
174	0xbda10e01	-0.07863999
175	0xbd9331f5	-0.07187263
176	0x3da9ead7	0.08296745
177	0x3d557dfb	0.052122097
178	0xbe73110e	-0.23736975
179	0xbd064a0f	-0.03278547
180	0x3dcbf9dc	0.09959766
181	0x3dd27926	0.102770135
182	0x3bc08222	0.005874888
183	0xbe0f284c	-0.13980216
184	0xbe061a9d	-0.1309609
185	0xbdcb8a7c	-0.09938523
186	0xbe8e0256	-0.27736157
187	0xbd8baa4d	-0.06819592
188	0x3e5642bd	0.20923896
189	0x3d235d48	0.03988388
190	0xbd8479b7	-0.06468528
191	0xbda3ecd3	-0.08004155
192	0xbe3bdf4c	-0.183469
193	0x3e307c06	0.17234811
194	0x3e6c9379	0.23103131
195	0xbc8866d4	-0.016650595
196	0xbd55f089	-0.052231345
197	0x3db23f3d	0.08703468
198	0xbcfbc7d9	-0.030734943
199	0xbddb38e2	-0.10704209
200	0xbcb8f56a	-0.02257796
201	0x3d82ace7	0.06380635
202	0xbdd34d4d	-0.10317478
203	0xbdb83631	-0.08994711
204	0x3d09b79a	0.03362236
205	0xbe252882	-0.16128734
206	0xbcaaf87a	-0.020870436
207	0xbd79ff0a	-0.06103424
208	0x3e19282b	0.14956729
209	0x3dcf76a5	0.101300515
210	0xbc973fef	-0.018463103
211	0x3a1eed16	0.000606255
212	0x3e024215	0.12720521
213	0x3e0a7861	0.13522483
214	0x3d81ff3d	0.06347511
215	0xbce970c8	-0.028496161
216	0x3e1ec573	0.15505008
217	0xbdde27cd	-0.10847435
218	0x3e0a5652	0.13509491
219	0xbc83b76c	-0.016078673
220	0xbd7bc7b7	-0.06146976
221	0xbe28bd3a	-0.16478434
222	0x3cd421bb	0.02589499
223	0xbc0a79be	-0.008451877
224	0xbdf714f2	-0.12064542
225	0x3d0ab76f	0.033866342
226	0xbc45b26a	-0.012066463
227	0xbcd5bf06	-0.026092064
228	0x3e472b1b	0.19450037
229	0xbe36b6aa	-0.17843118
230	0xbda719dc	-0.08159229
231	0xbe3e411a	-0.18579522
232	0xbde55f19	-0.11199779
233	0xbd869faa	-0.06573422
234	0x3e231820	0.15927172
235	0xbd957c27	-0.07299071
236	0x3e0561a9	0.13025536
237	0x3c0a727f	0.00845015
238	0x3ddd400c	0.108032316
239	0xbe3e48aa	-0.18582407
240	0xbb881ab8	-0.0041535757
241	0x3cd85778	0.026408896
242	0xbc4abde1	-0.012374372
243	0x3c8ad134	0.016945459
244	0xbd29a3b7	-0.041415896
245	0xbd30572d	-0.043051887
246	0xbac490f7	-0.0014996816
247	0xbdf9b66b	-0.121929966
248	0xbddfdcb6	-0.10930769
249	0xbd252d63	-0.040326487
250	0xbd8dd3da	-0.06925173
251	0xbc8dd9a2	-0.01731569
252	0xbddb1bbc	-0.10698649
253	0xbd84a1d3	-0.06476178
254	0x3e580264	0.21094662
255	0x3e42a577	0.19008432

convs.1.fc_full.bias f4 [92]
0	0x3d035a96	0.03206881
1	0xbdaa2e37	-0.08309596
2	0x3bf0d35e	0.0073494157
3	0xbd8e04f7	-0.06934541
4	0x3c69c23a	0.014267499
5	0xbd1d51d5	-0.03840812
6	0x3d51b961	0.05120218
7	0x3c6fda6f	0.014639481
8	0x3cdeeb7f	0.027211903
9	0xbdc082ea	-0.0939997
10	0x3d036f45	0.032088537
11	0x3d6615c6	0.05617311
12	0xbd90d1b1	-0.070712455
13	0x3d5790a4	0.052628174
14	0x3d8c23c8	0.06842762
15	0xbcd2fa24	-0.025754042
16	0xbd3b33c1	-0.045703653
17	0xbd18462b	-0.037176292
18	0x3d3fabbf	0.04679465
19	0xbd69a4da	-0.05704198
20	0xbdc3f45f	-0.095680945
21	0xbce05218	-0.027382895
22	0x3af029cc	0.0018323003
23	0xbd39e0cc	-0.0453804
24	0x3da22c8c	0.07918653
25	0x3c685bf0	0.014182076
26	0x3d448172	0.04797501
27	0xbc45acf1	-0.012065158
28	0x3c74f2b0	0.014950439
29	0xb99a8b5a	-0.00029476994
30	0x3d0cd99d	0.03438722
31	0x3dce7c7c	0.10082337
32	0x3dc42f15	0.09579293
33	0x3c4a20c1	0.012336911
34	0x3c96cda7	0.01840861
35	0x3dc640ed	0.09680352
36	0xbd54599c	-0.05184327
37	0xbd603bbb	-0.054744463
38	0x3d3514a9	0.044209156
39	0xbdb21ffd	-0.086975075
40	0xbc50c6cc	-0.012742709
41	0xbd6a4b21	-0.057200555
42	0xbda67093	-0.081269406
43	0xbd31a299	-0.043367956
44	0xbd425727	-0.047446396
45	0x3d17a639	0.037023757
46	0xbd39beaa	-0.045347847
47	0xbcdd22c2	-0.026994113
48	0xbd98c209	-0.07458884
49	0x3b411940	0.0029464513
50	0xbbcdc61f	-0.0062797214
51	0xbd823590	-0.063578725
52	0xbdb8db2a	-0.09026177
53	0x3c85e5fb	0.016345015
54	0x3d91b1b0	0.07113969
55	0x3d79b5a3	0.060964238
56	0xbcf8a288	-0.030350938
57	0xbd978724	-0.07398823
58	0x3d62d11f	0.055375215
59	0x3d5bde65	0.05367889
60	0xbdbaeb56	-0.09126918
61	0x3db9e814	0.090774685
62	0xbdbaa0b0	-0.0911268
63	0x3d1df7dc	0.038566455
64	0xbda41e26	-0.08013563
65	0xbd07dfc6	-0.03317239
66	0xbd38c407	-0.04510882
67	0xbd46cc86	-0.048534892
68	0xbd1132c0	-0.03544879
69	0xbdc1891b	-0.09449979
70	0xba983027	-0.001161103
71	0x3d055d0f	0.03255945
72	0x3d1e9f25	0.03872599
73	0x3d743f8a	0.059630908
74	0xbd8c4216	-0.068485424
75	0x3da241f9	0.079227395
76	0xbdaf9015	-0.08572403
77	0x3d67bc20	0.056575894
78	0x3d907b0a	0.07054718
79	0xbd48c820	-0.04901898
80	0x3bef67f4	0.0073060934
81	0x3d6b50b4	0.05745001
82	0xbd6ff6f8	-0.058585137
83	0xbdc9cb39	-0.09853215
84	0xbd76cea5	-0.060255665
85	0x3d9f21e4	0.07770136
86	0xbdab6046	-0.08367972
87	0x3daaf62c	0.08347735
88	0xbd7545fe	-0.059881203
89	0x3d6e31a2	0.058152802
90	0xbb593804	-0.003314496
91	0x3da0e6b1	0.07856501

convs.1.bn1.weight f4 [92]
0	0x3f861c5d	1.0477406
1	0x3f80c639	1.0060493
2	0x3f8e134f	1.1099643
3	0x3f9723de	1.1807821
4	0x3f81c8f9	1.0139457
5	0x3f7b64ef	0.9820089
6	0x3f7c36aa	0.9852091
7	0x3f7c0384	0.98442864
8	0x3f761735	0.9612916
9	0x3f317daf	0.693324
10	0x3f82bb51	1.0213414
11	0x3f6481d3	0.89260596
12	0x3f7a883c	0.9786413
13	0x3f8a15e3	1.0787929
14	0x3f91a09d	1.137714
15	0x3f9b55af	1.2135524
16	0x3f6e7ea7	0.93162006
17	0x3f9b3f74	1.2128739
18	0x3f703c47	0.93841976
19	0x3f455040	0.77075577
20	0x3f77db46	0.9681896
21	0x3f6d5d2f	0.9272031
22	0x3f84b750	1.0368443
23	0x3fa7e731	1.3117429
24	0x3f816ccd	1.0111328
25	0x3f720aef	0.94547933
26	0x3f84375e	1.0329397
27	0x3f9278ce	1.1443117
28	0x3f60b173	0.87770766
29	0x3f806524	1.0030866
30	0x3f6d5b4e	0.92717445
31	0x3f7616ef	0.96128744
32	0x3fa30f28	1.2739
33	0x3f7af828	0.98034906
34	0x3f881d88	1.0634012
35	0x3f7da445	0.9907878
36	0x3f28aa17	0.65884537
37	0x3f89fbfb	1.0780023
38	0x3f7cfc45	0.9882243
39	0x3f82652f	1.0187129
40	0x3f4d43df	0.8018169
41	0x3f7e9eb5	0.9946092
42	0x3f88c925	1.0686384
43	0x3fa557d6	1.291743
44	0x3f7cfe79	0.98825794
45	0x3f838a8f	1.027666
46	0x3f8c6c38	1.0970526
47	0x3f6a5fbc	0.9155233
48	0x3f761b46	0.96135366
49	0x3f87dfcb	1.0615171
50	0x3f6e5cfe	0.93110645
51	0x3f924d45	1.1429831
52	0x3f832c4c	1.0247893
53	0x3f8f8b82	1.121445
54	0x3f8e0f0d	1.1098343
55	0x3f85f4e3	1.0465358
56	0x3f94fbdb	1.163936
57	0x3f95ed2b	1.1713003
58	0x3f828b19	1.0198699
59	0x3f8ee81b	1.1164583
60	0x3f84afe7	1.0366181
61	0x3f617975	0.88075954
62	0x3f82097f	1.0159148
63	0x3f75e8a5	0.9605811
64	0x3f716d16	0.94307077
65	0x3f895c9e	1.073139
66	0x3f88f2c8	1.0699091
67	0x3f7e325d	0.992956
68	0x3f68fb50	0.9100847
69	0x3f3b89da	0.7325722
70	0x3f696a84	0.91178155
71	0x3f7acb9b	0.9796693
72	0x3f5fcfb9	0.87426335
73	0x3f413a60	0.754797
74	0x3f9de327	1.2334946
75	0x3f7d6fd3	0.98998755
76	0x3f872b2e	1.0560052
77	0x3f778ddf	0.96700853
78	0x3f6af71f	0.91783327
79	0x3f8f2194	1.1182122
80	0x3f6b8c42	0.9201089
81	0x3f60d7ae	0.878291
82	0x3f99f400	1.2027588
83	0x3f85db90	1.045763
84	0x3f8b11a0	1.0864754
85	0x3f83e000	1.0302734
86	0x3f9ebe4b	1.2401823
87	0x3f8b9416	1.0904567
88	0x3f61611e	0.88038814
89	0x3f754b4b	0.9581801
90	0x3f7d6e82	0.98996747
91	0x3f94a86f	1.1613902

convs.1.bn1.bias f4 [92]
0	0xbe0a78e0	-0.13522673
1	0x3d6538ba	0.0559623
2	0x3d94bbd1	0.07262386
3	0xbdae2382	-0.08502866
4	0xbd3fb789	-0.046805892
5	0xbe10f629	-0.14156403
6	0x3e1f4120	0.15552187
7	0xbde679c9	-0.112536974
8	0x3dc54b45	0.09633497
9	0xbdd784e8	-0.10523397
10	0xbde744fd	-0.11292455
11	0xbd6ed9d1	-0.058313195
12	0xbe5e94ac	-0.21736401
13	0x3dd0d031	0.10195959
14	0x3cca9575	0.02472947
15	0xbb6805bd	-0.003540381
16	0xbea1958d	-0.3155941
17	0xbda5f985	-0.08104233
18	0x3ca62b42	0.020284299
19	0xbee4ca43	-0.44685563
20	0xbc9a6beb	-0.018850287
21	0xbcc7ddb3	-0.024397707
22	0x3d407193	0.046983313
23	0xbc958f9c	-0.018256955
24	0x3e0291a9	0.12750877
25	0xbe9d7dff	-0.3076019
26	0x3ce7d9e1	0.028302135
27	0x3ddbc3ce	0.10730706
28	0xbdfbb304	-0.12290004
29	0xbb44f6cd	-0.0030054331
30	0xbd47828c	-0.048708484
31	0xbdaa2966	-0.083086774
32	0xbd481271	-0.048845712
33	0x3d26a17e	0.040681355
34	0x3e2b0246	0.16700086
35	0x3dd3271c	0.10310194
36	0xbed43fed	-0.41455022
37	0x3c9ba25a	0.018998314
38	0xbd6065c4	-0.05478455
39	0xbd887298	-0.06662482
40	0xbe7db007	-0.2477418
41	0x3d822c59	0.06356115
42	0x3dab5f66	0.08367805
43	0xbd2da94d	-0.042397786
44	0x3d723516	0.059132658
45	0xbd09b7c3	-0.033622514
46	0xbe869257	-0.26283523
47	0x3da4f441	0.080544
48	0x3da223c5	0.07916979
49	0xbd5ef40f	-0.05443197
50	0x3d7495a8	0.059713036
51	0xbe42503c	-0.1897592
52	0x3db1384b	0.08653315
53	0xbe0f44fc	-0.13991159
54	0xbe0d4649	-0.13796343
55	0xbe83de92	-0.25755745
56	0xbe0e8794	-0.13918906
57	0xbe870fbe	-0.26379198
58	0xbcd994b9	-0.026560174
59	0xbd22047a	-0.03955505
60	0xbbde9ada	-0.006793362
61	0x3de692e7	0.11258488
62	0xbea442b6	-0.32082146
63	0x3d771a34	0.060327724
64	0x3ccd35d4	0.025050081
65	0xbf00d50c	-0.50325084
66	0xbd68acdf	-0.056805488
67	0xbb7eb872	-0.0038867262
68	0x3d68d6c5	0.056845445
69	0x3e9ba034	0.30395663
70	0x3dc2164a	0.094769076
71	0xbe0084f7	-0.12550722
72	0x3b764cc3	0.0037582375
73	0x3e761b8f	0.2403395
74	0xbe97aaa2	-0.2962237
75	0x3d25f91b	0.04052077
76	0xbe1ea73b	-0.15493481
77	0xbda89a42	-0.08232547
78	0x3deff7c6	0.11717181
79	0xbe1c0584	-0.15236479
80	0x3df018ff	0.117235176
81	0x3dc57eb8	0.0964331
82	0xbf48b16c	-0.78395724
83	0xbe01a018	-0.12658727
84	0xbe248271	-0.16065384
85	0xbdc14e4a	-0.094387606
86	0xbeac673a	-0.33672506
87	0xbde0cb9d	-0.10976336
88	0xbcce180e	-0.025157955
89	0x3d129fb2	0.03579683
90	0xbc9b9a91	-0.018994601
91	0xbd6c229e	-0.0576502

convs.1.bn1.running_mean f4 [92]
0	0xbe38312e	-0.1798751
1	0xc014e79e	-2.3266368
2	0xbf1a1215	-0.6018384
3	0xc0033a91	-2.0504496
4	0xbe9616b0	-0.29314184
5	0x3ee15dc1	0.4401684
6	0xbfafe509	-1.3741771
7	0xbf9e0625	-1.2345625
8	0xbf690bdd	-0.91033727
9	0xc00a8f01	-2.1649783
10	0xc04d6d8b	-3.209811
11	0xbe87aa49	-0.26497105
12	0x3ec7d676	0.39030808
13	0xc05d464a	-3.457415
14	0x3f2fbd81	0.68648535
15	0xbfbe0588	-1.4845438
16	0xbe831882	-0.25604635
17	0xbeae68e9	-0.34064415
18	0xbf542019	-0.8286148
19	0xbe6ae1ff	-0.22937773
20	0x3f04fbc7	0.5194668
21	0xbf810cb2	-1.0081999
22	0xbf2d38fa	-0.67665064
23	0xbf3824a0	-0.71930885
24	0xc024e3a5	-2.5763943
25	0x3e8666e1	0.26250365
26	0xbfcf53a1	-1.6197397
27	0xbeae0b8c	-0.33993185
28	0x3f086e96	0.5329374
29	0xbd733ca6	-0.05938401
30	0xbe07e111	-0.1326945
31	0xbf94849d	-1.160297
32	0xbf58f667	-0.8475098
33	0x3f3767ff	0.7164306
34	0xc04f72e4	-3.2413874
35	0xc00e69c7	-2.2252061
36	0x4010974f	2.2592351
37	0xc016f251	-2.3585398
38	0xbfd45278	-1.6587667
39	0xbfd52812	-1.6652853
40	0x3effc15d	0.49952212
41	0x40511259	3.2667449
42	0xbf0848c2	-0.5323602
43	0x3f6f03e2	0.933653
44	0xbfaa767d	-1.331741
45	0xc02bd627	-2.6849458
46	0xbdaafb6c	-0.08348736
47	0xbfb68877	-1.4260396
48	0xbfc50774	-1.53929
49	0xc02b1525	-2.6731656
50	0x3e0da7d9	0.1383356
51	0xbe1b22bb	-0.15149967
52	0xbf26f3c9	-0.65215737
53	0xbf552bda	-0.8327004
54	0xbf7b8220	-0.9824543
55	0x3eb2be2c	0.34910715
56	0xbfff829c	-1.9961734
57	0x3f9b75dd	1.2145344
58	0xbf018f3b	-0.5060918
59	0xc0783550	-3.878254
60	0xbfe6513d	-1.7993542
61	0xc0288321	-2.6330035
62	0x3fad642e	1.3546197
63	0xbf2e36e5	-0.6805251
64	0xbfef3475	-1.8687884
65	0x3f278a2b	0.654452
66	0xbfcbb0c4	-1.591332
67	0xc02480ac	-2.5703535
68	0xbe032ab4	-0.12809259
69	0xc01cb9c1	-2.4488375
70	0xc071aa0f	-3.7760046
71	0xbf3237db	-0.6961648
72	0xc0447b65	-3.0700314
73	0xbfbf7510	-1.49576
74	0x3fc350d9	1.5259048
75	0x3f272ebc	0.65305686
76	0x3f31232f	0.6919431
77	0xbfdbd0b8	-1.7173071
78	0xc009d19f	-2.1534193
79	0x3ee47faf	0.44628665
80	0xc0874785	-4.2274804
81	0xbff9b04c	-1.9506927
82	0x3d4d0af4	0.050059274
83	0xbfc9cf46	-1.576638
84	0xbf2cbae1	-0.67472655
85	0xbf86a51f	-1.0519141
86	0x3f805e83	1.0028843
87	0x40389810	2.8842812
88	0xbff019b3	-1.8757843
89	0xbfd9196b	-1.6960882
90	0xbf659589	-0.896813
91	0xc0719531	-3.774731

convs.1.bn1.running_var f4 [92]
0	0x40705d33	3.7556884
1	0x40401cbd	3.001754
2	0x40276834	2.615735
3	0x40313b6e	2.7692523
4	0x408fafec	4.490225
5	0x407c126f	3.938625
6	0x40a2a358	5.0824394
7	0x407344ef	3.8010824
8	0x4091cb26	4.5560484
9	0x400c99ea	2.1968942
10	0x403ed30c	2.9816313
11	0x40b9d515	5.807261
12	0x40e9bcf7	7.304317
13	0x4033a733	2.80708
14	0x3fe1e9af	1.764944
15	0x3fb25760	1.3932915
16	0x40603bd5	3.5036519
17	0x40741a33	3.814099
18	0x4043b55c	3.0579443
19	0x407c27a8	3.9399204
20	0x40309532	2.7591062
21	0x40172cdc	2.362113
22	0x40722628	3.7835789
23	0x40b14bd0	5.5405045
24	0x40337583	2.8040473
25	0x403bd93d	2.9351342
26	0x400e74f4	2.2258883
27	0x408e06d7	4.438335
28	0x40a2bde9	5.0856824
29	0x4059468a	3.3949304
30	0x409b4113	4.8516936
31	0x407f9508	3.9934711
32	0x401aaddc	2.4168615
33	0x408088c9	4.0166974
34	0x4028ea01	2.6392825
35	0x4092522e	4.5725317
36	0x406134ea	3.5188546
37	0x4017c73f	2.371536
38	0x3fdca001	1.7236329
39	0x400a7ee1	2.163994
40	0x40995994	4.792185
41	0x3f530bbe	0.8243979
42	0x40a01827	5.0029483
43	0x4036d9a4	2.8570337
44	0x4060a084	3.509797
45	0x40de6c63	6.950731
46	0x404fd046	3.247087
47	0x3fdf94ac	1.7467246
48	0x4007e6cc	2.1234617
49	0x40087f39	2.132765
50	0x40954c47	4.665561
51	0x40b2ee86	5.5916166
52	0x40672a83	3.6119697
53	0x405283e0	3.289299
54	0x409ae804	4.840822
55	0x3ffff925	1.9997908
56	0x405c97a7	3.4467561
57	0x40bb7b2d	5.858786
58	0x40dace76	6.8377028
59	0x40043939	2.0659926
60	0x40431f3a	3.048781
61	0x3fabc13f	1.3418349
62	0x3fac58e5	1.3464628
63	0x4024f51e	2.5774608
64	0x406b3c6a	3.6755624
65	0x400a91e3	2.1651542
66	0x40202bb6	2.502668
67	0x3f80d83f	1.0065993
68	0x408ec85a	4.461957
69	0x40ebcb18	7.3685417
70	0x400ef2fd	2.2335808
71	0x403423ff	2.814697
72	0x405bb138	3.4326916
73	0x40e4a470	7.145073
74	0x40bc591f	5.885879
75	0x407922e7	3.8927553
76	0x40a77c93	5.233957
77	0x40839642	4.112092
78	0x4003ea78	2.0611858
79	0x409347a8	4.602497
80	0x40bf3fac	5.9765224
81	0x408e4d55	4.44694
82	0x402b4dbd	2.6766198
83	0x40029401	2.0402834
84	0x405d1f08	3.455019
85	0x3fd952d1	1.6978399
86	0x40bcfed5	5.9061074
87	0x3ff1f225	1.8902022
88	0x4096a5a6	4.7077208
89	0x4080e728	4.0282173
90	0x3feaece4	1.8353543
91	0x40c8ab5c	6.270918

convs.1.bn2.weight f4 [46]
0	0x3f851e53	1.0399879
1	0x3f7c7ac8	0.9862485
2	0x3f7898d9	0.97108227
3	0x3f7b1266	0.9807495
4	0x3f6f0029	0.9335962
5	0x3f911d52	1.1337073
6	0x3f5e7a85	0.869057
7	0x3f76269b	0.9615266
8	0x3f6ac1ce	0.9170197
9	0x3f8178b8	1.0114965
10	0x3f966eca	1.175256
11	0x3f8bbc9e	1.0916936
12	0x3f88882c	1.0666556
13	0x3f7d00e1	0.98829466
14	0x3f8083da	1.0040238
15	0x3f76f55a	0.96468127
16	0x3f86394e	1.0486238
17	0x3f94622a	1.1592457
18	0x3f5f3b0e	0.87199485
19	0x3f84efa5	1.0385634
20	0x3f8e0296	1.1094539
21	0x3f8130ea	1.0093052
22	0x3f7044eb	0.9385516
23	0x3f80c2ec	1.0059485
24	0x3f786b26	0.97038496
25	0x3f82d002	1.0219729
26	0x3f4a94cc	0.79133296
27	0x3f661aff	0.8988494
28	0x3f82c94b	1.021768
29	0x3f72dbca	0.9486662
30	0x3f77b421	0.9675923
31	0x3f60a9db	0.8775918
32	0x3f6a8ce9	0.9162126
33	0x3f8c9d11	1.0985433
34	0x3f603b40	0.8759041
35	0x3f73e4e5	0.9527114
36	0x3f9613db	1.172481
37	0x3f88d490	1.0689869
38	0x3f7b51dd	0.9817179
39	0x3f8bb252	1.0913794
40	0x3f93dbf0	1.1551495
41	0x3f5289c5	0.8224147
42	0x3f5832bb	0.8445241
43	0x3f7aa346	0.97905385
44	0x3f76ae88	0.96360064
45	0x3f92197c	1.1414027
