dropout/NN/histories/d10_valid_best_params.pt (torch_old, 452453 bytes, 103 tensors)

embedding.weight f4 [46, 98]
00000000: f528 2cbd 2660 ec3c f40d 9ebc b6ca 413d
00000010: a2c0 a93f 4964 563e d933 a1bd e999 13be
00000020: 3eac a33e f3ef 3d3f 9f05 0bbd 54de 92bd
00000030: 9138 47bf aa06 a4bc ef10 d6be 5b90 b1bd
00000040: eeca 82bd cbc9 40bf 7dfc a0bd ffa7 5f3e
00000050: d4c3 36be afc8 39bf 9670 233e 3b49 9a3e
00000060: 6095 c7be 1c39 a7bd 9b4d 15be ab18 7ebe
00000070: f586 893f e628 bbbe d6a2 9f3e 1242 c5be
00000080: e8c1 bbbc ce44 c93d 377f 2c3c 18aa 14bd
00000090: 79e4 9b3e 5a1c f13b 35ce 12be 755c e1bd
000000a0: 579e 4fbe 580c 1d3e e7ff 8b3d babb cb3d
000000b0: 68e1 0f3d 1759 05bf ce37 083e e23c 64bd
000000c0: cb6a 14be 62e1 ba3c be61 aebd 1f4b 44be
000000d0: 87b7 60be 70d3 b33e cb1b 543f a3d1 40be
000000e0: 3d4f cfbb b7df 8fbe 751c 34be 91f9 8cbe
000000f0: a7d0 c5bd 7b75 a33d 0d53 553e 663d 08bf
00000100: 44e1 e63c c0cb bdbc bdeb 20bd ae2b b83d
00000110: 7065 b1bb 607e fcbb c77d 003d 8fda a1bd
00000120: 019c 833e 04d1 fb3d 80bc 95be 606e 45be
00000130: a477 443d 0d4b 45bf b6d2 b1bc b757 39bf
00000140: f0eb 073f 11fc 9fbd 1828 cabd ca6c 243f
00000150: eb3e 0cbe abea 0dbf f306 22be 3338 89bc
00000160: 0484 15be b2d4 6f3e 4355 153d 66e2 12bf
00000170: 7235 7bbe ed5d cabf eaed e43f 726b 71be
00000180: a953 4a3e 46cd 50bd 90a4 bbbc cf49 b23d
00000190: 6ba1 d1be 6907 18bf 5aac 75be 649a a8be
000001a0: f046 2cbf 0dc6 b53e bbbe a03e 7057 c73e
000001b0: e665 2b3f 2d9f ee3d 2c3c afbf 8f33 9ebe
000001c0: 9b88 84bd 9b2e 85be d175 f63b 88a8 79be
000001d0: 5c64 d7bc b65d 5d3c 22de a23e 6d41 58bf
000001e0: 59de 3b3e 81f4 4e3e 5fb3 83be 6b22 bfbd
000001f0: ca6a a3be 6e08 65be b169 d1be ec80 9fbe
00000200: c823 8e3c e025 ba3e 9cb6 8fbd ca69 363e
00000210: cca6 c1be b027 a63c 3092 923c 46cb 03bf
00000220: cbb9 b33e 2882 593e 26b2 7b3b 01c5 75bf
00000230: de27 5fbe 9775 1ebf dc73 373d 3984 82bf
00000240: fccd 933d a2cc 89be 5445 abbe 2778 8abe
00000250: 362f 4bbe b264 a4be 807d ec3e 9dee 123e
00000260: 7c0a b83e 8493 acbe 396d 803e 26e6 f03e
00000270: a7b7 a5be 6178 da3d 9e9f 56be da11 6cbe
00000280: 23b2 933e 51d9 a5bc 2bcc 4fbc ec9f c3bc
00000290: 4a45 943d 80e6 7c3a 7841 413d e001 e53c
000002a0: 6fcc 9e3e 9056 ed3c c17f a3be 9639 903e
000002b0: 7085 e1bd c595 af3e e9f8 2cbd 2f3a 6fbe
000002c0: b15f 7fbe 498e 09bf cd65 aa3e d039 413d
000002d0: 1070 283e cdd3 923e fb8c df3d 3464 50be
000002e0: be12 093e e340 d0bf 6147 3bbe 6d64 a0bf
000002f0: 468d 713e ff6e 92bf 90ea a03e 7e46 4cbd
00000300: 2ed6 58bf 952e 38bf 6243 383f b029 f2bd
00000310: 82e1 04bd a20b 3abe 8e3d 8bbe 11c8 083f
00000320: d8fd ab3e a7f9 b73e 2e98 e03e 8f1f c63e
00000330: fdf3 7a3f 5428 2a3f c65f cabe 43ff 64bf
00000340: a7d2 72bf c28c 8dbe 51fa cabe 0656 a23d
00000350: fda2 9a3e 202f adbd 36b3 93bd 9acf 98bd
00000360: ff26 213d 97eb cd3e 3eb7 20bf 0f10 e5bd
00000370: 9376 043f 6011 0cbb b6da 76be d163 93be
00000380: fb68 6bbe 9848 38bd be9c 273b 2360 ddbe
00000390: 0828 5c3d 196e 173e 0ce4 9d3e b86d 0a3d
000003a0: 8e80 7fbd 347d 963e 029e 98be d3d7 003d
000003b0: 2116 b0be c26b b43e 467f 72be 757a 27bf
000003c0: c482 a93c 8169 be3e 9d9c 1cbe 9a9d 9ebe
000003d0: 52c0 d3bd 0794 d7be e5e4 3c3d 68b4 0e3f
000003e0: f589 453e d97f 843f 9431 223f e9cb 17be
000003f0: 1212 61bf 534a 4fbf 4a0e 96be e076 67bd
-0.042031247 0.02885444 -0.019293763 0.04731246 1.3261912 0.20936693 -0.07871217 -0.14414181
0.31967348 0.7419426 -0.033940908 -0.07171312 -0.7782069 -0.020022709 -0.41809794 -0.08670112
-0.06386362 -0.7530791 -0.07860658 0.21841429 -0.1784814 -0.72571844 0.15960917 0.30133995
-0.38981152 -0.081651896 -0.14580385 -0.24814098 1.0744311 -0.3655464 0.3117892 -0.3852697
-0.02291961 0.098275766 0.010528377 -0.036295027 0.30447748 0.007358116 -0.14336474 -0.11003963
-0.20275246 0.1533674 0.06835919 0.099479154 0.035127074 -0.52089065 0.13302538 -0.055722125
-0.14493863 0.022812549 -0.085147366 -0.19169281 -0.2194501 0.35122252 0.8285491 -0.1882997
-0.0063265846 -0.28100368 -0.1758898 -0.27534154 -0.09658938 0.07981392 0.20832463 -0.53218687
0.028183587 -0.023168445 -0.039287318 0.08992706 -0.0054137036 -0.0077054948 0.03136995 -0.07903015
0.2570496 0.12295726 -0.29245377 -0.19280386 0.04796566 -0.77067643 -0.02170692 -0.7239947
0.5309439 -0.0781175 -0.098709285 0.642285 -0.13695876 -0.554362 -0.15822963 -0.01675043
-0.14601141 0.2342098 0.036458265 -0.57376707 -0.24532107 -1.5809914 1.7885106 -0.23576143
0.19758476 -0.050977014 -0.022905618 0.08705484 -0.40943465 -0.59386307 -0.23991528 -0.3293029
-0.6729574 0.35502663 0.31395516 0.38933897 0.6695236 0.11651454 -1.3690238 -0.3089871
-0.06471368 -0.2601212 0.007521369 -0.24380696 -0.026292972 0.013511112 0.318101 -0.8447483
0.18346538 0.20210458 -0.25722787 -0.093327366 -0.3191741 -0.22366497 -0.4090095 -0.31153047
0.017351046 0.3635702 -0.07017252 0.17813793 -0.37822568 0.020282596 0.017891973 -0.51482046
0.35102686 0.21241057 0.0038405745 -0.9600373 -0.21792552 -0.6189818 0.044788226 -1.0196601
0.07217023 -0.26913935 -0.3345133 -0.27044794 -0.19842228 -0.32108074 0.461895 0.14348836
0.359455 -0.33706295 0.2508333 0.4705059 -0.32366678 0.10667492 -0.20959327 -0.23053685
0.28846845 -0.020245226 -0.012682955 -0.023879968 0.07239778 0.0009647384 0.047181576 0.027954996
0.31015345 0.02897194 -0.31933406 0.28168935 -0.11011779 0.34293953 -0.042229567 -0.23362039
-0.24938847 -0.53732735 0.33280793 0.047174275 0.16448998 0.28677216 0.10915562 -0.20350724
0.13386056 -1.6269802 -0.18288948 -1.2530648 0.23589048 -1.1440123 0.31428957 -0.049871914
-0.8470181 -0.7194608 0.7197782 -0.118243575 -0.032441624 -0.181685 -0.271954 0.5343028
0.33592105 0.35932657 0.43866104 0.38695952 0.98028547 0.66467786 -0.39526194 -0.89452
-0.9485268 -0.27646452 -0.396441 0.07926564 0.30202475 -0.08456254 -0.07211916 -0.07461472
0.03934383 0.40218803 -0.62779605 -0.111847036 0.5174343 -0.002137266 -0.24106869 -0.2878709
-0.22989266 -0.044991106 0.0025575603 -0.4323741 0.053749114 0.14788093 0.30838048 0.033796042
-0.06237846 0.29392397 -0.2980805 0.031455826 -0.34391883 0.35238463 -0.23681363 -0.6542123
0.020692237 0.37189868 -0.15294118 -0.30979615 -0.103394166 -0.42105123 0.04611673 0.5574403
0.19290908 1.0351516 0.633569 -0.1482388 -0.879182 -0.80972785 -0.29307777 -0.056509852

embedding.bias f4 [46]
00000000: 1d43 b0be 0afd 9fbe 864d 58bf 8701 e5be
00000010: e48d b3be 4a00 0ebf b379 49be b3d8 6ebe
00000020: 3bbb f3be b5b5 dcbe d9c3 a1be 2424 dabe
00000030: ecf9 b63d 0987 72be 43bc 52bd d4d2 dbbe
00000040: b220 f7be a965 41bf 1dbc ebbe 607b 22bd
00000050: 13af 5dbe ca2d 71be a979 673d fa34 99be
00000060: b71c 423d c5f9 c5be 5423 b6be d459 efbe
00000070: e9eb dcbe a460 8bbe 2d55 11bf aa40 0ebd
00000080: c697 ddbe 5c3b 66be c7f6 05bf 9fd4 b6be
00000090: 3962 e3bd fa7c 1ebe ca68 8bbe 71f2 d1be
000000a0: 8db4 d6be fe67 b5bd 42a1 e1be b8d9 0bbf
000000b0: a3d0 f3be fe39 a2be
-0.34426203 -0.3124774 -0.8449329 -0.44727728 -0.3506919 -0.5546919 -0.19675331 -0.23324852
-0.47603783 -0.4310738 -0.31594732 -0.42605698 0.089343876 -0.23684324 -0.05144907 -0.42934287
-0.48267132 -0.75545746 -0.46041957 -0.03966844 -0.21648817 -0.23552623 0.05651251 -0.2992323
0.047390666 -0.38667122 -0.35573828 -0.4674822 -0.43148735 -0.27222168 -0.5677059 -0.034729637
-0.43279856 -0.22483581 -0.5232968 -0.35709092 -0.11102719 -0.15477362 -0.27228385 -0.4100528
-0.41934624 -0.088577256 -0.44068342 -0.5462909 -0.47620115 -0.3168487

convs.0.fc_full.weight f4 [92, 98]
00000000: 0d06 c5bd 04b5 553f 2c53 ac3d e7b3 07bf
00000010: 4023 853e b47a 493e 8aa4 74be 020c 0b3f
00000020: 2707 85bd 695f f43e 45b8 9c3e 4dff c9be
00000030: 1348 67be 72c3 d4be a55a 993e 6899 873c
00000040: 83e0 843e 9f43 48be cb83 153f ec05 023e
00000050: aa83 47bb 6ba6 113f 8cf5 ef3e ff31 3c3f
00000060: 105a b73e 54fb 67bf 041c 55bc fa52 f53d
00000070: d264 c63e eca1 eb3e df23 093f c437 193e
00000080: 1b72 b7be 83c8 ee3d 5314 8b3e bca7 1abf
00000090: af1c 76bd 2d2d e03e 71fb 233e c46a 1f3e
000000a0: 289f 30bf 39cc 9ebe a41e 463f b831 05be
000000b0: 9fca 223f 42f8 1cbf d628 c5bf bc63 ddbe
000000c0: 7928 3dbe 04bd 37be 864c 123e 30a4 a93e
000000d0: 8c99 5c3f 1f34 b2be 81eb c83f f81b f2be
000000e0: 4864 2e3d 0cf2 dfbd 1d90 69be 990a 613d
000000f0: fb90 dabe 262b 11be 9521 e93e 97cd 243f
00000100: 5202 f33e b009 4a3d 0a5e 203f 34ed 303f
00000110: 6ba2 683f bd67 983e 0284 433f 817a 17be
00000120: 37b2 a2bf 305d bdbf 25c2 8ebf 65c4 bd3f
00000130: b5f8 03bf 66bf 513f 86dd 40bf 3b2b 21bf
00000140: b514 5cbf 87c4 313f c341 663e a972 57bf
00000150: 6173 df3d 441a 803e 6747 93bd eefd 463f
00000160: f130 463f 3a43 973e 1efe cebe 2f58 c63e
00000170: a402 2b3f 1e94 1cbe 1115 173f 46b1 2cbd
00000180: 1143 f93e 0259 92bf 7750 0abf bc0e 27bf
00000190: 5962 d1bd 811c 2dbd 1068 67be ca44 a5bd
000001a0: f58d 9a3e d6f7 d23e 68b0 053f d234 b33d
000001b0: 689f d7be 87a8 c0be bc97 2fbd f399 c63e
000001c0: 61b0 21bf 95a8 42be a6a6 fabe 0494 783d
000001d0: 1b09 96be fe9c 30bc 6a27 39bf b45d 45bf
000001e0: 5e7e 32bf 1b22 e53d 164f a8be 72c7 f63e
000001f0: 81de 31bd f6c3 82be b46f 203e 6d81 743e
00000200: cedc 98be e2cf 0dbe 9a04 5cbe fb83 06bf
00000210: da18 023f afd8 033f 42dc d93e 102e fabe
00000220: 11c7 a23e 4830 ca3e 7d0e 35bf 54c6 923e
00000230: 8bf9 a0be eef5 bb3d 62c6 5abd 2d67 203e
00000240: 0ea8 f6be 1f2c 4d3f d3e9 753f b598 cbbc
00000250: 27ed 203f bb4b 1f3f 5913 cc3e b244 ab3e
00000260: cb68 6fbe 19f4 e93e 07a0 58be 2960 2dbf
00000270: 2ca2 0dbf 7f82 b2be 0bd4 8fbe 0df6 cbbe
00000280: d90d 10bf f55f a93d c26e 75be 1f91 2f3e
00000290: 25eb 1bbf 031f 5c3e ab84 803e 0967 51be
000002a0: 0e2c 25bd 0e29 a13e e269 f1be ace4 18bf
000002b0: 94ad 02be 29db df3e 4260 aab9 50d9 0b3f
000002c0: e9e3 d0be 0dc5 10be a030 4d3e bc3b 80be
000002d0: cd15 00bf 55f9 08bf 3c2e c23e 100f 8d3d
000002e0: 90fc a4bd a1ec 2b3d 8ae6 8a3e 4547 05bf
000002f0: 2a18 2a3e 7359 fc3e 3a05 4dc0 4d5a 51c0
00000300: 52f6 703e 1643 e7bd fda5 c03e f375 6840
00000310: deb3 123f 6a33 00bf 1f56 35bf 293e 1abc
00000320: 3066 e7bd 9707 ca3d bd93 0fbf 8a1e d9be
00000330: 62ac c23e d509 093e 4b66 8e3e 0607 8c3d
00000340: b168 39bf 924c f8bd 2f44 15bf f557 91bd
00000350: 6fe8 123d b377 2bbf 83b5 013f 968f 693f
00000360: 59fd 553e 0c8a 0b3e 6d20 063f 255f 593e
00000370: b44b 9f3d 732a 533e 91bf c1be cbed 233e
00000380: a624 33bf 64f1 53bb c286 a53d e72a 5d3e
00000390: 1527 823d 1a01 2cbe 0881 47be 8190 813e
000003a0: acf1 373e a89f eb3e e740 c53e 1499 313e
000003b0: 3c61 193e 0920 113f 780b 993e 2e0c e63e
000003c0: be13 643e e3dd b83d b70d a93e 2713 84be
000003d0: 8935 cbbe 201d fcbe 913d 73be a72e 66bf
000003e0: 1819 263f 8327 c7be 8065 2f3f bfa4 d0be
000003f0: f3bd edbe f1fa 6539 057b 10bf 48ed d93e
-0.09620295 0.8347933 0.08414301 -0.53008884 0.26003456 0.19675714 -0.23890892 0.543152
-0.06495505 0.47729042 0.30609336 -0.39452592 -0.22586088 -0.41555363 0.2995197 0.016552642
0.2595254 -0.19557045 0.58404225 0.12697572 -0.0030443468 0.5689456 0.46867025 0.7351379
0.358109 -0.9061787 -0.013007168 0.11978717 0.38748795 0.46021974 0.5357036 0.14962679
-0.35829243 0.11659338 0.27163944 -0.6041219 -0.06008595 0.43784466 0.16013886 0.15568072
-0.68992853 -0.31015185 0.77390504 -0.13007247 0.63590425 -0.6131631 -1.5403087 -0.43240154
-0.1847247 -0.17943197 0.14287004 0.33133078 0.86171794 -0.3480539 1.569687 -0.47286963
0.042576104 -0.10934839 -0.22808881 0.054941747 -0.42688736 -0.14176616 0.45533434 0.64376205
0.47462708 0.049325645 0.6264349 0.69111943 0.9087283 0.29766646 0.763733 -0.14792825
-1.2710637 -1.4794064 -1.1152998 1.482556 -0.5155137 0.81932676 -0.7533802 -0.6295659
-0.85969096 0.694405 0.22486024 -0.8415933 0.10910679 0.2502004 -0.07191353 0.77731216
0.7741843 0.29543477 -0.4042825 0.38739154 0.66800904 -0.15290877 0.5901652 -0.04216125
0.4868398 -1.1433413 -0.5402903 -0.6525686 -0.102238365 -0.04226351 -0.2259829 -0.08069761
0.3018643 0.4120471 0.522223 0.08750309 -0.42113805 -0.37628576 -0.042869315 0.3878933
-0.6315976 -0.19009621 -0.48955268 0.060688034 -0.29303822 -0.010779617 -0.72325766 -0.77096105
-0.6972407 0.11188146 -0.32872838 0.4819904 -0.043425087 -0.2554013 0.15667611 0.23877497
-0.2985596 -0.13848832 -0.2148613 -0.52545136 0.5081917 0.5150251 0.42550856 -0.48863268
0.317925 0.3948996 -0.7072523 0.28666937 -0.31440386 0.09177767 -0.05341185 0.15664358
-0.4817509 0.8014545 0.9605991 -0.02485309 0.62861866 0.6222493 0.3985851 0.33450848
-0.23379819 0.45694044 -0.21154796 -0.67724854 -0.5532558 -0.34865186 -0.28091463 -0.3983616
-0.5627113 0.082702555 -0.23968032 0.17145203 -0.6090568 0.21496205 0.25101218 -0.20449461
-0.040325217 0.31476635 -0.47151095 -0.59723926 -0.12761527 0.43721893 -0.00032496644 0.5462847
-0.40798882 -0.14137669 0.2003808 -0.25045574 -0.50033265 -0.5350545 0.379259 0.068876386
-0.08055985 0.041973714 0.27129012 -0.52061874 0.1661078 0.49286994 -3.203444 -3.2711365
0.23531464 -0.112920925 0.3762664 3.632199 0.57305706 -0.5007845 -0.70834535 -0.009414234
-0.112987876 0.09864729 -0.56084806 -0.42406112 0.38022143 0.13382657 0.27812418 0.06837277
-0.7242537 -0.1212398 -0.58307165 -0.070968546 0.035866197 -0.6697952 0.5066759 0.9123472
0.20897426 0.1362688 0.5239323 0.21227701 0.07778111 0.20621662 -0.37841466 0.1600868
-0.69977796 -0.0032339925 0.08082344 0.21598397 0.063551106 -0.16797295 -0.19482815 0.2530556
0.17963284 0.46020246 0.3852608 0.17343551 0.14978498 0.56689507 0.29891562 0.44931167
0.22273156 0.090266965 0.33018276 -0.25795862 -0.39689282 -0.4924097 -0.23753954 -0.89914936
0.6488204 -0.38897333 0.6851425 -0.4075069 -0.46433982 0.00021932625 -0.5643771 0.42563844

convs.0.fc_full.bias f4 [92]
00000000: e828 8e3d 15d5 56bd 80e7 e93d 0fb0 0cbc
00000010: 33c0 983d fb68 b6bd cc0b 87bd b340 adbc
00000020: a7d5 183d 4a6f 243d 80fc c3bd 1764 283d
00000030: 574d 543d fe1d 233e 8b44 41bd 50d9 b7bd
00000040: 457f 163e edd6 fd3b 634f 0fbd 5a8c f33d
00000050: 8e3c 953d a2aa 823d b580 c6bd 4fab b33d
00000060: 933a bdbd 33f1 263d f625 973c 255c 8bbd
00000070: 1bdb 17be dc74 0abe 2414 f83d e20a 6b3e
00000080: 0b2b 4b3d 1fe8 c03c 7e30 09be df10 d33d
00000090: 6b0c d33d 349b db3a 54d9 f3bd 7805 233e
000000a0: f5ae 23bd 74f4 d1bc 05c6 20bd 860b 9fbc
000000b0: 53cf 8a3a dbc2 5dbc 2b1b 563c 1508 c6bd
000000c0: 8f4c a03d dfa0 a23d 2235 87ba 9ebc 0bbc
000000d0: 8cff fc3d 1c19 bc3c ea46 763d d78e 8e3c
000000e0: 4c52 dfbd 7d81 da3c a436 973d 8783 b83d
000000f0: 0504 b13d a8e5 533d 11dc 3ebe 9090 bdbd
00000100: 2952 9fbd bca1 d0bc 7773 dbbd 1ef6 3a3d
00000110: 3d9f 7e3d 5d36 d63d 7b5f dcbd 0fb3 56bb
00000120: ab48 ddbc cc9d ec3c db90 283c 09ec aebd
00000130: dd50 c6bd a8b2 c5be 2448 483e c12e c73c
00000140: 0757 04be 717d bdbc 2b37 2f3d c5bd 8f3b
00000150: 865c 62be 7f5f 0c3e 334c 3f3c 9338 c63c
00000160: 19c5 b3bd 0aa2 82bd 2c96 acbd 43fe dc3d
0.06941396 -0.052449305 0.11421108 -0.0085868975 0.07458534 -0.08906742 -0.06594047 -0.021149015
0.03731313 0.040145196 -0.09569645 0.041111078 0.05183157 0.1592941 -0.04718451 -0.08976996
0.14696987 0.0077465684 -0.03498782 0.11892004 0.072869405 0.06380202 -0.09692518 0.08772909
-0.09239688 0.04075737 0.018450718 -0.068046845 -0.14829676 -0.13521141 0.121132165 0.2295337
0.049601596 0.023548184 -0.13397405 0.10305952 0.10305103 0.0016754628 -0.119066864 0.15920055
-0.039961774 -0.02562926 -0.039251346 -0.019414674 0.0010590352 -0.013535227 0.013068001 -0.0966951
0.078271024 0.0794084 -0.0010315517 -0.008528857 0.12353429 0.022961192 0.060126223 0.017402096
-0.10904369 0.026673073 0.07383469 0.09009462 0.08643345 0.05173269 -0.18638636 -0.09256089
-0.07779343 -0.025467746 -0.107153825 0.045644872 0.06216358 0.10459588 -0.10760399 -0.0032760536
-0.02701219 0.028883837 0.0102884425 -0.08541114 -0.09683392 -0.38612866 0.1955877 0.024314286
-0.12923823 -0.023131104 0.04277722 0.004386636 -0.22105607 0.13708304 0.011675882 0.024196899
-0.08777828 -0.06378563 -0.084270805 0.10790684

convs.0.bn1.weight f4 [92]
00000000: 9c68 5c40 cc47 933f a6a8 2540 b446 ab3f
00000010: 9fcd 9740 a427 1e40 cbdd 4340 b9e9 e43e
00000020: 8cf4 0f40 66c2 0240 ef55 1540 51c1 2040
00000030: 0dd7 463f b32b 9f3f de53 c43f cc4c 2640
00000040: b6de 4d3f 5767 b63f e2c2 9840 9ad5 233f
00000050: d033 4940 8d18 503f efa4 b43f 4998 a23f
00000060: 8f43 3e40 b28e 8a3f 262c 2a40 aa0e 1f40
00000070: 7e9d 3d40 87a6 1840 c30a ec3f dc7e 4f40
00000080: c267 2e40 9689 4240 5dcc 4040 0144 453f
00000090: b816 1f40 5b8e 0940 3ed1 0340 b0c9 9a40
000000a0: 972f 9540 6695 1d40 ef09 9240 b6f3 1e3f
000000b0: 1278 eb3f d7d5 b040 d461 5840 5216 8d3f
000000c0: 3d74 0e40 a4c0 f93f a64e c03f ca19 2040
000000d0: 8077 0140 1cdb 843f 6e32 1c40 4415 cc3f
000000e0: df96 ff3f f006 2840 8a85 9c3f a191 1440
000000f0: 2406 b13f c3f2 3540 4361 673f 2d1d 9b3f
00000100: 76d8 8040 d86e 563f 9b69 e93f 5bbe 4840
00000110: fa10 543f c1d2 d33f 68c3 a23f 8a9f 8a3f
00000120: 3001 5140 10e6 dc3f dfbe 2840 92ae 853f
00000130: 879d 8640 f5a8 153f e5de 873f 5851 ea3f
00000140: 5156 963f b629 3a40 c81b 0540 7990 0540
00000150: c00d b83f f7b0 023f c167 e33f 9708 2840
00000160: 64fe b33f aca9 e13f dde3 0940 726b 803f
3.4438848 1.1506286 2.5884185 1.3380952 4.74385 2.4711695 3.0604122 0.44709566
2.249301 2.0431151 2.33337 2.511799 0.7767189 1.2435211 1.5338094 2.5984373
0.80417955 1.4250287 4.7737894 0.63997805 3.1437874 0.8128746 1.4112834 1.2702724
2.9728734 1.0824797 2.6589446 2.48527 2.9627376 2.385164 1.8440784 3.242118
2.7250829 3.0396476 3.0124733 0.7705689 2.4857616 2.1493137 2.0596461 4.83712
4.6620593 2.4622436 4.5637126 0.62090623 1.8396018 5.5261035 3.380971 1.1022437
2.2258446 1.9511914 1.5024002 2.501574 2.0229187 1.0379367 2.440578 1.594399
1.9967917 2.6254234 1.2228253 2.3213885 1.3829999 2.842942 0.90382785 1.2118279
4.0264235 0.83762884 1.8235353 3.1366184 0.82838404 1.6548692 1.2715883 1.0829937
3.2656975 1.725771 2.6366498 1.04439 4.2067294 0.5846093 1.0614897 1.8306074
1.1745092 2.9087958 2.0798206 2.086943 1.4379196 0.51051277 1.7766038 2.6255243
1.4062009 1.7629905 2.1545327 1.003279

convs.0.bn1.bias f4 [92]
00000000: 57b0 bc3c 17d2 e3be ec9f fbbd 0dcb 4c3e
00000010: 87cb 09bd 8387 7a3e d6bf 3dbe 67fe 223f
00000020: bed2 ccbd a8fb bbbe 5e1d 15be 3407 013d
00000030: 4d62 86bf e78b a0be 7237 113f 3c88 853e
00000040: b99d 6fbf 7cc2 543e bc06 923e a220 463f
00000050: 8942 263f bada a0be 9017 4bbf 063a 89bf
00000060: 8e07 f43d b446 56be 3265 7e3e f633 023e
00000070: d707 a83e f1f1 cbbe c445 003e a18a d7bf
00000080: b414 02bf 9d17 60bf 8255 05bf 66ad 21bf
00000090: f3ec 35bc c042 7abe 878e a0be 4603 e43e
000000a0: 5ffc 57bd c069 eabc e71f 8bbf 3cec 113d
000000b0: 8451 4abd 6bf6 903d b871 f9bd 1518 ecbe
000000c0: 8721 82be fb5e 92be 76a2 d83e 81a4 92bc
000000d0: 619d e03d 27f8 203f 29ce 8cbe 3029 debd
000000e0: 11d4 7dbe db0f af3d e3de d3be ed9f f2bd
000000f0: ed0e ce3e 4da2 bebd 9810 12bf 9599 e4be
00000100: a3c7 7ebd 87e8 143f 4892 af3e 0519 f03d
00000110: 3502 36bf 52e9 dcbe 70cd ccbe b3f0 ffbe
00000120: 2cf5 b3bc ac3f 90be 3c4e d8bc 22cc c2be
00000130: 4376 c53c 0031 87bf b203 cdbe c733 0cbe
00000140: a811 303f b75d 873d 5618 42be 2e6e b43e
00000150: b419 26be bccd 833f a629 823e aa43 823d
00000160: 6dc6 97be 645e b9be 2831 85bd a3ea 1b3f
0.023033304 -0.44496223 -0.12286362 0.19999333 -0.033641364 0.24465756 -0.18530211 0.6366944
-0.100011334 -0.36715436 -0.14561984 0.03150101 -1.0498749 -0.31356737 0.5672523 0.260805
-0.9360004 0.20777315 0.28520763 0.77393544 0.64945275 -0.31416875 -0.7933283 -1.0720832
0.119155034 -0.20925409 0.2484329 0.12715134 0.3281848 -0.39833024 0.12526613 -1.6839181
-0.5081284 -0.8753603 -0.520836 -0.6315521 -0.011103856 -0.24439526 -0.3135874 0.44533747
-0.052730914 -0.028614879 -1.0869111 0.03562568 -0.049394146 0.070782505 -0.12179893 -0.46112123
-0.25416204 -0.2858809 0.42311448 -0.017900707 0.10967518 0.6287865 -0.27501038 -0.108477
-0.24787928 0.08547946 -0.41380987 -0.1184691 0.40245762 -0.093083 -0.5705657 -0.44648424
-0.062202107 0.5816731 0.3429129 0.11723522 -0.7109712 -0.4314676 -0.40000486 -0.49988326
-0.021967493 -0.28173578 -0.026404493 -0.38046366 0.024104243 -1.0561829 -0.40041882 -0.13691626
0.6877694 0.066096716 -0.18954596 0.3524031 -0.16220742 1.029716 0.254224 0.06360562
-0.29643574 -0.36204827 -0.065035164 0.609049

convs.0.bn1.running_mean f4 [92]
00000000: 53a0 67c0 4931 073e 2515 253f 0a38 5fc0
00000010: 33d5 2fc0 091e 573f 4b8c 4140 1265 0d3f
00000020: ad3d 1dc0 4b68 e83f 746e 2541 1c1d 23c0
00000030: a921 f240 23af f8bf 6c21 6d3f e7ee e740
00000040: 035b da3f 92fa 9240 0444 cd40 9f11 c2c0
00000050: 680b 5fc0 3343 a640 ac2a 9fbc acda 20c0
00000060: 05d8 cebe fa92 8bc0 3263 ef40 7efa 7940
00000070: 1f9c 1cc0 e8d8 af3e b28b afc0 9ba0 b7bd
00000080: def8 93c0 9032 25c0 d3ce 72c0 55df 6f3e
00000090: 8eb8 a540 b14e dbc0 83b0 f0c0 e87a 1140
000000a0: cdc4 3f40 19f8 0341 bdf1 50bf 4104 8740
000000b0: 04f9 4341 434a ef3f 52d6 47bf fdb4 1d40
000000c0: 6b2b a0bf 0fc5 94c0 305b acbf 5613 1b3f
000000d0: 6977 98bf 6c0d 68bf 53ff a640 ca7e 2640
000000e0: 7e67 7440 77bb abbf 9620 09c0 4457 853f
000000f0: a217 b2bf c7f6 2541 60bf 1fc0 b3f3 1941
00000100: 54fb cc40 e064 94c0 35d3 a7be 043f b340
00000110: 1cd5 aac0 d346 863f 5c7e 82bf b750 3540
00000120: 3916 e440 95dd 6241 5cad 7cc0 ecf5 a8c0
00000130: ab9c 77c0 b5ee acc0 ceee 1dc1 9253 fe3f
00000140: d834 ef3f 2b24 4f40 8dda 07c0 907b 893d
00000150: 380f 7fc0 516e 8f3f c049 4e3f 3e50 8bbf
00000160: cf9f 0940 b33e a040 6bf7 3841 73c5 1dbf
-3.6191604 0.13202395 0.6448539 -3.4877954 -2.7473876 0.84030205 3.0241878 0.55232346
-2.4568894 1.8156828 10.339466 -2.5486517 7.566609 -1.9428447 0.9262912 7.247913
1.7059025 4.593087 6.4145527 -6.064651 -3.4850712 5.195703 -0.019429527 -2.5133467
-0.40399185 -4.3616915 7.480859 3.9059138 -2.4470289 0.34345174 -5.4858027 -0.0896618
-4.6241293 -2.581211 -3.7938735 0.23425038 5.1787786 -6.853356 -7.521547 2.2731266
2.9963868 8.248071 -0.81618863 4.2192693 12.248295 1.8694538 -0.780614 2.4641716
-1.251325 -4.649055 -1.3465328 0.6057638 -1.1911441 -0.9064548 5.2186675 2.6014886
3.8188167 -1.3416585 -2.142614 1.0417256 -1.3913462 10.372748 -2.4960556 9.621997
6.4056797 -4.637314 -0.32778326 5.6014423 -5.3385143 1.0490364 -1.0194812 2.8330514
7.1277127 14.179097 -3.948081 -5.2800198 -3.8689373 -5.404139 -9.870802 1.9869254
1.8688002 3.2365825 -2.1227143 0.06713021 -3.9853039 1.1205541 0.80581284 -1.0883863
2.150379 5.0076537 11.560405 -0.6162941

convs.0.bn1.running_var f4 [92]
00000000: 6764 1243 f6fb a442 ac58 0f43 3730 ef42
00000010: f20d f542 ae56 d042 b8ee c342 4fbf 2343
00000020: 8498 2843 2323 1243 76cf a142 334a 3a43
00000030: 1982 f742 25a0 1343 84a1 1b43 be40 4943
00000040: e1aa b842 88d9 d642 ad5c 3043 b0c4 1143
00000050: a65c fa42 7545 0643 5f69 e942 6363 bb42
00000060: 2458 3043 0d69 1243 0aad df42 60a4 1843
00000070: 6b57 1343 e4a9 ce42 843b 8142 e67e 1142
00000080: c49f 5742 0119 8942 dead ff42 12ae 2143
00000090: 2c34 ea42 db06 a542 3ec4 9542 5846 1f43
000000a0: 904d b342 5201 2d43 6565 cd42 2fca 4543
000000b0: 5864 3143 42d0 0043 6387 0443 d4d4 6b42
000000c0: abf7 3443 7f6c dd42 c554 b042 4bfd 2543
000000d0: e082 2b43 c4a3 1843 b3cb 0643 cb47 d642
000000e0: 276e be42 a021 3043 8258 db42 5b73 f342
000000f0: a344 c942 46cb 1e43 a338 ab42 3d64 1c43
00000100: 74a5 1543 c887 5343 c4ff 1043 7495 f142
00000110: 5db6 c642 3fe1 9742 c13e 8643 b121 3143
00000120: b6df f042 f767 0c43 a29e 3143 ec1e c942
00000130: 366f b042 e8ba a242 e52b f042 ed4f c342
00000140: a435 f642 3ea9 2843 8188 0f43 d75e cf42
00000150: f3c7 ca42 3ce5 3b43 68ae e942 e075 5543
00000160: 0bce 8342 6ce7 4843 40ad 2e43 4949 fe42
146.3922 82.49211 143.34637 119.59417 122.52724 104.1693 97.96625 163.7473
168.59576 146.13725 80.9052 186.28984 123.7541 147.62556 155.63092 201.2529
92.33375 107.424866 176.36201 145.76831 125.180954 134.27132 116.7058 93.694115
176.3443 146.41035 111.83797 152.64209 147.34148 103.33182 64.61624 36.373924
53.90602 68.548836 127.839584 161.67996 117.1019 82.51339 74.883286 159.27478
89.65149 173.00516 102.69804 197.78978 177.39197 128.8135 132.52885 58.95784
180.96745 110.71191 88.165565 165.98943 171.51123 152.63971 134.7957 107.14022
95.21514 176.13135 109.67287 121.7253 100.634056 158.79404 85.61062 156.39156
149.6463 211.5304 144.99908 120.7919 99.35618 75.93993 268.49026 177.1316
120.436935 140.40611 177.61966 100.560394 88.21721 81.36505 120.08573 97.656105
123.10477 168.6611 143.53322 103.685234 101.390526 187.89545 116.84064 213.46045
65.90243 200.90399 174.67676 127.143135

convs.0.bn2.weight f4 [46]
00000000: 15ad 903f 30e1 de3f 74ec c13f 2899 963f
00000010: 5ee8 8f3f 6dd0 773f a78b 873f 1e5a a73f
00000020: 59eb 943f 3dde b03f 4bf0 843f f517 7b3f
00000030: 8bf7 af3f 4407 813f 05f2 ab3f 3653 a43f
00000040: 04a6 a63f c39c b83f 9927 9a3f affb 293f
00000050: 60c9 a63f 576f 883f 14e2 d03f cb6b 933f
00000060: 8c5b c83f d5a5 b03f 057c 583f 361a 913f
00000070: 6bcc 573f 4181 443f df81 6d3f 1874 953f
00000080: f80c 6a3f 79f1 ab3f 68a6 bb3f c4ca 9a3f
00000090: 0d94 ad3f ee98 5f3f 34c0 cb3f 8ba8 ad3f
000000a0: 7604 a43f 5939 b23f 105f e83f c7a4 993f
000000b0: cb1b 2a3f c569 813f
1.130282 1.7412472 1.5150285 1.176549 1.1242788 0.9680241 1.0589494 1.3074377
1.1634322 1.3817822 1.0385832 0.9808343 1.3747419 1.0080342 1.3433233 1.2837894
1.3019414 1.442284 1.2043334 0.66399664 1.3030205 1.0658978 1.6318994 1.1517271
1.5652938 1.3800608 0.8456424 1.1336124 0.8429629 0.76759726 0.9277629 1.1676054
0.9142604 1.3433067 1.4660158 1.2093129 1.3560807 0.8734273 1.5918031 1.356706
1.2813861 1.3923751 1.8154011 1.2003411 0.6644866 1.0110403

convs.0.bn2.bias f4 [46]
00000000: 751c dabe 4f26 97be b2aa 4bbf 26e4 01bf
00000010: 40f0 83be 04d3 f2be 6984 78be d469 30be
00000020: 180b f0be 52c6 c1be 41f6 c7be d089 02bf
00000030: 076a 013e a735 75be e150 bcbd c06d c5be
00000040: f427 f1be f0ae 29bf 5bd8 02bf de3f fabd
00000050: b23a 90be ef7f 6ebe e3aa f03d 69c7 b4be
00000060: 1c46 1dbd dce2 ecbe 81c7 dbbe d1a7 cabe
00000070: cf74 dcbe 4252 73be 1b04 14bf e88f afbd
00000080: 98a2 ebbe 764a 32be 8baa e3be f17a a7be
00000090: 375e 0bbd 7c13 ebbd e52d 68be 53a9 01bf
000000a0: a864 c7be e17b 03be 7b26 fdbe 676b f2be
000000b0: 3cae e2be 9bcb a8be
-0.42599836 -0.29521415 -0.79557335 -0.5073875 -0.25769234 -0.47426617 -0.2426926 -0.1722787
-0.46883464 -0.3784662 -0.39055064 -0.50991535 0.12638102 -0.23946248 -0.09195114 -0.38560295
-0.47100794 -0.6628256 -0.5111138 -0.12219213 -0.2816978 -0.2329099 0.11751344 -0.35308388
-0.03839694 -0.4626683 -0.42925647 -0.3958116 -0.43057868 -0.23761848 -0.57818764 -0.0857237
-0.46022487 -0.17411217 -0.4446605 -0.32710984 -0.034025397 -0.11478326 -0.22673757 -0.50648993
-0.38943982 -0.12840225 -0.4944342 -0.47347566 -0.44273555 -0.3296784

convs.0.bn2.running_mean f4 [46]
00000000: a463 3241 e649 a13f a35b 0641 0750 a440
00000010: b34e 8c40 eed4 2641 94bc e640 332f de40
00000020: b48e f440 24d0 8140 c08f b340 5764 2941
00000030: af97 753f de26 6b40 1e22 da40 429f 1e41
00000040: 5199 343f 4f7d 0c40 c148 2741 58e7 cf40
00000050: 6952 1541 c521 1c41 552a 373f fa00 2a40
00000060: dccb 7840 0c17 0c40 de66 6741 7f12 a840
00000070: 6d03 2c41 2bd1 a73f 2a72 6641 314c a63d
00000080: 3d2a 993f aa7b 8c40 ca4d 8e40 3d04 0041
00000090: f8bb e140 2d98 fa40 6731 8240 a548 0241
000000a0: 5214 d340 0d3f 2741 286b 4540 df1c 8b40
000000b0: 59a7 f640 f15e a240
11.149326 1.2600677 8.397372 5.134769 4.384607 10.426985 7.21052 6.9432616
7.64242 4.056658 5.6112976 10.586997 0.95934576 3.6742473 6.8166647 9.913881
0.7054644 2.1951482 10.455262 6.49699 9.33262 9.7582445 0.7154897 2.6563096
3.8874426 2.1889067 14.462614 5.252258 10.750836 1.3110708 14.402872 0.08120001
1.1966015 4.3900957 4.4469957 8.001035 7.0541954 7.831076 4.0685306 8.1427355
6.5962305 10.452893 3.0846653 4.3472743 7.707928 5.0740895

convs.0.bn2.running_var f4 [46]
00000000: 0f70 7543 eab9 1940 7ab0 2743 f9f1 a342
00000010: 701a 0e42 9986 3643 8016 0443 e122 0042
00000020: 015a cd42 1cc6 ee41 98e4 7142 9a65 6743
00000030: 5a9b f43f 394a cb41 60b2 5c42 3e2c f942
00000040: bdad c73f f37f 0341 4725 5143 e105 4042
00000050: c78e 2443 3602 ee42 42ad be3f 6556 5241
00000060: ce46 9e41 fd44 8941 eaab 4543 5fa8 6242
00000070: 2c99 2243 957b 9340 79b4 f943 ed09 783e
00000080: f775 2e41 6109 df41 a3f0 2942 0c0f 8742
00000090: b63e 9f42 16e9 9d42 2d29 1d42 e2b6 b841
000000a0: 688f c342 d4ea 3a43 e08a cc41 e442 bc41
000000b0: aea9 fc42 1287 cb41
245.43773 2.4019723 167.68936 81.9726 35.525818 182.52577 132.08789 32.03406
102.67579 29.846733 60.473236 231.39688 1.910991 25.411242 55.174194 124.58641
1.5599896 8.218738 209.14561 48.00574 164.55772 119.00432 1.4896624 13.146092
19.784573 17.158686 197.67154 56.664425 162.59833 4.6088357 499.40994 0.24222536
10.9038 27.87958 42.484997 67.52939 79.62248 78.955246 39.29021 23.089298
97.78009 186.9173 25.56781 23.532661 126.331406 25.440952

convs.1.fc_full.weight f4 [92, 98]
00000000: b253 c0be 25fa 7a3f c615 54be dd14 1abf
00000010: ee5e 323f 5887 f4be 2ad0 6e3f 5dc6 1ebf
00000020: b3e8 54be e752 9b3f 6732 633f 2148 0bbf
00000030: 8676 22be 4244 803e 3371 0b3c 72b5 853f
00000040: 5833 8b3f da6d 4dbf 8b9e a4be 933b 8abf
00000050: 6cc5 1abf fec2 52bf 8c86 b63e 5023 41bf
00000060: 2df2 b2be 308e 2a3f fbd3 c63e 1efb 2f3f
00000070: 598e 10bf 14ae 053f 451b 4a3f 5955 643d
00000080: 5433 0f3e b62e bbbe 3114 43bf 1373 643f
00000090: 06c8 b6bc da55 e93e 747e c4bd 65d1 01bf
000000a0: e3be a13e cc53 6f3e 4e14 0fbf 57ba 6abf
000000b0: eec0 ae3d 6a0e d43e e6d4 33bf 0f9a 3c3e
000000c0: c9ee 8dbf 58ef 113f 82cc 4cbd ab0a 3abf
000000d0: 3ee6 1e3e e087 2d3f ce39 1dbf d9d5 a6be
000000e0: e500 b1be ff47 2fbf 2bac dcbe 4127 5a3f
000000f0: cb11 7cbf c16d 04bf 12c2 b1be aa03 12be
00000100: 62ce 0fbf 6c0c 22bf e027 56bf f07f 00be
00000110: 3013 87bf 8f81 78be 790c 02bf 6d6d e4be
00000120: 8709 ec3c 7d2a 8e3f 5693 13be 59d4 9c3d
00000130: 4862 c7be 6ba5 09be b433 3c3e 2822 dcbe
00000140: 9292 f63d 0278 97bd 4949 e4bd 59b0 b93e
00000150: 7fdf dcbd 823e 95bf c049 6abf c9f2 eabe
00000160: 5a6d 0dbf b444 6f3d df7c 663e f818 143e
00000170: 6439 643d 2b94 62bf 8d49 c43e e0fb c13f
00000180: 7ee5 ce3e 9324 a1bf 1838 ddbe 52eb 37bf
00000190: 7ace 423e 2edc 1a3f fc8f 4a3f 4712 363e
000001a0: ef6d 37bd 71ac 0dbf a184 373e e829 2abe
000001b0: e31e d43c 9c3f 17be cff9 fabe cad7 50bf
000001c0: 3874 81be 028b f33e 5c18 a03e 51b5 b33e
000001d0: 880e e7be 964a b4be aa3f a53e ddfd e33d
000001e0: 3435 04bf 144c 203f c394 503e bf70 133e
000001f0: 4a76 40bf cb94 5f3e 0707 013f 0666 95bf
00000200: 7622 d9be dcce 47bf 7796 013f ad0f 20bf
00000210: 1fe9 bf3f 8944 1a3f c749 d23e b698 2cbd
00000220: b31a 003f 10f5 c53e c8c6 223f b922 19bf
00000230: be4d c53d 6e1b 263d 0ccd 233e 2f5a 83be
00000240: 997e 2fbf bece df3e 2f7d 113f e1da 523e
00000250: 1928 06bf 1847 acbc 71c1 9b3f 9280 b4bd
00000260: b434 b73e be93 893f b6f8 bcbc e6a1 db3e
00000270: b6cf babf 64df 103f 9884 77bd 0176 39be
00000280: 751a d83e 7d39 87be 90ab 8ebd 147b 413e
00000290: c06e 51be c481 36be ed31 8fbf 1449 9d3f
000002a0: e10d 30bd 0103 51bd c45b 693f af82 e7bb
000002b0: c513 fc3e 5887 113f ece7 55bf 4e66 c23f
000002c0: 9789 003f a2d4 cf3e 636f 0f3f e58d e03e
000002d0: f224 433e e73d 593e d948 143f 39e4 803e
000002e0: d53c 8d3f ae53 10bf 3e3d 283f df14 ab3d
000002f0: b450 053f 9946 2d3e 8053 24c0 6aed ed3e
00000300: 7e9f c53f a884 663f 5c84 473f 3d0a fdbe
00000310: b922 393e 9ae7 eebe be23 52bb 5635 11be
00000320: 0be0 5f3f 571b b73c 46d2 d4bd b132 44be
00000330: e04d 9fbe 878f 0dbf 57ab c8be 528d a9bd
00000340: 4707 863e d0ea 19bf 545e 10bf bbca 92bd
00000350: 1e78 a03d ac0c d33e dfb8 803e ebc1 113f
00000360: 14a6 f8be 481e 313f 65c9 0fbe 0216 b83d
00000370: a856 d2be bd8f 5d3e bd32 2ebd 8d33 d4be
00000380: 651e 90bf e4a9 e43e b0d5 643e 4ea1 1e3e
00000390: 9614 bd3e 3b68 bd3e c0a7 4cbe f8dd e8bc
000003a0: 3350 39bf a2a4 94be b555 e3bd 22c6 213e
000003b0: 0bd1 01bd 0387 8d3f 43ea 2dbf ab74 55bf
000003c0: c847 d83d 1dad 133f 6a3d 023f 1b73 eabe
000003d0: 719b 763f 5916 8a3e 0c53 4b3f ccd3 723e
000003e0: 63c9 10bd 338d 80bc 144b 4ebe 6e96 55bf
000003f0: 5ba7 89bf b1c0 893e eb5b 953f b2ee 083f
-0.37563854 0.9803794 -0.20711431 -0.60188085 0.696761 -0.4775951 0.93286383 -0.6202143
-0.20791893 1.2134675 0.8874878 -0.54406935 -0.15865526 0.25052077 0.0085108755 1.0445998
1.0875044 -0.80245745 -0.3215221 -1.0799431 -0.6045749 -0.82328784 0.35649526 -0.7544451
-0.3495039 0.6662321 0.38833603 0.6874255 -0.56467205 0.5221875 0.7894786 0.055745456
0.13984424 -0.36559075 -0.76202685 0.8923809 -0.022312175 0.45573312 -0.095944315 -0.50710136
0.31590948 0.2337181 -0.5589036 -0.9169058 0.08532892 0.41417247 -0.7024673 0.18418144
-1.1088496 0.57005835 -0.04999972 -0.7267253 0.15517518 0.67785454 -0.6141633 -0.32585028
-0.34570995 -0.6846923 -0.43100104 0.85216147 -0.9846465 -0.5172997 -0.34718376 -0.1425921
-0.5617429 -0.63300204 -0.83654594 -0.12548804 -1.055273 -0.24268173 -0.5080028 -0.44614735
0.028813137 1.1106716 -0.14411673 0.076576896 -0.3894217 -0.13442008 0.18379098 -0.4299481
0.12039675 -0.073959365 -0.111467905 0.36267355 -0.10784816 -1.1659701 -0.91518784 -0.45888355
-0.5524498 0.05841513 0.22508572 0.1446265 0.055718794 -0.88507336 0.38337365 1.5154991
0.40409464 -1.2589287 -0.4320686 -0.71843445 0.19024077 0.6049222 0.7912595 0.1778041
-0.044782575 -0.5534125 0.17921688 -0.16617548 0.025893634 -0.14770359 -0.49018714 -0.8157927
-0.2528398 0.47566992 0.31268585 0.3509927 -0.45128274 -0.35213155 0.32275134 0.11132405
-0.5164368 0.62616086 0.20369248 0.14398478 -0.75180495 0.21834104 0.5040135 -1.167176
-0.42409104 -0.7805002 0.50620216 -0.6252392 1.4993018 0.60260826 0.41071913 -0.042137824
0.5004074 0.3866353 0.63584566 -0.5981861 0.09633969 0.040553503 0.15996188 -0.25654742
-0.6855255 0.4371242 0.5683164 0.20591308 -0.52404934 -0.021029994 1.2168409 -0.08813585
0.35782397 1.0748212 -0.023067813 0.42896956 -1.4594638 0.5659087 -0.060429186 -0.18111421
0.42207685 -0.26411048 -0.06966317 0.18894607 -0.20452404 -0.17822939 -1.1187111 1.2287927
-0.042981986 -0.051028255 0.9115565 -0.0070651392 0.49233833 0.56847143 -0.8355701 1.5187471
0.50209945 0.40591913 0.5602934 0.43858257 0.19057062 0.2121502 0.57923657 0.2517412
1.103419 -0.56377685 0.6571845 0.0835359 0.5207627 0.16921462 -2.5675964 0.46470195
1.5439298 0.9004617 0.7793634 -0.49421874 0.18079652 -0.46661073 -0.003206476 -0.14180502
0.8745124 0.022351904 -0.10391669 -0.19159962 -0.311141 -0.5529713 -0.39193222 -0.08278908
0.26177427 -0.6012392 -0.56393933 -0.07167574 0.078354105 0.41220605 0.25141045 0.5693652
-0.48564208 0.6918683 -0.1404167 0.08988573 -0.41081738 0.21636863 -0.042528857 -0.4144558
-1.1259276 0.44660866 0.2234714 0.1549122 0.36929768 0.36993584 -0.19985867 -0.028426155
-0.72388 -0.29031855 -0.11100332 0.15798238 -0.0316935 1.1056827 -0.6793558 -0.83381146
0.10560566 0.57686025 0.5087496 -0.45790944 0.96330935 0.26970175 0.79423594 0.23713607
-0.035348307 -0.015692329 -0.20145828 -0.8343266 -1.0754198 0.26904824 1.1668676 0.5348922

convs.1.fc_full.bias f4 [92]
00000000: 1cca 5e3d fa9e 93bd 80de 893d ace3 1bbd
00000010: 8c64 5ebd 7ab7 e7bd 7d2d 573d 3f55 4f3d
00000020: 4cd1 7fba 73c8 d5bd ced7 69bd f1e7 cf3d
00000030: b40d 7e3d b3bb 80bd 52ce 873d 84e1 d83d
00000040: 7b9b 173d cb0a 19bb e976 9d3d f786 c4bd
00000050: 6b50 09bd 0dd1 773d b348 433c 0c59 ae3d
00000060: 720e 14bd 4274 2fbd bf08 2cbc 618e 5ebd
00000070: 140a 7fbc 9b0c 87bd e5d4 acbd 3e33 963d
00000080: 7bd0 d83d 3c96 a1bd cb89 91bd 22ab 8c3d
00000090: 6072 703d 0ff6 0a3b 7372 3bbc b416 1f3d
000000a0: 43b4 c83c 55db fbbd 5333 493d 05eb 49bd
000000b0: 5fc3 d13d c36a a7bd d9a1 b1bd 08d3 04bd
000000c0: 8923 9a3d 7713 bb3d 2fb9 6abd 0a6a 21bd
000000d0: beba 8bbd 3d29 303d 7cf8 87bc 8efb 49bd
000000e0: 42da 503d 00b7 79bc ac47 113d a38b 593d
000000f0: 6efe 26bd 861c 1c3e 6372 c13d cf1a 08bd
00000100: 02bb a93d bdd5 993d 0a30 a4bd 37f6 af3d
00000110: d9a5 7bbd 57f9 b73d 2384 9a3d a7bb 773d
00000120: aaeb bcbd 1832 7dbc 5eab ca3d 54c5 aabc
00000130: aa29 84bd 328f 64bd 39c7 ba3d d8b5 8cbd
00000140: ece1 aa3d 7f87 aabd 179a 873c d45c 3cbd
00000150: b684 193c 1148 44bc 7b87 37bd 0584 bbbd
00000160: 71f3 d63c 54af a73c 6cba abbd 5007 2abd
0.054391965 -0.07208057 0.06731892 -0.03805892 -0.054295108 -0.11314292 0.052533615 0.050618406
-0.00097586657 -0.10438623 -0.057090573 0.10151661 0.062024787 -0.06285801 0.06631149 0.10589889
0.037013512 -0.002335238 0.07688696 -0.09596055 -0.03352396 0.0605021 0.011919188 0.08513078
-0.03614659 -0.04283548 -0.010500132 -0.054335 -0.015566368 -0.06594201 -0.08439044 0.073339924
0.105866395 -0.07889983 -0.0710636 0.068685785 0.058702826 0.0021203791 -0.011440861 0.03884001
0.024500018 -0.12297694 0.049121212 -0.049296398 0.10242342 -0.0817466 -0.08673448 -0.032427818
0.07526309 0.09134572 -0.05730551 -0.039407767 -0.068227276 0.043008078 -0.016597979 -0.049312167
0.050989397 -0.0152413845 0.035468742 0.053111684 -0.040769987 0.15245256 0.09445646 -0.03322869
0.08287622 0.075114705 -0.08016975 0.08591884 -0.06143746 0.08983105 0.07544734 0.060481694
-0.09224637 -0.015453838 0.09895967 -0.020846047 -0.06453259 -0.055800624 0.0912003 -0.068706214
0.083438724 -0.08326625 0.016552968 -0.045986965 0.00937002 -0.011980073 -0.04480694 -0.0915604
0.026239129 0.020469345 -0.083851665 -0.04151088

convs.1.bn1.weight f4 [92]
00000000: 913a 3b40 eb6b 4f40 ec5a 2340 018f 2d40
00000010: 1770 be3f 216c 9c3f a88c 9340 9607 ae3f
00000020: ba2b 5340 1093 6340 d569 4440 35a5 1540
00000030: 3cb3 1a40 3c50 a340 e1e5 6340 8d01 9140
00000040: ee22 5440 5e71 6b40 55c5 2140 0fb9 8e3f
00000050: 767f 3f40 0e57 2d40 5420 1440 ab5c 8140
00000060: de7b 6040 d8dc 6040 55af 3a40 0b96 7a40
00000070: 5d23 3140 e0c4 4340 2924 1540 853c 4340
00000080: d906 0c40 b03e c73f 2ef6 4e40 323e 2240
00000090: 9697 d93f 8ecc 5840 ff2a 1b40 b044 0040
000000a0: 551b ff3f e45f 7840 01ae ab40 a841 1e40
000000b0: 7ce8 9a40 6a01 c63f d060 9c3f 8292 7e3f
000000c0: 6173 2540 0de1 8d3f 4dd3 5d3f a92a 5b3f
000000d0: 451a 893f ae77 da3f 4a69 f13f e81d 3a3f
000000e0: c0f5 c13f a1ea 0d40 69b4 9c3f 25fa 0540
000000f0: 2797 973f 8c5e 703f 6980 4740 9860 f93f
00000100: 3c52 e93f 9bf6 883f 1f26 1340 76dd fd3f
00000110: a6c2 ce3f 0834 2240 d1ae d63f dbc3 883f
00000120: 9b90 c33f 69c1 1640 5bd4 fd3f 79a6 f53f
00000130: 7a27 0a40 132a d83f 2e3b 1240 2894 793f
00000140: e4c9 0140 c0b8 ad3f 8fa9 723f 9c02 bf3f
00000150: 6fc2 d63f 81f0 0240 e827 1140 0c21 ab3f
00000160: 3112 3e40 8c76 4a3f 00ad d63f 9690 d83f
2.9254496 3.2409618 2.5524244 2.7118533 1.4877957 1.2220498 4.61092 1.3596065
3.2995439 3.555851 3.0689595 2.3382084 2.4171896 5.103544 3.5609057 4.5314393
3.314632 3.6787944 2.5276692 1.1150225 2.9921546 2.7084384 2.3144732 4.042562
3.5075603 3.5134792 2.9169514 3.915408 2.7677834 3.0588913 2.330332 3.0505688
2.187918 1.5566006 3.2337756 2.535046 1.6999385 3.387485 2.4244993 2.0041924
1.9930216 3.8808527 5.3649907 2.4727573 4.8408794 1.5469182 1.2217045 0.99442303
2.5851672 1.1084305 0.86650544 0.8561197 1.0711142 1.7067773 1.8860257 0.72701883
1.5153122 2.2174456 1.2242557 2.0933926 1.1843003 0.9389427 3.1172125 1.9482603
1.8228221 1.0700258 2.2992017 1.983321 1.6153152 2.5344257 1.67721 1.068477
1.5278505 2.3555548 1.9830431 1.9191428 2.1586595 1.688784 2.284862 0.97491693
2.0279474 1.3572006 0.94789976 1.4922671 1.6778086 2.0459292 2.2680607 1.336946
2.9698603 0.7908714 1.6771545 1.6919124

convs.1.bn1.bias f4 [92]
00000000: 77f4 4fbe 23d0 dbbf a8ca 0e3f 3d2d 9bbe
00000010: e08d babe 1f98 23bf 956a 1bbe ebfe 02bf
00000020: ffdc 02be 8a3e 5ebe 98ca 7dbe 05e9 acbe
00000030: 1835 5abf 4374 ddbd 4f72 18bf aced dd3c
00000040: 5e21 0c3f cec4 c1be 6215 09bf 85e5 923c
00000050: cf06 2fbe d8d6 803c 3e3a 04bf 62a5 1f3e
00000060: 73b7 49be 14fe b0be 6db7 9f3e 31e7 4abf
00000070: fc81 a8be fc97 02bf 05ee 03bf a9a3 31bc
00000080: 9d4f 94bd 743e 04bf 6d15 05bf d5df 02bf
00000090: 7b70 193e a260 0fbf d552 b1bd ed60 763e
000000a0: 00a6 14bf 9910 b9bf d706 3d3e 92df acbf
000000b0: ac5a adbe a6ab 6bbe fe16 16bf 2f6a 3abf
000000c0: 68a2 9e3e 71df 1fbf 3fe1 25bf 5668 16bf
000000d0: 0a62 c5be 279d 16bf 5d3f a9be 064f 0dbf
000000e0: 86ed 74be 81b5 04bb 6cf1 71be 1427 783e
000000f0: b76d cbbe 53da febe fdc3 813c e812 96be
00000100: 4d3e 1dbe 3222 17bf 2ea2 00bc 26c0 34be
00000110: e561 a4be 47bd 35be a201 7ebe c4df 09bf
00000120: 8601 0b3f bd78 613e 5bd6 c5be 3773 703e
00000130: 00ce bdbd e5b4 7fbe 42d7 febd fd59 0cbf
00000140: 7aae 1e3e 6fb2 adbe 9e34 ecbe 53dc ecbe
00000150: 1846 62be f9ef 83be da5b 88be 5f6a 38bf
00000160: 7523 013e 3201 56bf 3fc6 a5be 1092 0fbf
-0.203081 -1.7172893 0.5577798 -0.30307952 -0.36436367 -0.63903993 -0.15177377 -0.51170224
-0.12779616 -0.21703544 -0.24784315 -0.3377153 -0.85237265 -0.10813191 -0.5954942 0.02709087
0.54738414 -0.37845463 -0.5354825 0.017931709 -0.17092441 0.015727445 -0.5165137 0.15590432
-0.19698887 -0.34568846 0.3119463 -0.7925902 -0.3291167 -0.5101316 -0.51535064 -0.010842242
-0.072417475 -0.51657796 -0.5198582 -0.5112279 0.14984314 -0.56006825 -0.08658377 0.24060412
-0.58065796 -1.445819 0.1845964 -1.3505728 -0.3385824 -0.23014697 -0.58628833 -0.72818273
0.3098328 -0.6245032 -0.64796823 -0.58752954 -0.3855136 -0.58833545 -0.33056155 -0.55198705
-0.23918733 -0.0020249786 -0.23627251 0.24233657 -0.39732143 -0.49775943 0.015840525 -0.293113
-0.15355797 -0.5903655 -0.007851167 -0.17651424 -0.32105938 -0.17747985 -0.2480531 -0.53857064
0.542992 0.22018714 -0.38640103 0.23481451 -0.09267807 -0.2497135 -0.12443401 -0.5482481
0.15496245 -0.33925197 -0.46133894 -0.46261844 -0.22097051 -0.25769022 -0.26632577 -0.7203731
0.12611182 -0.83595574 -0.32377812 -0.5608225

convs.1.bn1.running_mean f4 [92]
00000000: 32ac 7dc0 149f d1bd 230c 25c0 5d94 92bf
00000010: 330e ff3e 4113 63bf a053 703e ebba a740
00000020: 6a1a ae3f 3cac 3cc0 8a83 66bf 1e21 8a3f
00000030: 7e9b 8c40 f754 983e c289 1941 0dcf 16c0
00000040: 2599 3bbf dac4 0d40 5838 6940 b111 23c0
00000050: bcd3 bac0 00ac 1640 6066 ad3f 0609 2fbf
00000060: dc5b 44bf 8bd8 81c0 ef5c 4fc0 5e7d 8ec0
00000070: c88e 2240 0333 bebf 2084 3fc0 5e18 7ebf
00000080: bfb1 fbc0 caf6 0fbf 169c 243f 5dac 923f
00000090: 1eff a23f 9afa 6dbf b551 9dc0 bee5 fbc0
000000a0: ef57 b9c0 8d24 443e 17f5 f2bf b87b db3f
000000b0: 2591 0bc0 29d7 00c0 77ed 63c0 4e0e 04c0
000000c0: 8b47 f7c0 9fb3 0f40 a03b 7ebf 495f 8cbe
000000d0: c43a acbd df98 f4bf 6a9c 1abf aa2c a1c0
000000e0: 8b35 48c0 4b5b 33c0 0127 953f 14bf 67bf
000000f0: e162 07bf ffa4 3dc0 410f 8ec0 c37c 8fc0
00000100: e875 c4c0 35ec 98c0 64cf e1c0 4818 923e
00000110: 7747 2cc1 27a6 a3bf 363f 373d e524 a040
00000120: 6870 80c0 82a7 eac0 93d3 73c0 b773 3fc0
00000130: 36b0 d5c0 87dc ebc0 51e0 84c0 f696 483d
00000140: 4258 29bf 5bb9 c9c0 33a2 393d 9f84 5fc0
00000150: 3893 82c0 71a2 2ac1 6a97 16c1 9b6a 85bf
00000160: b735 21c0 1b0b 23bf 030b 71be 49aa 46c0
-3.963635 -0.1023542 -2.5788658 -1.1451527 0.4981552 -0.88701254 0.234694 5.241567
1.3601811 -2.9480124 -0.9004446 1.0791357 4.393981 0.29752323 9.596132 -2.3563874
-0.73280555 2.2151399 3.644064 -2.5479548 -5.8383465 2.354248 1.3546867 -0.68373144
-0.76702666 -4.0576835 -3.2400472 -4.4528036 2.5399647 -1.4859318 -2.9924393 -0.9925593
-7.8654475 -0.56235945 0.6430067 1.1458851 1.2734106 -0.9296051 -4.916224 -7.8717947
-5.791984 0.19154568 -1.8981045 1.7147131 -2.180734 -2.0131323 -3.5613687 -2.063373
-7.7274833 2.2453382 -0.9930973 -0.27416447 -0.08409646 -1.9109153 -0.6039492 -5.036702
-3.128268 -2.802447 1.1652528 -0.9052594 -0.5288525 -2.9631956 -4.439362 -4.4839797
-6.139393 -4.778834 -7.056566 0.2853415 -10.767447 -1.2785081 0.044738017 5.0045037
-4.0137215 -7.3329477 -3.8097885 -2.9914377 -6.67776 -7.37067 -4.1523824 0.048972093
-0.66150296 -6.3038764 0.0453207 -3.4924695 -4.080471 -10.664659 -9.411966 -1.0423158
-2.5189035 -0.6368882 -0.23539357 -3.1041434

convs.1.bn1.running_var f4 [92]
00000000: be30 f741 2cbb 3d42 55db 1342 eb97 1b42
00000010: 9c2d 0242 1f26 2342 99e5 2d42 4930 3142
00000020: ab11 8442 a875 0342 eedb 5842 1aa6 2742
00000030: 9ab8 3342 ef4a 1942 2bc3 3542 103b 4842
00000040: ee50 e241 5b34 2242 2c25 2042 2f40 2342
00000050: bc8a 6c42 95a0 3642 4c88 6f42 b151 4042
00000060: 06bc 2b42 fa4c 2d42 b452 0042 57a4 1142
00000070: daa3 1c42 bb86 0442 6a84 3e42 1b12 2342
00000080: 4f97 6442 7b71 3a42 8226 2942 4511 1042
00000090: e2e9 d041 6ebb 3d42 e33b 5442 6565 2a42
000000a0: c6e5 1842 86c1 4442 1deb 4342 93a4 1942
000000b0: 72e7 cd41 d769 0b42 62ef ea41 e2b2 3042
000000c0: ea66 6642 4c24 4a42 8427 5f42 3c26 ed41
000000d0: 0006 5742 7d44 7942 fce5 2e42 ebbd 0042
000000e0: 34e5 2e42 0468 3442 f0d4 e741 1047 0542
000000f0: d9e6 0142 ec08 7242 4a99 4542 45d8 3c42
00000100: d168 3142 7231 1d42 7e63 5242 9a34 1842
00000110: d8fe 8d42 701f 1742 ebf3 1242 70de 0b42
00000120: 6b89 5e42 5eec 5342 b23b 3942 cb96 1642
00000130: 6c21 4042 73d6 3b42 1a48 2242 cf1d 5542
00000140: 177a 1d42 09e1 8042 6a25 5442 e657 1242
00000150: fbda f441 bbaa 7342 674c 9642 6fe4 5342
00000160: 0a79 4a42 1334 3c42 01fe 3442 b34f de41
30.8988 47.432785 36.96419 38.898357 32.54454 40.787228 43.474216 44.297153
66.03451 32.8649 54.214775 41.91221 44.930275 38.323177 45.440594 50.05768
28.289516 40.55113 40.0363 40.81268 59.135483 45.65682 59.883102 48.079777
42.933617 43.325172 32.080765 36.41049 39.16001 33.131573 47.62931 40.76768
57.147762 46.61082 42.287605 36.016865 26.1142 47.433037 53.058483 42.59902
38.22439 49.188988 48.979603 38.410717 25.73801 34.85336 29.366886 44.17469
57.600502 50.535446 55.78859 29.64367 53.75586 62.316883 43.724594 32.185467
43.72383 45.101578 28.978973 33.319397 32.475437 60.508713 49.399696 47.2112
44.35236 39.298286 52.59716 38.05137 70.99774 37.7807 36.7382 34.967224
55.634197 52.980827 46.308296 37.64726 48.03264 46.959423 40.57041 53.27911
39.36923 64.43952 53.036537 36.58584 30.606924 60.91673 75.14922 52.97308
50.618202 47.050854 45.24805 27.788916

convs.1.bn2.weight f4 [46]
00000000: 8687 743f 218a c23f 7bb1 9d3f 81a3 583f
00000010: 2bcf 1c3f 35a0 903f a102 953f 057c b53f
00000020: 3703 933f 36d5 393f a40e 9a3f b2be 2c3f
00000030: 279c 143f 8ea9 893f fc14 883f 8937 ab3f
00000040: 995c 9e3f 27ed e03f d4a5 a63f f98c 823f
00000050: a21c 873f 1794 8b3f aef0 b33f 381f af3f
00000060: 1c52 c23f 8f4b a53f 7161 943f c3a5 b13f
00000070: a456 8a3f 9c3b 913f aa45 cc3f 6cd9 c43f
00000080: 6ab2 a43f 8817 b03f 51d8 a93f 405b 9c3f
00000090: 57fe 453f cbad ba3f 93e4 923f ffaf 963f
000000a0: 8ae0 7d3f 9bac b23f a4e6 5f3f d346 9d3f
000000b0: 7c9d 963f 3ff5 be3f
0.9551929 1.5198404 1.2319788 0.8462449 0.61253613 1.1298891 1.1641427 1.4178473
1.1485356 0.7259096 1.2035718 0.6747848 0.5805077 1.0754869 1.0631404 1.3376323
1.2372009 1.7572373 1.3019357 1.0199271 1.0555613 1.0904568 1.4057825 1.3681402
1.5181308 1.2913684 1.1592237 1.3878711 1.0807691 1.1346316 1.595876 1.5378852
1.2866948 1.3757181 1.326914 1.2215347 0.77341217 1.4584287 1.1476005 1.177246
0.99170744 1.3958925 0.87461305 1.2287239 1.176681 1.4918593

convs.1.bn2.bias f4 [46]
00000000: a8b9 9abe c161 07bd 9d1e 06bf 67e3 46bf
00000010: 6ed9 1cbf 06ab a3be 8b04 44be 9f16 e3be
00000020: 5e55 cfbe 7a77 11bf 2352 43be 635c babe
00000030: f494 c4be 4e15 07be 0fb0 30be 7772 8cbe
00000040: 6ec4 82bf 974d 42bd f5d3 e9be 70a9 bdbd
00000050: d776 cbbe 1ba4 91be c72a cfbe 5888 ea3d
00000060: 8b44 8e3e d3a3 80be 2002 43bf 073f 00bf
00000070: ca15 85be a944 44bf 72a5 9ebe e8a8 243e
00000080: 5859 debd 2c04 96bf 35ce 33bf 4419 18bf
00000090: f529 d0be 1fd5 72bf 4524 2b3e 7653 96be
000000a0: 4a6c c7be d940 a1bf 3db7 86be 777c 3cbf
000000b0: 0374 cbbe 82b4 2abf
-0.3021977 -0.03305221 -0.5239046 -0.7769074 -0.6126927 -0.31966418 -0.19142358 -0.44353196
-0.40494817 -0.5682293 -0.19074301 -0.3639861 -0.38394892 -0.13191721 -0.17254661 -0.2743108
-1.0216196 -0.047437277 -0.45669523 -0.09260833 -0.39739105 -0.28445515 -0.40462324 0.11451787
0.2778667 -0.25124988 -0.7617512 -0.5009617 -0.25993186 -0.7666727 -0.309856 0.16080058
-0.10856885 -1.1720023 -0.7023652 -0.5941355 -0.4065701 -0.94856447 0.16713054 -0.2936055
-0.38949805 -1.2597915 -0.26311675 -0.7362742 -0.39736947 -0.66681683

convs.1.bn2.running_mean f4 [46]
00000000: de92 f83f 5f8f f73e 17ab 1741 d297 e93f
00000010: aa6e 053f dc9c 743f 6cad fc3f f6ce f83f
00000020: 27c0 4e40 097f aa3e 2f7c 6840 5078 c840
00000030: d8f0 0b40 3ace 9740 13f5 ce3f e570 003f
00000040: 63f4 0a41 09ec 8640 68b6 4140 50cd 9c3f
00000050: b580 c340 cdd9 8e40 2afb 0040 625f e640
00000060: b0cb 8340 8fff 8e3f 560f f540 9802 c440
00000070: d192 a140 abff 8840 7ca2 8540 da81 9040
00000080: 56f7 bb40 b992 8e3f 4ceb bf40 a420 ee3f
00000090: 03eb f33f db68 2740 a2d6 8c40 681c c240
000000a0: c6fa b040 1610 163f fee3 1f41 84b7 af3e
000000b0: d889 6a40 2d9c 4240
1.941982 0.4835157 9.47927 1.8249457 0.52121985 0.9555185 1.9740424 1.943816
3.230478 0.33300045 3.6325796 6.2646866 2.186575 4.743924 1.6168541 0.50172263
8.684665 4.216313 3.0267582 1.2250156 6.1094613 4.464087 2.0153298 7.1991434
4.118614 1.117174 7.658122 6.1253166 5.049172 4.2812095 4.1760845 4.515851
5.8739424 1.1138526 5.997473 1.8603711 1.9056095 2.6157749 4.4012003 6.0659676
5.530612 0.58618295 9.993162 0.343197 3.6646633 3.0407822

convs.1.bn2.running_var f4 [46]
00000000: 81b0 9241 c232 973f 6415 1343 267b 6041
00000010: 43b5 0c40 3bcf b740 5a23 c541 d8b4 c240
00000020: 40b9 df41 d442 993f 4b68 6c42 68a4 b842
00000030: 4398 e441 29c8 6c42 cb7c 4941 9235 f33f
00000040: 51f9 f842 10c0 a541 ca78 0642 9436 b140
00000050: 54a6 8342 b79b 0c42 281e e240 229b df42
00000060: ba55 bc41 6fae b840 1746 3842 7e84 8b42
00000070: c90c 8c42 0672 1842 85a9 cd41 5625 0642
00000080: a8b1 6842 83c3 3040 1eb7 0243 e387 2a41
00000090: 06b8 7f41 c702 8f41 231a 2642 f227 4a42
000000a0: 905e 2f42 9052 0240 7b25 c442 9250 a13f
000000b0: d1d2 f541 2654 8c41
18.336184 1.1812365 147.08356 14.030066 2.1985633 5.7440467 24.642262 6.0845757
27.965454 1.1973519 59.10185 92.321106 28.574347 59.19547 12.592967 1.9000723
124.486946 20.71878 33.617958 5.5379124 65.82486 35.152065 7.066181 111.80299
23.541859 5.771293 46.068447 69.75877 70.02497 38.11135 25.707773 33.53646
58.173492 2.761933 130.7153 10.658175 15.982428 17.876356 41.525524 50.53901
43.842346 2.0362892 98.073204 1.2602713 30.727938 17.541088
