dropout/NN/histories/d15_valid_best_params.pt (torch_old, 452453 bytes, 103 tensors)

embedding.weight f4 [46, 98]
000000 29 58 6c bd 8b 8c bd be 55 41 f6 3e cf 09 74 bd
       -0.057701264 -0.37021288 0.4809672 -0.059579667
000010 a8 8e d0 3d df 3c 14 3f 5e 25 9f 3f 65 98 36 3e
       0.101834595 0.5790538 1.2433279 0.17831571
000020 51 30 0b 3f 6f 60 e9 3d 4b 52 39 bf 36 b9 bc be
       0.543706 0.113953464 -0.72391194 -0.36860055
000030 c9 03 87 be 92 d8 40 be 94 b7 00 3e 58 88 99 3e
       -0.26370075 -0.18832615 0.1257003 0.29986835
000040 e4 1a a1 be 0c bd 0e 3d f0 0a 87 3b 92 71 4b be
       -0.31465828 0.034848258 0.004121177 -0.19867542
000050 12 65 7e 3b a7 ea 47 3e 09 99 8c be d4 60 eb be
       0.0038817567 0.19523107 -0.27460507 -0.45972311
000060 5a 50 0f 3f 00 ad 36 3c f2 8f 41 be 09 f5 2e 3c
       0.5598198 0.011149645 -0.18902567 0.010678538
000070 95 41 e7 3e 02 09 bf 3e 44 75 f6 be 04 ce 55 be
       0.45167223 0.3731156 -0.48136342 -0.2087937
000080 47 c6 bc bd b3 d6 4e be e1 e5 75 3b d1 0d 27 bd
       -0.09217506 -0.20199089 0.0037521052 -0.04078466
000090 26 24 0f be 30 4f f6 bd e5 5f 95 3d 90 3b 9a be
       -0.13978633 -0.120268226 0.07293681 -0.30123568
0000a0 5e df a7 be c7 a4 02 3f 48 0f c7 3e c9 6e ba 3e
       -0.32787603 0.5103268 0.38878846 0.36412647
0000b0 82 e2 94 3d e8 ca 37 be 1f 1e ba be e1 ca f7 3e
       0.072697654 -0.17948496 -0.36351106 0.48396972
0000c0 77 db 26 be 72 b0 5c 3e 76 28 06 3f b2 93 79 3e
       -0.16294657 0.21551684 0.5240549 0.24372748
0000d0 a8 e9 8d 3e 9c 98 1e 3f d3 2a 4e 3c e9 c6 2c bf
       0.27717328 0.61951613 0.012583452 -0.6749101
0000e0 47 16 ef be e9 55 ef be a3 94 01 be 47 d6 07 bf
       -0.46696684 -0.46745232 -0.12654357 -0.53061336
0000f0 90 b3 91 bc eb f6 95 bd eb 23 af bc 58 13 db 3e
       -0.017785817 -0.073224865 -0.021379432 0.42788196
000100 88 30 7b be 9a 96 12 bd d5 33 5a bd 70 86 7c 3d
       -0.24530232 -0.035788156 -0.053272087 0.061651647
000110 42 5d 62 bd 20 bd 90 3d 57 2f 03 be 34 8d b3 3d
       -0.05526472 0.07067323 -0.12811027 0.08767167
000120 c6 6e 82 3e 6a 1c 77 3e 7a 3a a9 bd 13 c7 44 bf
       0.25475138 0.24131933 -0.08263107 -0.76866263
000130 fc 2c a7 3d 52 65 41 3e f1 de c3 bd 9c aa e2 bc
       0.08162877 0.18886307 -0.09564007 -0.027669244
000140 53 70 4b bc b8 06 a7 bc 64 61 5c 3e 29 b7 02 3f
       -0.012416917 -0.020388946 0.21521527 0.5106073
000150 1f d4 cb be ea 0c 9a be e9 70 dc be e2 0d a6 3e
       -0.39810273 -0.30087978 -0.43054894 0.32432467
000160 86 f9 cf 3e 2e e4 29 3f 69 f0 3f be c7 5f 64 be
       0.4062006 0.663638 -0.18744053 -0.22302161
000170 a2 eb 6e be fe 5f 98 bf 01 da 05 be 2a 23 b5 3e
       -0.23332074 -1.1904294 -0.13071443 0.3537839
000180 89 f2 42 3e 0e e2 a4 3f ab c3 52 bd 9b d5 60 be
       0.19037832 1.2881486 -0.051456135 -0.21956484
000190 41 c3 44 3e 8a e7 01 3f 71 3d 45 3e 9a 09 34 3f
       0.19215108 0.50743926 0.1926172 0.7032715
0001a0 a1 bc fd 3e 87 9c 05 be 6b c9 d5 be cd 12 1d bf
       0.49557975 -0.13047992 -0.41755232 -0.6135681
0001b0 ab 3e 1c be ce e8 7a 3e da 7a f5 be 44 10 5f 3d
       -0.15258281 0.2450287 -0.4794529 0.05445887
0001c0 ca 9f c3 be 71 e5 c1 bd f8 84 d1 3d f3 56 68 bf
       -0.38207847 -0.094675906 0.1023044 -0.90757674
0001d0 d4 60 bd bc da 81 5f 3d 4e be 03 be ae 6a 25 3d
       -0.02311746 0.054567195 -0.12865564 0.04038494
0001e0 17 ab cb 3b 8c 11 e9 bd 6c 7b 4a be f8 7d ed bc
       0.006215464 -0.113803 -0.19773644 -0.02899073
0001f0 57 60 aa 3e fd 4c a7 be 9b fc c9 3d 22 20 df bd
       0.33276626 -0.32675925 0.09862634 -0.10894801
000200 a7 45 4d bd 2a 98 03 be b8 64 61 3c 9a 5e 8f be
       -0.050115254 -0.12851015 0.013756923 -0.28001863
000210 04 8d 0b 3d a6 77 b3 3d 88 ff 18 3e bf 01 84 3d
       0.03407003 0.087630555 0.14941227 0.064456455
000220 19 44 8d be 8d 5a 0a 3e 38 27 a2 be ac d3 3d 3e
       -0.27591017 0.13511105 -0.31670547 0.18537778
000230 30 26 74 3e 56 d0 48 3e a8 8f e2 3c fc 89 4a 3f
       0.23842692 0.19610724 0.027656391 0.791168
000240 5f 44 86 be 24 d3 3a 3e 38 c8 8b 3d 96 4a 15 be
       -0.26224038 0.18244606 0.06825298 -0.14579234
000250 09 15 b1 3e e7 b2 fe 3e 2d 9e 3b be 54 1e fc be
       0.3458636 0.49745867 -0.18322058 -0.4924189
000260 66 9d 02 bf ca 0c 54 be af 44 73 3e 8d f9 ec bd
       -0.5102142 -0.20708004 0.2375667 -0.115710355
000270 fc 2f a4 3e ab 38 41 bf 50 cc 13 3d 66 5b 38 3d
       0.3206786 -0.75477093 0.03608352 0.04500904
000280 4f f8 94 3e 06 c1 1c be 7f 56 ca bc b4 d9 e1 bc
       0.29095694 -0.15308008 -0.024699448 -0.02756963
000290 12 00 c8 3d 68 0b a9 bd e0 06 67 bb be 56 cc 3d
       0.097656384 -0.08254129 -0.00352519 0.09977482
0002a0 f0 b3 84 be ae 9f c6 3d 85 f8 66 3e 1b f1 99 be
       -0.2591853 0.09698425 0.2255574 -0.3006676
0002b0 58 a0 5b 3e 76 85 0f be e4 6d 6c 3d a7 e3 42 bf
       0.21447885 -0.14015755 0.057721987 -0.7612862
0002c0 88 d0 c2 bd 70 d2 fc bd 61 87 02 3d 1c 36 80 bc
       -0.095124304 -0.12344825 0.03186739 -0.015650801
0002d0 7c b7 82 be a3 11 4c be 4a a8 8d 3e 74 7b f3 bd
       -0.25530612 -0.19928603 0.27667457 -0.11888781
0002e0 93 09 aa be 88 dd 26 3d 13 ee d2 3d 45 32 8f 3d
       -0.3321043 0.040738612 0.10299315 0.0699201
0002f0 8c ca 97 bc 85 3c 3e 3f 89 e1 1c 3f c8 fd 41 3e
       -0.018529199 0.74311095 0.6128164 0.18944466
000300 56 36 8c bf 3e 05 9c 3e 7f 0f 9a bf b2 5a 0d 3f
       -1.0954082 0.3047275 -1.2035979 0.55216515
000310 c4 58 44 3d 87 1f 2c be 5a da 0e bd 6e 44 88 3f
       0.047936216 -0.16808902 -0.034876205 1.0645883
000320 fd 66 8b bd 0b 37 de be fb 89 1a 3e 03 41 52 3f
       -0.06806753 -0.4340137 0.15091698 0.8213045
000330 9e 40 16 bf 7d 82 e3 be 32 3b e8 3e 20 7c 98 3e
       -0.5869235 -0.44435492 0.45357662 0.297822
000340 17 ad 8d bf cd 9c 7d be b3 6d e5 3d 15 b2 2b 3d
       -1.1068448 -0.24766846 0.11202564 0.04191788
000350 1d dc f4 bb 6a 43 f4 3e 58 0c 06 bc 57 57 74 3d
       -0.0074725286 0.47707683 -0.008181654 0.059653606
000360 03 fa 1b bd 52 07 82 3f dc 97 7e bf 62 c5 ad 3c
       -0.038080227 1.0158484 -0.9945047 0.021212284
000370 56 09 a6 bd 98 46 80 bd ff 9c 90 be 09 64 62 bc
       -0.081072494 -0.06263465 -0.2824478 -0.013817796
000380 cd 17 50 be b6 37 a2 3e 60 92 13 bf 0f 2a 9f 3e
       -0.2032158 0.3168313 -0.57645226 0.31086776
000390 9c 92 95 bd a6 5a b4 bd ac c7 b3 bd 7c ef 19 3d
       -0.07303354 -0.08806352 -0.08778319 0.037581906
0003a0 35 06 0d 3d 93 bb 34 be bc 16 33 3d 07 96 42 3e
       0.034429748 -0.17649679 0.043722853 0.19002543
0003b0 ef 55 d0 bc 48 bb b0 be 86 26 8b bd f7 5c 41 3e
       -0.025431601 -0.34517884 -0.06794457 0.1888312
0003c0 98 2d f2 3c 44 99 e8 be 6e 7c ef bd e8 f8 1e 3e
       0.029562756 -0.45429432 -0.11693655 0.15524638
0003d0 dc 78 82 bd 73 0c 13 3e 78 4a 26 be e4 58 5f bd
       -0.06370708 0.14360218 -0.16239345 -0.054528132
0003e0 1b 00 54 3f 2d bd 0b bf 62 d5 d5 be 10 ee 98 bd
       0.8281266 -0.54585534 -0.4176436 -0.07467282
0003f0 c2 20 66 3e 60 b1 2e 3e e1 f9 50 be c7 6a 8c be
       0.22473434 0.1705985 -0.20407821 -0.27425215

embedding.bias f4 [46]
000000 23 3a 93 be 7b 65 b9 be c4 32 12 be fe 89 35 be
       -0.28755292 -0.36210236 -0.14277178 -0.17728421
000010 78 df dc bd 3e 38 a0 be a1 9c 0d be cd 96 97 be
       -0.10784811 -0.3129291 -0.1382928 -0.2960724
000020 8f 99 d8 be 07 bd be bd a8 5b fd be ad f5 03 bf
       -0.42304656 -0.09313398 -0.4948399 -0.51546746
000030 ff da 2e bc ce 26 e0 be 7e 50 35 be e2 45 b4 3b
       -0.01067233 -0.43779606 -0.17706487 0.0055014947
000040 ff 32 c9 bd cb 8c 2c bd 12 e0 2d bf bb b1 45 be
       -0.0982418 -0.04212646 -0.6792003 -0.1930608
000050 1f 87 13 3e bb 6a cc be d5 16 f8 be d3 79 01 be
       0.14407013 -0.3992518 -0.4845492 -0.12644129
000060 45 44 83 bd 23 f5 eb be 60 d7 ba be 5d 35 b6 be
       -0.06409506 -0.46085462 -0.36492443 -0.35587588
000070 6a 13 cc be fb bc 00 be 01 5c 30 bd 56 3b 44 be
       -0.39858562 -0.1257209 -0.04305649 -0.1916326
000080 07 6f ca be da 6c 68 bd 30 dd a0 3d f5 80 b8 be
       -0.39537832 -0.056744434 0.07854688 -0.36035886
000090 46 b5 e8 bd 88 fd 60 be e6 ac 45 bf 3d ac 30 be
       -0.113627 -0.21971714 -0.7721695 -0.17253204
0000a0 a0 89 62 3d 6f 4d ab 3e 28 26 4b be 42 6b 8f 3d
       0.05530703 0.33457515 -0.19838774 0.0700288
0000b0 ef 66 80 be 46 69 ce be
       -0.25078532 -0.40314692

convs.0.fc_full.weight f4 [92, 98]
000000 7b 2c f1 bf af 60 d7 3c e4 fa 85 3e e5 2f a8 3c
       -1.8841699 0.02629122 0.26167977 0.02053065
000010 82 2c 66 3e 88 b6 21 bf 45 9a bb 3e b9 5d 94 be
       0.22477916 -0.63169146 0.36641136 -0.28977755
000020 e8 6b 9f be 7d 17 ca 3e 5c 1a 6e 3e 4c 65 87 3f
       -0.31137013 0.39471045 0.23252243 1.0577788
000030 18 2f 07 3e bd 38 fe be 48 61 52 3f 63 cd a5 3d
       0.13201559 -0.49652663 0.8217969 0.08095815
000040 e2 d2 2b bf 5c dd 13 bf 84 45 57 bf e7 cf 63 be
       -0.67118657 -0.5775964 -0.8409045 -0.22247277
000050 9e f6 a6 bf f6 cf ea bd f6 b2 34 3f 98 f9 37 bf
       -1.3044012 -0.11465447 0.7058557 -0.71865225
000060 52 7b 1c be 54 a8 5a bf d4 2c 71 3f 19 6a 99 bd
       -0.15281418 -0.854131 0.9420903 -0.0749094
000070 48 08 8b 3e 38 a1 d2 be b2 17 64 be 28 83 9f 3d
       0.27154756 -0.41138625 -0.22274664 0.07788688
000080 81 44 6e bf c7 1e 5d be 08 5f ca be 88 6e 25 3f
       -0.9307328 -0.21593772 -0.39525628 0.6462178
000090 49 9a 9f be f8 be 2c be 9d 46 e3 3e e7 6a 3d bd
       -0.31172398 -0.16869724 0.4438981 -0.04624453
0000a0 33 eb 28 be 03 fe 01 bf 36 9b d8 3e 00 c5 29 3f
       -0.16495971 -0.50778216 0.42305917 0.66316223
0000b0 08 6f 5e 3e e6 14 30 3f b5 5f c4 bd 44 12 f1 3e
       0.21722043 0.6878189 -0.09588567 0.47084248
0000c0 51 ac 31 be 6d 09 c3 be 87 56 77 be 27 d7 13 3e
       -0.1735089 -0.3809313 -0.24154101 0.14437543
0000d0 34 84 16 3f ad b9 04 be 06 d1 ea bc b4 57 be be
       0.58795476 -0.12961455 -0.028664123 -0.37176287
0000e0 6a 96 91 3d 7b 95 ed 3e ab 4f 00 bf 1a 11 81 be
       0.07108767 0.46403107 -0.50121564 -0.2520836
0000f0 2d f3 a8 be 64 82 0d 3e dd 1e 69 3e 7e 2a b7 3e
       -0.32998028 0.13819271 0.2276568 0.35774606
000100 14 db 8d 3f 2a a2 b1 be 92 30 dc 3d 2c 43 cd 3e
       1.1082482 -0.34694034 0.107514516 0.4009031
000110 95 7b 45 bf c3 49 4a 3e ac 56 2c 3e 75 d0 7f 3e
       -0.77141696 0.197547 0.16829938 0.24981864
000120 84 87 5b 3e d9 a1 6d 3d 64 78 52 3d 02 7a d0 bb
       0.21438414 0.058015678 0.051384345 -0.0063622007
000130 5e 32 9c 3e f4 aa c9 be 89 aa cb 3d 84 06 88 3d
       0.30507177 -0.3938824 0.099446364 0.06641868
000140 34 49 41 3e 6d 1f 00 3f 65 b6 a3 be 51 87 86 3e
       0.18875581 0.5004795 -0.31975093 0.26275113
000150 3d ba c8 bc 77 c7 34 bd b7 3a 8f bb 52 58 56 be
       -0.024502868 -0.044135537 -0.004371013 -0.20932129
000160 cb 30 4d be 00 ee 56 3d 35 2f 55 bd 3b 30 04 3c
       -0.20038144 0.05247307 -0.052046973 0.00806814
000170 b3 23 04 40 87 7e 8b 3f fb 67 dc bf bd 71 5b bf
       2.064679 1.0897988 -1.7219232 -0.85720426
000180 ed 33 0a bf ed 05 f9 bf 29 4e b0 be f4 09 13 bf
       -0.5398548 -1.9454933 -0.3443463 -0.5743706
000190 2c 7a 84 3e 63 a0 05 3f a0 31 87 3d 34 68 87 3e
       0.2587446 0.52197856 0.06601262 0.26446688
0001a0 70 4c c8 be 1e ec 33 3f fc fc a6 3f 41 ce a5 be
       -0.39120817 0.7028216 1.3045955 -0.32383922
0001b0 f2 b0 4c bf 70 9c 89 bd 70 ff d9 be 30 6f a5 3e
       -0.799575 -0.06719291 -0.42577696 0.32311392
0001c0 df c5 4f bf 7c cc 0d 3f 1f 15 90 be 07 d6 b1 bd
       -0.811613 0.55390143 -0.28141114 -0.086834006
0001d0 67 43 07 3f 8b 35 18 3f 8c 1c b2 3e 06 33 08 3f
       0.5283722 0.594567 0.34787405 0.53202856
0001e0 c0 66 cb 3e 46 25 d6 be 8d 87 1e bf 8b d1 08 3f
       0.3972683 -0.41825312 -0.61925584 0.5344474
0001f0 26 57 82 be b4 07 28 3f cc 2a 2d bf 1c fe 88 3f
       -0.25457114 0.65636754 -0.6764343 1.0702548
000200 f9 a5 b8 bd d5 dc 91 3e 5a f8 21 3f 39 b9 77 bf
       -0.09016032 0.28488794 0.6326958 -0.96767
000210 ee aa d2 be f8 1f d7 be c3 b5 0b bf 5b 83 9b bf
       -0.41146034 -0.42016578 -0.5457422 -1.2149462
000220 e4 b7 24 be 39 08 94 3f be ea 94 3d ce 26 bd bd
       -0.16085774 1.1565009 0.07271336 -0.09235917
000230 3d 45 c2 3e d3 23 db 3d 90 77 00 be d5 05 cc 3c
       0.3794345 0.10700192 -0.1254561 0.024905125
000240 2d 5b 51 bf 47 b2 81 bf 04 2b 7b be b5 17 1b 3f
       -0.8177975 -1.0132531 -0.24528128 0.6058305
000250 fc 78 44 be f2 5e cd be 83 3c c8 3a 0b 5f f0 bd
       -0.19186777 -0.401115 0.0015276823 -0.11736878
000260 d7 b4 74 3f 42 86 5d 3f 43 52 14 bf 8f d3 8c be
       0.9558844 0.86532986 -0.5793802 -0.27505156
000270 5c f8 1a bf 63 3e a1 3e 46 0b 9f 3e de e7 67 bd
       -0.60535216 0.3149291 0.31063288 -0.05661761
000280 82 99 7b bf 14 cd ff be 30 db b7 bd 03 de 52 bd
       -0.9828111 -0.4996115 -0.089773536 -0.051481258
000290 df e8 9e be 0d 9d c1 3d 01 18 8e 3e b9 7f 7e be
       -0.31037042 0.09453783 0.2775269 -0.2485341
0002a0 65 10 cf be 91 17 a3 bd 47 5f 66 bf 5c 88 9c 3d
       -0.40442196 -0.07963479 -0.8998913 0.07643196
0002b0 2c c9 9a be 66 4a 01 3f 27 33 4e be ef be 14 3f
       -0.30231607 0.5050415 -0.201367 0.5810384
0002c0 27 63 82 3e a0 25 15 bd c9 7c 4b 3e 1b 82 6e bf
       0.25466272 -0.036412835 0.1987182 -0.93167275
0002d0 5f a5 cc 3e bd 3e 1a bf 8e 9c af 3e 52 a4 28 3e
       0.39969918 -0.6025198 0.3429913 0.16468933
0002e0 2c e3 c3 3d 6e 27 05 bd 5c 41 d7 be 50 da 0e 3f
       0.09564814 -0.032508306 -0.42042053 0.5580187
0002f0 dc 4c 81 bd 5d e1 43 3d b0 6c 85 3f 16 98 ec 3e
       -0.06313488 0.047822345 1.0423794 0.46209782
000300 ee 63 09 bf a6 3d 72 bf 04 03 59 bf 9b f9 21 bf
       -0.53668106 -0.9462532 -0.84770226 -0.6327149
000310 0d 55 a2 3d 9b a2 6f 3f 5f bb 6d be 46 6b d3 3e
       0.079263784 0.9360749 -0.23216008 0.4129278
000320 db 7f 1b 3f f2 3c 9a be 2b 70 0c 3c ce c2 01 3f
       0.60741967 -0.30124623 0.008571665 0.50687873
000330 a6 b6 35 be 12 44 2e 3f 9e f7 2f bf 2d fd 05 3f
       -0.17745456 0.6807262 -0.6873721 0.5233944
000340 c6 8a f4 3e 6f c9 1f 3d d3 da 45 3d 2c e8 cf 3a
       0.47762126 0.03901046 0.04830439 0.0015862039
000350 25 98 e2 be 94 91 06 3f a1 05 b7 3d 6d be 47 bf
       -0.44256702 0.52565885 0.089366205 -0.7802494
000360 77 e8 83 bf cb 98 e3 3d 04 4b 39 3e 77 bb a3 3f
       -1.0305318 0.11113127 0.18095022 1.2791585
000370 7d cb 5a 3d 18 95 21 be 63 02 99 3e 3e 58 43 be
       0.053416718 -0.15779531 0.29884633 -0.1907663
000380 0c a0 b1 be 29 f4 3e bf 59 4f 35 3f 06 04 db 3e
       -0.3469242 -0.7459131 0.708242 0.42776507
000390 84 72 bc be 99 45 f4 3e c1 50 ee 3f 64 35 f3 be
       -0.36806118 0.4770935 1.8618394 -0.4750167
0003a0 6d 73 c4 bd 96 41 88 3d e9 3d be bc 53 a2 75 3f
       -0.09592328 0.066531345 -0.02322288 0.9595081
0003b0 3a 1e 0c 3f bd 80 70 3f 17 de cb bf d6 0f 38 bd
       0.5473362 0.9394644 -1.5927151 -0.044936977
0003c0 e6 af 30 3e b1 13 0e bc 79 d2 11 3d 40 f0 00 be
       0.172546 -0.008671687 0.035601113 -0.12591648
0003d0 de d0 80 bf c7 26 21 3e a4 fd 33 bf 8f 56 f5 3e
       -1.0063741 0.15737449 -0.703089 0.479176
0003e0 6d 8e 9e bd f3 43 af bd 23 cd 6b be f1 53 e6 bd
       -0.07742009 -0.08557882 -0.23027472 -0.11246479
0003f0 90 16 d0 bd db 98 98 bc 3b 6e 80 3e 6c 4f 56 3f
       -0.101605535 -0.018627575 0.250841 0.8371494

convs.0.fc_full.bias f4 [92]
000000 61 5d 87 bd 4b 1f c3 3c f9 1b 57 bc 8f a9 08 3b
       -0.066096075 0.023818633 -0.013129228 0.0020853018
000010 ca 57 ab 3c 6f 18 3d 3d 42 de 8d 3d a0 ef 7f bc
       0.020915885 0.04616588 0.06927158 -0.015621096
000020 dd 42 ae bd 8d 96 9c 3c 3c f8 10 39 c1 bc 14 bd
       -0.08508847 0.019114757 0.00013825385 -0.036312822
000030 e9 f6 9e bd d6 39 38 3d 42 43 8e bd 5b 10 b3 3d
       -0.07761938 0.04497703 -0.06946422 0.08743354
000040 bf f9 0e be 6c 6c 94 bd 81 14 e7 3d 2f 4d 0e 3e
       -0.13962458 -0.07247242 0.11283208 0.1389663
000050 93 2e 83 3c 25 1b 6d bc 79 f9 1d 3e 63 74 10 be
       0.01601342 -0.014471804 0.15427198 -0.14106898
000060 94 8e f1 3c c0 8d 9a 3d 68 ed 5a bd eb a9 bd bd
       0.029486932 0.07546568 -0.053449064 -0.09260925
000070 b5 50 67 3d 88 97 3f bd d6 a2 d8 ba e6 46 88 3d
       0.056473453 -0.04677537 -0.0016528021 0.06654148
000080 bb 5d e4 3d cf 3c 28 be c5 89 6a 3d 04 cb 26 bd
       0.1115069 -0.16429447 0.057260294 -0.040720955
000090 97 6a 3f 3e 1e 17 81 3d 6d f2 28 3d 57 a5 9c 3b
       0.18693005 0.063032374 0.04124682 0.004780452
0000a0 cb 57 69 3d 0b b3 f1 bd 0b 53 00 be 67 d5 ab 3d
       0.05696849 -0.11801728 -0.12531678 0.08390313
0000b0 f9 65 a6 3d 7c 4e 78 bb 2e 02 58 3b 34 86 4a bd
       0.081249185 -0.0037888577 0.0032960284 -0.049444392
0000c0 03 77 0e bd b0 43 19 3c dd 19 64 3d 42 c8 0f 3e
       -0.034781467 0.009354517 0.055688728 0.14041236
0000d0 cf b2 69 3d 30 ee 35 bd a0 6c 2a be 1d 95 8a 3d
       0.05705529 -0.044416606 -0.16643 0.06766722
0000e0 eb 92 09 bd 11 d5 80 3a 54 3e 8b bd 5f 8a 58 3d
       -0.033587378 0.0009829124 -0.067989975 0.052866336
0000f0 1c 2b 9c 3c 1d 11 2f bc d5 5a 99 3d bd de 40 bd
       0.019063525 -0.0106852325 0.07488028 -0.04708742
000100 c5 58 ed 3c ef c9 c6 3d ab 36 9e 3c 0c 76 1b bd
       0.028972993 0.097064845 0.019313177 -0.037954375
000110 d4 2b c8 bd 26 1c 21 3e 62 30 3a ba ad 80 3e 3d
       -0.097739846 0.15733394 -0.00071025465 0.046509434
000120 0f 1e c4 bd 06 e3 c2 3d a5 c8 1e bc 62 75 fc ba
       -0.09576046 0.095159575 -0.009691392 -0.0019261057
000130 9f a3 0c 3b e0 ca 6e 3d 74 1a b1 3c 68 c8 96 bd
       0.002145983 0.058298945 0.02161906 -0.07362443
000140 31 15 c4 3d 6e c1 a9 bc 5d fc 56 ba 16 a0 ca 3c
       0.095743544 -0.020722117 -0.0008201057 0.024734538
000150 56 ce 8c bd 7b 8d 6b bd 27 ac 98 bd 77 8f 90 3c
       -0.06875293 -0.057507973 -0.074547105 0.017646534
000160 fc 7a 9c bd af 53 87 3d 4a 4c 21 bd 6b 8b ea bd
       -0.07640645 0.06607758 -0.039379396 -0.11452373

convs.0.bn1.weight f4 [92]
000000 ce de 2b 40 41 f8 38 40 80 97 21 40 b1 24 1b 40
       2.685474 2.8901522 2.5248718 2.4241145
000010 88 3e f7 3f bf b2 b8 3f b4 50 81 40 f6 31 23 40
       1.9315958 1.4429549 4.0411015 2.5499244
000020 7a 5e 61 40 6b 44 c5 3f 03 f3 1d 40 1b 70 33 40
       3.5213914 1.5411505 2.4679573 2.8037174
000030 e9 08 47 40 ad 91 b4 40 2d 57 da 3f 6d 9c 2e 40
       3.1099188 5.6427827 1.7057854 2.7282975
000040 c9 cc 67 3f 0a 43 0e 40 44 87 59 3f 69 a2 20 40
       0.9054685 2.2228417 0.84972024 2.5099127
000050 f8 85 33 40 ed 99 42 40 06 4a 37 3f 9e 05 72 40
       2.8050518 3.040645 0.71597326 3.7815928
000060 31 62 67 40 d0 15 20 40 3b 2c 56 40 17 c0 0d 40
       3.6153681 2.5013313 3.3464496 2.2148492
000070 f9 f7 24 40 fc 8d c5 3f 38 e3 68 40 3a 2e 87 40
       2.577635 1.5433955 3.6388683 4.224393
000080 f4 0d e6 3f 5a a9 3c 40 45 a3 09 40 30 bf 43 40
       1.7973008 2.9478364 2.1505902 3.0585442
000090 8c 84 96 40 00 b0 1b 40 93 d9 59 40 31 54 f0 3f
       4.70368 2.4326172 3.4039047 1.8775693
0000a0 c6 44 ae 3f af 03 3a 40 9b 37 9e 3f 05 3a 54 40
       1.3614738 2.9064748 1.236072 3.3160412
0000b0 c1 b4 30 40 56 a5 3a 40 91 d3 0a 40 17 58 0d 40
       2.7610323 2.9163413 2.169163 2.2085016
0000c0 6c 43 15 40 1e 8b 99 3f 07 2d 80 3f 1f 41 ba 3f
       2.33224 1.199558 1.0013741 1.4551123
0000d0 2e 5d 56 40 be a2 a9 3f 89 05 56 3f 55 c5 19 40
       3.3494372 1.325279 0.83602196 2.4026692
0000e0 9b 20 10 40 e3 e0 20 40 ad 61 1a 40 ac 90 a7 3f
       2.25199 2.513726 2.4122117 1.3091025
0000f0 03 90 2c 40 c2 33 d2 3f ec 52 eb 3f c1 f4 b9 3f
       2.6962898 1.6422045 1.8384681 1.4527818
000100 80 27 a3 3f 3c 27 e9 3f 16 1e a7 3f 9d e5 89 40
       1.274643 1.8215098 1.3056056 4.309279
000110 b1 3a 8e 3f 14 ee cc 3f 78 2c cd 3e 6d c3 b9 3f
       1.1111661 1.6010156 0.4007299 1.4512764
000120 c6 8e b5 3f 75 19 9d 3f f8 1f 16 40 15 9b 12 40
       1.4184196 1.2273394 2.3457012 2.2907155
000130 1f 88 bf 3f b9 5e 0a 3f 1f eb 77 3f 01 6b a5 3f
       1.4963416 0.54050785 0.9684314 1.292328
000140 8b 4a ce 3f 10 a8 8d 40 19 27 9a 3f fb bd bc 3f
       1.6116499 4.4267654 1.2043182 1.4745477
000150 23 76 0f 40 5a 13 2a 40 7f 8c d8 3f 5a 6b 97 3f
       2.2415855 2.6574311 1.6917876 1.1829636
000160 9c 4d b9 3f e2 a2 84 3f d3 f6 a1 3f ae db f8 3f
       1.447681 1.0362208 1.265345 1.9442041

convs.0.bn1.bias f4 [92]
000000 94 36 16 be 50 a3 87 3e c0 57 c9 3d 49 f7 e1 3e
       -0.14669257 0.26491785 0.0983119 0.44133976
000010 af 73 8b 3b 5b 2b 47 be d6 d7 10 bf e0 05 f1 3c
       0.004255734 -0.19450133 -0.5657934 0.029421747
000020 fc c3 51 bf fc 5c fb 3d 35 56 cf be cc 6c 03 be
       -0.81939673 0.12273595 -0.40495458 -0.12834471
000030 8c 6f 64 bd ea f5 ef be a6 a6 e2 be b3 78 e7 bd
       -0.055770442 -0.46867305 -0.44267768 -0.113023184
000040 6f 55 28 3f d2 3b ef bc f9 45 af be 6f f8 20 3e
       0.6575536 -0.02920333 -0.34233072 0.1571977
000050 78 cf cc 3c e1 6e a9 bd 57 1c fb bd f7 ae 47 3e
       0.025001273 -0.082731016 -0.12261265 0.19500338
000060 9c e8 23 3f 69 0b e1 bd 9a 89 84 be 18 d9 d7 be
       0.6402681 -0.109885044 -0.25886232 -0.42157817
000070 b4 ef 13 3e ad a9 56 3e a9 b5 b8 3e 4c 89 5e bf
       0.14446908 0.20963164 0.36076096 -0.8692825
000080 81 45 51 bf 23 86 20 bf fe 6b 09 be bb 6f 43 be
       -0.8174668 -0.62704676 -0.13420102 -0.1908559
000090 2d 23 fb bd 1e 3a 3a 3f c2 82 23 be e5 c6 9e 3e
       -0.122625686 0.7274493 -0.15967849 0.3101112
0000a0 44 b1 ff be 19 bd 89 be 49 d7 71 3f 86 f0 1d bf
       -0.4993993 -0.26902083 0.94469124 -0.61695135
0000b0 a6 a5 91 3d c4 ef 4c 3f 99 fd 91 3e 6f 14 38 be
       0.07111673 0.80053353 0.28513792 -0.17976545
0000c0 0c 09 c4 3e 1b 58 17 3f 4d 60 e3 3e 16 aa 0c be
       0.38288152 0.59118813 0.4440941 -0.13736758
0000d0 d0 2a 7a bd 1f 7b 8e be a1 60 4b bf b0 7e b4 3d
       -0.061075985 -0.2782831 -0.7944432 0.08813226
0000e0 3e f5 bc bd 0f 21 35 3e 73 3f 58 be 33 a5 f8 3e
       -0.09226464 0.17688392 -0.21117954 0.48563537
0000f0 d2 b1 3c be 17 64 21 3e be 92 20 bd f5 77 a3 be
       -0.18427208 0.15760837 -0.039202444 -0.31927457
000100 ec 9f dd be d8 d3 d2 3e 7c 4e d0 be cb 17 fe 3c
       -0.43286073 0.4117725 -0.4068488 0.031017205
000110 bc 67 0e bf 88 22 2e bc c4 8a 94 3f 48 70 07 bf
       -0.55627036 -0.01062835 1.1604848 -0.529057
000120 ba c0 c2 3e 4f c6 f6 be 98 1c e0 3e cf 3b ba bd
       0.38037664 -0.48198172 0.43771815 -0.09093439
000130 30 a1 73 3e 37 0f 9a 3f 83 69 3b bf f1 3d 10 bf
       0.23791957 1.2035893 -0.73207873 -0.56344515
000140 30 5b 9d bd 62 b6 85 bc d5 46 be be 26 4d 00 3f
       -0.07683408 -0.016322318 -0.37163416 0.5011772
000150 36 07 4b 3e f2 dd 67 be 1a c2 f6 bd 2e 36 21 bf
       0.1982697 -0.22643259 -0.12048741 -0.62973297
000160 6e 71 a2 3e c4 69 f4 be 52 2e 56 3e 17 76 c5 3e
       0.31727165 -0.47736943 0.20916107 0.38566658

convs.0.bn1.running_mean f4 [92]
000000 53 81 85 c0 a5 c9 25 40 2b ba da 3f 4b d5 db c0
       -4.1720366 2.5904324 1.7088064 -6.8697867
000010 8b 68 ed c0 ee 41 ea c0 b5 0a b6 40 92 c3 3b be
       -7.4190116 -7.320548 5.688807 -0.18336323
000020 77 82 42 40 1c fc d5 be 88 64 a4 40 94 ae 8e c0
       3.039213 -0.41793907 5.137272 -4.458811
000030 4d f3 ab c0 c5 84 b7 40 06 ef 33 c0 76 67 0e c1
       -5.37345 5.734957 -2.8114638 -8.900259
000040 ba 81 c2 c0 bf 61 ab bd 7e 04 eb c0 be 5f 88 40
       -6.078336 -0.08368253 -7.3442984 4.2616873
000050 5e 97 90 40 a0 79 74 40 09 00 00 3f bc df 51 c1
       4.5184774 3.8199234 0.50000054 -13.117123
000060 16 95 a1 40 bb 40 c5 be 6c f5 42 40 a1 88 10 c0
       5.049449 -0.38525948 3.0462294 -2.2583392
000070 8d b6 24 c1 67 e2 12 c1 3a ff db c0 b6 88 73 c1
       -10.294568 -9.180274 -6.8749056 -15.220877
000080 7e ba b1 c0 9d 83 f5 c0 22 9a 29 bf a5 04 9b c0
       -5.554015 -7.672316 -0.66250813 -4.844317
000090 c1 b2 13 be f8 dc 3e bf 6b f3 48 c0 b6 e2 ac bf
       -0.14423658 -0.7455592 -3.139857 -1.3506687
0000a0 8e 94 19 3f 80 18 62 c0 51 74 00 c0 07 e2 7d c0
       0.599923 -3.5327454 -2.0070994 -3.9669206
0000b0 76 42 20 40 30 8e aa c0 21 0e 05 c1 f5 73 4f 40
       2.5040565 -5.329857 -8.315949 3.2414525
0000c0 0b c1 8f bf f6 9e 85 c0 00 99 1c c1 c1 02 a9 c0
       -1.1230787 -4.1756544 -9.7873535 -5.281586
0000d0 0e 43 0e c0 86 86 1c 40 9b b4 78 c0 58 2b c5 c0
       -2.2228427 2.4457107 -3.8860233 -6.161541
0000e0 54 eb 86 c0 44 9e 34 3f 28 01 16 40 4c d4 b8 c0
       -4.2162266 0.70553994 2.3438206 -5.775915
0000f0 5a 14 14 c0 93 07 2b c1 0f 4e 70 3f 04 ce 7c 40
       -2.3137422 -10.689349 0.9386911 3.9500742
000100 7a e3 9c bf 8e 5b 8f 3f cf 81 a5 40 b9 d9 85 c0
       -1.225692 1.1199815 5.172096 -4.1828275
000110 0b 8a d7 bf cc 9c 70 c0 f7 5f 74 40 4b be 70 c0
       -1.6839002 -3.7595701 3.8183572 -3.7616146
000120 e4 0a a2 c0 06 3b 23 c0 91 61 0b c1 4e 09 1f bf
       -5.0638294 -2.5504775 -8.71132 -0.6212357
000130 cc 93 c2 40 8a 43 9a be d9 d0 a1 c0 f5 49 4f c1
       6.0805416 -0.30129653 -5.056744 -12.955556
000140 6f c0 15 c1 4a d6 17 c1 75 7d cc c0 a8 ce a7 c0
       -9.359481 -9.489817 -6.3903146 -5.2439766
000150 9b 13 bf 3f 31 ae cd bf 96 89 99 40 be 26 a0 40
       1.4927858 -1.6068784 4.798045 5.0047293
000160 0e 45 a2 bf 73 19 21 c0 31 23 99 c0 18 6d 68 c0
       -1.2677324 -2.5171783 -4.785546 -3.6316586

convs.0.bn1.running_var f4 [92]
000000 e2 22 40 42 8f 8f 1c 43 2e 61 ed 42 74 55 0a 43
       48.034065 156.56078 118.689804 138.3338
000010 48 93 a4 42 c8 34 f5 42 ee 89 0a 43 67 21 92 42
       82.28766 122.60309 138.53879 73.06524
000020 8a 1b 28 42 76 6d 04 43 87 e8 fb 42 cb 51 f4 42
       42.026894 132.42758 125.954155 122.15975
000030 55 0a e4 42 73 d5 d4 42 98 76 d0 42 25 3c cc 42
       114.02018 106.41689 104.23163 102.11747
000040 99 54 22 43 d5 88 e6 42 f7 f8 00 43 d2 e8 dc 42
       162.33046 115.26725 128.97252 110.45473
000050 8d c9 06 43 c5 26 1c 43 ec 1a d5 42 0b a8 ae 42
       134.78731 156.15144 106.55258 87.32821
000060 ab c1 0e 43 7f 4a 20 43 8f 79 97 42 41 a6 bd 42
       142.75652 160.291 75.73742 94.824715
000070 c3 24 f6 42 cf b3 18 43 55 d3 ef 42 ab 5a bd 42
       123.0718 152.70238 119.91276 94.677086
000080 4c be bd 42 e9 c4 96 42 a7 f7 f9 42 67 d9 a6 42
       94.87167 75.38459 124.983696 83.424614
000090 57 0f 3e 42 48 bd d3 42 83 e5 80 42 d0 37 06 43
       47.51498 105.86969 64.448265 134.21802
0000a0 bb 93 01 43 68 54 a6 42 c7 40 cb 42 65 65 d1 42
       129.57707 83.164856 101.62652 104.69804
0000b0 8e c7 a7 42 d0 75 ec 42 bf af b8 42 d5 73 b7 42
       83.889755 118.2301 92.343254 91.726234
0000c0 2f 99 00 43 30 cf 10 43 54 54 e8 42 b8 07 59 42
       128.59837 144.80933 116.1647 54.257538
0000d0 19 ed 1f 43 1b a6 6d 42 d2 70 03 43 6f 42 f4 42
       159.92616 59.412212 131.4407 122.12975
0000e0 bb 30 cc 42 77 3d 07 43 4c 37 08 43 27 26 00 43
       102.09518 135.2401 136.216 128.14903
0000f0 ef a8 06 43 77 0c c1 42 1d b1 c6 42 f1 f5 c7 42
       134.6599 96.524345 99.345924 99.980354
000100 48 09 ad 42 a0 7e ed 42 75 56 b6 42 34 c7 cb 42
       86.51813 118.747314 91.16886 101.88907
000110 c1 95 29 42 73 0a 76 42 54 fa 16 43 dc 70 f5 42
       42.396244 61.510204 150.97784 122.72043
000120 ee 4a a2 42 05 cc 06 43 a4 2e 16 43 bf 39 b5 42
       81.14635 134.79695 150.18219 90.612785
000130 9a 4d 2a 43 56 39 c1 42 c3 78 54 42 98 7a 37 43
       170.30313 96.611984 53.11793 183.47888
000140 9f 57 f3 42 83 18 13 43 f9 80 eb 42 18 1f 29 43
       121.671135 147.09575 117.7519 169.12146
000150 c4 d3 21 43 38 8b 0f 43 1f 31 76 42 f5 cc 2e 43
       161.82721 143.54382 61.54797 174.80061
000160 ee aa ff 42 ea 46 e1 42 af 4a 67 42 6c 82 2f 43
       127.83385 112.638504 57.822933 175.50946

convs.0.bn2.weight f4 [46]
000000 f5 1f 9a 3f d4 d4 b4 3f 43 b9 9b 3f af ff 1a 3f
       1.2041003 1.412745 1.2165912 0.6054639
000010 e9 6e 11 3f c2 6d ac 3f 5a d2 d9 3f 80 87 89 3f
       0.5680986 1.3470995 1.7017319 1.0744476
000020 5c 4d c6 3f 0f cd 48 3f 29 4a bc 3f 8c a2 ab 3f
       1.5492358 0.78437895 1.4710132 1.340898
000030 c9 1b 8c 3f d4 23 df 3f 48 92 b3 3f c3 1c 4e 3f
       1.0945979 1.7432809 1.4029016 0.80512637
000040 d0 87 86 3f 7c 8a e9 3f 1b 3c b9 3f 4c 37 81 3f
       1.0510197 1.8245387 1.4471468 1.0095
000050 89 cd b4 3f a9 f7 88 3f 16 7f b6 3f e4 ff a8 3f
       1.4125224 1.070058 1.4257534 1.3203092
000060 b6 02 86 3f cb 35 ca 3f 61 71 8e 3f ab 90 a1 3f
       1.0469577 1.5797666 1.112835 1.2622274
000070 48 fe 99 3f 32 b8 d1 3f 1e ec 88 3f bb 6c b1 3f
       1.2030725 1.6384337 1.0697057 1.3861307
000080 1f 94 0e 40 4b 1b a3 3f 3f fe 7d 3f 7f d4 94 3f
       2.2277906 1.2742704 0.99216074 1.1627349
000090 b5 9a f6 3f 77 eb 9d 3f 3d 90 47 3f 8b e0 82 3f
       1.9265963 1.2337483 0.77954465 1.0224775
0000a0 b0 51 87 3f 52 6b de 3f f1 bc 34 3f 8e 5e d1 3f
       1.0571804 1.7376502 0.706008 1.6356981
0000b0 a2 9e 89 3f f3 8b 46 3f
       1.0751536 0.77557296

convs.0.bn2.bias f4 [46]
000000 1f 6e 88 be 25 4f ba be 69 e3 d8 bd f2 4a 72 be
       -0.26646516 -0.36388507 -0.1059025 -0.23661402
000010 61 b9 2c be c6 7b 74 be c2 2b dd bd 45 08 8e be
       -0.16867591 -0.23875341 -0.10799362 -0.27740684
000020 a7 ba ab be 82 0b 24 be 53 a5 f0 be 3b 41 1d bf
       -0.33540842 -0.16020015 -0.47001132 -0.6142766
000030 af 25 98 3c 95 33 fc be 4f 04 ee bd f6 e4 a5 bd
       0.018572656 -0.49258104 -0.116219155 -0.081003115
000040 86 c3 24 be 06 ab 07 be 61 49 1b bf c7 2f 89 be
       -0.16090211 -0.13248834 -0.6065884 -0.26794264
000050 ac fe a8 3d 84 10 bb be 4c 18 f8 be 3f 1a f6 bd
       0.082517 -0.36536038 -0.48456037 -0.12016725
000060 3d 4e 6b bd e4 83 e0 be a4 e5 c1 be 6d 11 95 be
       -0.05744766 -0.43850625 -0.37870514 -0.29114857
000070 2e 6a d9 be 18 0a 84 bd 5b 52 76 bd a0 18 e9 bd
       -0.4246382 -0.06447238 -0.060137134 -0.1138165
000080 f1 96 ba be c4 84 1d be cc 89 73 bc 89 e8 e9 be
       -0.36443284 -0.15382677 -0.014864396 -0.45685223
000090 23 39 3e bd 94 26 a3 be 01 a9 59 bf a2 45 83 be
       -0.04644121 -0.3186537 -0.85023504 -0.25639063
0000a0 02 c2 af 3c 5e 7c 8e 3e 61 71 5c be dc 68 d1 3d
       0.021454815 0.2782926 -0.21527626 0.102250785
0000b0 75 74 1e be 66 ac d0 be
       -0.15474112 -0.4075653

convs.0.bn2.running_mean f4 [46]
000000 2a b6 eb 40 13 79 db 40 b4 30 1d 41 74 57 02 41
       7.365987 6.8585296 9.82439 8.146351
000010 2a 15 c5 40 b6 40 47 40 ea 11 d8 40 12 02 39 40
       6.1588335 3.1133246 6.752187 2.8907514
000020 bc 17 a0 3e 42 82 11 41 9c 21 82 40 cb a4 ea 40
       0.31268108 9.094301 4.0666027 7.3326163
000030 47 4f 03 41 a6 c9 65 40 69 7a fe 40 38 0b dc 40
       8.206855 3.5904326 7.9524426 6.8763695
000040 e7 0f d7 40 1c da 63 40 60 cf 14 40 5f f0 00 41
       6.720691 3.5601873 2.3251572 8.058684
000050 a1 a5 45 40 47 5f 25 41 13 35 91 3f 3f 19 84 40
       3.0882342 10.335761 1.1344322 4.128082
000060 27 c3 11 41 70 75 37 40 94 a4 9b 40 8d 1c fa 3f
       9.110145 2.8665428 4.86384 1.9539963
000070 20 5d 2a 41 c2 b8 a1 40 49 01 dd 40 5b 84 9d 40
       10.647736 5.0538034 6.906407 4.9224067
000080 a6 ef 3a 3f 51 86 4b 40 4b 4a b4 40 37 15 40 41
       0.73021924 3.180073 5.634069 12.005179
000090 9e 12 02 40 b5 f7 05 41 e4 49 da 40 09 89 11 41
       2.0323863 8.372975 6.82152 9.095956
0000a0 e8 b1 98 40 2b cf 6b 3f 50 f8 fb 40 b3 2f 2b 3f
       4.771717 0.9211299 7.8740616 0.6686966
0000b0 bc 71 8f 40 70 1c 20 41
       4.4826336 10.006943

convs.0.bn2.running_var f4 [46]
000000 ec 09 13 43 45 96 91 42 db 0a 41 43 cf a0 a7 42
       147.03876 72.793495 193.0424 83.81408
000010 98 0e 4d 42 f2 10 d3 41 3f ba 02 43 67 5d d7 41
       51.26425 26.383274 130.72752 26.920607
000020 4d 0d 12 3f 0a a1 36 43 27 c9 66 42 e2 1f c4 42
       0.57051545 182.62906 57.696438 98.06227
000030 94 46 fb 42 ec 5c 43 42 2c 80 2f 43 4e bf 0f 43
       125.63785 48.840744 175.50067 143.74728
000040 5c 23 7a 42 4b 4c a0 41 ce 3e 50 41 44 17 aa 42
       62.53453 20.037252 13.015333 85.04544
000050 b3 bb d1 41 43 11 79 43 e2 c0 3f 40 1e 4e 24 42
       26.21665 249.06743 2.9961476 41.076286
000060 8e 17 0e 42 4f 02 a0 41 8d 35 8d 42 f6 7d e5 40
       35.523003 20.001127 70.60459 7.171626
000070 fe f4 ef 42 30 a8 11 42 8b 24 88 42 01 9c 10 42
       119.9785 36.414246 68.07137 36.152348
000080 f5 33 89 3f 38 a1 50 41 db 5d 5b 42 aa 1b cb 43
       1.0718981 13.03936 54.841656 406.21613
000090 9b 3e e9 40 93 c2 94 42 a2 b6 bd 42 46 d6 63 43
       7.2888923 74.38003 94.856705 227.837
0000a0 08 58 14 42 5e 55 5b 40 05 9f 51 42 09 62 b5 3f
       37.085968 3.4270854 52.405293 1.4170543
0000b0 ee f1 41 42 37 76 1b 43
       48.48626 155.46178

convs.1.fc_full.weight f4 [92, 98]
000000 20 02 4c 3d 1e 7c 16 3f 2f a1 77 be 6a ca 7a 3e
       0.049806714 0.5878314 -0.2418258 0.24491277
000010 99 d5 0d 3f 9a 0f 37 3f 88 c7 a1 bf b5 e2 dc 3e
       0.5540405 0.7150818 -1.2639017 0.43141714
000020 ad 6d 9c 3a c4 28 c7 3d 32 2d 81 3d ba 0e 1d 3f
       0.0011934541 0.09724572 0.063074484 0.61350596
000030 78 56 18 bf 19 e3 44 3e 3b 49 d7 3e be 68 25 3e
       -0.5950694 0.19227256 0.42048058 0.16153237
000040 02 91 67 3f 37 9f 09 bf 55 90 38 bf 2a 2d d4 3e
       0.9045564 -0.5375857 -0.72095233 0.41440707
000050 af 87 51 be 9f 6b 2b 3e 57 91 67 bf 77 4f 16 bf
       -0.20461915 0.16740273 -0.90456146 -0.58715004
000060 41 78 53 be 10 1f a4 bc 4a 08 ac bf be 89 04 3d
       -0.20651342 -0.020034343 -1.344003 0.032357924
000070 09 d1 89 be 9d 69 22 bf 3e 22 95 bf e3 5b b2 bf
       -0.26917294 -0.63442403 -1.1651075 -1.3934292
000080 2d 65 a2 bb b5 41 b3 be 0e e5 82 3e 2d be f1 bd
       -0.0049559087 -0.35011068 0.2556538 -0.11803851
000090 37 c3 88 bf 7d 1c 38 3d d2 92 4e bf 49 ba eb be
       -1.0684575 0.044949044 -0.8069278 -0.46040562
0000a0 53 67 8a be 56 80 19 3f 3d 49 19 3f be 6d 90 bc
       -0.27031955 0.5996145 0.5987738 -0.017630454
0000b0 50 00 cb bb 54 dc 18 be d5 40 d9 bd dd 80 01 bf
       -0.0061951056 -0.14927799 -0.10608069 -0.50587255
0000c0 e5 b8 94 bf d9 05 cb be a7 f2 49 3f 62 98 a5 bf
       -1.1618925 -0.396529 0.78885883 -1.2937129
0000d0 ae c4 ce 3e db 97 36 3e a9 d1 3d be 05 e1 4d bf
       0.4038443 0.17831366 -0.1853701 -0.8042148
0000e0 1d 5d 86 3f 23 1c 53 be 9c 09 e7 be 73 be fd 3e
       1.0497166 -0.20616202 -0.4512452 0.49559364
0000f0 58 26 17 bf 6a c5 d4 bd be de a4 be cf 45 30 bf
       -0.5904288 -0.10389216 -0.3220119 -0.6885652
000100 ab 3e 63 3e e7 db 8d bf 5c c4 28 3f 5c 1a 02 3f
       0.22191875 -1.1082734 0.6592462 0.5082147
000110 0c 74 65 bf c1 20 e3 3e 61 62 72 bc 01 6d 16 3f
       -0.896302 0.44360927 -0.014793963 0.58760077
000120 97 26 ec be d9 1c 82 be 27 7d 2b be d4 06 17 bf
       -0.46123192 -0.25412634 -0.1674696 -0.58994794
000130 f2 b2 14 bf c4 21 71 be a0 50 59 be 41 a4 07 bf
       -0.5808555 -0.23548037 -0.21222162 -0.52985007
000140 27 28 c1 3e f7 48 02 bf 89 a2 7d 3f 0f bd 59 be
       0.37725946 -0.50892586 0.99076134 -0.21263526
000150 bd 13 43 bf 37 03 94 bf 37 cd 53 3f 2b 5e 42 3e
       -0.76201993 -1.1563481 0.8273501 0.18981235
000160 d1 f9 d9 3d 31 e8 48 be 65 43 c5 be 9e e2 6d bd
       0.10643352 -0.19619824 -0.3852798 -0.058077447
000170 5e 11 f7 3f d8 ac c1 3f e6 cb c0 be 4c ff 26 c0
       1.9302175 1.5130873 -0.37655562 -2.609332
000180 94 97 bd bf d9 6e 93 be 66 f5 9c be 20 4b 18 bf
       -1.4811883 -0.28795508 -0.30655974 -0.5948963
000190 5e 28 31 be ca b3 a1 3e 11 20 16 3f b1 0a a5 3e
       -0.17300555 0.3158248 0.5864268 0.3223472
0001a0 7f 5a 25 be 2f ab f4 3e 0c 8b 85 bf c1 98 5c bd
       -0.16147803 0.47786853 -1.0433059 -0.053856615
0001b0 71 70 8b bd d3 5c 51 3f ac 62 aa 3f 10 0e a1 3f
       -0.06808556 0.81782264 1.3311362 1.2582417
0001c0 bb a4 71 3f 0a 09 f8 be cb 1b d8 3e ac 13 92 3f
       0.94391984 -0.48444396 0.42208704 1.1412253
0001d0 cb 90 21 3f 35 2e a3 3a 60 94 9a be 19 27 ff 3e
       0.6311156 0.0012449684 -0.30191326 0.49834517
0001e0 d9 78 d0 3e 3f 35 b8 3e c3 a9 3a bf da e0 07 be
       0.407172 0.35978124 -0.72915286 -0.13269368
0001f0 fe 06 3d bd f8 a0 96 bf 78 0a 8c 3f b6 da 12 3f
       -0.046149246 -1.1767874 1.0940695 0.57364976
000200 74 aa 7c bf f3 99 5d be 61 c1 0d 3f 83 46 15 be
       -0.9869759 -0.21640758 0.553732 -0.1457768
000210 ee da ab be 37 5f 27 be cb 08 cb be 06 7b 2e bf
       -0.33565468 -0.16344915 -0.39655146 -0.6815647
000220 5e 58 aa be 33 b9 27 be ac d7 83 be 5d b5 fd be
       -0.33270544 -0.16379242 -0.25750482 -0.49552432
000230 13 4a ab be 83 ad de 3e 48 15 0f bd 83 48 85 bf
       -0.33454952 0.43491754 -0.034932405 -1.0412754
000240 c2 ca 0a bc f3 56 2d be 24 da 46 3f aa 2f 4f be
       -0.008471193 -0.169277 0.77676606 -0.20233026
000250 4b 88 99 bd 99 e1 55 3d 18 80 48 3f db be cf 3e
       -0.07496699 0.0522171 0.78320456 0.405753
000260 7c b9 1e c0 79 42 2a 3f 25 cc 45 3f b6 c4 13 3e
       -2.480071 0.6650768 0.77264625 0.14430508
000270 b8 20 a0 be 27 21 39 bf 5c 8a a6 bb e7 57 82 3e
       -0.31274962 -0.7231621 -0.0050824117 0.2545769
000280 59 4b 11 bf fc a2 13 3f b3 72 db 3e 7a 90 eb bc
       -0.56755596 0.5767057 0.42860946 -0.028755415
000290 3c 39 5c bc ea 6a a0 bf fa 24 67 bf 80 eb 3c 3f
       -0.01344138 -1.2532628 -0.90290797 0.73796844
0002a0 3e 15 31 3d 09 6b d7 bd 36 8a 48 3e 3a 0e 12 bf
       0.04323315 -0.10518462 0.19583973 -0.5705296
0002b0 8f 57 99 be d5 32 c0 3e 39 d2 ca 3d d3 06 93 3d
       -0.29949614 0.37538782 0.09903378 0.07179036
0002c0 b3 eb 33 bf d6 02 00 bf 68 47 39 3f 02 26 15 bf
       -0.70281523 -0.5000433 0.7237458 -0.5826112
0002d0 7f 97 22 bf 92 74 b2 3e a0 3d a7 be e0 68 6e 3f
       -0.63512415 0.3485456 -0.32664204 0.93128777
0002e0 bf c1 24 bf 7d aa c5 be 0c bb 3a bf 07 ec 42 bd
       -0.64358133 -0.38606635 -0.7294166 -0.047588374
0002f0 39 31 88 3e 97 d0 ec be 17 64 9b 3f 9b 3b 75 3f
       0.26600054 -0.4625289 1.213992 0.95794076
000300 46 55 c0 bf 32 85 9e bf 8e e9 10 be 00 4f 16 bf
       -1.5026023 -1.2384398 -0.14151594 -0.58714294
000310 7f 40 c7 be 36 e4 5b be a0 8e 4c 3f d1 27 01 3f
       -0.38916394 -0.21473774 0.7990513 0.5045138
000320 2b bb 96 bc 36 a5 75 3f 95 29 68 3e cb 77 02 bf
       -0.018399796 0.95955217 0.22672112 -0.5096404
000330 64 88 77 3d cf ba bc be 76 50 91 be cc 23 fd be
       0.060432807 -0.36861274 -0.283817 -0.49441373
000340 58 85 57 be ce bc 2d 3f a6 65 4c bf a7 19 85 bf
       -0.2104696 0.6786622 -0.79842603 -1.0398453
000350 10 34 d8 3e 54 21 8e 3e 3c d0 2e bf 8c 54 8d bd
       0.4222722 0.27759802 -0.6828649 -0.06900892
000360 40 19 1c bf b4 ed 99 3e 5e 60 04 bf d0 4a cd be
       -0.6097603 0.30064166 -0.51709545 -0.4009614
000370 b3 36 1a bf 13 d1 02 bf 89 06 7a bc 17 3b ed be
       -0.60239714 -0.5110027 -0.015260347 -0.46334144
000380 39 13 4a 3d fb 7a ac 3d da 1b 4f 3f 1b 74 9d bd
       0.04933474 0.08421894 0.80901873 -0.07688161
000390 20 d2 95 bf da 2b 6d bf 95 a8 80 be dc d3 36 bf
       -1.170475 -0.9264504 -0.25128618 -0.7141702
0003a0 68 d3 71 3f 35 26 ff be 90 f3 98 3e 71 18 2e bf
       0.94463205 -0.49833837 0.29873323 -0.68006045
0003b0 b3 b4 7d bd 91 c4 4c 3f 13 5e e1 be ef 0d 94 3e
       -0.061939906 0.79987437 -0.44017085 0.2891688
0003c0 64 d6 c6 3e 28 09 f8 be 51 4b 1a bf 12 68 21 be
       0.38835442 -0.48444486 -0.60271174 -0.15762356
0003d0 fc f8 0e bf a7 9e 3e 3e 20 05 6a be 22 fc df be
       -0.5584867 0.18615209 -0.22853518 -0.4374705
0003e0 5a 4d 8a bf 2f 03 8b 3f e8 05 84 3d 5f 8b a9 be
       -1.0804856 1.0860347 0.06446439 -0.33114144
0003f0 07 51 c9 3e 63 0c bb be 7a 0f 86 3e f1 8b 93 bf
       0.3931963 -0.36532888 0.26183683 -1.1527082

convs.1.fc_full.bias f4 [92]
000000 d8 b5 4f bc 4e 81 75 bb eb 99 cb 3d 2a a9 b4 bd
       -0.012677632 -0.0037461105 0.09941467 -0.08821328
000010 72 cc d1 3d 62 27 41 bd d4 a3 f4 3c 85 23 e2 bb
       0.10244073 -0.0471567 0.029863276 -0.006901207
000020 8d 47 2b ba 92 15 c8 3d 7f a8 e8 bb e9 c2 28 3e
       -0.0006533794 0.09769739 -0.0071001644 0.16480602
000030 f5 1b e6 3c d0 08 be bc a5 39 46 3b 53 bc f9 bb
       0.028089503 -0.023197562 0.003024676 -0.007621327
000040 ca 95 f7 bb 39 c1 5c 3d 89 2e e3 3b 72 18 0a bd
       -0.007555698 0.05389521 0.0069330377 -0.03371472
000050 1d 13 91 3d b1 17 da ba dc 92 0b bd e7 97 0a bd
       0.07083724 -0.0016639141 -0.034075603 -0.03383627
000060 91 c6 8e bd eb c3 e1 bb e8 b1 51 bc e4 69 63 3d
       -0.06971467 -0.0068898103 -0.012798764 0.055520907
000070 a1 7a 15 bc 2f b8 fc bc 00 87 1d bd 36 ac 7a bd
       -0.009123475 -0.030849544 -0.038458824 -0.06119939
000080 96 2d 0d 3d ab 0d 95 3d 00 d8 78 bc 44 53 87 bc
       0.034467302 0.072779976 -0.015188217 -0.016519196
000090 1a 60 3d bc f3 3b 4f 3d e1 2e 77 3d ee 41 5f bd
       -0.011558557 0.05059428 0.06034744 -0.054506235
0000a0 1b d8 a3 3d 87 7b 30 3d 3e c5 c9 3d 28 0d 17 bd
       0.08000203 0.043086555 0.09852074 -0.03687778
0000b0 7e 6b 91 bd c8 0c 8e bd 20 5f 9f bd 5b 0f 06 bd
       -0.07100581 -0.069360316 -0.077818155 -0.032729488
0000c0 89 1a 89 bd 91 ad 04 bd bb 97 36 3d b2 7f 92 3d
       -0.06694514 -0.03239209 0.044578295 0.07153262
0000d0 57 23 5b 3d b5 33 a7 bc 9a 92 a5 bd dd 0b 34 bc
       0.0535005 -0.020410398 -0.08084603 -0.010989157
0000e0 2b 74 5c 3d e4 3e 14 3d b2 e3 e8 3d 1a 94 85 3c
       0.053821724 0.03619279 0.113715544 0.016305972
0000f0 c6 37 66 bc 64 db 00 3d 53 16 08 bd ef 56 af bb
       -0.014051383 0.031459227 -0.033224415 -0.0053509395
000100 f1 d5 b1 bd e7 cc cd bc b1 d1 af 3d ab 9d b9 3d
       -0.08683384 -0.02512212 0.08584917 0.09063276
000110 b4 3a a1 3c 91 2c 9f bb 47 37 37 3d b6 00 0d bd
       0.019681312 -0.0048576077 0.04473045 -0.034424506
000120 d4 da b7 bc b5 59 ba 3c f2 dd c4 3d 81 b1 d8 3b
       -0.022443213 0.022747854 0.09612645 0.006612957
000130 b7 30 32 3d a7 23 ad 3d b1 ef 09 be 39 58 e0 3c
       0.04350349 0.08454066 -0.13470341 0.027385818
000140 2f 75 d0 3b 9a 37 c3 bb aa 80 34 3c 7e 26 84 3d
       0.0063616256 -0.005957556 0.011017004 0.06452654
000150 a9 10 9a 3c 01 10 17 3d 1c 0a 82 3b 88 b1 67 3b
       0.018806772 0.036880497 0.0039684903 0.003535362
000160 0c c5 97 bc 82 b5 8a bd 55 9e a6 3d 92 da b6 bd
       -0.018526576 -0.06772901 0.08135668 -0.08928408

convs.1.bn1.weight f4 [92]
000000 3b 06 85 40 df 85 4e 40 6f 77 79 40 ef a2 fe 3f
       4.1570106 3.2269208 3.8979146 1.9893473
000010 a2 93 f8 3f 6f f3 1c 40 ce d0 6d 40 ba 31 28 40
       1.9420054 2.452358 3.7158694 2.628035
000020 bc c8 1b 40 f6 00 a5 40 18 c8 8d 3f a9 f3 82 40
       2.4341269 5.1563673 1.1076689 4.0922437
000030 04 a3 ff 3f 19 d9 63 40 5e 85 37 40 c9 3e 06 40
       1.9971623 3.5601256 2.867515 2.097582
000040 8b 64 45 40 0f 2f 3b 40 eb 77 35 40 d4 77 3c 40
       3.0842617 2.9247472 2.8354442 2.9448137
000050 86 4a 59 40 34 d0 59 40 00 a1 8c 40 b6 ef 82 40
       3.3951735 3.4033327 4.3946533 4.0917616
000060 75 e9 96 40 36 e5 72 40 70 da 5b 40 b0 e9 83 40
       4.715998 3.79524 3.4352074 4.1222763
000070 57 a7 56 40 dc d6 61 40 1f 11 6a 40 d4 3c 45 40
       3.3539636 3.528739 3.657295 3.0818377
000080 f5 79 70 40 68 db b5 3f 89 53 de 3f 3c 5f 54 40
       3.7574437 1.4207582 1.7369243 3.3183126
000090 50 95 e7 3f fc 77 de 3f 4b 09 6b 40 13 3a 31 40
       1.8092442 1.7380366 3.6724422 2.7691696
0000a0 7b e9 21 40 b5 95 49 40 ab ed ba 3f 85 da c7 3f
       2.5298755 3.1497624 1.460378 1.5613562
0000b0 59 7d 44 40 d9 66 4a 40 86 8d 8a 3f 34 62 c7 3f
       3.0701506 3.1625273 1.082444 1.5576844
0000c0 0f a2 25 40 77 f2 6a 3f bd d7 be 3f 08 74 26 40
       2.5880163 0.9177622 1.4909588 2.600832
0000d0 00 bb ec 3f 43 16 8e 3f 00 3a 8f 3f 33 1c 80 40
       1.8494568 1.1100544 1.1189575 4.0034423
0000e0 91 c6 2a 3f 11 8a 16 40 db 60 b1 3f fb 2b b5 3f
       0.6670924 2.352177 1.3857683 1.4154047
0000f0 63 18 62 3f a3 7c 08 40 ac 20 4a 40 1e 56 92 3f
       0.8831846 2.1326072 3.1582441 1.1432531
000100 c5 97 12 40 d7 ae f5 3f 55 9a 9d 3f 86 18 7e 40
       2.2905133 1.9193982 1.2312723 3.9702468
000110 0b 00 37 40 0f 15 09 40 2b dd ce 3f f5 7f b7 3f
       2.8593776 2.1419103 1.6161245 1.4335924
000120 70 0f 79 40 9c 8a 8d 3f a8 cc cb 3f 6e ab 84 3f
       3.8915672 1.1057925 1.5921831 1.0364816
000130 4b a7 3e 40 d4 a7 19 40 0c ce 6c 3f e0 5e 32 40
       2.9789608 2.4008684 0.925019 2.7870407
000140 1d 68 3a 40 19 43 d9 3f cd 9f 2c 3f 89 48 25 40
       2.9126046 1.6973602 0.67431337 2.5825522
000150 dc 15 84 3f 79 42 96 3f 67 7c 87 3f 95 b1 9e 3f
       1.0319171 1.1739036 1.058484 1.2397944
000160 06 ac 60 3f ed c5 4b 3f 8e 26 b9 3f 2e 65 52 3f
       0.87762487 0.79598886 1.4464891 0.8218564

convs.1.bn1.bias f4 [92]
000000 ac 37 21 be ae 3d 9b be 86 9c 49 bd b8 a7 5b bf
       -0.15743893 -0.30320495 -0.049221538 -0.85802794
000010 eb 6d 2e bf c9 c4 33 be 0b d9 a1 bf 62 e8 9c be
       -0.6813647 -0.17555536 -1.2644361 -0.30646044
000020 91 d6 13 bf 07 51 5f 3d f3 8c 52 bf 16 74 04 3e
       -0.5774928 0.054520633 -0.8224632 0.12934908
000030 69 93 f5 be 42 60 a0 bc 7f e7 d4 be 8f 90 54 be
       -0.47964028 -0.01957715 -0.41582868 -0.2075827
000040 2b 11 b1 3e 66 f5 50 3e 15 f0 d6 bc 13 a0 8a 3e
       0.3458341 0.20406112 -0.026237527 0.27075252
000050 5d 64 d9 bb 84 4f ae be 15 6a a8 be fb f1 9a be
       -0.0066342787 -0.3404504 -0.32893434 -0.3026274
000060 3b 72 ac be 0a 7c b5 bd 85 3b 16 bf 46 c7 c7 be
       -0.336809 -0.08861549 -0.5868457 -0.3901922
000070 29 fe ae be 00 69 40 bf 48 1f 49 3e c2 a7 50 3d
       -0.34178284 -0.7516022 0.19640839 0.050941236
000080 5c 4e 83 bf 31 a6 43 be fd 0b a1 be 10 5f 97 bc
       -1.0258288 -0.19106366 -0.3145446 -0.018477947
000090 c4 18 75 bf c8 2d 96 3d 75 dd 62 3c a1 3d 1d bf
       -0.95740914 0.07332951 0.013846745 -0.61422163
0000a0 b4 70 42 3a ae e6 c4 3e 3a 52 0c bf 4e 23 0a bf
       0.0007417307 0.38457245 -0.5481297 -0.5396012
0000b0 f5 f5 a7 3d e0 16 a0 bf 78 14 0f bf e3 e9 19 bf
       0.082012095 -1.2506981 -0.5589061 -0.6012251
0000c0 1f 6b c2 3d e5 78 76 bf 6e ad 10 bf 24 18 a9 bd
       0.09493088 -0.9627822 -0.5651463 -0.082565576
0000d0 f0 11 3f be d7 ac 29 bf 16 53 2a bf ae 88 ea 3d
       -0.18659186 -0.6627936 -0.6653303 0.11451851
0000e0 de 18 72 bf 23 ee 76 3e 0a b6 02 bf 30 73 8a be
       -0.94569194 0.2411428 -0.5105902 -0.27041006
0000f0 b6 a3 3b bf e1 fd 91 3e d2 52 df 3d 0b 36 f2 3e
       -0.7329668 0.28514007 0.109044686 0.47306857
000100 bc b3 1c 3e 7b 3b d4 3d 33 06 e0 be fc c4 0c bb
       0.15302938 0.103629075 -0.4375473 -0.0021479717
000110 7c a2 70 be 3f 03 0a be a5 f1 a8 be e1 78 c4 be
       -0.23499483 -0.13477801 -0.3299686 -0.38373473
000120 19 59 d1 bd 0d 14 90 be 9b a8 1e bf da af 06 bf
       -0.10222072 -0.28140298 -0.6197602 -0.5261208
000130 69 37 68 3e b8 c9 a8 3c c9 59 6b bf 56 20 03 3d
       0.22677387 0.020604 -0.91933876 0.03201326
000140 42 3d 87 bd 8c ea 87 bd 5c 8a 7c bf 7d b1 4c be
       -0.06603481 -0.06636533 -0.9864862 -0.19989581
000150 8c 61 9f be b9 12 24 bf bf 06 cd be de 00 0f 3f
       -0.3112911 -0.6409107 -0.4004421 0.558607
000160 bc 2e 56 bf bb 30 3a bf 84 01 ea be f0 77 70 bf
       -0.8366506 -0.72730607 -0.4570428 -0.9393301

convs.1.bn1.running_mean f4 [92]
000000 a0 fe ba c0 7a 62 c4 bf 77 dc 97 c0 c3 35 94 c0
       -5.843582 -1.5342553 -4.745662 -4.6315627
000010 21 bd e4 3f b3 8b a3 40 5b 91 86 be f7 13 53 c0
       1.7870218 5.110803 -0.26282772 -3.2980936
000020 ea 04 1e c0 cd bc ab c0 55 cd 8f c0 83 3d 2f c0
       -2.46905 -5.366797 -4.493815 -2.7381294
000030 dd a1 b1 bf b1 70 84 c0 5e db 05 40 21 64 09 3f
       -1.3877522 -4.1387563 2.091514 0.5366841
000040 2b d3 a7 c0 c1 5d 69 40 ae 8e 5e c0 c8 d9 52 c0
       -5.2445273 3.6463473 -3.4774585 -3.2945423
000050 ba 04 14 3f ab 5a aa 3e 38 ce 8a c0 7a 39 7a c0
       0.5781971 0.332723 -4.337673 -3.909758
000060 c3 87 94 bf a0 81 08 c0 f6 b3 13 40 0d 8e f0 3e
       -1.1603931 -2.1329117 2.307859 0.46983376
000070 7a 6d cb c0 dd 60 84 bd e4 88 a7 c0 a1 da d0 c0
       -6.357114 -0.06463788 -5.2354603 -6.526688
000080 5a e1 ea 3f 2d 57 34 40 36 b2 58 c0 d4 14 70 be
       1.8350022 2.8178208 -3.3858771 -0.23445445
000090 85 fb c4 c0 8c 99 71 3e cf df 59 c0 34 45 a4 bf
       -6.155703 0.2359373 -3.4042852 -1.2833619
0000a0 aa aa 4c c0 c0 e2 22 c0 39 1f b4 40 18 7d 2d c0
       -3.1979165 -2.5450897 5.6288114 -2.71076
0000b0 c5 df 82 bf 5e df 7c 3e 22 c0 87 c0 f0 ff 3a c0
       -1.0224539 0.24694583 -4.2422037 -2.9218712
0000c0 d9 3a c9 c0 ca 18 b5 3f 5c 9a 4e c0 1e 7d 8f 40
       -6.2884336 1.414819 -3.2281713 4.484023
0000d0 40 da 83 3f 80 d5 58 be 65 5f bd bf f1 eb 69 c0
       1.030098 -0.21175194 -1.4794737 -3.6550257
0000e0 c9 13 3e c0 72 77 d0 c0 ba 07 84 c0 c3 02 20 bd
       -2.9699576 -6.5145807 -4.125943 -0.039065134
0000f0 43 58 80 40 cb 43 01 c0 68 be 56 c0 68 c5 24 c0
       4.010774 -2.0197628 -3.3553715 -2.5745487
000100 9e 39 e1 c0 29 ab da c0 9c c0 ea bf 55 08 12 bf
       -7.0382833 -6.8333936 -1.834003 -0.57043964
000110 57 53 1b c0 40 9f 41 c0 a6 82 52 c0 ee 57 e5 bf
       -2.4269617 -3.0253448 -3.2892241 -1.7917459
000120 b3 ee 8b bf 52 7b 7d c0 cf a3 43 c0 49 39 c6 3f
       -1.093222 -3.9606519 -3.056873 1.5486232
000130 d1 69 ef c0 e2 f8 c1 40 70 84 0a c0 48 5e 63 bf
       -7.481667 6.061631 -2.1643333 -0.88815737
000140 77 d8 53 bf da 1a c0 3e da 6f f5 3f 78 19 0f 40
       -0.82752174 0.37520486 1.9174759 2.2359295
000150 96 91 2b c0 42 da 2d 3e 9b 8f 43 c0 04 10 64 c0
       -2.6807609 0.1697779 -3.05564 -3.5634775
000160 1e fd 92 bf ae eb 3a c0 d1 9d c9 bf 53 15 93 c0
       -1.1483495 -2.9206347 -1.5751287 -4.596353
