dropout/NN/histories/d20_valid_best_params.pt (torch_old, 452453 bytes, 103 tensors)

embedding.weight f4 [46, 98]
000000 f0 0b 24 3d 28 1e 8d be 08 c5 a1 3d b9 35 df 3e
       0.040050447 -0.2756207 0.07898909 0.43595675
000010 8c 2b 77 3e 65 02 a6 be 4c f7 51 bf 5d f7 17 3e
       0.24137706 -0.32423702 -0.8201797 0.14840455
000020 a7 6b 9d be 35 35 fd bd 78 82 c9 bd 20 22 e7 3e
       -0.30746195 -0.12363664 -0.09839338 0.45143223
000030 82 7e 6e 3f 04 a2 1f be bd f6 17 3e 69 46 ff be
       0.93161786 -0.15589148 0.14840217 -0.49858406
000040 69 10 a4 3e 83 6d 64 bf ac 6d 3f 3d 8f fd 9c be
       0.3204377 -0.892296 0.04673545 -0.306622
000050 68 00 4e bd d0 e4 30 bf 6f 2c 6c 3e aa 52 98 3e
       -0.050293356 -0.6909914 0.23063825 0.29750568
000060 34 50 e6 bc b4 df 9d 3c 41 4e 39 3e e9 c8 a0 3d
       -0.028114416 0.019271709 0.18096258 0.078508206
000070 39 b7 99 3d e6 20 8e be 8b ee 82 be 70 a5 1a 3e
       0.0750565 -0.27759475 -0.2557262 0.15102172
000080 d9 7a b2 bd ed b0 1d be 07 f5 9e 3e 65 e7 a9 bd
       -0.087148376 -0.15399523 0.31046316 -0.08296088
000090 df 11 b4 be 28 26 a6 3e 6f f2 8a be 4e 6b 43 bf
       -0.35169885 0.32450986 -0.27138087 -0.7633561
0000a0 75 b4 d1 3d 25 f5 fa 3e c0 7a 06 3e 76 30 09 bf
       0.102394976 0.49015155 0.13132763 -0.5358957
0000b0 b4 fb ef bc 58 63 ab 3f 3b 92 d6 bd 73 9a 12 3d
       -0.029294826 1.3389692 -0.1047711 0.035791826
0000c0 e7 e6 71 bd 2f 19 13 3e 1b fc 06 bf 38 62 2a be
       -0.059058096 0.14365076 -0.5272843 -0.1663903
0000d0 ae 66 1c 3e 32 46 d4 be e0 ac 3e be 09 75 e0 bb
       0.15273544 -0.41459805 -0.18620634 -0.006849889
0000e0 7a 30 0d 3f 54 9e bb 3e a9 30 2a 3e c7 71 d1 3e
       0.55152094 0.36644232 0.16620125 0.40907118
0000f0 b4 39 a0 3d 22 05 78 3e e0 d9 04 bf 25 80 09 3d
       0.07823506 0.24220708 -0.5189495 0.033569474
000100 db 8d 25 bd c0 bf ac 3d 72 01 b9 bd 5a a8 9c 3d
       -0.040418487 0.08435011 -0.09033479 0.07649298
000110 96 66 a8 3d 0a 62 ba 3d 29 98 96 bc 40 5b 09 bc
       0.08222692 0.09100731 -0.018383102 -0.008383572
000120 1d e6 0e bd 33 a7 84 3e ea 56 1c bf 52 a7 6c be
       -0.034887422 0.25908813 -0.6107012 -0.23110703
000130 1c d3 ae 3c 18 a9 54 bf a1 7e f5 bd e3 7b 8b bd
       0.0213409 -0.83070517 -0.11987043 -0.06810739
000140 e6 a7 dd bd c3 5e b6 bd 12 b5 ba be 06 d0 ac 3d
       -0.1082304 -0.08904793 -0.3646627 0.08438115
000150 7f 80 a7 be 5e e3 04 bf 4c a8 af 3e 7e ab 1c 3f
       -0.32715222 -0.51909435 0.34308088 0.61199176
000160 b7 e7 81 3d 69 ee c7 bc 86 25 7d bf a9 cb a0 3f
       0.06343024 -0.024405675 -0.9888538 1.2562152
000170 44 2a 42 bd bf 83 05 3f 0d a7 19 bf a8 41 10 bf
       -0.04740359 0.52154154 -0.60020524 -0.56350183
000180 ac 43 82 bf 28 ed 18 3f 36 5a 90 bd 03 4b 39 bc
       -1.0176902 0.5973687 -0.07048456 -0.011309388
000190 5d 37 70 bd bf 58 9c be f9 da 01 3f f4 a7 9c 3e
       -0.05864655 -0.30536458 0.5072475 0.30596888
0001a0 ad 3c 86 3e cb 4d 8a 3c cb 05 13 3e 80 59 fe 3c
       0.26218167 0.016882798 0.14357679 0.031048536
0001b0 ce b2 ae 3b c9 09 f9 be 16 65 13 bf ba 17 93 bd
       0.005331374 -0.48640278 -0.5757612 -0.0718226
0001c0 69 15 ea bd 23 f5 10 3e 24 73 96 be 87 56 35 3f
       -0.11429865 0.14156012 -0.2938472 0.70835155
0001d0 68 92 1f bc b1 e5 9e 3e f5 eb 58 be ec ce 31 3f
       -0.009739496 0.31034616 -0.2118376 0.6945636
0001e0 b8 17 f0 be ce b5 1d bf b3 46 ec be 38 6d 89 3c
       -0.46893096 -0.61605537 -0.4614769 0.016775712
0001f0 4f 25 b5 bd f1 37 ad be 2b 7f 7e 3e e6 eb 9a 3c
       -0.08845007 -0.33831742 0.24853198 0.018911313
000200 7c 22 4f be 6d 6e 8f be 6e c9 84 3d 83 2b dd 3c
       -0.20227998 -0.28013936 0.06483732 0.026998287
000210 df ae 8b bd 80 11 75 3c 25 67 94 3e 61 6e 8c bd
       -0.068204634 0.014957786 0.28984943 -0.068569906
000220 76 6b 2f 3c 7d fb 11 be 32 07 3a bd 89 13 f8 be
       0.010706773 -0.14256091 -0.04541702 -0.48452404
000230 59 94 0d be 76 ed 3d 3f a8 68 19 3d 93 f7 59 bf
       -0.13826121 0.7419046 0.037453324 -0.85143393
000240 5b 12 06 3e bb 24 c4 3d b2 1f 19 bd 45 8b dc bc
       0.1309294 0.09577318 -0.037383743 -0.026921878
000250 af 08 8a 3e 9c c2 f5 bd 2b 47 ea 3d 1c c1 05 3e
       0.2695975 -0.120000094 0.114393555 0.13061947
000260 de 50 8a bd 01 55 80 be 16 5d 26 bf b7 3f 51 be
       -0.067537054 -0.25064853 -0.6498579 -0.20434462
000270 53 76 83 be 3d de cf be 0f d9 e7 bc 09 e8 96 be
       -0.25676212 -0.40599242 -0.028301744 -0.29473904
000280 c1 45 9c 3e 1b ca b3 3c 0a 2b af 3d d4 4d 09 3d
       0.30521968 0.021946957 0.08553131 0.03352149
000290 5a 26 90 3d f8 04 9f 3d ca f6 14 bd 8c 0a 20 3d
       0.07038565 0.077646196 -0.03636817 0.03907256
0002a0 b0 da 19 be f8 dd 80 bc 17 f0 f5 be 32 73 af be
       -0.15024829 -0.015730843 -0.48034737 -0.34267575
0002b0 e0 54 5a 3e 54 83 2c 3e 8a 5a 81 3d 9a ac 36 3f
       0.2132144 0.16846973 0.06316097 0.7135712
0002c0 83 92 1a 3d 74 1a 5f be a7 c1 41 be 00 22 7b bb
       0.03773738 -0.21787435 -0.18921529 -0.0038319826
0002d0 c9 00 00 bd 16 cc b2 3e b5 44 a2 3d 42 d0 63 be
       -0.03125075 0.3492133 0.07923261 -0.22247413
0002e0 8b d7 07 bf 78 e2 b5 3b 9f fa 7b be 1f 13 4c 3f
       -0.5306327 0.005550679 -0.24607323 0.79716676
0002f0 27 09 d0 3c 98 46 3f bf af 97 87 3f 43 17 59 bf
       0.02539499 -0.7471709 1.0593165 -0.8480112
000300 d5 ab 81 3f 2a e7 4b 3e 6e c3 28 bd 10 80 d7 bf
       1.0130564 0.19912401 -0.041202 -1.6835957
000310 d8 35 a6 3c 42 ce 64 be f9 ea 6e be 5e 05 82 bf
       0.020289347 -0.22344306 -0.23331822 -1.0157888
000320 4f c2 12 bf 80 83 b7 3e 55 cb 09 3f 60 9c 47 3f
       -0.5732774 0.35842514 0.53825885 0.77972984
000330 c4 73 33 3f 2c e7 ae be 36 22 15 bf ce f5 e7 be
       0.7009852 -0.34160745 -0.58255327 -0.45304722
000340 a1 d0 1b 3f 36 f6 9d 3e 8c 0f 0a 3f 01 b1 00 bf
       0.6086522 0.30851907 0.5392997 -0.50270087
000350 ae 84 d6 bd ca e2 f0 be 72 7a 93 3d 69 13 3a 3e
       -0.104745254 -0.47048026 0.07201089 0.18171467
000360 5b 93 e7 be 08 e1 7d 3e c8 e1 ea bd 46 03 36 be
       -0.4522961 0.24792874 -0.114688456 -0.17774686
000370 29 31 10 bd 78 cf 96 bd 8f 04 0c be f3 91 05 bf
       -0.035203133 -0.0736379 -0.13673614 -0.52175826
000380 f9 bd 22 bf 60 2a d8 3e e8 4e 7a 3e 80 6e b7 be
       -0.63571125 0.4221983 0.24444163 -0.35826492
000390 7f 9e c0 bd e4 81 a1 bd 45 94 c6 bd 08 2c 44 3d
       -0.09405231 -0.07886103 -0.09696249 0.047893554
0003a0 b0 63 5a 3d 4b 0f 8e bd 57 bf ab be 88 47 f1 3e
       0.053317726 -0.06936511 -0.33544418 0.47124887
0003b0 95 51 c9 be c3 a0 89 3e b4 23 6e be 52 8e a9 bc
       -0.39320055 0.26880464 -0.23255807 -0.020697746
0003c0 14 9f e6 bc ab 44 3a 3f 0a c4 50 be 73 02 64 be
       -0.028152026 0.7276103 -0.20387283 -0.2226656
0003d0 7c 71 ab 3d 12 51 3b 3e 53 d2 2d be 8f 3e c6 3c
       0.08371255 0.18292645 -0.16974764 0.024199752
0003e0 9e 14 30 3f b1 af 21 3f cd c2 a1 be 48 64 ad 3c
       0.6878146 0.6315871 -0.31593934 0.021165982
0003f0 82 16 19 bf 96 ff f2 be 1e f4 95 bd ea b7 08 bf
       -0.5979997 -0.47460622 -0.07321952 -0.5340563

embedding.bias f4 [46]
000000 e6 cc cc be ce d8 1a be c5 05 b1 be 03 b2 38 be
       -0.40000075 -0.15121767 -0.34574714 -0.18036656
000010 1c 5d 15 bf d1 4e ca be 31 8e dc be 92 2a 37 bf
       -0.583452 -0.39513257 -0.43077233 -0.7154933
000020 39 ec 18 be ab cd 85 be 63 b4 fd 3d 5b b3 bc be
       -0.14933862 -0.26133475 0.12387922 -0.36855587
000030 5c 71 63 be 23 8e 69 bd fd f2 83 be 2b 9d 3c 3d
       -0.22211212 -0.057020318 -0.25771323 0.046048325
000040 a5 c9 e0 be 99 4a cb be 3c 4a 77 be c2 87 d4 be
       -0.43903843 -0.3970535 -0.24149412 -0.41509825
000050 d0 90 cc 3e e8 e9 dd be fc 96 5e be b7 03 d0 be
       0.39954233 -0.4334252 -0.21737283 -0.40627834
000060 7f 68 c6 be ef e8 a5 be 8e 4d 6f be aa 8f 1b bf
       -0.387516 -0.32404277 -0.23369429 -0.6076609
000070 22 04 a0 be 97 26 ef be 2e b8 27 be 18 02 60 bc
       -0.31253153 -0.4670913 -0.16378853 -0.013672374
000080 5c 40 90 be e0 91 20 bf 14 4e 41 be 75 b0 8b be
       -0.28174102 -0.6272259 -0.1887744 -0.27283064
000090 e9 94 54 be 7f 18 28 bf 9b d8 52 be 91 85 a0 be
       -0.2075993 -0.6566238 -0.20590441 -0.31351903
0000a0 99 9f 80 be a9 57 54 be 46 32 b9 be 37 38 f1 be
       -0.25121763 -0.20736565 -0.36171168 -0.471132
0000b0 22 5a e2 be 15 5f 02 be
       -0.4420939 -0.12731583

convs.0.fc_full.weight f4 [92, 98]
000000 69 e9 65 bf 5c e7 00 3f 11 0e 4f bf 7c 72 ba be
       -0.8980928 0.50353026 -0.8088084 -0.3641547
000010 da f4 b2 3f 4a 3a 4a be fb 94 af 3e 56 60 42 be
       1.3980973 -0.19748798 0.3429335 -0.18982062
000020 b9 85 80 bf a7 2e e1 3d f0 77 06 be 15 bc 98 be
       -1.0040809 0.10995226 -0.1313169 -0.29830995
000030 6c 9f 66 bf 8e 0b 74 bd 41 b3 b2 be 36 5a b9 3d
       -0.9008701 -0.059581332 -0.34902385 0.090504095
000040 3a a3 2c 3e 44 75 94 bf fe a8 5f 3f 9a 42 ad 3e
       0.16859141 -1.1598287 0.87367237 0.33839875
000050 f6 99 b3 3e 9d d0 93 3d 35 c8 9c 3e 81 f8 7b 3d
       0.350784 0.07217524 0.30621496 0.06151629
000060 18 3d 31 3f da a1 ad bf 29 f5 50 be 9d 93 29 3e
       0.69233847 -1.3565018 -0.20406021 0.16560216
000070 aa 9f 02 3f 55 92 6f bf 91 8b 8f bd f9 a7 88 3d
       0.5102488 -0.9358266 -0.07009042 0.06672663
000080 33 f5 a1 be 4b 40 9c bb 0b 40 bd 3c 48 02 da be
       -0.31632385 -0.0047684065 0.023101827 -0.42579865
000090 8c 96 24 3e 1f a2 1c 3d 47 42 84 3f 9b 34 1b 3f
       0.16073054 0.03824055 1.0332726 0.60627145
0000a0 c4 ba c1 bd f7 d0 22 3f db 48 5e 3f b4 70 08 3e
       -0.09459451 0.63600105 0.8682992 0.13324243
0000b0 bc 76 4e bd c1 2e 1e bf 4a c2 9d 3e 2e e4 09 bf
       -0.050406203 -0.6179009 0.30812293 -0.538638
0000c0 0f db b9 3e 65 8b 3b bd 83 9c e2 bd 78 a8 9e bf
       0.3629994 -0.045787234 -0.110650085 -1.2395163
0000d0 5f c6 77 be 0b 57 ca 3e 6f 84 e6 bb 01 28 36 be
       -0.24196766 0.39519534 -0.0070348303 -0.17788698
0000e0 54 c2 7c 3e d6 a3 19 3f af 52 3a 3f c6 d6 5a 3e
       0.24683505 0.6001562 0.72782415 0.21370992
0000f0 9a 79 29 3f d9 ea d0 bd e0 a9 3e 3f 77 93 a6 bc
       0.66201174 -0.10201044 0.7447796 -0.020333989
000100 0d 28 08 bf d6 36 b5 3e 0f 7e f6 bd e3 73 77 3b
       -0.5318611 0.353934 -0.120357625 0.0037758283
000110 54 02 0a bf b2 e2 f6 bc 60 03 83 be 65 4d 50 3e
       -0.539098 -0.030137394 -0.25588512 0.20342024
000120 fd ea e8 bc 1a e7 f1 3d c4 04 29 3f 43 fd 24 bf
       -0.028432364 0.11811657 0.66022897 -0.64448947
000130 0f 21 2a 3f d1 35 3d bf 17 04 28 bd 36 e8 5f 3e
       0.66456693 -0.7391024 -0.041019525 0.21865925
000140 35 d7 95 3f a8 f0 74 bd fd 6a 4e 3c b0 5e 67 3f
       1.1706301 -0.05979982 0.01259875 0.90378857
000150 fc 33 94 be 16 74 54 3d 1f e0 8e bd 00 bf 56 be
       -0.2894591 0.05186852 -0.069763415 -0.20971298
000160 e2 4a 8a 3d 30 b2 21 be 87 5a 91 be 78 5d d7 3e
       0.06752564 -0.1579063 -0.2838938 0.42063498
000170 04 6b c8 3f bb fb 82 be b8 a7 dd bf af 36 4b be
       1.5657659 -0.2558268 -1.7316809 -0.19845079
000180 b6 7f 90 3e 62 a8 5e bf cf 44 26 bf 5e 2d 00 bf
       0.28222436 -0.8697568 -0.64948744 -0.50069225
000190 7c 27 7e 3f cb 9d 32 3f e4 ad 63 be ad ad 27 bf
       0.99279 0.6977202 -0.22234303 -0.65499383
0001a0 c3 07 64 3f 97 47 e2 bd 59 a8 d8 be 3d c8 d9 3e
       0.89074343 -0.11048811 -0.4231594 0.42535582
0001b0 5c c7 4b be a4 46 d1 bd 83 2c ad bf cf 1a 9a be
       -0.19900268 -0.10218552 -1.3529209 -0.30098578
0001c0 fa 89 50 3e b3 6a f8 be 6f 0a 6f bf 05 dc f6 be
       0.20365134 -0.48518905 -0.93375295 -0.48214737
0001d0 36 df c3 bd 29 24 35 bf 1f bc 49 be 8c d2 c0 bf
       -0.095640585 -0.707583 -0.19700669 -1.5064254
0001e0 7e 11 14 3f cc f2 8a 3c 51 0e d7 3e 0f 03 40 3e
       0.5783919 0.016961478 0.4200311 0.18751167
0001f0 4b c5 3d bf 90 ec 08 3e 53 ad 65 bf 63 1b 3d 3f
       -0.7412917 0.13371491 -0.89717597 0.73869914
000200 d5 73 7c 3f ed 47 bb be 79 a9 9d 3f 29 7d 32 3f
       0.98614246 -0.36578313 1.2317344 0.6972223
000210 4d 49 cf be 8f 27 8c 3e d6 e0 81 bf 02 bf 5b be
       -0.40485612 0.2737393 -1.014674 -0.21459582
000220 c2 98 41 3f 31 1a 63 3d 2d bb 8d 3f 59 9d c8 be
       0.75623715 0.0554449 1.1072747 -0.39182547
000230 9b 77 88 3e b6 7d 2a 3f 61 85 40 3f d5 70 3a be
       0.26653752 0.6659807 0.7520352 -0.18207105
000240 ad 6d 12 bd c7 c0 4a be 83 c5 b5 3e 9f 96 0e bf
       -0.035749126 -0.19800101 0.35502252 -0.5569858
000250 e1 53 a0 3e 14 e0 20 be 75 d8 20 bd 39 64 bc ba
       0.31313995 -0.15710479 -0.03926893 -0.001437313
000260 98 6b 20 bd 13 9d 31 be dc 2f 44 3e 5a 1f 3d 3e
       -0.03916511 -0.17345075 0.19158882 0.18468991
000270 13 d5 40 be 0b 57 ee be 33 26 e7 3e 58 2d 60 be
       -0.18831281 -0.46550784 0.4514633 -0.21892297
000280 fc db 35 3c e7 79 89 3c 49 3a 9c bd f6 8c 9c bd
       0.011099812 0.01678176 -0.076283045 -0.07644074
000290 f1 f6 82 be 07 48 bb be 4c e8 67 3d 6d 4e 21 bf
       -0.25579026 -0.3657839 0.05661802 -0.63010293
0002a0 6d 14 22 3f 48 e3 a8 be 8d 1c 59 be 29 60 10 3f
       0.6331242 -0.32985902 -0.21202298 0.5639673
0002b0 db f4 e3 3d ed 92 aa 3d 7b e3 91 be 6d 7d 4a 3c
       0.11130687 0.08328805 -0.28493866 0.012359005
0002c0 75 40 27 3e e2 61 00 3f a0 c5 68 3e 64 36 cd 3e
       0.16333182 0.5014936 0.22731638 0.4008056
0002d0 5f eb eb be 15 6a 93 3d 38 5b 6d 3e 07 14 19 3f
       -0.4607801 0.07197968 0.23179328 0.59796184
0002e0 33 f9 8a 3e 67 1f 78 be fa b4 a7 be d3 5e 03 3e
       0.2714325 -0.24230729 -0.32755262 0.12829141
0002f0 96 ee fa be 85 10 b1 bd 45 0c 68 3e ca b7 21 3d
       -0.49010152 -0.08645729 0.2266093 0.039481916
000300 4a 92 e6 3f bb 1c 8f 3f f9 db 90 bf a4 c5 8b bf
       1.8013394 1.1180643 -1.131713 -1.091969
000310 27 4a 8c be 77 dc 93 3e 3f a8 1f be 89 a2 96 bd
       -0.27400324 0.2887914 -0.15591525 -0.0735522
000320 3c 99 78 3f 8e bc fb be 0b b1 04 be 3e b9 1a be
       0.9710882 -0.49167293 -0.12958162 -0.15109727
000330 1f 7b 0c bf 35 6c d9 be 07 62 8b 3a 07 c4 b7 be
       -0.5487537 -0.42465368 0.0010634073 -0.35891744
000340 27 af ee 3d 94 ee 41 3f 4b 66 f0 3d 0b c8 00 bf
       0.116545014 0.75754666 0.11738261 -0.5030524
000350 48 8e 94 3e 39 7c b8 be b8 c2 a4 bd fb af 0e 3f
       0.29014802 -0.36032274 -0.08044952 0.55737275
000360 fe ad 24 be 30 3a 3e 3e d9 00 19 be 28 04 32 bd
       -0.16081998 0.18576884 -0.1494173 -0.043460995
000370 f7 d5 c5 3e 76 7b 8b be 03 98 18 3e 74 f0 73 be
       0.38639805 -0.2724263 0.14901738 -0.23822194
000380 c7 56 5f 3f 55 ab ba bf 72 49 de 3c 60 22 eb 3d
       0.87241787 -1.4583536 0.02713463 0.11481166
000390 75 d0 cb bf 90 35 47 3e 5b 9c a5 3c a0 38 a7 3e
       -1.5922991 0.19454026 0.020216158 0.3266039
0003a0 14 e6 eb be 9f 7b 35 3e c2 e2 d1 3d 46 f9 2e 3f
       -0.46073973 0.17722939 0.10248329 0.6834911
0003b0 6b 7c f0 3e 6b 6b db be 49 aa 08 3d 8f 7b 44 3e
       0.46969923 -0.4285539 0.03336552 0.19187759
0003c0 ee 8d b9 be ac c7 20 be 27 82 a7 3e 2d 5e d4 bd
       -0.36241096 -0.15701169 0.32716486 -0.10369525
0003d0 2b ac da be 38 fd 33 bf 1f a9 85 3f b1 1f 7d 3e
       -0.4270948 -0.70308256 1.0442237 0.2471912
0003e0 a8 0c a7 be c5 9f 98 be 8d 0e 34 bf 65 1b 68 3f
       -0.32626843 -0.29809394 -0.703347 0.906668
0003f0 0a 32 29 3f 1d 9a a7 be 28 7c 99 3e 0b 65 df 3e
       0.6609198 -0.32734767 0.29977536 0.43631777

convs.0.fc_full.bias f4 [92]
000000 4c 78 1b 3d dd 43 05 be 72 02 e8 bc 8b 02 8f 3d
       0.03795652 -0.13014169 -0.028321479 0.06982907
000010 94 67 ac 3b 86 d1 ee 3d f9 d0 05 be 10 8f 82 bd
       0.005261371 0.11661057 -0.13067998 -0.06374943
000020 22 4c da 3d 29 46 a0 bd 90 dd 09 3e 67 af aa 3d
       0.106590524 -0.07825882 0.13463426 0.083342366
000030 a9 ca 34 3d 22 6b 7b 3c ca d1 c0 bd bc c2 a3 bd
       0.044138584 0.015345367 -0.09415014 -0.07996127
000040 7f 25 a3 3d b6 36 b6 bc c6 b0 fe bd 5c 4c 69 3c
       0.07966136 -0.022242885 -0.124360606 0.014239397
000050 56 35 9d bd 9c 2a e8 3d 2d 20 e3 bc 0a 26 bb bc
       -0.07676189 0.11336252 -0.027725304 -0.022845287
000060 a3 aa 65 3d 74 26 eb 3c 5a 56 71 bd 91 08 c0 bd
       0.056070935 0.02870486 -0.058920242 -0.09376634
000070 e1 ea 62 bd 8c a7 5f 3d dd b6 29 3d c0 c7 a2 bd
       -0.05539978 0.054603145 0.041434158 -0.079482555
000080 c9 9b 0a be db a9 03 bd 2d 02 2a be 40 c2 df 3d
       -0.1353599 -0.03214441 -0.16602392 0.10925722
000090 11 70 8f 3c c2 e8 97 bd 80 a6 15 bc cc 96 80 3d
       0.017509492 -0.07417442 -0.009133935 0.06278762
0000a0 a2 73 a7 3d a0 dd 74 bd 5a 05 d3 3d dd 28 0f 3c
       0.08176352 -0.05978167 0.10303755 0.00873777
0000b0 e5 c9 f0 3c 00 ac 8c bc bc 9a c8 bc ad 27 f7 bb
       0.029393146 -0.01717186 -0.024487846 -0.0075425715
0000c0 b3 d9 13 3d de 0a b7 3d fe 7e ad bc 47 b8 25 3d
       0.036096286 0.089376196 -0.021178719 0.040458944
0000d0 84 49 94 3d 65 d1 97 bd 80 b0 8c 3d 97 26 2e bd
       0.072405845 -0.07412986 0.06869602 -0.04251727
0000e0 af 60 bf bc 69 2e 48 3d e0 37 5c 3e d8 5c df bd
       -0.023361532 0.048872385 0.2150569 -0.109063804
0000f0 d8 f9 61 3d b0 a9 00 3e 65 7e a3 3d 84 5e ab 3d
       0.05516991 0.1256473 0.07983092 0.08367637
000100 03 47 d5 bd a1 00 ff bd 82 29 b6 3e 1e 3c f0 3b
       -0.10413935 -0.12451292 0.35578543 0.0073313853
000110 f8 2b 94 3d 4c 00 7c bc 74 37 2e 3d 50 98 76 3c
       0.07234949 -0.01538093 0.042533353 0.015050963
000120 2c 48 b8 bd eb d6 33 bd ed e6 8e bd 9e 25 e4 3c
       -0.08998141 -0.043906134 -0.06977639 0.027849969
000130 f2 c7 41 bd 39 eb a8 bd e8 39 31 3b 02 20 88 3e
       -0.047309823 -0.0824799 0.0027042571 0.2658692
000140 28 fa d6 3c 97 70 e6 bc 71 c8 62 3d 85 40 6f bd
       0.02624233 -0.028129859 0.055366937 -0.05841114
000150 c3 fc 2a bd d9 a1 6d bd 44 83 a4 bd 94 a6 d1 3b
       -0.04174496 -0.058015678 -0.080328494 0.0063980315
000160 09 88 ec 3d ce 06 24 bb 21 61 f9 3d 94 59 c5 bd
       0.11549384 -0.002502847 0.12176729 -0.09636226

convs.0.bn1.weight f4 [92]
000000 4c cc 5f 40 22 0d 2d 40 5c 6d 14 40 11 99 04 40
       3.4968443 2.7039266 2.3191748 2.0718424
000010 31 35 4a 40 37 ba 11 40 84 77 7f 40 dd 24 80 40
       3.1594965 2.2769907 3.9916697 4.0045
000020 dc 89 3a 40 3e fe 74 40 5a eb 20 40 92 16 ac 40
       2.9146643 3.8280177 2.5143647 5.377755
000030 80 84 41 40 99 19 c6 3f fb ba f0 3f 7f 83 c7 3f
       3.0237122 1.5476562 1.8807062 1.5587004
000040 6c 3d d2 3f 4a f2 be 40 7f a8 15 40 db f6 2d 40
       1.6424994 5.9670763 2.3384092 2.7181919
000050 af 9f ed 3f fb 86 a4 40 08 f3 5e 40 99 43 0d 40
       1.8564357 5.141477 3.4835835 2.2072508
000060 8f ff d8 3f 6d c7 82 40 19 cc 6a 3f ff a6 1b 40
       1.695299 4.086844 0.9171768 2.4320676
000070 7c 86 71 40 fb 08 78 40 cb c2 06 40 8b 74 6e 40
       3.7738333 3.8755481 2.1056392 3.7258632
000080 08 c3 28 40 84 bf 98 3f 93 7f 1d 40 af 38 5e 40
       2.6369038 1.1933446 2.4609115 3.4722097
000090 dd f7 84 3f 9b 32 83 40 a8 6a 2d 40 8e e9 50 40
       1.0388142 4.0999274 2.7096348 3.264255
0000a0 51 fb d1 3f 60 64 f4 3f 54 bf 66 40 dd e1 35 40
       1.6404821 1.9093132 3.6054277 2.8419106
0000b0 84 95 18 40 49 52 85 3f a3 18 b2 3f 77 15 0a 40
       2.3841257 1.0415736 1.3913769 2.15756
0000c0 25 bc 28 40 38 99 17 40 4a 92 b4 3f d7 25 5a 40
       2.6364834 2.3687267 1.4107144 3.4085596
0000d0 ac 5d 03 40 9a 16 4b 40 e5 58 01 40 75 9c 35 40
       2.0525923 3.1732545 2.0210507 2.8376744
0000e0 ff 31 34 40 5f 69 84 3f de 74 a0 3f 65 b0 f9 3f
       2.8155515 1.0344657 1.2535665 1.9506956
0000f0 a4 27 0b 40 bf aa b2 3f f9 9c d6 3f 3e e2 92 3f
       2.1742945 1.3958358 1.6766654 1.1475294
000100 ac 8d 39 40 8f 64 5c 40 63 45 4e 3f fe 99 99 3f
       2.899272 3.4436376 0.80574626 1.200012
000110 73 67 e2 3f cf d7 0d 40 de e2 14 40 71 cb cb 3f
       1.768782 2.216297 2.3263469 1.592146
000120 b0 f9 04 40 b8 c0 3d 40 ac a9 7c 3f 90 a4 97 3f
       2.0777397 2.9648876 0.986964 1.1847095
000130 38 ad 24 40 56 6f 22 40 3c 13 30 40 64 a9 3b 3f
       2.5730724 2.5380454 2.751174 0.73305345
000140 f3 2d 04 3f dc e6 00 40 09 da 43 3f 19 bc 28 40
       0.5163261 2.0140905 0.7650457 2.6364806
000150 c2 a9 d0 3f 8f 8f 30 40 8f 31 88 3f 38 24 e3 3f
       1.6301806 2.7587621 1.0640124 1.7745428
000160 43 f7 ea 3f 9d 13 cf 3f 84 4b 84 3f ba d4 e0 3f
       1.8356708 1.617786 1.0335546 1.7564919

convs.0.bn1.bias f4 [92]
000000 12 51 66 be 10 d6 30 3e b2 d6 05 3f 5e 9d 8a 3e
       -0.22491863 0.17269158 0.52280724 0.27073187
000010 35 33 19 3f fa 02 7d bd 9d 8c c9 3e b6 dc 72 3e
       0.5984376 -0.061770417 0.39365092 0.23717007
000020 b8 c3 a9 be f7 6a 92 3e f3 90 c7 3e d1 f9 2a 3f
       -0.33157134 0.28597233 0.38977775 0.6678744
000030 9e ac 12 bf de 58 02 3e a9 6e e3 3e 5c 98 18 bd
       -0.5729464 0.12729213 0.44420364 -0.037254676
000040 a1 61 e1 bd 03 3a 74 bf 3d 3e fa bd b8 6f f1 bd
       -0.11004949 -0.9540102 -0.12218902 -0.11788887
000050 98 9f 26 bf 10 26 ed 3d 38 99 e3 3e 47 42 10 bf
       -0.6508727 0.115795255 0.44452834 -0.5635113
000060 70 bb 9e 3c 7d b2 5b 3e ed 81 71 be 9b 27 be 3e
       0.019376487 0.21454807 -0.23584719 0.37139592
000070 07 03 e8 3d b1 c6 f4 3e 29 d1 2d 3f 07 09 57 bf
       0.113287024 0.4780784 0.6789728 -0.8399815
000080 9e d2 b7 3e f6 a5 81 bf e9 ab 1a be 90 39 b9 bd
       0.35902876 -1.0128772 -0.15104641 -0.09044182
000090 0b 43 ca bf e0 75 0f be 4f 67 00 be 36 85 c2 bd
       -1.580171 -0.1400981 -0.12539409 -0.09498064
0000a0 6e 7b 1d be e1 21 09 bf cd f5 38 3f 8c 46 57 be
       -0.15379116 -0.5356732 0.7225006 -0.21023005
0000b0 5d 15 bf be 54 a7 6e 3e 93 64 83 be f0 af 2e 3e
       -0.37320986 0.23306018 -0.2566267 0.17059302
0000c0 5a 8f 15 be 95 1d b9 3d 5a da b3 3e 04 1d 9c 3d
       -0.14605466 0.090388454 0.35127527 0.07622722
0000d0 a5 0a 62 3e 0f 65 ad bd 87 08 bf be da a6 95 bd
       0.22074373 -0.08466541 -0.37311193 -0.07307215
0000e0 11 bb 99 3d c8 0e 0f 3f 40 f2 b3 3e 3b 33 2e 3e
       0.07506383 0.5588193 0.3514576 0.1701173
0000f0 2f 52 c9 3d b0 ee bb be 48 54 8c be 22 8d cb be
       0.098301284 -0.36705542 -0.27408051 -0.39756113
000100 6f a7 a7 3d 48 63 37 bd be 8c 2c bf f6 d3 32 3f
       0.08186232 -0.044772416 -0.67402256 0.69854677
000110 9d 81 b5 3e 9a b4 b0 be 67 f5 f9 bd 36 0e c4 3e
       0.3545045 -0.34512788 -0.1220501 0.38292092
000120 eb 45 2c be 67 82 45 bc 1a 6a 36 3f b8 17 21 3f
       -0.16823547 -0.012055016 0.7125565 0.62926817
000130 90 d7 8f 3d a4 6e 8d 3e bf 37 86 3e 4e 9d 86 bf
       0.07023537 0.27623475 0.26214406 -1.0516756
000140 01 53 6d bf 11 09 34 be ec e8 4b bf 15 84 10 3d
       -0.9270478 -0.17581584 -0.79652286 0.035282213
000150 14 47 31 be 8c 0e 0c 3e a7 36 cd be fb f2 4b be
       -0.1731227 0.13677424 -0.4008076 -0.19916908
000160 43 74 e6 3e 9a 5a e3 be 6c 69 18 bf 74 0a 19 be
       0.45010576 -0.4440506 -0.5953586 -0.14945394

convs.0.bn1.running_mean f4 [92]
000000 0f f5 17 c0 75 21 6b 40 60 d4 d8 bf 3b 92 ef 40
       -2.3743322 3.673917 -1.6939812 7.4866004
000010 40 85 b1 bf 03 31 75 c0 43 ad 12 40 c2 bb ab 40
       -1.386879 -3.8311164 2.291825 5.3666697
000020 69 76 8b c0 21 f7 5b c0 82 1a 81 3f 4e 29 43 c0
       -4.3582044 -3.4369586 1.0086215 -3.049396
000030 fb 1f 80 c1 19 d4 35 c1 b0 62 e6 bf 8e 59 aa 3f
       -16.015615 -11.364282 -1.7998867 1.330858
000040 75 f3 24 40 e6 f0 b1 3f ba c5 7b c0 42 c1 46 c0
       2.5773594 1.3901641 -3.9339433 -3.1055455
000050 64 fa 2e 3f 0b 5a 0e 41 46 6e 96 c0 5d 22 81 c0
       0.68350816 8.896983 -4.700961 -4.0354447
000060 0d e1 25 c1 71 10 4b 3e c4 50 98 be a9 bc 45 c0
       -10.367444 0.1983049 -0.2974912 -3.08964
000070 c2 d6 6b 40 61 e0 df 3f 40 3b f6 3f df 27 1f c1
       3.6849828 1.749035 1.9236832 -9.947234
000080 14 2a 16 41 57 29 52 c0 16 fa ef 40 e7 e7 46 c0
       9.385273 -3.2837732 7.499278 -3.1079042
000090 58 7a c8 c0 90 db 40 c0 ff 8f 09 c0 4c 71 84 c0
       -6.2649345 -3.013401 -2.1494138 -4.13883
0000a0 7d 27 41 40 bd 78 8d 3f 47 7b 3c c0 bb 7f 57 c1
       3.0180352 1.1052471 -2.9450243 -13.468684
0000b0 ee 93 dc 3c 19 50 7b 40 5f 23 7f c0 31 c9 9b c0
       0.026926007 3.9267638 -3.9865339 -4.8683095
0000c0 76 22 af 3f 3e d9 f9 40 c2 89 9f 3f 63 27 d3 c0
       1.3682392 7.807769 1.2463915 -6.598558
0000d0 6d ca db c0 b5 23 2b 3e 81 8d cb c0 b5 dc 72 c0
       -6.86846 0.1671284 -6.3610234 -3.794721
0000e0 57 4e ca 3f 70 55 2b 40 dd c6 57 c0 46 1f 69 c0
       1.5805157 2.6770897 -3.3715127 -3.6425338
0000f0 d0 67 e6 3d 4f a6 95 c0 f3 73 b9 c0 32 e4 78 c0
       0.112502694 -4.6765513 -5.795404 -3.888928
000100 2d 6c 6d c1 21 7f 65 c0 51 80 38 c1 18 75 bf 3c
       -14.83891 -3.5858843 -11.531327 0.023371264
000110 60 9b d0 40 4e b5 c8 bf d9 eb e2 c0 d1 d4 d4 3f
       6.5189667 -1.568033 -7.09129 1.6627446
000120 5a 1f 07 40 d8 1f 00 3f 21 47 5d 40 42 f4 2a 41
       2.1112885 0.5004859 3.4574664 10.684633
000130 de f1 88 40 61 52 2c 40 29 69 85 40 7f d7 a4 c0
       4.279525 2.692528 4.169087 -5.1513057
000140 a2 6b 51 3f 91 7a 05 40 ee b4 8f c0 39 2f b9 c0
       0.8180486 2.0856059 -4.490836 -5.7870145
000150 b1 de 35 40 ae 82 88 c0 b2 03 52 c0 ea 12 fa 40
       2.841717 -4.265952 -3.2814755 7.814809
000160 02 12 a4 3f 29 65 0e 40 f4 bf b1 40 d2 0f 1f 41
       1.2817996 2.2249243 5.554682 9.941362

convs.0.bn1.running_var f4 [92]
000000 65 7d bc 42 78 da fb 42 08 75 e2 42 54 fe 02 43
       94.24491 125.9267 113.22858 130.99347
000010 b5 ce 2c 43 41 37 02 43 0f 46 de 42 e7 b3 06 43
       172.80745 130.21584 111.13683 134.70274
000020 94 18 54 43 15 1e e9 42 35 ab 0b 43 39 d0 57 43
       212.09601 116.558754 139.66878 215.81337
000030 99 50 b8 42 a8 3c b0 42 26 4a 13 43 15 22 21 43
       92.15742 88.11847 147.28964 161.13313
000040 dc 19 a7 42 02 e2 12 42 12 fb 17 43 f9 87 4c 43
       83.55051 36.72071 151.98074 204.53114
000050 62 22 87 43 cb 67 12 43 4d a6 1f 43 e7 0d c7 42
       270.26862 146.40544 159.64961 99.52715
000060 0f 85 e1 42 8a c0 3e 43 42 18 ee 42 ab 55 08 43
       112.75988 190.7521 119.04738 136.33464
000070 bb 5b b5 42 04 76 39 43 a7 55 e6 42 23 df bd 42
       90.67916 185.461 115.16729 94.935814
000080 3c f7 59 43 ea ec 75 42 ec 6f f5 42 8b b3 08 43
       217.96576 61.48136 122.7186 136.70134
000090 cd e5 2f 43 3f b5 0c 43 a5 78 3e 43 b1 0d 37 43
       175.89766 140.708 190.47127 183.05348
0000a0 d9 0b a8 42 40 44 37 43 0b b6 40 43 07 ad 0e 43
       84.02314 183.2666 192.7111 142.67589
0000b0 92 b3 1d 43 cc 45 94 43 da 6b 0a 43 15 03 20 43
       157.70145 296.5453 138.4213 160.01204
0000c0 f1 7a 5d 43 72 5d f8 42 27 99 39 43 97 96 f2 42
       221.48024 124.18251 185.59825 121.29412
0000d0 e7 9e 7a 43 42 3e 42 43 4b 8b 52 43 7d 09 19 43
       250.62071 194.2432 210.54411 153.03706
0000e0 01 f7 69 43 20 46 4a 43 2f b7 e1 42 8a a0 f6 42
       233.96486 202.27393 112.85778 123.31355
0000f0 a8 a6 84 43 6d 46 16 43 9c 4e e1 42 58 c9 81 43
       265.302 150.2751 112.653534 259.573
000100 21 d9 08 43 fc 34 25 43 3b 9f b8 42 9b a8 36 43
       136.84816 165.20697 92.311 182.65862
000110 13 3a 2c 43 03 b5 17 43 8d 42 21 43 ca 86 34 43
       172.22685 151.70708 161.25996 180.52652
000120 68 1f fc 42 93 bb 72 43 a4 c4 5b 43 69 93 39 43
       126.06134 242.73271 219.76813 185.57582
000130 46 17 48 43 37 83 ae 42 d3 5d 7b 43 d5 07 a9 42
       200.09091 87.25628 251.3665 84.5153
000140 29 30 0f 42 4f 9c 3a 43 48 b0 60 42 f1 26 0e 43
       35.79703 186.61058 56.17215 142.15211
000150 a9 25 18 43 3f fc d2 42 ef 7d b5 42 71 95 40 43
       152.14711 105.49267 90.745964 192.58376
000160 7c 6f 3e 43 26 a8 52 43 7a a7 30 43 7a 7f 29 43
       190.43549 210.65683 176.6542 169.49796

convs.0.bn2.weight f4 [46]
000000 0f 45 a3 3f f5 3f 78 3f 44 5d 6d 3f bc 36 70 3f
       1.275545 0.9697259 0.9272044 0.9383352
000010 fd 65 a0 3f e1 44 6b 3f 7d 00 93 3f fd 0e b1 3f
       1.2531124 0.91901976 1.1484524 1.3832699
000020 dc 79 89 3f fe e5 96 3f 7e 68 b6 3f 5d fd 90 3f
       1.0740314 1.1788938 1.4250638 1.132732
000030 a2 de 9c 3f d7 62 7a 3f 2d d7 ae 3f 5d 93 bd 3f
       1.2255442 0.9780707 1.3659416 1.4810597
000040 89 00 55 3f 12 76 02 40 0e ed 6a 3f b5 ab d7 3f
       0.8320394 2.0384564 0.91767967 1.6849276
000050 34 ca d4 3f ce 97 8b 3f 9a c8 a9 3f b3 a1 84 3f
       1.6624207 1.0905702 1.3264344 1.0361847
000060 97 81 74 3f 4f 41 d8 3f 9c 1e 77 3f fb b9 7d 3f
       0.9551024 1.6894931 0.9653108 0.9911191
000070 fa d0 96 3f c5 e7 a6 3f d2 62 96 3f 91 a2 90 3f
       1.1782525 1.303948 1.1748908 1.1299611
000080 41 0d a0 3f 0a 65 82 3f 65 af 15 40 84 73 91 3f
       1.2504045 1.0187085 2.3388302 1.1363378
000090 08 64 b5 3f 3d 4c be 3f 91 1d a5 3f 90 43 8c 3f
       1.4171152 1.4867016 1.2899648 1.0958118
0000a0 a8 95 b8 3f 47 36 cd 3f c8 c4 ad 3f 4a b8 a5 3f
       1.4420671 1.6032189 1.3575678 1.2946866
0000b0 03 ee d0 3f 09 18 be 3f
       1.6322635 1.4851085

convs.0.bn2.bias f4 [46]
000000 82 14 c7 be ef c8 7e be b5 b8 c5 be b4 05 71 be
       -0.38882834 -0.24881338 -0.38617483 -0.23537332
000010 fd 80 08 bf 35 0d 9a be df 41 cb be 96 62 31 bf
       -0.5332182 -0.300882 -0.39698693 -0.69291055
000020 e4 87 c6 bd 85 a8 75 be 84 12 05 3d 62 1e 9f be
       -0.09693888 -0.23990066 0.03248836 -0.31077868
000030 96 f9 0d be 3d bc 75 bd fe 13 3a be 37 82 c8 3d
       -0.1386474 -0.05999397 -0.18171689 0.097904615
000040 64 de ec be 02 35 bd be 8f 5a 86 be bb c4 da be
       -0.4626342 -0.36954504 -0.26240966 -0.42728218
000050 2f ad ba 3e b2 2f ae be 9f cb 71 be ba 73 c7 be
       0.36460254 -0.34020764 -0.23612832 -0.3895548
000060 56 47 a6 be 0e 8c b3 be c1 e6 30 be 1b d4 05 bf
       -0.324763 -0.3506779 -0.17275526 -0.5227677
000070 e3 cc 76 be 55 26 d3 be a9 60 1a be 32 b7 85 bd
       -0.24101596 -0.41240183 -0.15075935 -0.06529082
000080 8c dd 9a be f6 79 23 bf b6 4d 26 be 3e 66 63 be
       -0.30247152 -0.6385797 -0.16240582 -0.22206971
000090 a7 db 8e be 1b e1 34 bf 6f a9 0a be a9 df a5 be
       -0.27901956 -0.70655984 -0.13541196 -0.32397202
0000a0 63 e2 83 be 86 be fd bd 5d 68 dd be 6a 50 04 bf
       -0.25758657 -0.12389855 -0.43243685 -0.516852
0000b0 cc b2 ec be 90 4f 0a be
       -0.4623016 -0.13506913

convs.0.bn2.running_mean f4 [46]
000000 d8 28 61 40 e9 83 b3 40 03 8d da 40 c0 7e 17 41
       3.518118 5.6098523 6.8297133 9.468445
000010 a5 e0 01 41 26 fa 29 41 37 14 18 41 2f 97 fd 40
       8.117345 10.623571 9.504935 7.924705
000020 dd a2 95 40 d0 bd 09 41 2b 04 4e 41 3b c1 e0 40
       4.676131 8.608841 12.876018 7.0235877
000030 34 2c 70 40 66 b9 f4 40 20 ff 18 41 7a f9 33 40
       3.752698 7.6476316 9.562286 2.8121018
000040 9c 6d 88 40 88 8b 81 3f fc 4b d5 40 d7 f3 f8 40
       4.26338 1.0120707 6.6655254 7.7797656
000050 2f 23 c1 3e 41 b5 cd 40 7a d4 fb 40 2a 8f a9 40
       0.37722155 6.4283757 7.869687 5.298726
000060 26 0a 03 41 5b ed d3 40 a7 19 bf 40 d9 a3 3e 41
       8.189978 6.622724 5.9718814 11.915002
000070 01 94 c7 40 1a a0 db 40 b8 a0 37 41 09 84 9f 40
       6.236817 6.8632936 11.476738 4.9848676
000080 b2 3b 5a 41 38 51 01 3d 7e cd 33 3d 68 47 97 40
       13.639574 0.031571597 0.043897144 4.7274666
000090 20 eb 49 3e d5 24 1b 41 88 d4 a4 40 7c ee 1f 41
       0.197186 9.696492 5.1509438 9.995724
0000a0 79 07 ab 3f 54 39 4f 40 f0 71 27 41 bd 62 20 40
       1.3361655 3.237874 10.465317 2.5060265
0000b0 20 d5 bb 3f a6 b0 96 40
       1.4674416 4.7090635

convs.0.bn2.running_var f4 [46]
000000 0b 79 0c 42 48 a1 c2 42 84 7f e0 42 5a 50 0c 43
       35.118206 97.315 112.249054 140.31387
000010 b2 50 92 42 98 9d 78 43 6c b8 20 43 e5 1a 1b 43
       73.15761 248.6156 160.7204 155.10506
000020 f6 cf 38 42 0d 34 07 43 09 65 63 43 e6 1d 6e 42
       46.203087 135.20332 227.39467 59.529198
000030 f0 e6 59 42 46 d6 df 42 59 4e ee 42 9b d6 90 41
       54.475525 111.9185 119.15302 18.104788
000040 4b 4c e7 42 ca ab 42 40 2b 89 f6 42 2c 8e be 42
       115.64901 3.0417352 123.26791 95.27768
000050 c5 24 43 3f 32 73 48 42 c9 d9 fb 42 34 ea 98 42
       0.7622798 50.112495 125.92536 76.45743
000060 69 41 29 43 a8 68 3c 42 6d 32 45 42 af 68 73 43
       169.25551 47.102203 49.299244 243.40892
000070 67 25 59 42 9b 46 6f 42 4c 09 8d 43 64 b5 f0 42
       54.286526 59.81895 282.07263 120.35428
000080 b4 82 1f 43 f4 b5 91 3d 33 ac b7 3d 71 6a b4 42
       159.51056 0.07114783 0.08968391 90.20789
000090 13 cb 20 3e 19 ce 0b 43 94 12 35 42 52 36 3a 43
       0.15702467 139.80507 45.268143 186.21219
0000a0 78 f3 c3 40 0f 38 ba 41 b7 d8 85 42 16 e7 8f 41
       6.1234703 23.277372 66.92327 17.987835
0000b0 ea e0 eb 40 79 3a 19 42
       7.3712053 38.307102

convs.1.fc_full.weight f4 [92, 98]
000000 87 b2 08 3f 9e d6 d5 bd 54 7d 09 3f 73 da ce 3d
       0.5339741 -0.104413256 0.5370686 0.1010026
000010 94 b9 e1 bf 1e 57 b4 bd 9d 64 29 bc 6e f0 38 bf
       -1.7634759 -0.08805679 -0.0103389295 -0.72241867
000020 35 3d 0a 3f b5 35 f7 bd 5f 42 b7 3e 38 7e bb be
       0.53999645 -0.12070791 0.35792825 -0.36619735
000030 0a 81 53 3d ca 22 b7 3d 97 2a 76 3e 3b ac 62 3d
       0.051636733 0.08942182 0.24039684 0.055340033
000040 b5 09 1d 3d 28 4c 4c bf b5 5d 60 3d 13 34 91 be
       0.038339335 -0.79803705 0.054776866 -0.28360042
000050 31 fe f7 3e 29 29 92 3e 0c 2f d1 3d 5f 72 92 be
       0.4843612 0.28547028 0.102140516 -0.28602883
000060 7e 13 bf 3e 62 b3 a8 be 7b a3 8a be e2 e3 33 bd
       0.3731956 -0.32949358 -0.2707785 -0.043918498
000070 42 9d ac 3e 47 c0 10 bf 9f d5 67 3f 6f d1 2e 3f
       0.33713728 -0.5654339 0.90560335 0.6828832
000080 ff 06 b4 3f e3 93 33 3f 05 c3 90 be 8f 47 9a 3d
       1.4064635 0.7014753 -0.28273788 0.0753318
000090 b5 dd 81 3e 1a 59 43 bf 92 5d 8d be 97 f7 d1 3e
       0.25364462 -0.76307833 -0.2761045 0.4100921
0000a0 6c b7 00 3f e9 f2 e9 3e 35 cd 29 be fe aa 63 be
       0.5027988 0.45693138 -0.16582187 -0.22233197
0000b0 93 05 9b be df 28 3c bf 38 02 88 bf 5c bc 1b 3d
       -0.3027769 -0.73499864 -1.0625677 0.03802143
0000c0 45 ab f3 be fb cb 0d bf ee 5a 44 bf 8e f6 f9 be
       -0.47591606 -0.55389374 -0.7670125 -0.4882092
0000d0 a8 b5 95 3f eb 69 b2 3e 5e 11 be bf 8a a9 47 bd
       1.1696062 0.34846434 -1.484905 -0.04874567
0000e0 6e e7 68 bf dd f8 96 3e 4d 61 36 3f 58 3b 11 3f
       -0.90978134 0.29486743 0.7124222 0.56731176
0000f0 f9 8a 12 be af 5a de be ad a7 1a bd 7d 6d 64 bf
       -0.14310826 -0.4342856 -0.037757564 -0.89229566
000100 18 66 4c bf be af 88 bf cf 14 68 bf 1b fd 0f 3f
       -0.7984328 -1.0678632 -0.9065675 0.56245583
000110 11 dd 76 be d2 ea 52 3f 49 8f 0e 3f 45 5d 68 3f
       -0.24107768 0.8238956 0.55687386 0.9076732
000120 c0 52 77 3c f3 72 32 3f 4b 75 8d 3d 1b 2e 22 be
       0.015095413 0.6970665 0.069071375 -0.158379
000130 fe b6 10 bf 4e c6 d6 3e ad f9 a7 3d 9f 43 94 3f
       -0.56529224 0.4194817 0.08201919 1.1583136
000140 74 36 69 3d f0 39 8d 3e e4 91 51 3d 2b 11 6b 3c
       0.056936696 0.27583265 0.051164523 0.014347355
000150 39 1b 67 3e fb be 91 be d3 a6 c4 3f bb fc c9 be
       0.22568978 -0.2846602 1.5363411 -0.3945063
000160 8a f9 ae 3f 81 87 e0 3e 9c a2 62 bb 92 64 bc be
       1.3669903 0.4385338 -0.0034581786 -0.3679548
000170 16 17 fb 3f 64 08 94 3e 3d c7 3f bd fb f3 b2 bf
       1.961642 0.28912652 -0.046820868 -1.3980707
000180 3c 80 dc bf 6e 18 c2 bf 65 aa e7 bd d3 11 11 be
       -1.7226634 -1.5163705 -0.11311797 -0.14166956
000190 81 4e 6a bf 08 34 2f 3f 91 72 ce 3e 79 c1 1e 3e
       -0.9152604 0.6843877 0.40321782 0.15503491
0001a0 1b b0 83 be e0 7d da be cc e6 92 be 50 1a 2d 3e
       -0.25720295 -0.4267416 -0.2869171 0.16904569
0001b0 5c 13 ee be 89 8c e4 be e7 e2 90 3f ea 0d f5 3e
       -0.46499145 -0.4463847 1.1319245 0.47862178
0001c0 51 16 13 bf c8 89 08 bf 5e c5 c3 bf 19 73 ac bc
       -0.5745593 -0.5333524 -1.5294607 -0.021050977
0001d0 bf 7d 12 bf e1 44 15 be 7a 2f 3f bf 3d c6 bb bf
       -0.57223123 -0.14577056 -0.7468182 -1.4669873
0001e0 14 65 b1 bf 4b 80 0e be d7 25 4b 3f aa 0e 9e be
       -1.3858972 -0.13916127 0.79354614 -0.30870563
0001f0 1d fd 56 3f db c8 7b 3e 5d 2b 02 be 68 15 61 3f
       0.8397997 0.24588339 -0.12711854 0.8792329
000200 76 60 b2 3e be d6 0b 3f 24 23 15 bc 5c 6f 31 bf
       0.3483922 0.54624546 -0.009102616 -0.69310546
000210 32 04 45 be 7b b5 97 3f fb 14 9a 3e 95 c2 52 3e
       -0.19239882 1.1852258 0.30094132 0.2058204
000220 4e 27 c0 bd 83 5d 82 bf da 7d 94 3e f4 c2 1e be
       -0.09382497 -1.0184788 0.29002267 -0.15504056
000230 43 a5 40 bf ab 50 26 be cf 79 00 3f 9f 3f 32 3f
       -0.7525217 -0.1624171 0.50185865 0.6962833
000240 87 47 1c 3f 4b cd 84 be 94 ee 12 3f e9 af d7 be
       0.6104664 -0.25937876 0.5739529 -0.42126396
000250 c2 9f 88 bf 79 1d 0e 3f 4d 27 d1 bd b1 20 d5 3e
       -1.0673754 0.5551372 -0.10212574 0.41626504
000260 b9 7c 23 bf 10 42 a3 be 61 e0 02 3f 69 1a a6 ba
       -0.63862187 -0.3188634 0.51123625 -0.0012672666
000270 8c 7f fb 3d 85 cf 8a 3e ac 08 09 be 23 40 cb 3f
       0.12280187 0.2711145 -0.13382214 1.5878948
000280 81 5b 56 3c c7 d5 63 be 1a e7 3b bf c0 7d 9a 3f
       0.01308334 -0.22249518 -0.7339951 1.2069626
000290 07 0a 0a be 1e 30 dc bb 7d 25 59 3d b4 04 08 3f
       -0.13480388 -0.006719603 0.053014267 0.53132176
0002a0 67 b1 b1 3d b4 a9 34 3f 65 f9 b1 bd b3 23 3f be
       0.08676415 0.70571446 -0.08690146 -0.18665962
0002b0 8d cc d9 be 24 97 62 3f e5 99 fc 3e 1a 0e a1 3f
       -0.42538872 0.8851187 0.49336162 1.2582428
0002c0 7d 0e ad 3f 11 2f ca 3d ca 8e 3f bf d7 f8 e9 39
       1.3520046 0.098722585 -0.74827254 0.00044626623
0002d0 80 6d b0 3e bd 63 32 be 1a c9 3a 3f fe c9 05 3d
       0.34458542 -0.1742086 0.72963107 0.032663338
0002e0 bb b0 05 3f 3e 80 85 be 19 1a 1e 3f f6 28 9e 3d
       0.52222794 -0.26074404 0.6175857 0.077226564
0002f0 6f 16 e1 be 1f 8d 8a be 1f 66 1b c0 b2 d3 1b c0
       -0.43962428 -0.27060792 -2.428108 -2.4347959
000300 1d 4d e1 3f 8d e9 a5 40 4b c7 26 40 36 62 7f bf
       1.7601658 5.1847596 2.6059139 -0.99759233
000310 6b cb c9 be bb 2e 35 bf 13 32 bf bc 34 1e 37 be
       -0.39413008 -0.7077443 -0.023339307 -0.17882615
000320 1a 85 95 3e 48 16 c0 3e 7e 4a 4e bf 39 5f 25 be
       0.2920311 0.37517 -0.80582416 -0.16149606
000330 3e 27 e9 be 53 7f 2c bf a8 bb 90 be 99 a6 05 bc
       -0.45537752 -0.6738178 -0.2826817 -0.008157396
000340 93 26 a8 bc d7 1a c4 3e e9 9e a5 3d ca ac 70 be
       -0.020526206 0.38301727 0.0808695 -0.23503414
000350 99 6e 94 bf 8a a7 a6 3f 06 50 8c be 32 7f 0d bf
       -1.1596252 1.3019879 -0.27404803 -0.5527221
000360 a0 3d 4e bf 3b 46 8e bf 16 22 7d be 1f 4f 6e bf
       -0.8056278 -1.1115183 -0.24720034 -0.9308948
000370 40 67 5e bf f6 6b f9 be 9a 2e 30 3e d1 f5 9b bd
       -0.86876297 -0.4871518 0.17205277 -0.07615245
000380 a7 55 9d be a7 29 fb 3e 16 06 ee 3e 28 dc a8 3e
       -0.3072941 0.49055216 0.46489018 0.32980466
000390 9f 96 d7 3e 6c d3 95 3e 14 a1 83 be 5d 4e 27 be
       0.42107102 0.29262865 -0.2570883 -0.16338487
0003a0 cb 5c ff 3f fd c1 53 3c 36 af 82 be 84 19 bd bd
       1.9950193 0.012924668 -0.255243 -0.09233382
0003b0 39 98 76 bf ae 05 2f 3c bd f0 4f 3f d2 4a e1 3e
       -0.96326023 0.0106825065 0.8122671 0.44002396
0003c0 ca f0 95 bf 25 1d 42 bf 80 5a a4 3e c2 31 59 3c
       -1.1714108 -0.7582572 0.32100296 0.013256492
0003d0 cb d0 18 be f1 21 4a 3d b8 42 90 3e 59 6b fc 3e
       -0.14923398 0.049348775 0.28175902 0.4930065
0003e0 ae 22 ab 3e 73 72 03 3c 5b 62 34 bf 45 9e bd be
       0.33424896 0.008022892 -0.7046258 -0.37034813
0003f0 9d ef e0 3e 4e fe 21 3f 91 18 ac 3e fe a5 24 bf
       0.4393281 0.63278663 0.33612493 -0.64315784

convs.1.fc_full.bias f4 [92]
000000 c0 da c4 3d 4e 19 83 bd 12 89 06 3d 1f c1 6d 3d
       0.09612036 -0.06401311 0.032845564 0.058045503
000010 61 7d b7 3d 10 31 c5 bd 61 e5 d7 bd 2c 31 43 3c
       0.08959461 -0.096284986 -0.105417974 0.011913579
000020 58 99 18 3d a8 77 8b 3d b0 d4 2e 3d 19 d9 2f bd
       0.037255615 0.06809932 0.042683303 -0.04293165
000030 71 97 29 bd b2 bd 36 3c c0 75 a9 bd 37 1b 32 bc
       -0.04140419 0.011153625 -0.08274412 -0.010870746
000040 c9 d8 87 3d 36 e9 aa bd 3b c3 63 bc 04 7f 18 3d
       0.06633145 -0.08345263 -0.013901527 0.037230507
000050 40 c3 2e 3d 7d 24 83 3d e9 57 82 3d 88 61 4d 3d
       0.042666674 0.06403444 0.06364424 0.05014184
000060 90 20 e3 3d 19 6e 90 3d ae 06 ac 3c 0a 27 8a 3d
       0.11090195 0.070522495 0.020999279 0.06745727
000070 63 88 01 3c 57 b5 74 bd 5e 37 ba 3d 0d 39 fc 3d
       0.007906052 -0.05974325 0.09092592 0.12315569
000080 34 81 e3 bd d5 1c 27 bd 35 66 ae bd 2f 77 fa bc
       -0.11108628 -0.04079898 -0.08515588 -0.03057441
000090 c9 c8 2c 3d df 24 a1 3b 96 70 a4 3d 4b e5 46 3d
       0.04218367 0.0049177255 0.080292866 0.048558515
0000a0 70 d0 93 3c e4 62 6c bd bd de bc bd 90 bd 0f 3d
       0.018043727 -0.057711497 -0.092221715 0.03509289
0000b0 c8 8d de bc b3 2b e7 3d 94 99 3d bd a0 f4 df 3d
       -0.027167216 0.11287632 -0.04628904 0.109353304
0000c0 5f 34 9c 3d e4 73 4d 3d 4b 2f 58 bd b5 20 d3 3c
       0.076271765 0.05015935 -0.052779477 0.025772432
0000d0 19 78 97 bc 47 6f 2f bd 42 42 cd bd c2 04 88 bd
       -0.018489884 -0.04283073 -0.10022403 -0.066415325
0000e0 44 f5 0c bd 42 4d bb 3c a0 e2 2c 3d 60 39 18 bc
       -0.03441359 0.022863988 0.042208314 -0.009291023
0000f0 15 6a c2 3d df 46 46 bd 1d 03 04 bd 10 a1 de 3c
       0.0949289 -0.04840743 -0.03222953 0.02717641
000100 87 50 92 bd 9f 0a 83 bd ff c5 9e bd 35 1f 57 bd
       -0.071442656 -0.0639851 -0.077526085 -0.052519996
000110 b6 a9 b3 bb 6d b6 b6 3a 49 cb b4 bd 4c b5 81 bd
       -0.0054828776 0.0013939865 -0.08827836 -0.06333408
000120 b7 c1 c4 bd 30 77 89 3d 9a 54 b6 bd ab c7 22 3d
       -0.09607261 0.06712186 -0.08902855 0.0397412
000130 83 c6 c8 3d 74 d2 97 3c 69 88 95 bd 02 a8 0a 3d
       0.09803488 0.018532969 -0.07301409 0.03385163
000140 84 4f 28 3d 6a fb 03 bc 76 23 8e bc c8 56 3d 3e
       0.041091457 -0.008055547 -0.017350893 0.18490136
000150 5e 30 a4 bd e4 69 06 bd 75 62 f4 ba 95 1c 99 bd
       -0.08017038 -0.03281583 -0.0018645065 -0.07476155
000160 e5 ec 40 3d 71 b5 76 3c 32 1a 8a bd 80 50 9f 3c
       0.04710092 0.015057907 -0.067432776 0.019447565

convs.1.bn1.weight f4 [92]
000000 cb 0c fc 3f 52 7c 81 40 3c 0f 3c 40 4f 31 a6 3f
       1.9691404 4.046426 2.9384298 1.2983798
000010 54 58 63 40 e0 5b 00 40 9b 51 14 40 0c be 04 40
       3.5522661 2.0056076 2.3174808 2.0740995
000020 e4 f7 24 40 84 8c 8b 40 da 86 50 40 07 7b 7d 40
       2.57763 4.360903 3.2582307 3.960634
000030 55 59 32 40 5d a9 bf 3f ac 62 13 40 f5 da 0e 40
       2.7867024 1.497356 2.3028975 2.232114
000040 6a 06 8c 40 93 76 79 40 2c a7 4f 40 cc df 63 40
       4.375783 3.8978622 3.2445784 3.5605345
000050 81 50 01 40 d0 09 6e 40 41 20 aa 3f 77 f8 32 40
       2.0205386 3.719349 1.3291093 2.796415
000060 f0 a8 2f 40 8a 20 38 40 63 da 70 40 db 82 cb 3f
       2.7446861 2.876986 3.7633293 1.5899309
000070 14 8b 81 40 d5 1f d6 3f b6 d6 42 40 03 99 16 40
       4.0482273 1.6728464 3.044355 2.353089
000080 e1 1f 82 40 a6 31 e1 3f f3 06 14 40 ed 04 9a 40
       4.0663915 1.7593277 2.3129241 4.8131013
000090 8c 5b 64 40 1e 8e 1f 40 02 51 dd 3f e7 35 b9 3f
       3.5680876 2.4930491 1.7290347 1.4469575
0000a0 0e 83 5f 40 7f df 74 40 ce 34 d4 3f e9 2d 9d 40
       3.492374 3.826141 1.6578615 4.9118543
0000b0 f9 df b7 3f 28 cd 12 40 b1 78 be 3f 95 c1 94 3f
       1.4365226 2.2937717 1.4880582 1.1621577
0000c0 18 d0 20 40 2b ac 86 3f b5 64 2b 40 72 11 22 40
       2.512701 1.0521291 2.6780217 2.5323148
0000d0 23 e8 d5 3f 68 cd bc 3f 1a 2e 9a 3f d4 5a 22 40
       1.6711468 1.4750185 1.2045319 2.5367937
0000e0 bb 22 8f 3f 9e ad 0b 40 91 87 1d 40 5d 16 ca 3f
       1.1182474 2.1824718 2.4613993 1.5788075
0000f0 5f 97 95 3f 8e a4 ca 3f 8c e0 1d 40 54 f2 47 40
       1.168682 1.5831468 2.4668303 3.1241655
000100 b9 4c 33 40 a2 ac 94 3f c0 06 4b 40 e7 b5 6f 3f
       2.8015578 1.1615183 3.172287 0.93636936
000110 0c 4f df 3f 8c 1e d0 3f 62 97 b9 3f 26 cc f4 3f
       1.7445998 1.6259322 1.4499323 1.9124801
000120 02 70 01 40 f8 4a 77 40 15 71 be 3f 24 8b 64 3f
       2.0224614 3.8639507 1.487826 0.8927481
000130 8b 9f 1b 3f 50 83 35 3f d4 e9 0a 40 0b f8 5a 3f
       0.6079032 0.7090349 2.1705217 0.85534734
000140 2f 0d d2 3f 0b 32 5c 40 bf b9 0c 40 1e 00 b7 3f
       1.6410273 3.4405544 2.198837 1.4296911
000150 e6 f8 d0 3f 8b eb 6a 3f 88 84 fa 3f 17 76 22 40
       1.6325958 0.9176566 1.9571695 2.5384576
000160 e6 61 45 40 64 91 86 3f e3 79 0c 40 04 0f d2 3f
       3.0841002 1.051312 2.1949394 1.6410832

convs.1.bn1.bias f4 [92]
000000 87 fb 0f 3e 9a d2 2c bf 55 0c 81 bd 94 21 71 bf
       0.14060794 -0.6750885 -0.0630118 -0.9419186
000010 4b ee 0b 3e 40 8c a2 be 6d c2 3a bf 25 9d ac be
       0.1366512 -0.31747627 -0.7295292 -0.33713642
000020 f5 f5 50 bf d0 93 2f 3e ef ae 32 bf 6a db d4 3d
       -0.816253 0.1714623 -0.6979818 0.103934124
000030 3c 10 b1 be 29 0e 7b 3e f2 0d e4 be 51 ae d6 be
       -0.34582698 0.2451712 -0.4454189 -0.41929868
000040 d1 ee 9f be 4b 5c 27 3e 59 8c ab bd a7 c7 02 bf
       -0.3123689 0.163438 -0.083763786 -0.51085895
000050 42 32 a6 3d 3c c6 5c be b2 71 99 be 93 5e c6 be
       0.08115055 -0.21559995 -0.29969555 -0.3874403
000060 19 bc 0a bf 6a 35 04 3f b0 7d a9 3c cd b6 4b be
       -0.54193264 0.51644003 0.020689815 -0.19893952
000070 cf 62 8c 3e f0 3e 24 bf 84 6e 3c bf e3 22 a2 be
       0.27419135 -0.64158535 -0.73606133 -0.3166724
000080 4d 9a 06 bf 0d 13 44 bf 25 fb b3 be b0 56 01 bd
       -0.52579194 -0.7659157 -0.35152546 -0.031576812
000090 e7 5e 96 be 77 f5 30 bf 87 e7 87 3e 1c 80 18 bf
       -0.2936928 -0.6912455 0.2654383 -0.5957048
0000a0 b9 1a 7f be 04 e1 39 bf aa 4a 74 3f 32 54 d0 bc
       -0.24912538 -0.7260897 0.9542643 -0.025430772
0000b0 14 e2 f0 3e fd 32 0e bf 98 99 5c be 12 a1 d7 be
       0.47047484 -0.5554655 -0.21542966 -0.42115074
0000c0 8b 17 14 3e 43 89 4a bf e1 f6 b6 bd 1a 62 f9 bc
       0.14462106 -0.79115695 -0.08933807 -0.030442286
0000d0 61 51 2c be 19 cb 08 bf 78 06 28 bf 12 60 7d 3e
       -0.16827919 -0.534349 -0.6563487 0.24743679
0000e0 c0 e0 27 bf ad 1b f6 3e ee ec 4e 3e 49 3a 60 be
       -0.65577316 0.4806799 0.20207569 -0.21897234
0000f0 a0 1d 22 bf 8e e1 46 be b8 5f c6 be ae 6d 81 3d
       -0.63326454 -0.1942198 -0.38744903 0.06319748
000100 f4 bf 8e 3d 11 87 f9 be b3 6a f2 bc b8 11 25 3f
       0.06970206 -0.4873586 -0.029591894 0.6448016
000110 aa 8e 58 be 91 02 a9 be d7 cc de be 4c 6c f4 3d
       -0.21148172 -0.3300977 -0.43515655 0.119347185
000120 df 20 a7 be ac 4e f4 3c da 3d 41 3e c3 31 31 bf
       -0.32642266 0.02982267 0.18871251 -0.69216555
000130 f6 35 81 bf 00 59 2c bf 10 f8 b0 bd a0 af 50 bf
       -1.0094593 -0.67323303 -0.08641064 -0.8151798
000140 6b cf dc be 81 f3 7a 3e 95 e5 18 3e ab 41 8f be
       -0.43126997 0.24506952 0.14931329 -0.27979788
000150 06 40 ee 3e 09 91 39 bf 4a a1 8c 3e 4b 84 58 3d
       0.4653322 -0.7248693 0.27466804 0.05286054
000160 ea 3c 4a 3d 13 85 16 bf 13 30 04 3f 3e 7b 90 be
       0.0493745 -0.58796805 0.51635855 -0.28219026

convs.1.bn1.running_mean f4 [92]
000000 70 9a c7 bf 61 9b 0d 40 0b d1 6a c0 d4 22 5b c0
       -1.5594006 2.2126086 -3.669009 -3.4240007
000010 24 ef 3c c0 8c 94 19 40 f8 44 2b 3f 93 f7 ec bf
       -2.952096 2.3996916 0.6690211 -1.8513054
000020 c7 83 c0 3f f8 d2 f8 3f 31 c0 fc c0 89 b5 a9 3f
       1.5040215 1.9439383 -7.898461 1.3258525
000030 74 23 9c be b7 c5 88 c0 80 10 28 40 dc b5 01 be
       -0.304958 -4.274135 2.626007 -0.1266703
000040 ae fc ce c0 3e d6 2d be 7e a3 0b bf c8 72 7e c0
       -6.4683447 -0.16976258 -0.54546344 -3.9757557
000050 39 00 fe be 7b b3 ce c0 7c 3c a8 c0 b7 99 92 40
       -0.49609545 -6.459409 -5.2573833 4.581264
000060 b7 c7 00 c0 b3 84 52 c0 2c 8d e1 bf ab f4 a3 c0
       -2.0121896 -3.2893493 -1.7621207 -5.1236167
000070 2c 10 ee 3e 9d 0c c0 3f 61 9b 9b c0 62 09 80 c0
       0.46496713 1.5003849 -4.862717 -4.0011454
000080 00 b4 86 40 79 ad 01 c1 84 8d 3a c0 b4 af 40 c0
       4.2094727 -8.104852 -2.9148874 -3.010724
000090 bb 2b ec bf f5 97 00 c0 d0 37 a5 bf dc 23 e6 c0
       -1.8450845 -2.0092747 -1.2907658 -7.1918774
0000a0 3c 1f f8 bf 08 b1 8f 40 1c 8a 1c 3f 72 e1 86 c0
       -1.9384532 4.4903603 0.6114824 -4.21502
0000b0 ff ff 3f c0 c2 3e 4a 40 cd cf 10 3f 05 71 8c c0
       -2.9999998 3.1600804 0.5656708 -4.3887963
0000c0 b4 99 e4 c0 65 17 0c bf 82 6a 59 c0 0b 1e c6 c0
       -7.1437626 -0.547232 -3.3971257 -6.1911674
0000d0 c5 c7 f5 bf 04 97 c6 c0 e2 ec 01 c1 8b fd 96 bf
       -1.920159 -6.2059345 -8.120333 -1.1796125
0000e0 a1 96 b1 c0 46 82 92 bf ca a9 87 c0 5e 3f 4b c0
       -5.5496373 -1.1446006 -4.239476 -3.1757426
0000f0 3b 5c 1c c0 8d 30 2c c0 56 31 cc c0 92 cb 36 c1
       -2.4431293 -2.6904633 -6.3810225 -11.4247
000100 ea 9f e1 c0 38 5f 3d c0 be c7 d1 3f d9 3b e8 c0
       -7.0507708 -2.9589367 1.6389081 -7.2573056
000110 9c ef 43 c0 90 2c f6 c0 a1 a9 71 c0 27 fa 70 bf
       -3.0614996 -7.6929398 -3.7759783 -0.941317
000120 fe e0 4a c0 8d 71 1e c1 fb 55 05 c1 9a 3e 47 c0
       -3.1699824 -9.902722 -8.333491 -3.113196
000130 44 6f bf bf cc da e1 bf 01 16 b9 c0 ca 3c 35 c0
       -1.495583 -1.7644897 -5.783936 -2.8318353
000140 2c b1 c4 c0 bd 83 2e c0 5b 34 61 c0 8f e5 c4 c0
       -6.1466274 -2.7267907 -3.5188205 -6.1530223
000150 4f d4 87 bf db 7a 3a bf a1 f9 c3 c0 04 f0 b5 c0
       -1.0611666 -0.7284371 -6.1242223 -5.685549
000160 f0 77 1e be 9d d6 a7 c0 6e 67 a3 c0 6e 5e 4e c0
       -0.1547544 -5.244948 -5.1063757 -3.2245135
