dropout/NN/histories/d25_valid_best_params.pt (torch_old, 452453 bytes, 103 tensors)

embedding.weight f4 [46, 98]
00000000: 10aa 5a3d d9f3 21be 9461 80be 376e 033f
00000010: fd23 3e3e 4b88 8b3e e5e3 8ebf 933a c6be
00000020: 3f05 b4be 448a 833e 39eb d23e 4082 91be
00000030: e460 50be f50b 7cbe 2016 9dbd a1d9 013c
00000040: a011 ab3e e000 173f a0e5 b9bd 7ee8 863e
00000050: 2473 ddbd 07a9 5ebf 8710 4c3d f686 ffbc
00000060: ba04 863e d2fe 02bd d168 6ebe 9c86 3fbf
00000070: 0d74 dc3e 439b 1f3e dc91 8dbd 4f91 59be
00000080: d848 6f3d 0dc4 ae3d 1ad2 7e3e 2e2b 983d
00000090: 6317 7a3e 1991 163e 67bf 77be 4929 b93d
000000a0: c830 b23d 2f34 1bbf d58c cabd 4a45 17bd
000000b0: 68cc 97bd 3f6b b3be bba3 1cbe 3eaf f4bd
000000c0: 6a0e 51be 7e1b 213d 0197 653e 2f6f 9a3c
000000d0: 6beb 88be aa06 c9be 6ebb 893e 3bd7 5dbe
000000e0: e325 62be 9e37 393f 38c0 31be 42f0 73bf
000000f0: 2b96 47be fa30 42be be1a 393e dbac b13e
00000100: f89d bb3e 542c 063d 501c ae3d 64f5 9c3c
00000110: baf6 96bd 1cc6 a73d e86e c63c 481c 913d
00000120: c16f b3be 38ed 203f 7f0d 47bf d3f5 473c
00000130: 18a5 05bc 9bf7 273f ded1 64be fb22 423e
00000140: a775 53be f378 b1bd 331e e3be 4c0e 4cbd
00000150: e4ff 10bf cb86 813e bf22 373f 5dd9 8a3d
00000160: ff3c 4ebe 6301 f33b 3b70 2bbe f416 dbbe
00000170: b057 0d3f d247 85bf b2fd 4b3e af93 eabe
00000180: 827f 68bf 102f 773f 32b4 953d aac8 e83e
00000190: 3da5 26be 0427 6d3e 2bb9 883e 11c9 01bf
000001a0: 3ff7 d6be 8e2b 7e3e bc8d 6cbe 70be 3f3e
000001b0: 6218 af3e d2ad cf3d 1208 7cbf 1e63 bcbe
000001c0: c084 bcbd 6a57 62bb 7a8e 233e d9db 3abf
000001d0: 88ee b33d aabe 573e c7be 62bf e0f4 a93e
000001e0: 0ecb debd f817 d33e 28cd 0abe 8fee adbd
000001f0: 1012 6ebd 6e69 373e 9ba2 573e b1ae 85be
00000200: a97e cd3d a388 ca3e 982d 73bc 31b8 babe
00000210: bab8 3abf 7f63 c9bd f83e 833e 0a76 37bf
00000220: 5b29 d1be 86e8 9e3e 38d6 30bd e109 f33d
00000230: fbf1 32be 737c 993e 9e6b 17bd 33ed 963d
00000240: 7aa9 923e cdfe f1bd 6064 93be 8253 babd
00000250: 3a3a 3bbe fd15 16bd 3fcf ea3d c6a6 92be
00000260: f0ea 5b3e dc5b f3bd e4a1 2cbd 9512 2ebb
00000270: 3015 a53d d71f 013f bdcd aabe 4614 3d3e
00000280: 542a b33e 7fea abbe 8580 f7be c027 0c3c
00000290: 4711 9bbd e832 ae3d d0c9 ab3d 0ce5 0e3d
000002a0: b80c 8abe 5062 963d 88bd aa3d 4ec5 163f
000002b0: 66e8 ccbe e861 02be 68e5 653d bb19 1abf
000002c0: c9ec ae3e 950f a5be 4df9 02be 680f 623d
000002d0: 52f3 9abe 7560 3d3e 2fd1 49be ca1a c8be
000002e0: 80de a9bd 40bb 2a3f a5d6 afbe c22e e33e
000002f0: 9f01 bdbc 6f11 b63d 5b06 c9bf a687 463f
00000300: adea 07bf 1855 863e 4450 06bf 2394 983f
00000310: d4b0 b33d 833d d6bc 20c1 d03e b0c8 b4bd
00000320: f1fa 3c3e 9467 debe 16c6 87bf a15d 8fbf
00000330: 6ca0 53bf f544 7bbf 81f4 9d3d 6be7 073f
00000340: 7300 253f 7ada 483e b79f 833d 6082 263e
00000350: 6284 d43e c5ed 52bf beee 3ebd 1cb7 ab3e
00000360: c919 e7be 445e 1b3d 9733 c63e 129b d0be
00000370: c23d 56be 886b 2e3c e881 05bf 6732 723d
00000380: 95bc 25be d932 853e e7c8 2b3e 0577 febe
00000390: 86c1 a93d d879 16bf f463 0f3e 2419 a9bd
000003a0: c4a3 113e ff5a 103e 44cf 13bf 074b 103e
000003b0: 5414 a03e 5e04 ffbe 3d0d b53e 210c a9be
000003c0: 540f 063d af7d 043f b38e d1bb eb1b 843e
000003d0: e879 2a3e d6ec 4f3e 2926 883d 38d1 04be
000003e0: ab7e 8bbf dce5 49bf 50cc 5ebf d374 003e
000003f0: 12fb 0a3f c618 093f 776b ebbe dfb5 29bf
0.05338484 -0.15815677 -0.25074446 0.5134005 0.18568416 0.2725242 -1.1163298 -0.38716564
-0.35160252 0.25691426 0.41195086 -0.28419685 -0.20349461 -0.24613936 -0.07670236 0.007925422
0.33411884 0.5898571 -0.090770006 0.26349252 -0.10812977 -0.86976665 0.04982045 -0.031192284
0.2617548 -0.031981297 -0.23282172 -0.7481477 0.4305729 0.15586571 -0.06912586 -0.21246837
0.05841908 0.085334875 0.24884835 0.07430111 0.24422984 0.14703788 -0.24194108 0.09041078
0.087007105 -0.606265 -0.09890143 -0.036931314 -0.07412034 -0.3504276 -0.15296833 -0.11947487
-0.20415655 0.03933286 0.22420885 0.018851845 -0.2674211 -0.39262897 0.2690081 -0.21664135
-0.22084765 0.7235049 -0.17358482 -0.9528848 -0.19490878 -0.18963996 0.18076608 0.3470219
0.36643958 0.03275712 0.08501494 0.01915998 -0.07371278 0.08192083 0.024222806 0.07085472
-0.350462 0.6286197 -0.7775497 0.012204605 -0.008157037 0.6561219 -0.22345683 0.18958656
-0.2065035 -0.08665647 -0.44358978 -0.049818322 -0.5664046 0.2529815 0.71537393 0.0677974
-0.20140456 0.007415937 -0.16742031 -0.4279095 0.55211926 -1.0412543 0.19920996 -0.458158
-0.9081956 0.96556187 0.0730976 0.45465595 -0.16273971 0.23159415 0.26703772 -0.5069743
-0.4198551 0.24821302 -0.23100942 0.1872499 0.3419829 0.101405755 -0.98449814 -0.3679437
-0.092050076 -0.0034536966 0.15972319 -0.7299171 0.087857306 0.21068826 -0.88572353 0.33194637
-0.10878573 0.41229224 -0.13554823 -0.08492767 -0.058122694 0.17911312 0.21058123 -0.2610984
0.10033924 0.3955737 -0.014842413 -0.36468652 -0.7293812 -0.098334305 0.2563398 -0.7166449
-0.40851864 0.31036776 -0.043173045 0.118671186 -0.1747512 0.2997776 -0.036967866 0.07369461
0.28644925 -0.118161775 -0.28787518 -0.09097959 -0.1828393 -0.036642063 0.1146531 -0.28642863
0.2147634 -0.11882755 -0.04214658 -0.0026561369 0.08060682 0.5043921 -0.3336009 0.18464765
0.3499323 -0.33577344 -0.4834024 0.008554399 -0.07571655 0.08505803 0.08388102 0.034886405
-0.2696283 0.0734297 0.083369315 0.58894813 -0.40021056 -0.12732661 0.056126982 -0.6019551
0.34165028 -0.3223845 -0.12790413 0.055190474 -0.30263764 0.18493827 -0.19708703 -0.39082938
-0.08294392 0.6669197 -0.34343448 0.4437161 -0.023072062 0.08890044 -1.5705065 0.77550733
-0.5309246 0.26236796 -0.52466226 1.1920208 0.08773962 -0.026152378 0.40772343 -0.088273406
0.18455102 -0.434384 -1.0607326 -1.1200448 -0.8266666 -0.98152095 0.07712651 0.5308749
0.6445381 0.19614592 0.064269476 0.16260672 0.4150725 -0.8239406 -0.0466144 0.3353814
-0.4513686 0.037931696 0.38711235 -0.4074331 -0.20921996 0.010645755 -0.52151346 0.0591301
-0.1618522 0.26015356 0.16775857 -0.4970018 0.08288865 -0.5877967 0.14002973 -0.08256748
0.14222628 0.14097212 -0.5773814 0.1409112 0.3126551 -0.4980802 0.35361663 -0.33017066
0.03272946 0.5175428 -0.006395185 0.2580255 0.16648066 0.2030519 0.066479035 -0.12970436
-1.0898031 -0.7886636 -0.87030506 0.12544565 0.5428935 0.53553426 -0.45980427 -0.6629314

embedding.bias f4 [46]
00000000: bde3 2bbe 2b70 a5be d7ea c7be 1ef4 9fbe
00000010: 09ca aebe 11be 2bbf 2bf6 363d 0b4b 5bbe
00000020: 4077 b3be 5d9f 3fbe 0075 26bf 8aa4 aebe
00000030: e7ff adbe 8190 d6be 2fa1 14be 200d 4bbe
00000040: e6b9 93be bbc4 7cbe 3a04 19be e995 5abe
00000050: c49c 26be 6bb1 a2be 3ccd febe 4012 fcbe
00000060: 8103 7cbe 46be 8dbe fa51 67bf 7d18 adbe
00000070: a3e3 fcbe af6c a8be fdf1 8dbe 03b2 db3d
00000080: 032d 2f3e 3500 92be 5391 cbbe 359c efbe
00000090: 4839 b4be 4090 13bf bf11 e7be 5459 453c
000000a0: f8ef 2ebf bb48 edbe 2df9 da3d cbcb c6be
000000b0: bab4 2cbf b380 e3be
-0.16786094 -0.3231214 -0.39046356 -0.31240934 -0.34138516 -0.67086893 0.044668358 -0.21415345
-0.35051918 -0.18713136 -0.6502228 -0.34109908 -0.339843 -0.41907123 -0.14514612 -0.19829226
-0.28852767 -0.24684422 -0.14943019 -0.21346249 -0.16270739 -0.31775984 -0.49765956 -0.49232674
-0.24610712 -0.2768423 -0.9035946 -0.33807746 -0.49392423 -0.3289542 -0.27723685 0.107273124
0.17107014 -0.28515783 -0.3975931 -0.46798864 -0.35199952 -0.57641983 -0.45130727 0.012045223
-0.68334913 -0.4634455 0.10692058 -0.38827357 -0.67463267 -0.44434127

convs.0.fc_full.weight f4 [92, 98]
00000000: 2d54 44bf b238 243e f9b8 6dbd 5f02 75bf
00000010: 78ea 8cbe 9aef 2cbf d15c 2f3e ac7a f3bc
00000020: 2b4b c53e 5bfb d23e fd20 983f bce7 13bf
00000030: f5f4 773e a77b 23bf 9a85 853e a219 84be
00000040: b99c 323e 5220 72be b2f0 a73d 4ea3 18bf
00000050: 236a adbe ad72 3a3f 1d51 543e 4924 213d
00000060: bbb6 713e b09b 163e 3007 0abd c2de 1f3e
00000070: 69cd 9b3e c330 aabc da93 91bd 3660 473e
00000080: 23bd b4be 2ad6 923b 6d5d c8be 51ea babd
00000090: 0a7e 903e 24c3 7a3d 7de7 92bc bb83 51bf
000000a0: d375 26be 79c9 3ebe f5ff fc3e 8eab 1f3f
000000b0: a7af 493f be48 633f 64d8 2ebf 38f6 3a3f
000000c0: 5318 603e c9c9 26bf c5d8 993e c2b1 e93d
000000d0: 8229 4dbf 786e 913c 794b 4b3f 0615 503e
000000e0: 3cf4 e8bd 0b15 19be edb7 e83e 035c dbbf
000000f0: 8716 203e ccbe 0a3e b1ea 02bf 112f 5dbb
00000100: ebdb 203e cc77 f23e 69ff 78bf 2733 d03e
00000110: 4597 013f 1fdc e53e 0250 49bf f207 89be
00000120: 2c8e 433e 3fa0 673f 41f1 763e c724 fabe
00000130: 0e27 523f c867 373e b419 05bf c194 25be
00000140: 4fb6 64bf b874 54bf daaf b9be e498 10bf
00000150: cf00 b8be c12a 853e ef88 93bf 3201 f03e
00000160: 82a5 4f3f 9219 f2bd f09a e1bc 8535 b83e
00000170: 73c5 c1be eb7f 69be 53bf 00bf c620 b6bf
00000180: ffe4 073f f087 9b3f 9973 07bf 4f50 76bf
00000190: 12d1 223f c6c5 0a3e 22c4 963e 4c5c d0be
000001a0: 51c1 cdbe e021 013e 283c d7bd cc78 eb3e
000001b0: c3d6 423e 495e e4be 4433 f73d 2324 92be
000001c0: 9281 2c3e 359b 653e 174f 003e c724 a3be
000001d0: c1e2 e2bd 6801 efbe c2e5 43bf b881 963f
000001e0: a90e f2bd 30e0 84bf 3ce7 ec3e 4e0f d73d
000001f0: 1131 15bf 38c1 093f 4a86 bdbd 20f0 72bd
00000200: 4336 ac3a d92f 033f f03d c83e 7111 67bf
00000210: 952b 513e 7f3c 073f eb4a 2d3f 1bb8 1fbf
00000220: 82b2 a03e 674a 1fbd c16f b1bd 2b95 03be
00000230: 4f63 593f 9d5c 29be f054 873e ad33 f5bd
00000240: 7545 67be 8d92 1fbf 790a bcbd fec0 2f3f
00000250: f0c2 1a3e 9324 ff3e 385a f13b 04ff e43c
00000260: 9deb 713f e0fe 773f 73e0 f7be c550 993e
00000270: cb29 88bf 447a d0be dc62 f43d e9cd 093d
00000280: ddde d1bc fd1d 2dbf 6b81 423f da12 643f
00000290: 0006 eabe f499 86bd e845 cfbd 9b51 043e
000002a0: 5da8 1ebf e310 2ebe a642 f6be 6ef7 e03d
000002b0: 74e3 b23e b65f 293f f7f8 3d3f 148a 78bd
000002c0: 746c cbbd 0185 c63e 2392 77bf 5161 3d3e
000002d0: 082a ab3e 1134 7bbd ddde bebd 4ccc 013f
000002e0: fa27 87bf cf36 253d dce6 9d3e 766f 1abf
000002f0: d9f5 a43c 7fe4 3b3e 2f2c 9abf 15ff 2fbf
00000300: 8010 b43f f93b d23f 5f1e 5f3e 2c26 cbbc
00000310: 2f51 13bf 4063 46bf 0ee7 e6be 6261 b73f
00000320: 08c7 b63e e689 f03e c86e 8e3f 3b6e 91bf
00000330: 925a 9c3e e7d9 303e c22a 55bf 524f 453e
00000340: 915b 01bf ddee f5be fe13 bb3e ae1e 023d
00000350: 93d9 f33e b71a 11bf 1f45 a1be 6005 5bbe
00000360: babe 80bf 8767 9bbb b523 313f 1aac 05be
00000370: 19bb f2be 9dbd 533f 055b 8dbe 7569 823f
00000380: 7093 a8be 8b9d 02be af7d e8bd ee75 14bf
00000390: 7cd6 98be cac6 923f 5195 723e 5dcf 98bd
000003a0: f476 17be c8dc 05bf 1260 29be 609f 543e
000003b0: ccd6 e03d ce9b a43f e6b7 43bd 8c81 15be
000003c0: cbd3 71bf 8648 fa3e ddc4 cdbe 918e 803f
000003d0: 4d7d a2bd 67ea 643f 8d88 763d c7c8 07bf
000003e0: cb17 0cbf d48a ac3e 4666 d33e b9fd 203e
000003f0: aaf8 243f 484c cabd 0ce6 6dbf ac2b 673e
-0.7669094 0.16037253 -0.05803773 -0.95706743 -0.27522635 -0.675531 0.1712525 -0.02972158
0.3853391 0.41207394 1.1885067 -0.57775474 0.24214537 -0.63860554 0.26078492 -0.25800806
0.17442597 -0.23645142 0.08200206 -0.59624183 -0.33870038 0.7283123 0.20734067 0.039341245
0.23604862 0.14707828 -0.03369826 0.15612319 0.30430153 -0.020775205 -0.071082786 0.19470295
-0.3530055 0.0044810968 -0.39133778 -0.091267236 0.2822116 0.061221257 -0.017932648 -0.8184163
-0.16255884 -0.18631543 0.4941403 0.62371147 0.7878365 0.8878287 -0.68298936 0.7303195
0.21884279 -0.6515165 0.30048195 0.11410858 -0.8014146 0.01775287 0.7941204 0.2032052
-0.11374709 -0.14949434 0.45452824 -1.7137455 0.15633593 0.13549346 -0.5113936 -0.0033749978
0.15708892 0.47357023 -0.97264725 0.40664026 0.50621444 0.44894502 -0.7863771 -0.26763874
0.19097203 0.9047889 0.24115469 -0.48856184 0.8209084 0.17910683 -0.51992345 -0.16170026
-0.8934068 -0.829906 -0.36266977 -0.5648329 -0.35938117 0.2600918 -1.1526164 0.46875912
0.8111192 -0.118212834 -0.0275397 0.35978332 -0.37845954 -0.22802703 -0.5029194 -1.4228752
0.53083795 1.215086 -0.52910763 -0.9621629 0.63600266 0.13552007 0.29446512 -0.40695417
-0.4018655 0.12610579 -0.10509521 0.45990598 0.19027238 -0.44603184 0.12070325 -0.28543195
0.16846302 0.22422488 0.1253017 -0.31863996 -0.11078406 -0.4668076 -0.7652246 1.1758337
-0.118192025 -1.0380917 0.46270168 0.10500966 -0.58277994 0.53810453 -0.09254129 -0.059311032
0.001313873 0.51244885 0.39109755 -0.9026099 0.20426781 0.52826685 0.6769244 -0.623903
0.3138619 -0.038889315 -0.086638935 -0.12849872 0.8491716 -0.16539235 0.2643199 -0.11972747
-0.2258509 -0.62332994 -0.09181685 0.6865386 0.15113425 0.4983259 0.0073654912 0.027953632
0.9450014 0.96873283 -0.4841343 0.29944435 -1.0637754 -0.4071828 0.119329184 0.033643637
-0.025618965 -0.67623883 0.75978726 0.89091265 -0.45707703 -0.06572333 -0.101207554 0.12921755
-0.6197565 -0.1699863 -0.48097724 0.109846935 0.34939158 0.6616167 0.74208015 -0.060678557
-0.09932795 0.3877335 -0.9670736 0.18494155 0.33430505 -0.06132895 -0.093198515 0.5070236
-1.0559075 0.040335473 0.30840194 -0.60326326 0.02013676 0.18348883 -1.2044734 -0.687486
1.4067535 1.6424552 0.2178893 -0.024798475 -0.5754575 -0.77495193 -0.45098156 1.4326594
0.35698724 0.46980208 1.1127558 -1.1361765 0.3053785 0.17270623 -0.8326837 0.1926854
-0.50530344 -0.480338 0.3653869 0.03176754 0.47626933 -0.5668139 -0.31498048 -0.21388769
-1.0058205 -0.004742566 0.6919511 -0.13053933 -0.4740837 0.827112 -0.27608505 1.0188433
-0.32924986 -0.1275541 -0.11352097 -0.57992446 -0.2985114 1.1466916 0.23689772 -0.074614264
-0.14791471 -0.5229001 -0.16540554 0.20763922 0.10978469 1.2860048 -0.0477828 -0.146002
-0.94463795 0.48883456 -0.40189257 1.0043508 -0.079340555 0.8942017 0.06018882 -0.53040737
-0.54723805 0.33699667 0.41288966 0.15721788 0.6444193 -0.09877831 -0.9292915 0.22575253

convs.0.fc_full.bias f4 [92]
00000000: ecc0 00bc 1d41 c23d d449 1abc a41e 923d
00000010: 9ee8 97bd 201b 38bd 36b8 0bbd f28a 08bc
00000020: 081f 20bc dcfe 3c3e 56bb 8dbd f14e c73c
00000030: 0778 143d 6bca 433d 00a2 87bd b0bd 773c
00000040: 656a 01be dca7 72bb bbd1 283d 875b 8bbe
00000050: 4ef3 0e3e 0b43 0bbd e89d 9c3c 8ba8 27bd
00000060: f072 58bd 0145 cbbd e8a9 913d 17bd babb
00000070: fcaf 84bd 247f 06be 058a 0fbd ffb5 0c3d
00000080: 686b 283e 9289 93bd 6ebd 263d 2171 973d
00000090: 548e f03d d8cf 483c e3d9 69bc 4b37 9a3d
000000a0: bb42 c03d f815 1bbd bb17 0cbd 793d 1ebd
000000b0: 406f 2fbd d31c d43d c0ed 4e3c b1a3 e23d
000000c0: 164d 4fbd c7c6 68bb 260f af3d 48dd 59bb
000000d0: a4c8 ba3d 3166 d9bd 3a68 4f3b 818f cdbd
000000e0: 6f21 513d f9c0 ac3d b59e 443d aea9 b13c
000000f0: 6ea5 163d df8b e8bc a3d0 fbbd e145 4bbd
00000100: 58ce 323d d4a7 953d e957 95bd ade2 8dbc
00000110: a6d6 45bd 116d b7bd 7b3c 2b3d 3136 8b3d
00000120: 44fa 733d c671 69bd ff17 813d 71d3 17bb
00000130: 3f5c 303d df08 2fbd 97c8 9d3e d115 8cbd
00000140: c090 bfbd 5711 a6bb 95a9 573d 8d97 cebd
00000150: 60b6 72bd 7561 0e3c e7c3 5e3d 5159 abba
00000160: ee99 c4bd d7ff fd3d a491 a73d d6df 2bbd
-0.007858496 0.094850756 -0.009417016 0.071347505 -0.07417415 -0.044947743 -0.034111224 -0.008333908
-0.009773023 0.18456596 -0.06920497 0.024329634 0.03624728 0.047800463 -0.06622696 0.015120909
-0.12638243 -0.0037026322 0.04121564 -0.27218267 0.13960001 -0.033999484 0.019118264 -0.04093222
-0.052843988 -0.09925271 0.07112485 -0.005698811 -0.06478879 -0.13134438 -0.035043735 0.034353253
0.16447222 -0.07203974 0.040707998 0.073946245 0.11745897 0.012256585 -0.01427314 0.075300775
0.09387728 -0.037862748 -0.03420232 -0.038632844 -0.042830706 0.1035706 0.012629926 0.11066378
-0.050610624 -0.003551887 0.08547811 -0.0033243466 0.091203004 -0.106151946 0.0031647817 -0.10037137
0.051057275 0.08435244 0.048002917 0.021687355 0.03677886 -0.028387008 -0.12295654 -0.04962719
0.043653816 0.07307401 -0.07292158 -0.017320001 -0.048300408 -0.0895635 0.041805726 0.067974456
0.059564844 -0.05699327 0.06303405 -0.00231668 0.043056723 -0.04273307 0.308171 -0.06840099
-0.09353781 -0.005067985 0.05265196 -0.100875 -0.059255958 0.008690228 0.054386046 -0.0013072883
-0.09599672 0.12402313 0.081820756 -0.041961513

convs.0.bn1.weight f4 [92]
00000000: 2266 1840 ecb6 0b40 4246 1640 1541 3440
00000010: 3d25 cb3f 74b0 883f 3de6 0040 4788 0940
00000020: ed8d 2040 f935 4040 e82f a63f af5d 0e40
00000030: 713f 7d40 50ad 0d40 95b3 4e40 a9d8 1540
00000040: 5fc7 2f40 3fce 4c40 cdd7 3340 5708 2040
00000050: c5b4 5340 adee 823f 5d30 1d40 d423 3f40
00000060: 4b5c d93f 2ccb 6b40 b964 753f 6edb 2a40
00000070: fc1e 4a40 3c97 0440 9491 2140 7570 e13f
00000080: de6e b33f ab5a 683f 1bb6 3640 a68d 6340
00000090: cf96 5a40 0af0 e73f b8bb 5140 b39d dd3f
000000a0: cb6f 413f a179 5940 e34f fb3f c7e3 8240
000000b0: b743 2940 c4ab cc3f 1681 cb3f 32b3 1b40
000000c0: dedc 5740 2c10 c83f c7ad 8c3f ecae 1040
000000d0: 413f 0140 0857 fc3f 1b36 693f 17d6 d43f
000000e0: 905c f93f a9b4 823f c6bc 5b40 332c f83f
000000f0: 56ea 4740 6548 e83f c219 9f3f 1279 5b40
00000100: 5cb0 cf3f 20be 0940 07fb 7f40 25ff 0f40
00000110: f0b1 2940 957d 1340 4ccf f43f d8b6 013f
00000120: a01d 773f 7249 f93f 90c1 ea3f eae4 0640
00000130: ec6f ae3f 4408 9040 dcea 1c3f a2a9 8540
00000140: 37fd 1e40 a2e9 5f3f 2124 0840 c417 fc3f
00000150: c0c2 fb3f ea87 a03f b80d 613f bc6e 633f
00000160: 28cc 9a3f 20e8 d13f 7fad e03f 7df9 e23f
2.3812337 2.1830397 2.3480382 2.8164723 1.5870739 1.0678849 2.0140526 2.1489427
2.5086625 3.0032942 1.298337 2.224468 3.9569972 2.2137032 3.2297108 2.341349
2.7465436 3.2000883 2.8100464 2.500509 3.3079083 1.0229088 2.4560769 2.9865618
1.698129 3.6842756 0.95856816 2.669643 3.1581411 2.0717306 2.5245104 1.7612444
1.4018209 0.9076335 2.8548648 3.5555205 3.4154546 1.8120129 3.2770824 1.7313751
0.7556121 3.3980486 1.9633754 4.090305 2.644758 1.5989919 1.5898769 2.4328122
3.3728557 1.5629935 1.0990533 2.2606764 2.0194857 1.971406 0.91098183 1.6627835
1.9481373 1.0211383 3.4333968 1.9388489 3.1236777 1.8147093 1.2429736 3.4292645
1.6225696 2.1522293 3.9996965 2.2499478 2.6514854 2.30454 1.9125762 0.5066962
0.9652958 1.9475539 1.834032 2.1077218 1.3627906 4.501009 0.61295867 4.176957
2.484205 0.8746587 2.1272051 1.9694753 1.9668808 1.2541478 0.8791156 0.8884084
1.2093554 1.6398964 1.7552947 1.7732388

convs.0.bn1.bias f4 [92]
00000000: 557d df3b a35a 6f3e 0546 e03e 8a48 a33d
00000010: f52a 56be 8e76 85bd eb12 b13e c0de d53e
00000020: 3144 d33e d006 14bc d6e2 533e 6666 41bf
00000030: 6fd4 833e 6a85 843e 767c 92bd 3fa1 10bf
00000040: 51f5 1bbe 9527 013e 06e3 83bd 4d93 033e
00000050: 1148 29be 31d2 0abe ed68 543e a448 e53d
00000060: 74d4 83bb e6d5 103f 7768 0bbf 8a56 2cbe
00000070: 6617 f4bc 21f8 1fbe 85ae 50bf 735e 06bf
00000080: 1a58 0dbf 3c63 6c3d ee13 963e 2301 9f3e
00000090: 6567 58bf dfcb 303a ed94 263e b371 ee3e
000000a0: 8d8f 8bbe ba3f cabf 08b7 733e 1c89 3bbe
000000b0: fdb6 15be 8fd9 44be 1bb5 393f b1f0 853e
000000c0: 1e03 f53a 174b 1dbe 0682 b9be 0ec0 13be
000000d0: f60e 36be 79b8 5bbe 8e68 1a3f b3c5 893e
000000e0: 99ea 09bd 5dd0 36bf 3d00 9c3d fec5 e13c
000000f0: 7246 83bd 284e efbe 8c02 0abf 6481 f93d
00000100: 5d13 b5be 06d5 453e b402 873d e4f4 14be
00000110: b0bc d93c 3b1e 9abd c189 ee3d b2b7 753f
00000120: 1254 4dbf c049 703e 25d5 cbbe 28db 433e
00000130: ef45 5a3d 0af4 0a3d a391 54bf caa1 6c3d
00000140: da93 873e 8d8a 483f e09f 053f aea9 b03d
00000150: 3b45 313e e41b 873e 7ed8 c9be b671 37bf
00000160: 1536 093f 9614 273f 6802 91be a899 fabc
0.0068203607 0.23374419 0.4380342 0.0797282 -0.20914824 -0.06516753 0.34584746 0.41771507
0.41262963 -0.009034827 0.20692 -0.7554687 0.2574801 0.25883037 -0.07152645 -0.5649604
-0.152303 0.12612756 -0.06439786 0.1284916 -0.16531397 -0.13556744 0.20743151 0.11195496
-0.004023129 0.56576383 -0.54456276 -0.16829887 -0.029796313 -0.15621997 -0.81516296 -0.5248787
-0.5521256 0.057711825 0.2931208 0.31055555 -0.8453277 0.00067442463 0.16267748 0.4657112
-0.27257958 -1.5800698 0.2380029 -0.18314022 -0.14620586 -0.19223617 0.7254197 0.26160195
0.0018692946 -0.15360676 -0.36232013 -0.14428732 -0.17779145 -0.2145709 0.6031579 0.26908645
-0.033670995 -0.7141169 0.07617233 0.02756023 -0.06409921 -0.46739316 -0.53910136 0.121828824
-0.35366336 0.19319543 0.065923125 -0.14546543 0.026579231 -0.07525297 0.11647368 0.9598342
-0.80206406 0.23465633 -0.39811054 0.1912657 0.05328935 0.03392414 -0.83034724 0.05777148
0.2647999 0.7833641 0.52197075 0.08626114 0.17311566 0.26388466 -0.39422983 -0.71657884
0.5359815 0.65265787 -0.28322148 -0.030590847

convs.0.bn1.running_mean f4 [92]
00000000: 66ee 6dc0 e64c 303d d15e b2c0 ba8a 1d40
00000010: 5b47 2f3f b0ef 01c1 4d31 95c0 7b55 2241
00000020: d63c 1141 718d cbc0 e709 5241 df61 b040
00000030: 313a aa40 8eb1 0ec1 304c edc0 9ae1 efbf
00000040: 50ed 30c0 369e 3e40 7e62 d13b 3872 3541
00000050: 48c8 3841 c343 6940 95b8 ca40 1257 a6bd
00000060: f74b dcc0 1d28 1cc0 8bb1 c8c0 7a72 6240
00000070: 78f1 95c0 761a 49c1 4eb2 bb40 facf 4b41
00000080: 709c 323f 1669 9840 c91e a0c0 efff 99c0
00000090: 1480 2cc1 d68c 7f40 9a11 9440 f6f3 f33f
000000a0: f857 3541 e91c 2fbf fdbe c640 6c49 2e40
000000b0: 0b69 443f 631d 76c1 4bc0 2ac1 dc85 7940
000000c0: 3a69 32c0 80ed 3ec0 b252 b5c0 515c 683f
000000d0: 3b46 c9be 19cc 863f f035 3a41 a465 4240
000000e0: 6d8b ea40 b444 8d40 74bd 033f 561d 1bc1
000000f0: fbd5 6940 ab3d e140 d08b 5ec0 39b3 713e
00000100: 0cda 86bf 182e c940 4456 20c0 3934 5f40
00000110: b652 3241 6662 fbc0 ea6c cfc0 9011 bfbc
00000120: f834 2f40 f927 f540 71ba 11c1 63d3 ea3f
00000130: ab22 b6c0 efb0 39c0 ac90 15c1 f855 d8c0
00000140: 88e9 93c0 0817 b2c0 c63b f740 946d 0cc0
00000150: 6e7c b240 7433 6040 09ce 38c1 afc7 9cc0
00000160: 81b9 5ac0 9b3b dc40 6bc4 d83f 64b5 9bc0
-3.7176757 0.043042086 -5.5740743 2.4615922 0.68468255 -8.121017 -4.662268 10.145869
9.077353 -6.361016 13.127418 5.511947 5.3196034 -8.918348 -7.41555 -1.8740723
-2.7644844 2.9784064 0.006389915 11.340385 11.548897 3.6447608 6.335032 -0.08122076
-6.884273 -2.4399483 -6.2716727 3.538237 -4.685726 -12.56896 5.8655157 12.738276
0.69769955 4.762828 -5.003758 -4.812492 -10.781269 3.992971 4.6271486 1.9058826
11.333977 -0.6840349 6.210814 2.7232313 0.7672278 -15.3821745 -10.671947 3.8987951
-2.7876725 -2.9832458 -5.6663446 0.90765864 -0.39311394 1.0531036 11.638168 3.0374537
7.3295197 4.4146366 0.5146096 -9.694662 3.6536853 7.038778 -3.4772835 0.23603524
-1.0535293 6.2868767 -2.5052652 3.4875624 11.145193 -7.8557615 -6.482045 -0.023323804
2.737608 7.6611295 -9.108018 1.834576 -5.691732 -2.9014242 -9.34782 -6.760494
-4.622257 -5.5653114 7.7260466 -2.194188 5.577689 3.5031404 -11.550302 -4.8993754
-3.4175723 6.882276 1.6934942 -4.8658924

convs.0.bn1.running_var f4 [92]
00000000: 2329 1743 4a53 0e43 f569 d142 7ad6 0143
00000010: 6c97 0a43 8bb0 d342 fef6 0743 9fcf f842
00000020: 1da5 1643 5458 fd42 a6fe 0b43 24a9 0b43
00000030: 2f25 b542 662b c942 f1a1 0c43 9383 1c43
00000040: 965a 2843 a878 c642 d63c d842 5fc4 0543
00000050: dcd7 3143 6b82 f342 9243 fe42 f750 0743
00000060: 7844 df42 9702 0b43 38a7 df42 e9d5 d842
00000070: 0a0b ea42 42fc 2543 b7e8 9a42 7c40 1f43
00000080: 2096 de42 9298 3a43 d678 2b43 f3f8 2743
00000090: ce4a b242 c7b3 d642 14b4 6a43 d5e3 0143
000000a0: 26e6 d042 8f73 1742 c8a1 f142 afd2 c442
000000b0: 1e1f 2943 9133 0843 6efd f742 3094 2943
000000c0: 51da 1e43 8ab2 e442 0956 b042 e60d e042
000000d0: a7f7 0943 3245 0143 05d2 4343 77db 1643
000000e0: c088 1b43 3459 3543 3fbe 9c42 fdaf 0743
000000f0: c9be 0043 5488 1443 a726 1a43 68a1 0b43
00000100: 9461 4c43 220f 0d43 a29c 1443 967c f342
00000110: 6972 1643 108d c142 3eab d942 975d 1043
00000120: c547 9942 2758 1a43 67f2 fb42 c5a5 f742
00000130: 620e c342 8728 b842 eb7b a242 bfbb 1043
00000140: d5d6 7143 bcb4 0e43 b7db d042 4ae4 ed42
00000150: cc77 0543 d87b 0443 d205 8442 a3b4 8542
00000160: 14f9 dd42 6217 da42 a07d 6343 2b94 2043
151.16069 142.32535 104.70695 129.8378 138.59149 105.84481 135.96481 124.40551
150.64497 126.672516 139.99472 139.6607 90.572624 100.58476 140.63258 156.51396
168.35385 99.23566 108.11882 133.76707 177.8432 121.75472 127.13197 135.31627
111.63373 139.01012 111.8266 108.41779 117.02156 165.98538 77.45452 159.25189
111.29321 186.59598 171.47202 167.97246 89.1461 107.35113 234.70343 129.88997
104.44951 37.86285 120.81598 98.41149 169.12155 136.20143 123.99498 169.57886
158.8528 114.34871 88.16804 112.027145 137.96739 129.2703 195.82039 150.85728
155.53418 181.34845 78.371574 135.68745 128.74525 148.53253 154.15099 139.6305
204.38116 141.05911 148.61185 121.74333 150.44691 96.77551 108.83446 144.36559
76.640175 154.34435 125.97344 123.82377 97.52809 92.079155 81.24203 144.73338
241.83919 142.706 104.42913 118.94588 133.46796 132.48376 66.01137 66.852806
110.98648 109.04567 227.49072 160.57878

convs.0.bn2.weight f4 [46]
00000000: 4a3a 7a3f 9faa 5b3f 692c c73f a767 a43f
00000010: 7b17 b13f d68e b43f 263b 663f 1470 633f
00000020: 97f7 a93f 68d6 9c3f 005c b13f d001 943f
00000030: 1ae9 b73f cd68 5b3f 09aa b93f fc8f 0040
00000040: ae88 b83f 27f6 9b3f 6bf2 903f cb64 b63f
00000050: b536 f03f cd8b 0640 6145 883f df1b 7e3f
00000060: e252 b13f 9b8d 753f a0fc c83f 0d59 bd3f
00000070: 4ca6 7b3f 829a 7a3f c90e 9f3f 2bac 9a3f
00000080: 8a08 cb3f 8dad 703f f670 5e3f d9ef 9e3f
00000090: a622 953f 4f23 a53f e12f 8a3f 2571 1b3f
000000a0: 3b0f 7b3f 30d0 1b40 f10c a03e 6f07 963f
000000b0: cf2d c53f 7e73 843f
0.9774519 0.8580722 1.5560428 1.2844132 1.3835291 1.410609 0.89934003 0.8884289
1.3278683 1.2252932 1.3856201 1.1563053 1.4368012 0.8570679 1.4505016 2.008788
1.4416711 1.2184495 1.132398 1.424951 1.8766695 2.1022828 1.0646173 0.9926128
1.3853419 0.959192 1.5702095 1.4792801 0.98300624 0.9789201 1.2426387 1.2083791
1.5861981 0.9401482 0.86891115 1.2416946 1.1651199 1.29014 1.0795861 0.6071952
0.98070115 2.4345818 0.31259874 1.1721019 1.5404605 1.0347745

convs.0.bn2.bias f4 [46]
00000000: 2fde e9bd dea2 b9be a02d b6be 8b91 9bbe
00000010: ba77 c5be 3f27 30bf 1d91 d43c 3262 5abe
00000020: f624 d6be 9a85 72be d177 1fbf 1193 ddbe
00000030: ac87 86be 8f43 ccbe b3e3 6ebe 5a8f 4fbe
00000040: a8e1 bebe 59b2 1cbe 50d0 50be 9f62 edbd
00000050: 28f7 2dbe 2faa c5be 4394 f6be 31cb c8be
00000060: 80bf 6cbe 04f6 52be 6cda 52bf 2564 bbbe
00000070: b771 0bbf 7633 b3be 960a c0be 73ab d83d
00000080: 1892 2c3e 7ba2 92be 5bf1 d2be 57e1 edbe
00000090: 3e60 bebe f993 09bf eb44 c3be 5fbd 97bd
000000a0: 6dc2 1fbf 89b3 c5be 4a4c 5d3d a4c2 afbe
000000b0: 3d1f 17bf 6c1d 04bf
-0.11419331 -0.3625707 -0.35581684 -0.30384478 -0.38567907 -0.68809885 0.025948102 -0.21326521
-0.41825074 -0.23683777 -0.622922 -0.43276265 -0.26275384 -0.39895293 -0.23329048 -0.20269528
-0.37281537 -0.15302409 -0.20391965 -0.11591076 -0.16988814 -0.38606402 -0.4815999 -0.39217523
-0.23119926 -0.2060166 -0.82364535 -0.36599842 -0.5447039 -0.350002 -0.37508076 0.10579576
0.16852605 -0.28639588 -0.41199765 -0.46460983 -0.37182802 -0.53741413 -0.38138518 -0.074091665
-0.62406045 -0.38613537 0.054027833 -0.34328187 -0.5903204 -0.51607394

convs.0.bn2.running_mean f4 [46]
00000000: 27a7 0f41 6fb8 1b41 94a6 5b41 f20c 8340
00000010: 484b ab3f 32e5 b740 e5a3 a840 7a99 9940
00000020: b85d d740 b46c d740 ea79 e540 bcf2 863f
00000030: ac07 4e41 59a6 0141 5f17 db40 03fb 9040
00000040: c064 1640 2f9c 4341 8573 9140 65c5 fe40
00000050: 8c35 5341 ea5e c940 dfe7 1c41 e324 ea40
00000060: 4e94 c340 512a d040 ed7c 7d3f 4d31 0f41
00000070: ccb9 9a40 5f37 f840 40ae 5540 faed 1241
00000080: 1616 6b3e 7b79 5541 cdcd 2b41 7f44 e840
00000090: 5bc8 3b40 6323 dd40 e0f8 f440 71db a840
000000a0: 8f1d 5c3f 6d25 2d3f 79e6 c740 75ca fd40
000000b0: 8fd6 b140 908a ae40
8.978309 9.732528 13.7281685 4.09533 1.3382349 5.746728 5.2700067 4.799985
6.7301903 6.7320194 7.171132 1.0542827 12.876873 8.103112 6.846603 4.530641
2.3498993 12.225631 4.5453515 7.961596 13.200573 6.292836 9.806609 7.317003
6.1118536 6.5051656 0.99018747 8.949536 4.8351803 7.756759 3.3387604 9.1831
0.22957644 13.342158 10.737744 7.2583613 2.9341037 6.9105697 7.6553802 5.2767873
0.859826 0.6763523 6.246884 7.930964 5.557441 5.4544144

convs.0.bn2.running_var f4 [46]
00000000: 07cb e742 7ce2 f942 df19 9b43 0320 7942
00000010: 1232 3441 cbc9 3942 1448 a142 bda0 fc41
00000020: 2857 cc41 670b 7a42 31ec 9f42 dcee bd40
00000030: 98da c543 9ecc dd42 81e3 0443 0bf7 1742
00000040: 67d8 7441 9b3c 8f43 4bcc 0e42 070a 0b43
00000050: 1b6e 6a43 6a1d 7c42 b573 fb42 af18 0643
00000060: d6fd be42 a9d8 7d41 45c7 3540 219e ff42
00000070: feb8 8d42 8d75 b142 d4e5 7542 61fc 2543
00000080: 6e57 b43e f749 c943 997e 4243 8da5 1042
00000090: 2598 5f42 5dec c042 a85e c842 11dd 3c42
000000a0: 06d8 b940 e667 d53f 8e1c 5342 63fb d842
000000b0: 68ed 2d42 3346 b642
115.89654 124.94235 310.20212 62.28126 11.262224 46.447063 80.64078 31.578485
25.542557 62.511135 79.96131 5.9354076 395.70776 110.89964 132.88869 37.991253
15.302833 286.47348 35.699505 139.03917 234.4301 63.028725 125.72599 134.09642
95.49577 15.865396 2.8402874 127.808846 70.86131 88.72959 61.47444 165.98586
0.35222954 402.57785 194.49452 36.16167 55.89858 96.46165 100.184875 47.215885
5.80762 1.6672332 52.777885 108.49099 43.481842 91.13711

convs.1.fc_full.weight f4 [92, 98]
00000000: fa10 993d c834 7f3e 51ae 08bf ddb2 973e
00000010: 744f 963d d509 a4be b6dc b53d d504 1abf
00000020: 2627 12bd 68c5 85bf 6b7f 41be 6019 10bf
00000030: b149 35be 93ae c4be 56f3 933c a0b0 3cbe
00000040: 348a 29bf 4aec bfbe cbc5 d93e 164c 1f3d
00000050: 5307 3e3e b7c8 99be dc63 243e 65c1 413e
00000060: 5601 503f 22f6 4cbe 989c 8dbe 8bc2 a53f
00000070: 04de 4f3e dac7 853e 1c33 c1be d085 0d3e
00000080: b2c7 a5be 8f96 e2bd a1bb e63e f494 d9be
00000090: 50c7 41bc 361f d13d 4230 a63d 2bc7 e8bd
000000a0: 84e1 c7b9 fee4 c23e b8bd bf3e 857e a93e
000000b0: 6bce 1abe 3d92 043f 4e63 733e b16e 57be
000000c0: 08c7 253e b251 4f3f 8756 213f e5ce 0c3f
000000d0: e05d 3dbf 8156 2fbe 1dca 66be 7ae8 023f
000000e0: ece2 27bf 9c2c 12bf 30fe 163e 6e39 2bbf
000000f0: 282e 4abf 9aec 81be 0986 68be 59b0 58bf
00000100: ddaf 113f 7524 46bf 4c0e 74be aa8f 543f
00000110: 6d5a 8bbf 06aa 103f 0f72 b1be a603 91bd
00000120: 6387 2e3f d071 983f 0e1e e43e bd47 7d3e
00000130: d40e 42bf 488b 29bf 0690 7fbe 39f8 c33e
00000140: 988f 4b3d 7526 223f c477 063f 4d4f f3be
00000150: 4bf6 4fbf 0f32 313f 17c4 d83e 0d42 44be
00000160: 93fe 03be 35ba 463d 7aad e53e 4e86 113e
00000170: fd4d 9d40 3a5e 443f 5215 19c0 4bcb 37c0
00000180: e0ee 2ac0 0730 09bf 5e1e 59be 506f 7bbe
00000190: c573 64bf 1b72 71be a132 283f dec2 91be
000001a0: 1b6d ef3e 68f3 51be 8656 97bf e4d7 35be
000001b0: 912c 503f d54a 643f b25a fcbe 5335 323e
000001c0: d4fc 3d3d cf9b 753f dc72 11be ba85 203e
000001d0: 8c6e e13e 701f b63e 529d 8e3f eaf9 713f
000001e0: a2e7 34be 69f6 3ebf 0f34 6dbe 4da4 cf3e
000001f0: 44ea 1abe 2e1b 8abe d336 0abf c5e4 223f
00000200: f369 793d faab a7bd e805 71bf adc5 1dbe
00000210: 0d08 233f a109 0fbf b97d 12be 2ed9 ea3e
00000220: 98ef a13e 0938 013f 2589 993e 73f0 b6bd
00000230: d0e8 023e 1fbb e9bd 7944 65bf a179 1a3e
00000240: c9d0 7f3e dc94 bbbf 0d45 f23d 01d1 29bf
00000250: 6535 cfbe a0df 663f e5c1 0f3f f911 89bf
00000260: e6df 22bf dc0a 5fbe d08a 84bf 9ee0 cd3e
00000270: 26e6 f5be 3475 00be 0c79 043f a9fa 59bf
00000280: 5b43 7b3f 4599 85be 99ce 5bbf 8773 c8bf
00000290: 944b 0d3e 853a 7a3e dc21 98bf 925d 9cbf
000002a0: bbd0 c0bf 54df 20be ca1e ca3d 21f7 4abf
000002b0: eb88 723e fce3 293f b729 f4be 89aa b4bf
000002c0: 8c74 b83e aae2 67bd e103 09be 72df 66bf
000002d0: 58e5 78bf bf04 f23e 8e5d ed3d fc53 5cbe
000002e0: 064b 8bbf 2344 9fbe 8944 153d 0c9d aebe
000002f0: 0c55 07bf 7314 293f cf35 82bf 31a4 87bf
00000300: 1ebf 093e 72ef 9bbc 1a45 cd3d c9c7 903f
00000310: 5d2c b33d 0987 43be a6ad 373d 9dfe 86be
00000320: 0938 003f 822b af3d 628b 5fbf 5420 9ebe
00000330: cd3b 5cbe 2121 0abf 05c0 b03e 7e76 9c3c
00000340: 85ac 2cbf 9f50 32bd 27f5 e8bd f358 773f
00000350: c46d 24bf db12 033e c87d afbe c975 e3be
00000360: 7b36 a13f 543f b2bd 4868 28bf 042e 89be
00000370: 19d7 e3be 77e3 f2bd 54b5 96be eadc 123e
00000380: f0c7 c7be bb02 0d3f 5ae6 16be b4a2 a73e
00000390: 57d6 083f af8e a7bf 1ae8 27bf 1f19 54bf
000003a0: 99c1 043e a536 b1bd af60 fcbe 056f 2ebf
000003b0: bba1 0bbd 4a49 85bd cd7d 173e 983c 86bf
000003c0: 5671 3cbf a1aa 283f 8cff 053e 8f0a 2b3f
000003d0: 3c26 443f ab71 4abe 6fcf 42be 8395 d6be
000003e0: 106b 933d 6236 02be 9c47 12be 9fe3 b3bd
000003f0: bbb7 19bf 0756 883d ccfb c7be 1963 be3e
0.07473941 0.24922478 -0.53390986 0.2962865 0.07339373 -0.3203875 0.08879988 -0.60163623
-0.035681866 -1.0450869 -0.18896262 -0.5628872 -0.17703892 -0.3841444 0.018060368 -0.18426752
-0.66226506 -0.37484962 0.42533717 0.03889092 0.18557481 -0.30035946 0.16053718 0.1892143
0.8125204 -0.20015767 -0.27658534 1.2949995 0.20299536 0.26129037 -0.37734306 0.13820577
-0.32378918 -0.11063873 0.45065024 -0.42496455 -0.011827305 0.10211031 0.08114673 -0.11366113
-0.0003812426 0.38065332 0.3744943 0.3310434 -0.15117805 0.5178564 0.2376835 -0.21038319
0.16189206 0.8098403 0.63022655 0.55003196 -0.73971367 -0.17122842 -0.22538038 0.5113598
-0.6558063 -0.5709932 0.14745402 -0.66884506 -0.7897668 -0.25375825 -0.2270738 -0.84644085
0.5690897 -0.7739938 -0.23833579 0.83031714 -1.0886971 0.56509435 -0.34657332 -0.07080774
0.68175334 1.1909733 0.4455418 0.24734397 -0.75803876 -0.6622815 -0.24957284 0.38275316
0.04969749 0.6333993 0.525265 -0.4752144 -0.8123519 0.6921701 0.42337105 -0.19165821
-0.12890081 0.048517425 0.44858915 0.1421139 4.91577 0.7670628 -2.3919263 -2.871783
-2.6708298 -0.5358891 -0.2120299 -0.24554181 -0.8923915 -0.23578684 0.65702254 -0.28468984
0.46762928 -0.20503008 -1.182328 -0.17758137 0.81318 0.89176685 -0.49287945 0.17403154
0.046383694 0.9594087 -0.14203972 0.15676013 0.44029653 0.3557086 1.114176 0.94521964
-0.17666486 -0.7459474 -0.2316439 0.4055504 -0.15128428 -0.2697386 -0.53989905 0.63630325
0.060892057 -0.08187099 -0.9414964 -0.15407439 0.6368416 -0.5587407 -0.14305772 0.4586882
0.31628108 0.5047613 0.29987445 -0.08932581 0.12784123 -0.11412644 -0.89557606 0.1508546
0.24981989 -1.4654803 0.11829577 -0.6633454 -0.40470424 0.90184975 0.56155235 -1.070861
-0.6362289 -0.21781486 -1.0354862 0.40210432 -0.48027152 -0.1254471 0.517472 -0.851481
0.9814965 -0.26093498 -0.8586212 -1.5660256 0.13798362 0.24436386 -1.1885333 -1.2216055
-1.50637 -0.15710193 0.09869154 -0.7928334 0.23685043 0.663635 -0.47688076 -1.4114543
0.36026418 -0.056612648 -0.13380386 -0.901847 -0.9722495 0.47269246 0.1159011 -0.21516412
-1.088227 -0.31106672 0.036442313 -0.34104192 -0.52864146 0.6604683 -1.0172671 -1.0596982
0.13451812 -0.019035075 0.10022946 1.131097 0.08748696 -0.1909448 0.04484334 -0.2636613
0.500855 0.0855322 -0.87322056 -0.3088404 -0.21507187 -0.539568 0.345215 0.01909947
-0.67450744 -0.043533918 -0.11374884 0.966201 -0.6422999 0.12800162 -0.3427565 -0.444258
1.2594751 -0.08703485 -0.6578412 -0.2679292 -0.44500044 -0.11859792 -0.29435217 0.14342085
-0.39019728 0.5508229 -0.1473631 0.3274132 0.53452057 -1.3090419 -0.65588534 -0.8285083
0.12964477 -0.08653001 -0.49292514 -0.6813815 -0.034089785 -0.065081194 0.14794083 -1.0487242
-0.73610437 0.6588536 0.13085765 0.66812986 0.7662084 -0.19769923 -0.19024442 -0.41910943
0.07198155 -0.12716058 -0.1428513 -0.0878365 -0.60045975 0.066570334 -0.39059293 0.3718498

convs.1.fc_full.bias f4 [92]
00000000: f001 fa3c 7d4f 283d 69ce b7bc 3f8d 36bd
00000010: ac76 813c 7501 77bd 2f86 babd 908e 843d
00000020: a131 44bc 219b ff3c 4078 cc3d f1e5 cc3d
00000030: 0a0a 8c3c cb73 f63c 9a12 d2bd 4417 91bd
00000040: efc3 41bd 126c 9ebd 451a 1f3d d573 563c
00000050: 16e4 583d 43cf cb3d 5802 d5bc e09b 89bc
00000060: 1325 88bc dc1e 1bbd a2a5 0b3e d8af 94bd
00000070: d0c2 d03c 53cc 063d 1ebc 27bc ec44 dcbc
00000080: 69ea a7bd 7c2b 8cbd ea51 d43d d826 3abd
00000090: 592e 683d 1e7d a33d 5b85 a03d 4179 f0bc
000000a0: 9cf2 31bd df93 773d 32ce d13c 878a b63d
000000b0: 2aca a4bd 39d7 4fbd 9b8f 12bd c72c 203e
000000c0: d12b 0fbd bdaf 48bd 1fe5 47bc 7b53 9d3c
000000d0: 90de f23c 2d0d 9cbd e739 663c d9b7 50bd
000000e0: 251e 3fbd a7f8 983d b447 623d 58c6 fc3c
000000f0: c6f8 13be 78ab 943d 5328 7d3a ddef 39bd
00000100: 584b 9e3d 89e5 c0bd 0c30 0ebd 87ca 7a3d
00000110: ffa0 713d 3af3 143d 00c5 bfbd 0e78 ab3d
00000120: 16e3 dc3d 34e3 5e3d da90 ab3d a817 87bd
00000130: 5c2d 8a3d 9442 7fbd 5534 533d 639c b1bd
00000140: b0da 94bc 6959 c5bc 84b4 273d 5194 85bd
00000150: bafb de3d 7b12 223d 2563 b43d b6c8 9cbc
00000160: b673 ecbc efa8 33ba d365 9c3d 63fa b3bd
0.030518502 0.04109143 -0.022437291 -0.044568297 0.015803657 -0.060304124 -0.09107625 0.06472504
-0.011974723 0.0312019 0.09983873 0.10004795 0.01709463 0.030084511 -0.10257454 -0.07084516
-0.047305997 -0.077354565 0.038843412 0.01308914 0.052951895 0.099516414 -0.026002094 -0.01679796
-0.01661924 -0.037871227 0.13637403 -0.07260102 0.025483519 0.032909703 -0.010237722 -0.026888333
-0.08199007 -0.068442315 0.10367186 -0.0454472 0.056684826 0.079828486 0.078379355 -0.029354693
-0.04344426 0.060443755 0.025611017 0.08913141 -0.08046372 -0.05074236 -0.035781484 0.15642081
-0.034953896 -0.048995722 -0.012200623 0.019204846 0.029647142 -0.076197006 0.014051891 -0.05095658
-0.046659607 0.07469302 0.055244163 0.030856296 -0.14450368 0.072592676 0.0009657193 -0.045394767
0.077292144 -0.0941878 -0.03471379 0.0612283 0.05899143 0.03636477 -0.09363747 0.08372508
0.10785501 0.054415897 0.083772376 -0.06596309 0.06746933 -0.062319353 0.05156358 -0.086724065
-0.018170685 -0.024090486 0.040943637 -0.0652243 0.10887857 0.039568406 0.08807973 -0.019138675
-0.028863769 -0.0006853481 0.07636609 -0.08787992

convs.1.bn1.weight f4 [92]
00000000: 0893 8640 3bdd 3440 bff5 0240 3b73 4740
00000010: b5a6 5e40 1c0b b83f abaa c43f d9bd c63f
00000020: 29c7 2440 64ca b13f d780 f93f ab50 2d40
00000030: f4c9 8440 1cfa fe3e 8827 3040 ae73 cd3f
00000040: 566c 4440 493d f53f 1338 4840 dd03 8340
00000050: 906c 0440 7b3a 5a40 8d66 2140 9141 4140
00000060: 0502 cd3f 6268 fc3f e9ce e03f 2800 5840
00000070: 5a1d 6640 a1cf 8a40 0d95 2840 1f42 1240
00000080: 6eed a040 3985 5240 1721 3d40 abae b03f
00000090: 6fca 4b40 8db0 2b40 8578 5140 9d4d 2240
000000a0: 3ea4 f53f 176c fb3e 51e8 1640 fe2b 2b40
000000b0: 5ab6 7f3f bd6f 3840 8cc9 ea3f 5486 863f
000000c0: 479a 8c3f fb64 ee3f 7bdc be3f 34b9 513f
000000d0: d4ec 803f a18a 1a40 e730 f53f ea65 853f
000000e0: e544 d53f 5270 823f 753d 2240 37f3 df3f
000000f0: cecb 853f 0143 723f 2590 cf3f e6da 983f
00000100: 2249 3340 570b b93f 9c34 2f3f 575f 0440
00000110: 52a8 983f d4f9 8140 556e c63f 8e75 1340
00000120: 4aed 6d3f ef0e 3e40 5440 b73f 1d86 a13f
00000130: 01e4 ab3f 836f 1a3f d1a7 723f fa95 0240
00000140: b56f ee3f 8314 0740 7109 a73f 3b51 bd3f
00000150: a77c 333f b1fe 2540 64c3 be3f 4731 2240
00000160: 78f4 ec3f 9c53 c73f f3a0 1a40 8f1a fc3f
4.205448 2.8260028 2.0462492 3.116408 3.478925 1.437839 1.5364584 1.5526687
2.5746558 1.388989 1.9492444 2.7080486 4.1496525 0.49800193 2.7524128 1.6050928
3.0691123 1.9159328 3.1284225 4.0942216 2.0691261 3.4098194 2.5218842 3.0196269
1.6016241 1.9719355 1.7563144 3.3750095 3.5955415 4.3378453 2.6340973 2.2852857
5.028983 3.2893813 2.9551446 1.3803304 3.1842306 2.6826508 3.272981 2.5359871
1.9190748 0.49105904 2.3579295 2.67456 0.9988762 2.88182 1.8342757 1.0509744
1.0984582 1.8624567 1.4911035 0.8192322 1.0072274 2.4147112 1.9155549 1.0421727
1.666165 1.0190527 2.535001 1.7496098 1.0452821 0.9463349 1.6215864 1.1941803
2.8013387 1.4456586 0.6843965 2.068319 1.1926367 4.0617466 1.5502421 2.30405
0.929402 2.9696615 1.4316506 1.2619053 1.3428956 0.60326403 0.9478732 2.0404038
1.862784 2.110627 1.3049756 1.4790415 0.7011208 2.5936701 1.4903378 2.5342577
1.8512106 1.557239 2.4160736 1.9695605

convs.1.bn1.bias f4 [92]
00000000: 2575 25bf 055a 72bf dde5 953c 6b1c 053e
00000010: 0563 863e 8f7c 8abf 63f5 833e cefa e33e
00000020: 3513 39bd 0b52 73bf d7b1 77bf 680c 1bbf
00000030: beb6 57bd 3a5f 033f f4b5 1bbf 08c5 febe
00000040: 0c35 85bd 2645 2abf e7b8 89bd 6a26 e2be
00000050: 4c3d 8cbe 69bc febe 7b7d 91be 5f46 0f3e
00000060: e0ea 9cbe 6fd3 82bd 3b8a 95bf 3cb7 5bbb
00000070: 0247 bb3d 2c8a 85be c6e2 acbe 052c 20bf
00000080: 1dad b63e 5347 ebbf f4b3 d9be 5486 883d
00000090: 42f5 2f3d e801 3bbf 3ad1 38bf 2510 993d
000000a0: f7b2 ec3e 99a1 1c3f 3a92 003e eb86 6abf
000000b0: fd1a 713e 54b2 e0be ca77 eebe a996 36bf
000000c0: 0b5e 27bf 5845 523e ff8f 26be 04cb 50bf
000000d0: da3e 153f f5b4 2dbd cef0 5cbe 63c7 19bf
000000e0: 85d2 c3be b1eb 23bf d99a 2c3e 946b 8ebe
000000f0: 8391 1cbf e747 03bf f4af 3abf f9eb 34bf
00000100: 73ee b1bb 39b9 f8be d0f3 45bf 1f82 bbbe
00000110: b697 04bf 5bf7 00bd 0253 dabe 8dc2 64be
00000120: 0799 18bf 1865 c5bc 6893 e63e 270b 00bf
00000130: 813f f6be 649d 66bf be3f 2b3f cece 1ebe
00000140: b8ba 633d 03a7 7bbe cf3a a23e 34cb c1be
00000150: 4df1 6dbf 459c e4be 73bb a5be 50d2 b43c
00000160: 5202 613e a548 cbbd 9b69 a73e 3b18 803e
-0.64631873 -0.9466861 0.018298084 0.12999122 0.2624742 -1.0819262 0.25773153 0.44527286
-0.045184333 -0.9504706 -0.9675574 -0.60565805 -0.05266451 0.5131718 -0.60824513 -0.49759698
-0.065042585 -0.6651176 -0.067247204 -0.44169933 -0.27390516 -0.4975312 -0.28416047 0.13991688
-0.30647945 -0.06387984 -1.168281 -0.0033525964 0.09144403 -0.2608198 -0.33766764 -0.6256717
0.3567895 -1.8381141 -0.42520106 0.06666246 0.042958505 -0.73049784 -0.72194254 0.074737824
0.4623029 0.6118408 0.12555781 -0.9161212 0.23545451 -0.43886054 -0.46575767 -0.7132364
-0.65377873 0.20534265 -0.16265868 -0.8155978 0.5829903 -0.042408902 -0.21576235 -0.60069865
-0.3824655 -0.6403151 0.16855945 -0.2781645 -0.61159533 -0.5128159 -0.72924733 -0.70672566
-0.0054300367 -0.48578814 -0.77325153 -0.36622712 -0.5179399 -0.031485897 -0.42641455 -0.2233984
-0.596085 -0.024096057 0.45034337 -0.5001702 -0.48095325 -0.9008391 0.6689414 -0.15508577
0.05559799 -0.24575429 0.31685492 -0.37850344 -0.9294632 -0.44650474 -0.32369575 0.022072941
0.21973541 -0.09925965 0.32697758 0.25018486

convs.1.bn1.running_mean f4 [92]
00000000: 8a36 45c0 3cf5 80c0 b0b4 7bc0 e24b 7cc0
00000010: 0675 11be 4a60 49c0 df21 53bf 4031 13bf
00000020: 42d8 79c0 1f3e 26bf 9c89 14c0 3ab8 9d40
00000030: dd76 753f 1e02 67c0 f567 35c0 c843 1340
00000040: 4aac 8040 ce22 5e3f d48a d23f b5ad 6c3f
00000050: 00cc 1dc0 8daf 5940 383d 37bf f454 f03f
00000060: 0822 2940 91ee c8c0 8af4 193f 1f24 58c0
00000070: 117a 343f 5285 c63f 3bf5 37c0 9e1c 4bbf
00000080: fcea b3be 9460 a93f 2bfd 43c0 f6f2 95bf
00000090: 9eec 0ec0 033b c6bf ec2a 25c0 9b85 69bf
000000a0: ed45 393f d339 c8bf cca9 44c0 9938 0d40
000000b0: d695 77c0 7559 fc3f 7211 26c1 f467 65c0
000000c0: 0f55 31c0 a0e3 3cc0 e378 393f f98f 90c0
000000d0: 5c5b bbc0 e020 393f 3514 16c0 7951 aec0
000000e0: 2d19 cfc0 7b2d 40c0 963b 3e40 34dc c4c0
000000f0: 943a 6b40 e304 10bf b68f 88bf c98a f540
00000100: 9774 5fc0 3800 29bf 3e14 afbd 3d80 51c0
00000110: 8813 99c0 2ab5 ff3f 101b f0bf 7e5c e3c0
00000120: 03c5 66c0 3c1b 9ac0 a585 4bbe 57b0 3fc0
00000130: f0ea 90bf f04d b93f 4f22 9cbf 6658 b8bd
00000140: 8d49 10c0 a328 a8bf 6edb e9c0 c4d2 bdbf
00000150: 9093 903f 5669 8dc0 d348 30bf c9e1 5fc0
00000160: e336 dfc0 b990 b5bf e848 c2c0 936a 08c1
-3.0814538 -4.029936 -3.9329033 -3.9421315 -0.14204797 -3.146502 -0.8247356 -0.57497025
-3.9038243 -0.6493854 -2.320899 4.9287386 0.95884496 -3.6095042 -2.83447 2.301012
4.0210314 0.8677186 1.6448617 0.92452556 -2.4655762 3.4013398 -0.7157779 1.8775926
2.642702 -6.279122 0.6013876 -3.3772047 0.7049876 1.5509436 -2.8743427 -0.7934054
-0.35140216 1.3232598 -3.0623271 -1.1714771 -2.233192 -1.5486759 -2.5807447 -0.9121949
0.72372323 -1.5642647 -3.0728636 2.2065794 -3.8685203 1.97148 -10.379259 -3.5844698
-2.7708166 -2.9513931 0.72450083 -4.517575 -5.8549023 0.7231579 -2.3449833 -5.4474454
-6.471823 -3.002776 2.9723868 -6.1518803 3.6754503 -0.56257457 -1.0668857 7.6731915
-3.491491 -0.6601596 -0.08548783 -3.273452 -4.783634 1.9977162 -1.8758259 -7.1050406
-3.6057746 -4.8158245 -0.198752 -2.995138 -1.1321697 1.447691 -1.219797 -0.09001236
-2.2544892 -1.3137401 -7.308036 -1.4829946 1.1295033 -4.4191084 -0.6886112 -3.4981558
-6.97545 -1.4184791 -6.0713997 -8.526019

convs.1.bn1.running_var f4 [92]
00000000: 1df0 0642 e6f6 6b42 cece 3e42 13f4 2f42
00000010: dacc 4642 a56a 5a42 2047 f241 d37f 3c42
00000020: f3b1 6442 617b 5142 e5f3 7442 9321 4f42
00000030: f425 3f42 629d 3942 eceb 5d42 e341 4842
00000040: 9f92 6042 6436 3442 3de9 1942 62a7 2742
00000050: b1ce 2442 3422 3842 48bb 0d42 df24 3242
00000060: 9cc7 3542 d734 4142 fac1 1c42 f2e0 2e42
00000070: 1263 1542 d4c8 3d42 29e2 6d42 71e5 1642
00000080: 85f3 0842 e1d1 1442 a41a f341 e661 1f42
00000090: e1de 1a42 4371 3b42 376e 3d42 d583 ee41
000000a0: bfd1 2742 7c4e 0a42 1fc3 4942 8b85 1c42
000000b0: 5902 1442 6eef 0c42 7c53 b842 de4c 0742
000000c0: b852 7642 318b 5042 08ff 3842 f880 2942
000000d0: 0d39 3042 72e3 5342 922b 1842 14bc 7542
000000e0: 24d1 4f42 5cd4 6142 e3f0 3642 7964 4542
000000f0: 71b3 4442 987d 2442 fb30 2242 0c50 6442
00000100: 8aaa 4c42 c8cf 3c42 0d0a 2d42 8a15 3a42
00000110: abb5 1e42 ba07 2b42 572b 4142 f31b 6b42
00000120: 60ed 9342 716f 6d42 a062 1f42 0aa0 2f42
00000130: 5e31 4d42 39da 2a42 53fa 5e42 3bac 3d42
00000140: 68fe 9e42 7950 0242 cc97 3742 567d 1242
00000150: 6700 1c42 658a 7142 04ec 6642 62cf 5642
00000160: b6ce 8442 0d8f fc41 e7cc 4442 b4bc 9842
33.734486 58.99111 47.701958 43.988354 49.70005 54.604145 30.284729 47.12483
57.17378 52.370487 61.23818 51.782787 47.787064 46.403694 55.480392 50.064342
56.143185 45.053116 38.47777 41.91346 41.201847 46.0334 35.43289 44.536007
45.44493 48.3016 39.18943 43.719673 37.34675 47.44612 59.47086 37.724064
34.237812 37.20496 30.388008 39.845604 38.717655 46.860607 47.35763 29.814371
41.95483 34.576645 50.440548 39.130413 37.002293 35.233818 92.163055 33.825066
61.58078 52.13593 46.249054 42.375946 44.055714 52.972115 38.04255 61.43367
51.95424 56.457382 45.73524 49.348118 49.175236 41.12265 40.547832 57.07817
51.166542 47.20291 43.259815 46.521034 39.67741 42.757545 48.292324 58.777294
73.96362 59.35883 39.846313 43.90629 51.29821 42.713108 55.744457 47.418194
79.49689 32.578587 45.89824 36.6224 39.000393 60.38515 57.730484 53.702522
66.40373 31.569849 49.2001 76.36856

convs.1.bn2.weight f4 [46]
00000000: c437 9d3f eb43 b43f 0ae3 eb3f b15f 943f
00000010: 19c9 853f 48c6 903f 48f8 833f 9e0c 793f
00000020: 755c c03f 7f82 a13f fd73 ca3f a588 713f
00000030: 4023 753f 0851 8f3f 165d 973f 6b7e 773f
00000040: 856c 5a3f e655 ac3f 2240 7d3f e474 723f
00000050: 94f3 963f 2b78 aa3f 9a5c 8c3f 9f33 723f
00000060: 8d76 873f 486b 9e3f af9e be3f 71b5 d03f
00000070: ee5b 893f 05f2 5d3f bd4b 983f 12fd 0e3f
00000080: a955 673f 85c4 c33f de24 1a3f 939c 5a3f
00000090: 6a86 993f ab04 ae3f c3d8 c63f 0670 3b3f
000000a0: a38c 6d3f e823 c13f efbe 603f eb53 873f
000000b0: 3ca8 823f 95ae 7f3f
1.2282643 1.4083227 1.8428662 1.1591703 1.0451995 1.1310511 1.0310144 0.9728488
1.5028216 1.2617949 1.5816647 0.9434913 0.9575691 1.1196604 1.1825283 0.96677274
0.8532184 1.3463714 0.98925984 0.9470961 1.1793084 1.3317922 1.096576 0.9461002
1.0583054 1.237649 1.4892176 1.6305372 1.073118 0.8669742 1.1898113 0.55854905
0.9036508 1.5294348 0.60212505 0.85395163 1.1994145 1.3595175 1.55349 0.7321781
0.9279272 1.5089083 0.8779134 1.0572485 1.0207591 0.99875766

convs.1.bn2.bias f4 [46]
00000000: 761d 1cbf 5faa 97be 2c3a c7be cd41 6cbf
00000010: 52ad abbe 9120 64bf 20a9 53be 278f c3be
00000020: 54a3 3dbf 12bb 03bd 993f 76bf f7de 86be
00000030: 88e1 15bf 8129 23be 4a49 68bf 9fd3 5cbf
00000040: 8dfc 2bbf 2518 1ebf ccca f1be b2d5 37be
00000050: 777b 20bf 3f48 adbe 1ff2 14bf b4b0 03bf
00000060: ab76 30bf 4b6a 38bf ce97 83be a6fd 77be
00000070: 5f40 0cbf d8ac 583e 8347 4ebf eaae b7be
00000080: 7ab9 09bf cef2 04bf 1c02 d9be e2a4 90be
00000090: 78c4 b2be adbc b83d 3fbf e0be eb94 b1bd
000000a0: a4a2 dabe a168 253e 67ca c2be 77d1 c3be
000000b0: e244 58be bf4f cabe
-0.60982454 -0.2962217 -0.3891157 -0.92287904 -0.3353067 -0.8911219 -0.20669985 -0.38195154
-0.74077344 -0.032160826 -0.9619079 -0.26341984 -0.5854726 -0.15933801 -0.9073683 -0.8626041
-0.67182237 -0.6175559 -0.47225034 -0.17952612 -0.6268839 -0.33844182 -0.5818195 -0.514415
-0.6893107 -0.7203719 -0.25701755 -0.24217853 -0.5478572 0.21159685 -0.8057787 -0.35875636
-0.5379864 -0.5193299 -0.42384422 -0.28250796 -0.3491552 0.09020362 -0.4389591 -0.08670982
-0.4270221 0.16153194 -0.38045046 -0.38245746 -0.21120027 -0.39513966

convs.1.bn2.running_mean f4 [46]
00000000: 8182 1040 0769 573f ff5b 173f bb23 f240
00000010: 3f10 0040 24b5 693e 6486 ca40 e367 d140
00000020: cf23 5a40 ff40 593f 95e8 1a40 b31b 5b3f
00000030: 555b ec40 837c 8440 985a 873f 1490 ac3f
00000040: 7807 e53f bedd c03f 9873 f240 5a59 0f40
00000050: 82a8 b63e b420 3140 c94a f43f 0fde 2f41
00000060: 7b27 c13f dd7e a540 c162 c13e 18b2 0f41
00000070: a2bc af40 f7c1 993f 5f2e e43f 1c6f 0c3f
00000080: cb2f af40 bb3a 2b40 f982 6440 1263 bb40
00000090: 0d1a b140 587c 2940 65fc 813e 4d14 bf40
000000a0: 4468 8040 96e5 fb40 1c68 d540 a524 3b40
000000b0: 327e 1c41 d7bb c740
2.2579653 0.84144634 0.5912475 7.5668616 2.0009916 0.22823006 6.328905 6.5439315
3.4084356 0.848648 2.4204457 0.8558914 7.386149 4.140199 1.0574522 1.3481469
1.7892904 1.506767 7.5766106 2.2398286 0.35675436 2.767621 1.9085323 10.991714
1.5090173 5.1717362 0.37770656 8.98098 5.4917765 1.2012318 1.7826651 0.5485704
5.474584 2.6754596 3.570494 5.8558435 5.53443 2.6482143 0.25387874 5.971228
4.0127277 7.8717756 6.6689587 2.9241116 9.780809 6.2416797

convs.1.bn2.running_var f4 [46]
00000000: f6e7 7841 b4e1 a840 897e 0740 0982 aa42
00000010: 3923 a141 da51 043f bff3 fa41 7eec 6642
00000020: e9ba fd41 599a 2740 1573 5141 0a70 0141
00000030: c31a 0843 c0bc da41 4025 ab40 d8f0 2141
00000040: d7ab 4441 7a93 3241 d914 ca42 49e3 8741
00000050: f280 533f a2ec ec41 680f 3141 c915 9e43
00000060: b790 c540 4b35 0c42 fe6c 103f 047b 2643
00000070: 6090 4b42 0abe 0341 2be3 3d41 161d 5d40
00000080: 5bb2 0b42 6fbc ec41 768e e341 d1c9 d842
00000090: a617 ec41 ffe0 9441 94ff 3e40 5cd9 7642
000000a0: b6c5 2942 a9a9 6e42 6692 6f42 4ff6 2a42
000000b0: 1959 b742 c917 4b42
15.556631 5.2775517 2.117098 85.253975 20.142199 0.51687396 31.369017 57.73095
31.716265 2.6187956 13.090596 8.089853 136.10454 27.342163 5.348297 10.1213
12.291953 11.161005 101.04072 16.98598 0.8261863 29.615543 11.066261 316.1702
6.1739154 35.052044 0.5641631 166.48053 50.89099 8.233896 11.867961 3.4549003
34.924175 29.592009 28.444561 108.39417 29.511547 18.609861 2.9843493 61.712265
42.443077 59.665684 59.892967 42.740536 91.67402 50.773228
