CGCNN/cathub_pooled/valid_best_params.pt (torch_old, 446091 bytes, 91 tensors)

embedding.weight f4 [46, 98]
-0.3361431 -0.25860935 -0.056099597 -0.006416315 0.35181558 -0.22178125 -0.47608247 -0.19890648
-0.03040186 -0.32469645 0.42523175 -0.054713506 -0.5586632 -0.31982803 -0.25561506 0.4567448
0.1252658 -0.0039782077 -0.08501683 -0.374403 0.118446134 -0.6647102 0.06375664 -0.2182609
0.0072218683 -0.0025987998 0.056708097 -0.175449 0.17080404 -0.42815134 -0.07314006 -0.100356966
-0.03966003 0.40404946 0.021368003 -0.044250615 -0.34343633 0.17022152 -0.13902494 0.083874285
-0.09068085 -0.17899476 -0.19940384 0.0473876 -0.0052827224 -0.036540598 -0.34964484 -0.22716045
-0.20677778 0.30040464 0.12893564 -0.38501465 -0.36714843 -0.13552192 -0.46259612 -0.09266981
-0.04117442 0.21446311 0.026752621 -0.02597092 -0.059504937 -0.1396272 0.23575361 -0.86662096
0.44015807 0.011256084 0.007888973 0.0068982616 0.07808395 0.013583086 0.45797065 -0.058823537
0.127919 -0.14273253 -0.10157167 0.088491835 -0.06938419 -0.04929328 -0.36254713 0.020099288
-0.17726122 -0.27429274 -0.6887235 -0.06330666 0.046399113 -0.36132208 0.28673783 -0.019011885
0.0071181357 0.05076833 -0.06709699 0.014659107 -0.008313759 -0.074189946 -0.83904904 0.51717126
0.41499388 -0.014574528 0.19277291 0.25861517 0.09290671 -0.6962456 0.20454192 0.2767123
0.37902445 0.5663175 0.5642355 0.4841582 -0.5664662 -0.633338 -0.7089744 0.14337508
-1.0394155 -0.16035551 -0.53259647 0.09090543 -0.015141822 0.21659537 -0.1324655 1.2460185
-0.066540174 -0.42756072 0.1777743 0.056365058 -0.07229073 0.08847282 -0.0077477694 -0.02390581
0.002005858 0.116544314 0.058634013 -0.19461396 -0.512518 -0.033389844 0.12541175 -0.55764425
0.11192012 0.13839908 -0.3117649 0.032676805 0.32675162 0.0022715107 0.006897643 -0.07592325
0.19990657 0.24321198 -0.511952 -0.11958218 0.27566323 0.13329962 0.55291754 0.5651507
0.3076218 -0.29956588 -0.65579176 -0.84793997 0.003497094 0.0012439713 -0.2622255 -0.06338601
0.030446228 0.2631513 -0.5976318 0.02871722 -0.047499668 -0.08597827 -0.02713301 0.019675031
-0.18763487 0.04478909 0.081380844 0.010633087 0.04660964 -0.22801673 0.010143712 -0.09032991
0.2566253 -0.97360986 0.21057965 0.15916026 0.71733105 0.3252257 0.082755156 -0.1996575
-0.97824293 -0.6572933 0.08145788 0.045976937 -0.026069582 -0.032669537 -0.29352263 1.1128768
-1.2924708 -1.4998672 -0.72267586 0.074800685 -0.11825146 0.2351616 0.031609863 -0.16002321
0.3089965 -0.029698782 0.08830492 -0.5837494 -0.24259242 -0.6772488 0.011638488 -0.11183264
0.063455604 -0.22142208 0.31220147 0.021570103 -0.32581848 -0.0185913 0.040817693 0.25363517
0.307744 -0.6901313 0.020830847 0.07912228 -0.106910065 0.06494251 -0.054575052 -0.14998412
0.20923653 -0.022053933 -0.17949806 -0.3149104 -0.056609493 0.17963058 -0.40401348 0.019449063
0.28666517 -0.28431576 0.33351412 -0.09873047 0.0950416 -0.21303591 0.025850918 -0.0292378
-0.08979799 0.033107847 0.28659958 -0.088582695 -0.23212607 0.3949253 -0.016995033 -0.07168138
-0.55131406 -0.20695227 -0.6354855 0.111759275 -0.22512811 -0.025678633 0.06561495 0.021741934
00000000: f31a acbe 7268 84be b1c8 65bd f43f d2bb
00000010: 2c21 b43e a01a 63be 15c1 f3be 24ae 4bbe
00000020: 520d f9bc 9d3e a6be fab7 d93e 451b 60bd
00000030: 8d04 0fbf 80c0 a3be fadf 82be 74da e93e
00000040: ae45 003e a05b 82bb 4e1d aebd c0b1 bfbe
00000050: e393 f23d 732a 2abf d792 823d c97f 5fbe
00000060: 6ca5 ec3b a050 2abb c046 683d e7a8 33be
00000070: 41e7 2e3e a736 dbbe 75ca 95bd f487 cdbd
00000080: 8e72 22bd 92df ce3e f30b af3c 2240 35bd
00000090: e3d6 afbe 8d4e 2e3e 8e5c 0ebe 48c6 ab3d
000000a0: e2b6 b9bd 674a 37be 8530 4cbe 8019 423d
000000b0: b01a adbb 98ab 15bd a604 b3be c09c 68be
000000c0: 8ebd 53be a3ce 993e b407 043e a420 c5be
000000d0: e1fa bbbe 42c6 0abe 66d9 ecbe abc9 bdbd
000000e0: 82a6 28bd 389c 5b3e 5028 db3c f8c0 d4bc
000000f0: 73bb 73bd 6ffa 0ebe 6569 713e dfda 5dbf
00000100: 665c e13e 706b 383c c040 013c d00a e23b
00000110: 7aea 9f3d 988b 5e3c 217b ea3e f3f0 70bd
00000120: 33fd 023e 7a28 12be cf04 d0bd 353b b53d
00000130: 4c19 8ebd c0e7 49bd c79f b9be 43a7 a43c
00000140: f783 35be 1970 8cbe 2f50 30bf eca6 81bd
00000150: ff0c 3e3d 35ff b8be 4dcf 923e d0be 9bbc
00000160: 403f e93b 74f2 4f3d 266a 89bd c02c 703c
00000170: 6f36 08bc e6f0 97bd ebcb 56bf 5665 043f
00000180: 147a d43e 00ca 6ebc 4366 453e 3569 843e
00000190: e045 be3d 273d 32bf 7073 513e 3cad 8d3e
000001a0: 7e0f c23e 2ffa 103f bd71 103f 95e3 f73e
000001b0: ee03 11bf 7022 22bf 597f 35bf ebd0 123e
000001c0: 910b 85bf 3c34 24be 3e58 08bf a02c ba3d
000001d0: 6815 78bc 2dcb 5d3e 09a5 07be 897d 9f3f
000001e0: 3746 88bd 3de9 dabe 770a 363e 0cdf 663d
000001f0: 2a0d 94bd 3d31 b53d 00e1 fdbb 1ed6 c3bc
00000200: b774 033b c9ae ee3d 382a 703d e248 47be
00000210: 6134 03bf cac3 08bd f06b 003e c6c1 0ebf
00000220: 6036 e53d 7db8 0d3e a69f 9fbe 1dd8 053d
00000230: fd4b a73e a0dd 143b a005 e23b a67d 9bbd
00000240: 4fb4 4c3e 900c 793e 490f 03bf 81e7 f4bd
00000250: bb23 8d3e b27f 083e 018c 0d3f b7ad 103f
00000260: 9b80 9d3e b360 99be f8e1 27bf 9812 59bf
00000270: 802f 653b c00c a33a 6c42 86be 86d0 81bd
00000280: 5e6a f93c c4bb 863e 66fe 18bf 6040 eb3c
00000290: 038f 42bd 6015 b0bd 0c46 debc 882d a13c
000002a0: 5b23 40be c474 373d 00ab a63d 6636 2e3c
000002b0: c0e9 3e3d 387d 69be d031 263c e3fe b8bd
000002c0: 6464 833e 7f3e 79bf 31a2 573e e8fa 223e
000002d0: 02a3 373f fc83 a63e 897b a93d 0473 4cbe
000002e0: 216e 7abf 6044 28bf 64d3 a63d 5052 3c3d
000002f0: e08f d5bc 7ed0 05bd 9948 96be bf72 8e3f
00000300: af6f a5bf a6fb bfbf 4901 39bf 1a31 993d
00000310: d22d f2bd 34ce 703e 5879 013d 20dd 23be
00000320: ca34 9e3e dc4a f3bc 36d9 b43d 9a70 15bf
00000330: 266a 78be 2d60 2dbf 5baf 3e3c 8308 e5bd
00000340: 03f5 813d 78bc 62be dfd8 9f3e c9b3 b03c
00000350: aed1 a6be c84c 98bc 7430 273d 78dc 813e
00000360: 9f90 9d3e 72ac 30bf 74a5 aa3c dd0a a23d
00000370: aaf3 dabd 9400 853d 178a 5fbd 7095 19be
00000380: 1a42 563e 73aa b4bc 57ce 37be f03b a1be
00000390: 5bdf 67bd 14f1 373e dbda cebe a453 9f3c
000003a0: c7c5 923e d691 91be 5dc2 aa3e 3333 cabd
000003b0: 2ca5 c23d 1626 5abe 4ec5 d33c 1c84 efbc
000003c0: 02e8 b7bd 189c 073d 2ebd 923e d86a b5bd
000003d0: 75b2 6dbe a633 ca3e 2b39 8bbc b0cd 92bd
000003e0: eb22 0dbf 4ceb 53be 2daf 22bf 0ce2 e43d
000003f0: fc87 66be ff5b d2bc 2261 863d 241c b23c

embedding.bias f4 [46]
-0.2633889 -0.111031845 -0.516772 -0.75011164 -0.27011886 -0.33895668 -0.4525895 -0.22745833
-0.26367465 -0.1674938 -0.3346018 -0.7651376 -0.2131567 -0.078176856 -0.4456262 -0.1474605
-0.43533048 -0.25546688 0.16893181 -0.4626055 -0.6423174 -0.5429448 -0.29289997 -0.08408131
-0.5656948 -0.4231428 -0.41394413 -0.65397424 -0.6398606 -0.7966119 0.07267938 -0.193273
-0.44171673 -0.36871025 -0.6226294 -0.8771053 -0.2810155 -0.34408242 -0.21444641 0.03868692
-0.432788 -0.30737504 0.14966127 -0.4564587 -0.6683633 -0.13267092
00000000: e9da 86be aa64 e3bd 2b4b 04bf 5107 40bf
00000010: 054d 8abe bb8b adbe d0b9 e7be d6ea 68be
00000020: 5d00 87be 7f83 2bbe ed50 abbe 0fe0 43bf
00000030: c045 5abe 301b a0bd 1e29 e4be e3ff 16be
00000040: a3e3 debe 8ecc 82be 76fc 2c3e a1da ecbe
00000050: ea6e 24bf 6efe 0abf fcf6 95be d232 acbd
00000060: 60d1 10bf 2ca6 d8be 7cf0 d3be db6a 27bf
00000070: e7cd 23bf c2ee 4bbf edd8 943d 5be9 45be
00000080: b228 e2be 97c7 bcbe a464 1fbf f989 60bf
00000090: 43e1 8fbe 922b b0be d797 5bbe 2d76 1e3d
000000a0: 6496 ddbe 4360 9dbe ce40 193e f4b4 e9be
000000b0: db19 2bbf e3da 07be

convs.0.fc_full.weight f4 [92, 98]
-0.3864452 -0.056606952 0.25044298 -0.020360041 0.046196036 0.23257768 0.49462774 -0.95839745
-0.79623914 -0.34361392 -0.34205636 -0.2964009 -0.124933355 0.10362024 0.06428735 0.08849599
0.055846963 -0.29330406 0.24641788 0.018909443 -0.2945846 0.40683916 0.1629769 0.10709505
-0.5104063 -0.13604544 0.36950558 0.05585099 -0.0012038616 -0.040456608 -0.012833659 -0.27193156
0.26639986 0.2716205 -0.6168176 0.19441888 0.7949809 -0.42268306 0.30625725 -0.24869987
-0.47127727 -0.30003583 -0.047276746 -0.5019397 -0.1991324 -0.10715856 -0.21288484 -0.18688542
0.043511335 0.20995787 -0.4999276 -0.020968042 0.16300175 0.013600711 -0.8154262 -0.33868146
-0.55615294 -0.20268321 -0.14062303 0.19159687 0.13437456 0.34345895 0.252864 0.033610065
0.26502544 -0.3095407 -0.18030292 0.116519205 -0.48266366 0.22435877 -0.64725775 -0.40819892
0.59424084 0.5914942 -0.34878305 0.38705194 -0.70490956 -0.19389899 0.18469153 0.066784866
-0.6379362 0.48735547 0.51335967 -0.29221734 0.06822144 -0.20090216 0.23533228 -0.4649649
-0.15504344 -0.28476492 0.022581682 -0.1464174 -0.28012228 -1.2924188 0.026824214 1.193312
-0.037452154 0.3348898 0.123997666 0.81026304 0.40412796 -0.024258476 0.33935848 0.45386803
-0.24129684 0.35638633 0.014531089 0.559201 -0.188712 0.16099738 0.24214661 0.2099651
-0.3044484 0.053156126 0.059634782 -0.12040046 0.3049151 0.17467913 0.42867646 0.04731897
-0.18677342 0.10619793 0.60580903 0.32056955 0.09391613 -0.552471 -0.019843768 0.32632735
0.20765144 0.08677875 0.1268411 -0.0023669812 0.3442121 0.24428488 -0.04014456 0.1790426
-0.27766186 0.38554922 0.19910103 0.11424747 0.35753736 0.30783314 -0.07515481 0.31260055
-0.21673805 -0.27240244 -0.12678002 0.24602847 -0.037009623 -0.045991085 0.1729955 -0.21174866
0.03810678 -0.18871157 -0.11836088 0.15361735 0.109324165 -0.01140318 -0.09498427 0.044977196
0.11962092 0.13461418 -0.24480593 0.27712506 0.26666752 -0.4463817 -0.06469664 -0.037059333
-0.068881206 -0.08243078 -0.13264799 -0.14857936 -0.0714508 -0.327766 -0.032371685 0.21093829
0.0955437 0.17963265 0.17720759 0.112353414 0.037923668 0.05873865 -0.05551206 -0.034900412
0.12816843 -0.35478815 -0.04435836 -0.32392433 0.13667685 -0.022541652 1.3276695 1.7879367
0.3508639 -0.73713404 -0.9501882 -1.4711453 0.023924362 0.058427386 0.31752357 0.016692916
0.12559104 -0.19468193 0.22182679 -0.32310504 -0.5113029 -0.17161968 -0.10704215 -0.19599877
-0.17431876 0.15528344 0.08363072 -0.09969627 0.09365753 0.0936902 0.3774956 -0.048001755
-0.0991781 0.2043463 -0.29481733 0.16410473 0.10018079 0.03625521 -0.014893211 -0.25473005
-0.021792982 0.13261193 0.061560597 -0.9819149 0.43194482 0.017040787 -0.34811953 -0.09677406
-0.13321249 -0.34390187 0.06242562 -0.22458349 -0.21487206 -0.14586449 -0.15025803 -0.0142895
-0.43256575 -0.013949953 -0.12268075 -0.038031846 -0.3288491 0.35151953 -0.09868786 -0.21152574
0.11041713 0.0035548008 -0.2030886 -0.10809841 -0.20781712 -0.3030006 -0.05517895 -0.09864088
00000000: 25dc c5be b1dc 67bd 103a 803e 1aca a6bc
00000010: 0e38 3d3d d828 6e3e d93f fd3e 8959 75bf
00000020: 54d6 4bbf 2aee afbe 0322 afbe dcc1 97be
00000030: 0fdd ffbd d936 d43d 16a9 833d 633d b53d
00000040: c9bf 643d f32b 96be f854 7c3e fae7 9a3c
00000050: cbd3 96be 394d d03e 6be3 263e a654 db3d
00000060: fda9 02bf 7f4f 0bbe d62f bd3e 02c4 643d
00000070: e4ca 9dba d4b5 25bd 4444 52bc 9d3a 8bbe
00000080: 9065 883e d811 8b3e c2e7 1dbf be15 473e
00000090: de83 4b3f ea69 d8be c0cd 9c3e 2eab 7ebe
000000a0: 414b f1be 4c9e 99be 43a5 41bd 1f7f 00bf
000000b0: 5de9 4bbe f275 dbbd 7cfe 59be e45e 3fbe
000000c0: f138 323d 32ff 563e 83f6 ffbe 2cc5 abbc
000000d0: eee9 263e 84d5 5e3c c5bf 50bf a867 adbe
000000e0: 0a60 0ebf 308c 4fbe 7cff 0fbe f831 443e
000000f0: 7c99 093e dad9 af3e 6477 813e b5aa 093d
00000100: 6ab1 873e 1e7c 9ebe 54a1 38be 9fa1 ee3d
00000110: b11f f7be 4ebe 653e afb2 25bf 73ff d0be
00000120: 2b20 183f 2a6c 173f b193 b2be ac2b c63e
00000130: f474 34bf 758d 46be c71f 3d3e 81c6 883d
00000140: c94f 23bf a886 f93e 8a6b 033f 839d 95be
00000150: afb7 8b3d 4cb9 4dbe f2fa 703e e10f eebe
00000160: b5c3 1ebe b5cc 91be 38fd b83c 71ee 15be
00000170: 306c 8fbe fb6d a5bf 74be db3c 73be 983f
00000180: 6e67 19bd ad76 ab3e 7df2 fd3d 666d 4f3f
00000190: dce9 ce3e b6b9 c6bc 65c0 ad3e 6461 e83e
000001a0: 8516 77be 4578 b63e ce13 6e3c cc27 0f3f
000001b0: b83d 41be 7fdc 243e 48f5 773e 1701 573e
000001c0: a9e0 9bbe 3dba 593d 9a43 743d 8494 f6bd
000001d0: d51d 9c3e 16df 323e 7b7b db3e 89d1 413d
000001e0: 8841 3fbe 4d7e d93d 4d16 1b3f b121 a43e
000001f0: 1a57 c03d bd6e 0dbf 668f a2bc 6114 a73e
00000200: 94a2 543e 0fb9 b13d a2e2 013e 5b1f 1bbb
00000210: 923c b03e d125 7a3e 9f6e 24bd f156 373e
00000220: b229 8ebe b566 c53e 24e1 4b3e 94fa e93d
00000230: 230f b73e 4e9c 9d3e c4ea 99bd 2e0d a03e
00000240: 94f0 5dbe 5578 8bbe 9fd2 01be e3ee 7b3e
00000250: 6797 17bd 2661 3cbd bb25 313e a4d4 58be
00000260: db15 1c3d 9b3d 41be 3067 f2bd de4d 1d3e
00000270: 59e5 df3d 67d4 3abc 1d87 c2bd 023a 383d
00000280: d0fb f43d 4dd8 093e 68ae 7abe 56e3 8d3e
00000290: a588 883e 248c e4be ac7f 84bd 87cb 17bd
000002a0: 9711 8dbd 78d1 a8bd e0d4 07be 3025 18be
000002b0: cc54 92bd f2d0 a7be 2c98 04bd 3500 583e
000002c0: 6aac c33d 9ff1 373e e875 353e 8c19 e63d
000002d0: d955 1b3d f097 703d 9d60 63bd bcf3 0ebd
000002e0: 963e 033e cba6 b5be 1db1 35bd 69d9 a5be
000002f0: 04f5 0b3e 45a9 b8bc 13f1 a93f 1cdb e43f
00000300: 6fa4 b33e d1b4 3cbf 893f 73bf 7d4e bcbf
00000310: 06fd c33c 8e51 6f3d 7392 a23e 95bf 883c
00000320: f09a 003e b35a 47be 9026 633e 066e a5be
00000330: bfe4 02bf 12bd 2fbe ea38 dbbd e7b3 48be
00000340: 9e80 32be 9f02 1f3e 9546 ab3d 8f2d ccbd
00000350: 85cf bf3d a6e0 bf3d 1a47 c13e 7d9d 44bd
00000360: e31d cbbd 2840 513e 4cf2 96be 120b 283e
00000370: 962b cd3d 5880 143d a802 74bc fa6b 82be
00000380: 3287 b2bc 6ccb 073e f726 7c3d c65e 7bbf
00000390: df27 dd3e 1f99 8b3c b93c b2be 7a31 c6bd
000003a0: db68 08be e813 b0be 02b2 7f3d 37f9 65be
000003b0: 6c07 5cbe 805d 15be 3edd 19be 821e 6abc
000003c0: 4279 ddbe 588e 64bc 0c40 fbbd 48c7 1bbd
000003d0: e95e a8be 5efa b33e dc1c cabd 349a 58be
000003e0: 6022 e23d a9f7 683b 75f6 4fbe b362 ddbd
000003f0: 03ce 54be e522 9bbe 5303 62bd 3b04 cabd

convs.0.fc_full.bias f4 [92]
0.017020494 -0.04439766 -0.0044015413 -0.10744385 -0.103377715 0.22936727 0.022039564 -0.044857945
-0.049037047 -0.14130019 -0.025001068 -0.040936586 -0.023082497 0.058945708 -0.05179133 -0.018068843
0.025764275 -0.120880425 0.046069253 0.106686294 0.019385759 -0.05820689 0.026566036 0.014709642
-0.07346411 -0.008933383 0.01128184 0.033474617 0.011876528 -0.05690104 -0.17034331 -0.062371995
-0.0018121946 0.035721056 0.03260699 -0.04747207 0.052782398 0.045135498 0.047988437 -0.08420844
-0.0566084 0.06552723 0.052273408 0.05520171 0.061794873 0.048028063 -0.02469352 -0.022227611
-0.0313537 0.06613319 0.048872743 0.03768938 0.12771836 -0.041998606 -7.704388e-05 0.06801717
0.05961684 0.07462135 -0.014706685 0.03895385 -0.10650731 0.078382745 -0.06056778 -0.13884975
0.0043485304 0.068044424 -0.03153584 -0.07326828 -0.046257637 0.008023768 0.06147544 0.028939392
0.07669293 -0.02698134 -0.048787735 -0.025049346 0.18988031 0.019683616 -0.0748724 -0.000691869
-0.030180128 0.0031068611 -0.056981176 0.098876044 0.10194641 0.0019388307 -0.117754206 0.07887582
0.0020714358 0.030542774 -0.021755254 -0.0038973594
00000000: 906e 8b3c 52da 35bd ce3a 90bb 850b dcbd
00000010: b2b7 d3bd 41df 6a3e 518c b43c f7bc 37bd
00000020: 12db 48bd ffb0 10be 0acf ccbc 1fad 27bd
00000030: 8117 bdbc 0e71 713d 2523 54bd 1c05 94bc
00000040: 9a0f d33c 2890 f7bd 1db3 3c3d 587e da3d
00000050: e2ce 9e3c 596a 6ebd 04a1 d93c b600 713c
00000060: 5a74 96bd 535d 12bc 77d7 383c ae1c 093d
00000070: c595 423c 1111 69bd 7a6e 2ebe c779 7fbd
00000080: 2987 edba 3e50 123d e88e 053d 1372 42bd
00000090: 5b32 583d 00e0 383d 868f 443d 7975 acbd
000000a0: 36de 67bd 2433 863d a41c 563d 301b 623d
000000b0: 9f1c 7d3d 13b9 443d 114a cabc ae16 b6bc
000000c0: bd6c 00bd d770 873d c92e 483d 2e60 1a3d
000000d0: 9ac8 023e bb06 2cbd 9e92 a1b8 964c 8b3d
000000e0: ca30 743d 14d3 983d 4ff4 70bc 128e 1f3d
000000f0: 8120 dabd 2287 a03d ec15 78bd a12e 0ebe
00000100: 1e7e 8e3b e05a 8b3d ba2b 01bd ae0d 96bd
00000110: a678 3dbd 1f76 033c accd 7b3d 4e12 ed3c
00000120: 2f11 9d3d f907 ddbc a6d5 47bd 4934 cdbc
00000130: fc6f 423e 893f a13c b356 99bd 8b5e 35ba
00000140: 513c f7bc 7b9c 4b3b 1865 69bd 867f ca3d
00000150: 48c9 d03d 5d20 fe3a 1e29 f1bd a589 a13d
00000160: edc0 073b d734 fa3c 1338 b2bc d76a 7fbb

convs.0.bn1.weight f4 [92]
1.30204 1.451433 0.7892184 1.0891604 1.1901356 1.8797822 1.0292424 1.4539706
0.43654165 2.2425025 2.3259437 -0.14192443 0.40607616 0.48355082 0.61118156 0.49923328
0.7225673 1.507748 1.1916687 3.5066059 1.0304942 1.2752415 0.0429279 1.0779117
1.1872491 0.42728812 0.073422804 3.6061678 2.001715 -0.8025323 3.0702252 1.2315415
1.2359086 0.26243392 0.9277015 1.3819786 0.56205976 1.6365066 0.8973652 0.31149796
1.4056516 0.935316 2.653373 0.9765164 0.2720548 0.63764435 1.8734651 0.36837208
0.0017202549 0.2859228 1.1154045 1.5961436 1.5508063 2.044014 1.1838958 1.3724911
2.514059 0.5382218 1.4754081 0.418035 1.146761 1.2216126 1.0827146 0.18864544
0.93721336 1.1238252 0.9506187 1.1457553 1.5817974 1.9379991 0.88935745 0.48127028
1.2869433 1.3677819 0.9111435 1.1747428 0.38364413 0.782769 0.8481933 0.34709972
0.6097557 0.112009525 1.1265985 1.4466566 1.5642867 1.4243327 1.5578829 2.9776213
0.87344915 1.5970992 0.58391774 0.9688622
00000000: 3fa9 a63f 8ec8 b93f 380a 4a3f 9c69 8b3f
00000010: 5d56 983f b49c f03f 37be 833f b51b ba3f
00000020: 6382 df3e 2985 0f40 43dc 1440 a354 11be
00000030: 37e9 cf3e f993 f73e 6576 1c3f 819b ff3e
00000040: 2cfa 383f e3fd c03f 9a88 983f 3b6c 6040
00000050: 3ce7 833f 1d3b a33f 2ad5 2f3d 03f9 893f
00000060: c7f7 973f 82c5 da3e b25e 963d 74cb 6640
00000070: 191c 0040 c272 4dbf 927e 4440 27a3 9d3f
00000080: 4132 9e3f bd5d 863e d87d 6d3f ade4 b03f
00000090: 26e3 0f3f 0c79 d13f bab9 653f a97c 9f3e
000000a0: 64ec b33f df70 6f3f ddd0 2940 fbfc 793f
000000b0: c44a 8b3e a93c 233f b4cd ef3f 449b bc3e
000000c0: 2d7a e13a 7964 923e 93c5 8e3f 6f4e cc3f
000000d0: d280 c63f 20d1 0240 e689 973f caad af3f
000000e0: 58e6 2040 e7c8 093f 2cda bc3f af08 d63e
000000f0: 10c9 923f cd5d 9c3f 6496 8a3f 452c 413e
00000100: 37ed 6f3f 81d9 8f3f bf5b 733f 1ca8 923f
00000110: 5678 ca3f 5b10 f83f eeac 633f 0f69 f63e
00000120: 8fba a43f 7a13 af3f b340 693f f95d 963f
00000130: 016d c43e 8d63 483f 3223 593f 0eb7 b13e
00000140: f318 1c3f 4065 e53d 6134 903f 0b2c b93f
00000150: 8c3a c83f 8950 b63f b568 c73f 5991 3e40
00000160: 5d9a 5f3f bf6d cc3f a27b 153f 5a07 783f

convs.0.bn1.bias f4 [92]
-0.5705471 -0.6647952 0.4009159 0.119077675 -0.13195443 -0.117780715 -1.2184033 -0.5481592
-0.8027778 -1.498349 -0.6453133 0.5383008 0.11602247 -0.14698474 -0.061719097 -0.43970534
-0.3193407 -0.036320943 -0.040859133 -0.7045437 -0.05591512 -1.5963973 2.3043485 -0.42575634
-0.49305034 0.31413278 1.0561718 -0.86022407 0.13214394 -1.3807604 -0.0031975713 -0.10925645
0.016580923 -0.0048398995 -0.20958726 -0.22520687 0.12354122 -1.4075075 -0.15622643 -0.4597535
-0.7471777 -0.3463811 0.08679676 -1.0513972 -0.25111544 -0.1716197 -0.8198141 -0.06262444
0.42999226 0.086043395 -0.20399189 -0.40836427 -1.4067087 -0.48946747 -0.6548761 -1.4017062
-0.6050143 0.407881 -0.15341534 -0.2055045 -0.19184433 -0.26797184 -0.27162504 0.32367027
-0.4214996 -0.813215 -0.18240908 -2.2710445 -0.47213215 -0.52966917 -0.5384756 0.03771021
-0.55241656 -0.6561188 -0.19198318 -1.4017984 0.32092193 -0.19868319 -0.10392988 -0.15265712
-0.37496865 0.44650367 -0.13208577 -0.7465898 -0.121486984 -0.47618255 -0.98942107 -0.6369762
0.3626229 -1.0922908 -0.35259488 -0.05329738
00000000: 600f 12bf 0530 2abf d944 cd3e ffde f33d
00000010: 101f 07be 0437 f1bd a4f4 9bbf 2954 0cbf
00000020: d982 4dbf e6c9 bfbf 4133 25bf 15ce 093f
00000030: 309d ed3d 2b83 16be 2acd 7cbd 0f21 e1be
00000040: a080 a3be 45c5 14bd e85b 27bd fa5c 34bf
00000050: 4107 65bd bf56 ccbf 727a 1340 bcfc d9be
00000060: 1871 fcbe 03d6 a03e a330 873f a537 5cbf
00000070: be50 073e c2bc b0bf 588e 51bb d8c1 dfbd
00000080: b7d4 873c 0598 9ebb 0b9e 56be a19c 66be
00000090: 2e03 fd3d 3529 b4bf d2f9 1fbe d064 ebbe
000000a0: 0a47 3fbf dd58 b1be 80c2 b13d 2f94 86bf
000000b0: 3492 80be 13bd 2fbe 56df 51bf 3e41 80bd
000000c0: f227 dc3e 8537 b03d 40e3 50be 1f15 d1be
000000d0: 080f b4bf 7b9b fabe f6a5 27bf 1c6b b3bf
000000e0: 38e2 1abf c7d5 d03e e918 1dbe c66f 52be
000000f0: d772 44be 9b33 89be 7012 8bbe 1cb8 a53e
00000100: ccce d7be dc2e 50bf 72c9 3abe cb58 11c0
00000110: 4ebb f1be 6698 07bf 89d9 09bf 0576 1a3d
00000120: 2c6b 0dbf 67f7 27bf 3d97 44be 216e b3bf
00000130: e14f a43e 9b73 4bbe 30d9 d4bd 2652 1cbe
00000140: e4fb bfbe 219c e43e 7e41 07be 8220 3fbf
00000150: 2bce f8bd 33ce f3be b34a 7dbf df10 23bf
00000160: b5a9 b93e 2fd0 8bbf 5187 b4be 5b4e 5abd

convs.0.bn1.running_mean f4 [92]
2.1725569 -5.7714906 4.632237 -2.468159 -9.910781 -5.0654807 -2.3148403 0.5297922
-1.2696402 7.9283757 8.15658 -4.6202626 -5.854035 -2.095283 -4.023057 1.0528152
-3.7046413 -6.829766 -5.359555 -10.726541 -6.5715876 -2.0997038 -2.02263 -6.8818984
2.50415 -4.8854423 -1.1924179 0.49888602 -8.147549 -2.280141 -6.330002 -8.505917
-2.858975 -6.542658 -0.61820495 1.6918967 -7.837919 -1.2216691 -1.7718916 -10.984816
-9.860709 1.9944805 -7.0013866 1.8395154 -7.215101 1.9388224 4.0392475 -6.198978
0.71903926 -1.4663353 -8.216053 0.27126613 -2.794018 -6.4844403 0.080680765 3.7342594
3.1386485 3.371882 -6.3028836 -2.1319351 -0.39595655 0.37544605 -4.0646334 -6.0847554
2.0365784 -8.060834 -9.500642 -4.2988725 -8.594499 -6.5058775 -4.547507 -3.6831994
0.09148892 -3.0485709 -6.173186 0.28414476 -1.0503122 -2.9298975 -3.7289956 -5.822453
-11.916685 7.2329745 -9.467437 -3.4965765 -3.1262393 -10.113921 -5.9332147 3.6402214
-0.8982528 0.09593326 -7.2675543 2.626057
00000000: 2c0b 0b40 0db0 b8c0 493b 9440 51f6 1dc0
00000010: 8f92 1ec1 6b18 a2c0 5826 14c0 76a0 073f
00000020: 9283 a2bf 41b5 fd40 5a81 0241 31d9 93c0
00000030: 4154 bbc0 1e19 06c0 e2bc 80c0 a6c2 863f
00000040: d818 6dc0 718d dac0 7981 abc0 e99f 2bc1
00000050: 724a d2c0 8c61 06c0 c572 01c0 8338 dcc0
00000060: fe43 2040 8b55 9cc0 26a1 98bf fd6d ff3e
00000070: 5c5c 02c1 d5ed 11c0 608f cac0 3c18 08c1
00000080: 72f9 36c0 745d d1c0 ae42 1ebf 1290 d83f
00000090: 3cd0 fac0 a75f 9cbf 58cd e2bf cec1 2fc1
000000a0: 77c5 1dc1 234b ff3f 5c0b e0c0 3e75 eb3f
000000b0: 1be2 e6c0 552b f83f 8441 8140 075e c6c0
000000c0: f512 383f e0b0 bbbf f474 03c1 65e3 8a3e
000000d0: 31d1 32c0 8980 cfc0 f53b a53d 1bfe 6e40
000000e0: 9edf 4840 eacc 5740 39b1 c9c0 a071 08c0
000000f0: d1ba cabe 773a c03e 7a11 82c0 51b6 c2c0
00000100: 4d57 0240 2df9 00c1 a102 18c1 5d90 89c0
00000110: 1183 09c1 2630 d0c0 2d85 91c0 8ab9 6bc0
00000120: 8b5e bb3d c91b 43c0 bd8a c5c0 6c7b 913e
00000130: a170 86bf 7183 3bc0 dda7 6ec0 8951 bac0
00000140: beaa 3ec1 8774 e740 9f7a 17c1 e9c7 5fc0
00000150: 4e14 48c0 9fd2 21c1 e5dc bdc0 63f9 6840
00000160: e5f3 65bf a878 c43d ce8f e8c0 5111 2840

convs.0.bn1.running_var f4 [92]
98.364944 41.986217 31.834568 18.840345 47.09029 63.544796 41.033184 49.440258
11.445135 94.79254 69.85227 24.717888 60.554306 31.012653 55.64444 12.190066
28.180727 40.240578 78.09331 316.65353 59.529186 57.0244 23.325077 80.766495
110.34883 61.63446 54.686844 67.86635 33.372677 255.52618 23.16397 46.55346
50.026165 67.65221 41.335518 23.568531 42.86131 91.208206 33.4426 133.13034
50.900383 53.7463 62.76781 66.80524 37.585884 40.801437 132.31659 43.640198
15.23154 19.974148 55.555267 63.869884 41.3654 69.9498 9.4977045 74.02574
78.62993 19.044302 53.883205 35.35098 47.146667 12.416919 29.01937 36.058983
39.06789 111.22481 79.359146 91.33902 90.55375 99.413124 66.6592 50.827938
81.02797 50.773106 109.267494 244.7265 42.407314 42.856316 25.877443 58.70062
46.826164 42.415993 43.655994 107.92422 72.456955 117.67934 36.002663 60.777596
120.514534 60.89229 38.101063 30.000444
00000000: daba c442 e3f1 2742 32ad fe41 07b9 9641
00000010: 755c 3c42 df2d 7e42 fb21 2442 d3c2 4542
00000020: 461f 3741 c895 bd42 5db4 8b42 3cbe c541
00000030: 9c37 7242 ea19 f841 e893 5e42 830a 4341
00000040: 2172 e141 5af6 2042 c62f 9c42 a753 9e43
00000050: e31d 6e42 fc18 6442 c299 ba41 7288 a142
00000060: 9ab2 dc42 b089 7642 54bf 5a42 92bb 8742
00000070: 9f7d 0542 b486 7f43 d04f b941 be36 3a42
00000080: cb1a 4842 ee4d 8742 9257 2542 5a8c bc41
00000090: fb71 2b42 9a6a b642 39c5 0542 5e21 0543
000000a0: fe99 4b42 36fc 5642 3d12 7b42 489c 8542
000000b0: f257 1642 ac34 2342 0c51 0443 908f 2e42
000000c0: 63b4 7341 0ecb 9f41 9838 5e42 c37a 7f42
000000d0: 2b76 2542 4ce6 8b42 99f6 1741 2e0d 9442
000000e0: 8642 9d42 bb5a 9841 6788 5742 6767 0d42
000000f0: 3096 3c42 b3ab 4641 ab27 e841 663c 1042
00000100: 8545 1c42 1a73 de42 e2b7 9e42 94ad b642
00000110: 851b b542 85d3 c642 8351 8542 cf4f 4b42
00000120: 520e a242 a917 4b42 f588 da42 fcb9 7443
00000130: 17a1 2942 de6c 2b42 0105 cf41 6fcd 6a42
00000140: fe4d 3b42 faa9 2942 bd9f 2e42 33d9 d742
00000150: f6e9 9042 d25b eb42 ba02 1042 421c 7342
00000160: 7107 f142 b491 7342 7d67 1842 e900 f041

convs.0.bn2.weight f4 [46]
1.482941 1.2962067 -0.03292343 -0.07326421 -0.0010084473 1.6089244 1.2396933 0.8529307
-0.004703618 1.1678776 0.7846248 0.024576226 0.90221024 0.003285409 0.6309107 0.015823755
0.15157558 0.6769478 0.77527905 0.9824141 0.46746582 0.3434652 0.93561536 0.6990762
1.0047622 0.8392546 0.96771514 1.2510262 1.5177782 0.43148878 0.8568836 0.7514015
0.51638496 1.137867 0.59955394 0.35982582 0.7515591 1.4382651 0.48639852 0.50798553
0.77002686 0.71078455 0.61186486 0.84317476 0.81110317 0.2143724
00000000: 03d1 bd3f 1aea a53f b8da 06bd 8c0b 96bd
00000010: e02d 84ba 3cf1 cd3f 45ae 9e3f ab59 5a3f
00000020: cf20 9abb 037d 953f 2cdd 483f 1554 c93c
00000030: 40f7 663f 0450 573b 5d83 213f d2a0 813c
00000040: a136 1b3e 734c 2d3f b078 463f 7e7f 7b3f
00000050: ae57 ef3e acda af3e 7d84 6f3f a8f6 323f
00000060: 0c9c 803f 64d9 563f 2ebc 773f a021 a03f
00000070: 8e46 c23f 19ec dc3e b95c 5b3f d95b 403f
00000080: ce31 043f a0a5 913f 5e7c 193f 173b b83e
00000090: 2d66 403f 1219 b83f 3a09 f93e 570b 023f
000000a0: 7b20 453f faf5 353f 2da3 1c3f 4dda 573f
000000b0: 75a4 4f3f 7084 5b3e

convs.0.bn2.bias f4 [46]
-0.29648587 -0.1916904 -0.60087466 -0.75648195 -0.31650883 -0.3733719 -0.43198493 -0.17886983
-0.3367892 -0.15133859 -0.2764293 -0.77545196 -0.19319622 -0.015301649 -0.40876997 -0.16400462
-0.3584723 -0.16091797 0.0776349 -0.39930755 -0.5769587 -0.5986165 -0.26382068 -0.025130533
-0.49936494 -0.5104019 -0.49000934 -0.5956648 -0.5875696 -0.8096887 -0.019057786 -0.29030862
-0.36760053 -0.29169077 -0.651183 -0.92529845 -0.27420226 -0.25786638 -0.30769435 0.020629838
-0.3730447 -0.23259914 0.059751716 -0.48161712 -0.7306164 -0.12164699
00000000: ffcc 97be 7d4a 44be ecd2 19bf cda8 41bf
00000010: 720d a2be 9a2a bfbe 212d ddbe a729 37be
00000020: a26f acbe 81f8 1abe 2488 8dbe 0584 46bf
00000030: 3bd5 45be c5b3 7abc 4c4a d1be d4f0 27be
00000040: ae89 b7be aec7 24be 0cff 9e3d 0a72 ccbe
00000050: 91b3 13bf ee3e 19bf 8113 87be 8cde cdbc
00000060: c3ac ffbe b3a9 02bf 81e2 fabe 7d7d 18bf
00000070: f66a 16bf c247 4fbf 131f 9cbc 55a3 94be
00000080: 2336 bcbe 7e58 95be eeb3 26bf 5ce0 6cbf
00000090: 3d64 8cbe 1007 84be 1d8a 9dbe e8ff a83c
000000a0: b7ff bebe 782e 6ebe 37be 743d 8596 f6be
000000b0: ad09 3bbf 0f22 f9bd

convs.0.bn2.running_mean f4 [46]
5.234124 3.5553176 6.570656 4.978141 5.3985467 4.8959904 2.471607 6.035281
2.8633194 1.5863085 7.622972 7.2265534 6.197387 3.6909218 5.1872153 4.294668
4.5070934 5.429148 4.480028 2.2042525 5.091334 0.3413319 7.877604 6.251434
3.391978 5.394127 5.717662 2.8502402 5.0723367 1.3943533 5.1004276 4.3952103
5.2424836 3.9176748 3.4868813 5.335609 5.7245917 3.3660922 6.1784697 3.769802
3.7484653 7.917887 6.187625 2.904427 3.2345395 5.076319
00000000: f27d a740 538a 6340 d042 d240 ee4c 9f40
00000010: e5c0 ac40 f4ab 9c40 cf2e 1e40 0621 c140
00000020: a040 3740 280c cb3f 63ef f340 ed3f e740
00000030: ff50 c640 1038 6c40 abfd a540 ec6d 8940
00000040: 1c3a 9040 95bb ad40 645c 8f40 7912 0d40
00000050: 35ec a240 0ec3 ae3e 5515 fc40 bf0b c840
00000060: 2b16 5940 b09c ac40 16f7 b640 566a 3640
00000070: 9550 a240 2b7a b23f b436 a340 90a5 8c40
00000080: 6dc2 a740 2fbb 7a40 1029 5f40 4fbd aa40
00000090: db2f b740 0e6e 5740 06b6 c540 7044 7140
000000a0: dbe6 6f40 555f fd40 0601 c640 22e2 3940
000000b0: b202 4f40 3571 a240

convs.0.bn2.running_var f4 [46]
26.780655 11.11078 3.6125574 5.8296566 40.789463 21.664597 10.70716 36.920254
32.524406 4.87676 168.93341 5.812851 63.458324 5.605169 8.85474 83.17632
49.078983 5.464891 6.877533 3.8335538 20.535044 0.17760956 23.67083 112.454506
24.008091 4.942106 4.8837576 8.444866 5.2947097 1.2529906 14.910933 29.327917
31.752638 0.79158026 14.369324 4.50891 36.446323 14.437532 81.20305 17.970278
25.521538 32.634212 24.811146 12.536545 8.297368 11.433876
00000000: c83e d641 c1c5 3141 2434 6740 8c8c ba40
00000010: 6928 2342 1851 ad41 8750 2b41 57ae 1342
00000020: fe18 0242 6b0e 9c40 f4ee 2843 e002 ba40
00000030: 53d5 7d42 8b5d b340 04ad 0d41 475a a642
00000040: e150 4442 63e0 ae40 c014 dc40 f258 7540
00000050: c547 a441 48df 353e dc5d bd41 b5e8 e042
00000060: 9210 c041 bb25 9e40 be47 9c40 2c1e 0741
00000070: 436e a940 ff61 a03f 2e93 6e41 939f ea41
00000080: 6705 fe41 01a5 4a3f c0e8 6541 fe48 9040
00000090: 09c9 1142 2200 6741 f667 a242 21c3 8f41
000000a0: 1c2c cc41 6f89 0242 3a7d c641 b095 4841
000000b0: 05c2 0441 28f1 3641

convs.1.fc_full.weight f4 [92, 98]
0.40244317 -0.024558168 -0.29423237 -0.07912835 -0.47284347 -0.8312602 -0.2187995 -0.23703443
-0.12236265 0.04420566 0.41074085 -0.1751638 -0.28433454 -0.5916011 -0.036826212 0.01595328
0.08130629 -0.3181599 -0.83366334 0.22996245 0.00039097783 -0.265123 0.18023527 0.18201457
-0.7447774 -0.024698785 -0.13312918 -0.13562876 -0.2253636 -0.014197261 -0.22076078 -0.4393252
-0.25623715 -0.06147142 0.12485398 0.17054857 0.32689705 0.06339013 0.20677428 -0.16716333
-0.35829327 -0.058612335 -0.41425413 0.098314635 -0.054855194 -0.1993404 -0.28854066 0.2454118
-0.05892812 -0.10718846 -0.2525619 -0.13514826 0.032843113 0.24450435 -0.002286055 0.26344493
-0.15100412 0.035600863 -0.029601108 -0.24291304 0.033199757 -0.06535433 -0.06674526 0.0007437148
0.00052317104 0.20382851 0.4098793 -0.50547624 0.31587464 -0.07061261 0.35555425 -0.06641469
0.110388026 -0.22094028 -0.42064467 -0.1108117 0.022197746 -0.107593015 -0.05752697 -0.025907107
0.09077027 -0.011481657 0.14281654 -0.07155764 0.016664887 0.19839413 0.29460368 -0.021214388
-0.05626814 0.15131062 0.07950459 -0.22015937 -0.74394876 -0.6081113 -0.24251553 0.296256
0.59665084 0.3260754 -0.116332315 0.04543482 0.17243935 -0.008898826 -0.063657545 -0.108843215
-0.022820164 0.008543544 -0.097146034 -0.12513457 0.12874535 0.18198211 -0.09011196 -0.29116523
-0.25347304 -0.5306238 -0.22978236 0.092329994 -0.02040802 -0.03455578 0.0140062785 -0.015074345
0.0047159414 -0.37928012 0.08876892 -0.11440268 -0.13052782 -0.17003709 0.06325446 0.010691243
-0.07790367 -0.0074717132 -0.17727031 -0.018708827 0.054519176 0.045579724 -0.24628384 0.037879407
-0.29656547 -0.0075409017 -0.03337032 0.043815996 -0.062151704 -0.06765346 -0.20050307 0.03690341
0.13596007 -0.15713233 0.07897942 0.08004558 0.18567523 -0.06679598 -0.019610029 -0.173132
-0.031303603 -0.13010895 0.026101775 0.0021526373 0.29285568 0.13672478 0.06871002 0.24380648
0.09913063 0.10323424 0.1137869 -0.116806924 -0.011818721 -0.021069597 0.20776851 0.27854964
-0.032574475 0.08529599 -0.05607182 0.095868915 -0.029695429 -0.09047985 -0.09094558 0.122084185
0.1503581 0.16529995 -0.11353758 0.078098156 0.30089325 -0.004034907 0.30185533 0.17231444
-0.012558883 -0.03943337 0.124704964 0.010348652 0.16037722 -0.14326143 -0.2994702 -0.19051068
-0.063016415 0.098407984 0.3635948 0.22208597 -0.14495401 0.11329395 -0.37929437 0.09777971
0.135765 -0.13318372 0.8186639 -0.048786297 -0.3677026 -0.28482616 0.19387747 -0.06113498
0.0020414805 -0.10178608 -0.05485709 -0.20186763 0.07294517 -0.2963303 -0.0734125 0.85419095
0.009476574 -0.06703246 -0.28622892 0.053194106 -0.18782718 -0.14821981 -0.17689611 0.04725312
0.2306181 -0.73291767 -0.086240515 -0.38451704 -0.20856306 -0.16726685 -0.2160644 -0.11472378
-0.1003332 0.3706675 -0.16466847 0.024725959 0.09834635 -0.44189954 -0.17015594 0.14756988
-0.031208994 -0.06209954 -0.06654567 0.09071854 -0.5195981 0.11711254 0.13898042 0.9583325
-0.3487472 -0.38568395 0.09228541 -0.08944852 -0.1476535 -0.0988095 0.12813376 0.28463805
00000000: 080d ce3e 362e c9bc a0a5 96be 0b0e a2bd
00000010: 8a18 f2be 78cd 54bf fa0c 60be 27b9 72be
00000020: 4599 fabd fe10 353d a04c d23e 245e 33be
00000030: 4c94 91be 2b73 17bf 15d7 16bd 74b0 823c
00000040: ea83 a63d dbe5 a2be f66a 55bf 477b 6b3e
00000050: 28fc cc39 34be 87be 988f 383e 0762 3a3e
00000060: bba9 3ebf 1b55 cabc 0453 08be 44e2 0abe
00000070: b7c5 66be a19b 68bc 1d0f 62be 3cef e0be
00000080: 8431 83be 75c9 7bbd 72b3 ff3d 49a4 2e3e
00000090: 0d5f a73e afd2 813d a3bc 533e dd2c 2bbe
000000a0: 3772 b7be 7d13 70bd 1e19 d4be 2f59 c93d
000000b0: d7af 60bd e41f 4cbe 9abb 93be 3b4d 7b3e
000000c0: 9d5e 71bd a085 dbbd cb4f 81be 4e64 0abe
000000d0: 8086 063d 595f 7a3e a3d1 15bb 41e2 863e
000000e0: d3a0 1abe 36d2 113d 067e f2bc 32be 78be
000000f0: 78fc 073d 7ed8 85bd bdb1 88bd dbf5 423a
00000100: 6a25 093a 6cb8 503e b3db d13e e466 01bf
00000110: 52ba a13e 589d 90bd 350b b63e 6d04 88bd
00000120: 1e13 e23d 2b3e 62be bd5e d7be 3ff1 e2bd
00000130: 0cd8 b53c ba59 dcbd 66a1 6bbd 243b d4bc
00000140: c3e5 b93d 8f1d 3cbc 803e 123e d08c 92bd
00000150: cd84 883c d527 4b3e 4bd6 963e ccc9 adbc
00000160: 6c79 66bd 2cf1 1a3e 4dd3 a23d 7571 61be
00000170: 6d73 3ebf 2fad 1bbf fe55 78be deae 973e
00000180: 1cbe 183f 5bf3 a63e a33f eebd dd19 3a3d
00000190: f193 303e 62cc 11bc e35e 82bd 31e9 debd
000001a0: 5af1 babc 39fa 0b3c 80f4 c6bd 4723 00be
000001b0: d2d5 033e 8559 3a3e 9f8c b8bd 9c13 95be
000001c0: 38c7 81be f6d6 07bf 114c 6bbe 8217 bd3d
000001d0: b82e a7bc 5d8a 0dbd 977a 653c 63fa 76bc
000001e0: 2f88 9a3b 0131 c2be 7bcc b53d f44b eabd
000001f0: 16a9 05be 341e 2ebe 8e8b 813d 532a 2f3c
00000200: f68b 9fbd 46d5 f4bb 5986 35be 4143 99bc
00000210: 804f 5f3d ceb1 3a3d d531 7cbe 7027 1b3d
00000220: 6ed7 97be ab19 f7bb 51af 08bd 6778 333d
00000230: c992 7ebd e68d 8abd ad50 4dbe 0828 173d
00000240: 1e39 0b3e 4ce7 20be f6bf a13d f0ee a33d
00000250: a621 3e3e 55cc 88bd 36a5 a0bc 8449 31be
00000260: 3538 00bd 483b 05be 64d3 d53c 4313 0d3b
00000270: 2ef1 953e 9501 0c3e d7b7 8c3d 68a8 793e
00000280: 0005 cb3d 796c d33d 1b09 e93d 7838 efbd
00000290: 4fa3 41bc 269a acbc 45c1 543e 0f9e 8e3e
000002a0: d06c 05bd aaaf ae3d 91ab 65bd ec56 c43d
000002b0: d443 f3bc 804d b9bd ad41 babd 4607 fa3d
000002c0: 79f7 193e 6444 293e 6486 e8bd edf1 9f3d
000002d0: ae0e 9a3e 4137 84bb c88c 9a3e 3273 303e
000002e0: c6c3 4dbc e384 21bd 5165 ff3d 648d 293c
000002f0: ed39 243e 20b3 12be 2854 99be 3b15 43be
00000300: c00e 81bd 208a c93d 1929 ba3e 816a 633e
00000310: d36e 14be a906 e83d df32 c2be bb40 c83d
00000320: fb05 0b3e 5061 08be f593 513f 24d4 47bd
00000330: 8443 bcbe bcd4 91be d187 463e ac68 7abd
00000340: 5cca 053b 3875 d0bd d4b1 60bd 63b6 4ebe
00000350: 4764 953d 9bb8 97be 4b59 96bd 42ac 5a3f
00000360: a243 1b3c 5048 89bd 998c 92be 10e2 593d
00000370: c555 40be efc6 17be 4124 35be 7d8c 413d
00000380: 2727 6c3e 7ea0 3bbf de9e b0bd 6bdf c4be
00000390: 8e91 55be 0048 2bbe fc3f 5dbe 4df4 eabd
000003a0: 7e7b cdbd 21c8 bd3e da9e 28be 188e ca3c
000003b0: d069 c93d a840 e2be 5c3d 2ebe 8f1c 173e
000003c0: 01aa ffbc 165c 7ebd 1949 88bd a4ca b93d
000003d0: 6204 05bf b3d8 ef3d e250 0e3e 4755 753f
000003e0: fe8e b2be 5e78 c5be 2200 bd3d c930 b7bd
000003f0: 7b32 17be a35c cabd 7f35 033e 14bc 913e

convs.1.fc_full.bias f4 [92]
-0.09649486 0.048474878 0.07407325 0.009364257 0.04740594 -0.08293348 -0.006467174 -0.07309802
0.018450314 0.0148754185 -0.08580767 0.06693484 -0.004545151 0.029026745 -0.009050195 0.046513718
-0.06586038 0.14050056 -0.020426795 -0.04495379 -0.03312563 -0.0061103287 -0.20065328 -0.016248241
0.0025925934 0.066707656 0.06719768 -0.07860904 -0.030214516 0.014492864 -0.07165795 -0.04328875
-0.12889637 -0.09858929 0.09552893 0.015934978 -0.09669797 0.026293742 -0.032956455 -0.09287124
0.061892148 -0.05395502 0.063086785 0.04106151 0.02420711 0.036671463 -0.0752357 -0.089804605
0.09796171 0.12568168 0.09371644 0.04609831 0.09350126 0.24021113 0.058185365 -0.024437852
0.33770004 -0.08886547 0.047473155 0.046931997 0.026475057 -0.009404545 -0.010235828 -0.08377169
-0.088413596 -0.06725955 -0.048368283 0.006271049 -0.13286696 0.09871136 0.08029473 -0.057960678
-0.096526094 -0.013549859 0.12703604 0.018497357 0.045297313 0.09450604 0.04469242 -0.08645529
0.06781804 0.03796825 -0.073477544 0.0149962995 -0.050359078 0.04382756 -0.07890099 0.021568853
0.03291157 0.064863175 0.06899409 -0.021601686
00000000: 199f c5bd 988d 463d b7b3 973d 8a6c 193c
00000010: bb2c 423d 07d9 a9bd 96ea d3bb 6ab4 95bd
00000020: 1d25 973c 07b8 733c efbb afbd 2215 893d
00000030: 7def 94bb 7fc9 ed3c 4547 14bc 2b85 3e3d
00000040: cfe1 86bd 61df 0f3e 1856 a7bc 7721 38bd
00000050: beae 07bd 2739 c8bb 0e78 4dbe 081b 85bc
00000060: 80e8 293b 069e 883d f09e 893d c7fd a0bd
00000070: 6f84 f7bc 7a73 6d3c 67c1 92bd 8b4f 31bd
00000080: 69fd 03be 2fe9 c9bd aca4 c33d 128a 823c
00000090: 9609 c6bd f965 d73c 59fd 06bd 4733 bebd
000000a0: 9f82 7d3d f0ff 5cbd a533 813d 1d30 283d
000000b0: fd4d c63c d134 163d 2d15 9abd 7aeb b7bd
000000c0: 26a0 c83d b3b2 003e 68ee bf3d 95d1 3c3d
000000d0: 977d bf3d e8f9 753e c753 6e3d e431 c8bc
000000e0: 05e7 ac3e 19ff b5bd 3673 423d c43b 403d
000000f0: 38e2 d83c 8515 1abc 2db4 27bc 7e90 abbd
00000100: 3012 b5bd 60bf 89bd d21d 46bd 5f7d cd3b
00000110: 470e 08be 2e29 ca3d 9071 a43d 2d68 6dbd
00000120: 79af c5bd 3a00 5ebc bc15 023e c587 973c
00000130: ad89 393d 628c c13d 660f 373d 790f b1bd
00000140: 2fe4 8a3d 9984 1b3d 657b 96bd 0ab3 753c
00000150: 5245 4ebd 8784 333d d896 a1bd 2ab1 b03c
00000160: 48ce 063d fcd6 843d c64c 8d3d 05f6 b0bc

convs.1.bn1.weight f4 [92]
0.12353322 0.010802875 0.56525517 3.5449102 1.3219156 1.0064886 0.2959131 0.6576926
0.97516227 1.9842879 1.2694796 0.22824928 2.0487382 0.16228148 0.32832646 2.358448
2.129521 2.6006424 2.5281422 1.1805761 0.7693158 1.0187154 1.1158594 0.44836912
1.3344438 0.73734653 0.72516155 2.2894304 1.7195851 1.3821516 1.3411454 0.8846725
1.0853261 0.7052512 1.0391821 0.3730285 2.1219594 0.43323228 1.27958 0.17372186
2.0582843 0.19651803 -0.013050365 3.3052518 0.22950327 1.4402846 0.35500506 2.25765
1.6946824 1.5942992 1.8038424 0.2557838 0.008458994 0.9171531 -0.47860524 2.7574098
1.0373948 1.292781 0.657037 2.04608 0.72338873 0.7662802 1.5493395 0.9336022
0.41899818 0.51475954 1.161236 2.1851854 1.5005717 1.0573895 2.45674 1.4569372
1.2298025 1.6123304 1.7760326 2.337231 0.302778 -0.044034157 0.6050967 2.2478335
0.66180384 0.7891107 1.2349145 0.61367655 0.03357525 0.46754402 1.7186219 0.5438506
0.8901807 1.748702 0.48472118 1.3594031
00000000: fcfe fc3d 8bfe 303c 90b4 103f cfdf 6240
00000010: 8834 a93f 9ed4 803f ec81 973e 8b5e 283f
00000020: 3ca4 793f 25fd fd3f 4f7e a23f 2eba 693e
00000030: 871e 0340 1e2d 263e 681a a83e d0f0 1640
00000040: 124a 0840 ed70 2640 15cd 2140 1e1d 973f
00000050: e1f1 443f 4465 823f 7bd4 8e3f a390 e53e
00000060: 0ecf aa3f bec2 3c3f 30a4 393f 0786 1240
00000070: 5d1b dc3f 58ea b03f a7aa ab3f e679 623f
00000080: f7eb 8a3f 588b 343f eb03 853f 97fd be3e
00000090: 2fce 0740 9fd0 dd3e 47c9 a33f 25e4 313e
000000a0: eeba 0340 063c 493e 33d1 55bc 3f89 5340
000000b0: e802 6b3e 3f5b b83f 39c3 b53e 567d 1040
000000c0: 5aeb d83f ff11 cc3f 4fe4 e63f 18f6 823e
000000d0: 9897 0a3c 8cca 6a3f bf0b f5be 6779 3040
000000e0: 5ac9 843f d979 a53f 9433 283f faf2 0240
000000f0: 0130 393f f02a 443f c250 c63f 8e00 6f3f
00000100: ee86 d63e 48c7 033f 62a3 943f 14da 0b40
00000110: bc12 c03f 8a58 873f 3a3b 1d40 eb7c ba3f
00000120: 2b6a 9d3f d860 ce3f 0955 e33f 3195 1540
00000130: b805 9b3e 295d 34bd 9ee7 1a3f 81dc 0f40
00000140: fa6b 293f 2903 4a3f ae11 9e3f e819 1d3f
00000150: 3486 093d ee61 ef3e cdfb db3f cb39 0b3f
00000160: e2e2 633f 78d5 df3f 602d f83e ec00 ae3f

convs.1.bn1.bias f4 [92]
0.6239287 2.0490806 -1.4747063 -0.7823548 -0.3662374 -0.31103313 -0.19434327 -0.16474584
-0.2924437 -1.8746756 -0.6904817 -0.33459997 -0.13206969 -0.15294465 -0.42901814 -0.42069104
-0.40641463 -0.16292429 -0.24310435 0.34420344 -1.1208581 -0.46453866 -1.4188765 -1.0137902
-0.89841056 -0.33353087 -0.82794046 -0.9741801 -2.9943862 -0.68315494 0.21182348 0.2286997
0.26903227 0.026349578 -0.4049493 -0.61806047 -0.6649489 -0.60546553 -0.69532603 -0.40155998
-1.420771 -0.7972493 0.91515934 -1.1879463 0.25412723 -0.1531288 0.14810511 -1.0439514
-1.950306 -1.379624 -0.3006332 0.17622682 1.310817 -0.21182843 -0.3504037 -1.9121509
-0.6745945 -0.070677474 0.4635374 -0.04177854 -0.4515365 0.13747801 -0.106703855 0.20100217
-0.2018375 0.08883619 -0.7495127 -0.7483718 -0.60727495 -0.85559523 -0.985074 -0.3653833
-1.1644003 -0.43968192 -3.3423254 -0.93974584 0.11438608 3.0300202 0.3244845 -0.36102644
-0.61052597 -0.6980793 -0.63905865 -0.40620098 1.4948719 -0.2759424 -2.2878153 -0.65377164
-0.00236491 -1.205278 -0.011336647 -0.48234743
00000000: cbb9 1f3f 2324 0340 2dc3 bcbf 6748 48bf
00000010: 7883 bbbe bc3f 9fbe ec01 47be 22b3 28be
00000020: 2ebb 95be 5ff5 efbf 69c3 30bf b050 abbe
00000030: 473d 07be 869d 1cbe 44a8 dbbe d164 d7be
00000040: 9415 d0be a0d5 26be 59f0 78be 6f3b b03e
00000050: 4778 8fbf 03d8 edbe bf9d b5bf e1c3 81bf
00000060: 3cfe 65bf 8fc4 aabe e8f3 53bf de63 79bf
00000070: 06a4 3fc0 3ee3 2ebf 41e8 583e 4130 6a3e
00000080: 99be 893e 12db d73c 8455 cfbe 3639 1ebf
00000090: 173a 2abf caff 1abf e300 32bf 4599 cdbe
000000a0: d3db b5bf 8818 4cbf e247 6a3f a00e 98bf
000000b0: f71c 823e cccd 1cbe dea8 173e 33a0 85bf
000000c0: a1a3 f9bf 8597 b0bf 98ec 99be ce74 343e
000000d0: dac8 a73f 8de9 58be 1d68 b3be 5cc1 f4bf
000000e0: 3ab2 2cbf 5abf 90bd c654 ed3e f91f 2bbd
000000f0: cb2f e7be 09c7 0c3e 8d87 dabd 83d3 4d3e
00000100: 7dae 4ebe c0ef b53d 10e0 3fbf 4b95 3fbf
00000110: 5f76 1bbf 4a08 5bbf cf2d 7cbf 8513 bbbe
00000120: 120b 95bf fd1d e1be a9e8 55c0 2f93 70bf
00000130: 4043 ea3d daeb 4140 d522 a63e 75d8 b8be
00000140: 6e4b 1cbf 53b5 32bf 5999 23bf 93f9 cfbe
00000150: f657 bf3f 5248 8dbe 916b 12c0 945d 27bf
00000160: 9bfc 1abb 8d46 9abf 58bd 39bc 3ef6 f6be

convs.1.bn1.running_mean f4 [92]
-2.7799962 -0.35796523 -0.7528513 -0.85480934 1.1385142 -0.34111503 3.4139388 5.835518
-3.6828666 1.3677813 0.08934074 2.081329 2.4213967 1.1053865 2.1011527 1.1354889
0.2827828 -1.2055978 -0.33061752 -1.3420013 -0.9434749 -1.9829215 -0.22411102 -1.2337159
1.2783815 2.6437182 -0.7062215 2.0723171 -2.042628 0.39817077 -1.5701162 6.195742
-4.746304 2.3256142 -1.6028287 0.8724533 -0.728987 -0.17473547 4.195414 3.273733
-1.634009 3.9756007 0.003691285 -4.834291 -3.2047195 -0.20466077 -3.6701946 -0.3207806
-2.7996404 -0.062131096 4.30246 -1.4152274 2.295708 3.3157525 3.600957 1.8630067
0.65040636 1.1226069 0.7501321 0.042489063 1.7637259 -8.277884 -4.6249256 1.1364682
3.1227093 -3.938282 0.7802042 -2.4351547 -2.0773299 0.79405016 -1.4462762 1.812052
-0.001716194 -4.360377 1.0678445 0.59405136 -1.379572 1.7469449 -2.059919 3.2664623
2.5544982 -2.5757298 0.5237791 -0.3297412 2.1603272 3.0389998 1.93252 2.8411047
2.725677 -2.7105289 -3.0421221 -5.7177434
00000000: 75eb 31c0 3847 b7be ddba 40bf c9d4 5abf
00000010: d5ba 913f a1a6 aebe f97d 5a40 90bc ba40
00000020: 16b4 6bc0 7513 af3f 47f8 b63d 7f34 0540
00000030: 2af8 1a40 4e7d 8d3f 4979 0640 b357 913f
00000040: e8c8 903e 0751 9abf b346 a9be b3c6 abbf
00000050: 9287 71bf 5fd0 fdbf 5c7d 65be 67ea 9dbf
00000060: 01a2 a33f ae32 2940 efca 34bf d8a0 0440
00000070: 6bba 02c0 0add cb3e 91f9 c8bf 8543 c640
00000080: b9e1 97c0 ddd6 1440 7e29 cdbf 1959 5f3f
00000090: e49e 3abf dbed 32be d540 8640 d784 5140
000000a0: 3527 d1bf 3e70 7e40 7ce9 713b 83b2 9ac0
000000b0: 201a 4dc0 9892 51be 78e4 6ac0 5b3d a4be
000000c0: 4f2d 33c0 2d7d 7ebd c1ad 8940 2c26 b5bf
000000d0: e1ec 1240 4a35 5440 1476 6640 0177 ee3f
000000e0: 0881 263f 95b1 8f3f a808 403f 0309 2e3d
000000f0: c5c1 e13f 3672 04c1 64ff 93c0 ca77 913f
00000100: 78da 4740 d00c 7cc0 76bb 473f 93d9 1bc0
00000110: f9f2 04c0 df46 4b3f 941f b9bf 52f1 e73f
00000120: eaf1 e0ba 3588 8bc0 21af 883f c013 183f
00000130: d195 b0bf e49b df3f b7d5 03c0 b80d 5140
00000140: e67c 2340 c2d8 24c0 6316 063f d7d3 a8be
00000150: cd42 0a40 f97e 4240 d15c f73f a9d4 3540
00000160: 7e71 2e40 4e79 2dc0 21b2 42c0 c1f7 b6c0

convs.1.bn1.running_var f4 [92]
10.654485 6.956234 11.545478 6.629191 11.120442 12.174383 23.64554 27.241985
13.340146 21.568977 11.2880945 16.749763 11.542132 17.069878 6.115102 14.801333
7.315213 8.519906 10.595876 19.47584 17.11656 7.4515824 11.985625 19.943594
8.557257 12.125133 8.18914 6.239817 13.757793 19.058666 10.040408 46.428417
9.631772 21.44398 10.372926 13.924832 10.368213 11.086421 27.425863 27.87204
18.09115 31.456371 8.016601 11.178713 16.259787 11.322015 16.228342 11.411822
10.835156 10.764046 22.37175 10.659843 12.909699 22.50574 19.408495 13.369297
12.135322 19.728558 15.172747 8.711124 4.4955 36.443043 15.558131 11.438137
28.704018 26.451689 13.6798 8.343483 26.245596 12.642509 10.231528 15.378525
8.421548 18.19381 5.325392 19.262968 9.931335 10.596939 10.613182 16.654024
15.196822 26.68157 13.086681 16.811329 9.016213 26.744295 19.387903 40.435577
21.893152 7.9668875 14.632077 22.11345
00000000: c578 2a41 7899 de40 47ba 3841 5522 d440
00000010: 55ed 3141 46ca 4241 112a bd41 96ef d941
00000020: 3d71 5541 448d ac41 099c 3441 84ff 8541
00000030: 93ac 3841 1c8f 8841 eaae c340 43d2 6c41
00000040: 3a16 ea40 8951 0841 b588 2941 85ce 9b41
00000050: b7ee 8841 5d73 ee40 1fc5 3f41 7b8c 9f41
00000060: 86ea 0841 8b00 4241 b806 0341 95ac c740
00000070: ec1f 5c41 2678 9841 83a5 2041 b3b6 3942
00000080: bd1b 1a41 458d ab41 81f7 2541 1dcc 5e41
00000090: 33e4 2541 fb61 3141 2b68 db41 f0f9 de41
000000a0: adba 9041 a6a6 fb41 ff43 0041 02dc 3241
000000b0: 0b14 8241 f926 3541 a5d3 8141 d396 3641
000000c0: cd5c 2d41 8839 2c41 58f9 b241 b88e 2a41
000000d0: 218e 4e41 c10b b441 9944 9b41 a4e8 5541
000000e0: 472a 4241 16d4 9d41 92c3 7241 c460 0b41
000000f0: 23db 8f40 adc5 1142 1bee 7841 9c02 3741
00000100: d4a1 e541 0f9d d341 76e0 5a41 e87e 0541
00000110: fbf6 d141 b847 4a41 57b4 2341 700e 7641
00000120: a9be 0641 ec8c 9141 9c69 aa40 8f1a 9a41
00000130: c0e6 1e41 108d 2941 98cf 2941 713b 8541
00000140: 2f26 7341 db73 d541 0c63 5141 9a7d 8641
00000150: 6942 1041 51f4 d541 6d1a 9b41 08be 2142
00000160: 2d25 af41 bef0 fe40 fd1c 6a41 58e8 b041

convs.1.bn2.weight f4 [46]
0.7888868 1.4333496 0.39505368 0.74425733 0.58391607 0.13330701 0.39332283 1.0684485
0.323091 0.98433256 0.78708297 0.44433784 0.25370568 1.404267 0.045475397 0.74349666
0.95293695 0.8881695 1.3806251 0.6238084 1.6464946 1.0441353 1.4996558 -0.0044715903
0.7707017 0.3113198 0.18709548 0.795669 1.8388684 1.2389193 0.6941285 0.18043154
0.6960403 0.66892016 0.3811674 0.64740133 1.0603356 0.5108932 0.750135 0.5512859
0.99883145 0.554563 0.37821507 -0.71593314 0.41380265 1.1771337
00000000: 7cf4 493f 0078 b73f 7a44 ca3e a687 3e3f
00000010: 867b 153f a281 083e 9c61 c93e ecc2 883f
00000020: 2f6c a53e 38fd 7b3f 457e 493f 4080 e33e
00000030: b6e5 813e 05bf b33f 6944 3a3d cc55 3e3f
00000040: adf3 733f 145f 633f 53b8 b03f e8b1 1f3f
00000050: 56c0 d23f 3aa6 853f b9f4 bf3f 6b86 92bb
00000060: b54c 453f 4f65 9f3e f595 3f3e f7b0 4b3f
00000070: 0a60 eb3f e894 9e3f 68b2 313f 0cc3 383e
00000080: b22f 323f 5a3e 2b3f 6028 c33e 18bc 253f
00000090: 14b9 873f e6c9 023f d908 403f 1321 0d3f
000000a0: 6bb3 7f3f d7f7 0d3f 68a5 c13e 6547 37bf
000000b0: f1dd d33e 51ac 963f

convs.1.bn2.bias f4 [46]
-0.4384303 -0.60705155 -0.42328778 -0.35449404 -0.47208315 -0.36253485 -0.27239528 -0.06778688
-0.27567148 -0.20908728 -0.0032834061 -0.69356185 -0.06654308 -0.12069935 -0.485392 -0.054840956
-0.21515733 -0.113063544 -0.19701134 -0.01876746 -0.109976344 -0.75194734 -0.20681794 0.060379185
-0.12528929 -0.27559015 -0.05613708 -0.48872343 -0.71691906 -0.4802338 -0.07325769 -0.10896
-0.39035058 -0.17058718 -0.7494308 -0.4631226 -0.21954407 -0.43066543 -0.1360742 -0.062663056
-0.43399018 -0.086575724 -0.052932993 0.041553065 -0.59887767 -0.19231935
00000000: f079 e0be bb67 1bbf 2db9 d8be 3e80 b5be
00000010: e2b4 f1be 2b9e b9be 6577 8bbe d9d3 8abd
00000020: d024 8dbe fa1a 56be 6a2e 57bb 458d 31bf
00000030: bd47 88bd 3931 f7bd 4d85 f8be e9a0 60bd
00000040: 3452 5cbe dc8d e7bd 57bd 49be 37be 99bc
00000050: 473b e1bd 9f7f 40bf 15c8 53be 2a50 773d
00000060: d64b 00be 271a 8dbe ffef 65bd f539 fabe
00000070: 0288 37bf 34e1 f5be 2108 96bd 6c26 dfbd
00000080: 08dc c7be 68ae 2ebe b2da 3fbf 681e edbe
00000090: 29d0 60be 2e80 dcbe 0957 0bbe 7d55 80bd
000000a0: f633 debe 9d4e b1bd 44d0 58bd 8c33 2a3d
000000b0: 0c50 19bf 5def 44be

convs.1.bn2.running_mean f4 [46]
6.200034 7.3315773 1.2193894 1.617508 5.630465 4.297552 8.391376 4.3166018
3.3294547 2.644713 2.5644841 4.4424896 6.4306855 5.910567 2.9705484 3.9296887
5.7678595 5.3075023 3.327847 5.58405 2.1206388 5.702419 2.607872 2.045524
4.759996 4.9912963 2.248863 2.786539 0.2434384 5.4334874 5.2763424 19.813026
6.5414777 7.4142265 2.7756588 2.1641095 2.8183253 2.7450278 6.6689835 2.9876807
0.49940667 1.8770262 6.536224 2.9807165 4.9318995 4.3390603
00000000: ae66 c640 489c ea40 f414 9c3f 810a cf3f
00000010: c52c b440 8c85 8940 1343 0641 9a21 8a40
00000020: c915 5540 fa42 2940 8220 2440 e028 8e40
00000030: 2dc8 cd40 5d23 bd40 771d 3e40 0580 7b40
00000040: 4e92 b840 0fd7 a940 72fb 5440 8ab0 b240
00000050: 8cb8 0740 377a b640 60e7 2640 dde9 0240
00000060: e351 9840 b3b8 9f40 5fed 0f40 a856 3240
00000070: ea47 793e 21df ad40 ccd7 a840 1481 9e41
00000080: c953 d140 5841 ed40 65a4 3140 c580 0a40
00000090: 715f 3440 89ae 2f40 5068 d540 2936 3f40
000000a0: 3bb2 ff3e 6542 f03f bf28 d140 0fc4 3e40
000000b0: 1fd2 9d40 95d9 8a40

convs.1.bn2.running_var f4 [46]
2.0711305 97.32085 5.139283 5.9175124 239.32994 5.156124 1.4728175 59.17543
2.8062778 15.164757 10.601289 90.260765 44.976967 168.66641 28.531399 7.2782845
41.4147 19.809586 7.597154 10.0514145 15.096658 45.99277 12.970822 27.593382
83.54226 148.59775 15.646449 20.016912 0.09809985 35.84763 5.390509 25.413437
6.492736 297.97842 32.729443 2.1429727 12.283916 17.703995 10.551703 8.135064
0.58964854 8.900951 31.907196 13.244234 1.1769623 10.358772
00000000: 678d 0440 46a4 c242 0275 a440 435c bd40
00000010: 7754 6f43 f8fe a440 4985 bc3f a4b3 6c42
00000020: 0e9a 3340 d8a2 7241 e19e 2941 8385 b442
00000030: 6ae8 3342 9aaa 2843 4e40 e441 b5e7 e840
00000040: a7a8 2542 087a 9e41 e31b f340 98d2 2041
00000050: e98b 7141 99f8 3742 7d88 4f41 3fbf dc41
00000060: a315 a742 0699 1443 db57 7a41 a322 a041
00000070: 93e8 c83d f963 0f42 0d7f ac40 b84e cb41
00000080: 7ec4 cf40 3dfd 9443 f3ea 0242 7726 0940
00000090: ec8a 4441 c8a1 8d41 c7d3 2841 3929 0241
000000a0: 35f3 163f 4c6a 0e41 f041 ff41 62e8 5341
000000b0: b3a6 963f 88bd 2541
